models/episodes_3000/team_goal_center/PPOAgent/model.pt (torch, 168423 bytes, 33 tensors)

feature_extractor.0.weight f4 [64, 2]
00000000: e4a2 423e ebdd 303e e6af fa3d e361 0abe
00000010: 9ae0 d6be cbc8 4a3e 314a e9be 9aa3 0c3f
00000020: 1371 e7be 6c69 d83e 9a5c ce3e b3e7 24be
00000030: 8687 463e a759 c03e b65a ef3d 2255 e5bd
00000040: b3ad d6be 024b e83b 6c32 eabe 8dbd 3dbe
00000050: c0e4 8e3e 39a2 ca3d 43fb bc3e c93b c03e
00000060: 7c6e cfbd b88e 1b3f a834 113f 533b 933c
00000070: b000 c03e 65b2 263e 877e 283f cb69 8fbe
00000080: f7fb 00bf 4ed1 3c3f 7efb 123f 2962 1ebf
00000090: cbe6 a8be 29ba c5be 3663 063e c470 7e3e
000000a0: 7427 573e e0f7 e23e d962 e4be 9e5b 06be
000000b0: c096 5abe 8fb7 1e3f 39ae 013f 0d12 163e
000000c0: 1298 0a3f 3461 353f 7099 05bf d087 063f
000000d0: 3b4a f83e bf18 11be 35f1 293e 3f68 18bf
000000e0: 7e72 163e a5cc c13e 8102 57be 591e 883e
000000f0: 9319 143f e163 6ebd 3a11 41be 5930 cc3e
00000100: d6f0 2b3f e8e4 c2be b224 6dbe cef6 01bf
00000110: b347 af3e 33b0 f9be 12db 9e3e cb41 86be
00000120: 3436 303f 62aa 1fbf d621 3bbf 4261 b33e
00000130: aee5 15bf 3fbc 383e 1be9 3dbe 8ea3 d0be
00000140: 130e eebe b796 013f f47a c7be 25d5 10be
00000150: 081a 303e 9f8e 65be 2c3f 2dbf 5dbc 16be
00000160: de14 a3bd 34b9 e0be abed b93c 77cc 4abf
00000170: 0e8d 953d f085 cdbc 7437 193f 7a4c 90be
00000180: 0ecb 21bf edd6 013e 8e7f 54be 0ea9 223f
00000190: da91 bbbd 1b60 debe d35b adbe fbc6 1e3f
000001a0: b6a3 bd3c fe74 f23e 7112 2cbf 269c 403e
000001b0: db75 34be ab6e 9f3e 42aa ab3e 950e 183f
000001c0: cea5 26bf 612b 07bf 2838 e73e acc4 d4be
000001d0: c6f4 11be 63fd b93d f207 1fbf fbf1 103f
000001e0: 9eec 4abf deeb 9e3e 639a 5ebf e270 193e
000001f0: 89bc 41be 163b 473d a404 2e3f 0c97 c7be
0.1900745 0.17272155 0.12240581 -0.13513903 -0.41968232 0.19803159 -0.45564416 0.54937136
-0.45203456 0.4226793 0.40305024 -0.16104011 0.19387636 0.375684 0.116872236 -0.111978784
-0.41929397 0.0070890198 -0.45741594 -0.18529339 0.27908897 0.09894223 0.36910447 0.37545612
-0.10128495 0.60764647 0.5672097 0.017972624 0.37500525 0.1627899 0.65818065 -0.280104
-0.5038447 0.73756874 0.57414997 -0.6186853 -0.3298858 -0.3861859 0.13123783 0.24847704
0.21011144 0.4432974 -0.44606665 -0.13120887 -0.21346569 0.6199884 0.5065647 0.14655323
0.5413829 0.70851445 -0.5218725 0.52550983 0.48494133 -0.14169596 0.1659592 -0.59534067
0.14692113 0.37851444 -0.20997049 0.26585653 0.57851523 -0.05820072 -0.18854228 0.39880636
0.6716436 -0.38065267 -0.2315853 -0.5076722 0.3423439 -0.48767242 0.31026512 -0.2622207
0.6883271 -0.6236936 -0.73098505 0.3503514 -0.5855359 0.1804056 -0.18545954 -0.40749782
-0.46495113 0.506206 -0.38960993 -0.14143808 0.1719743 -0.22417687 -0.6767452 -0.14720292
-0.079629645 -0.438913 0.022696337 -0.7921824 0.07302295 -0.02508828 0.5985024 -0.28183347
-0.6320046 0.12679644 -0.20751783 0.63539207 -0.09158678 -0.43432698 -0.3385912 0.6202237
0.023149353 0.47354883 -0.6721564 0.18809566 -0.17623083 0.3113912 0.33528334 0.5939725
-0.6509675 -0.52800566 0.4516003 -0.415563 -0.1425353 0.09081533 -0.621215 0.5661923
-0.792673 0.31039327 -0.86954325 0.14984468 -0.18919577 0.048640333 0.6797583 -0.38982427

feature_extractor.0.bias f4 [64]
00000000: d1aa 5ebf 3db5 263e 9349 b9be e470 9f3d
00000010: 6ed3 033f 066c 303f e582 4d3e 4307 34bf
00000020: e6c0 6b3f 4396 bdbe 649c 8a3e 3300 bdbe
00000030: 8422 1e3f a0bf e73e 6be1 38bf 7f35 1dbf
00000040: a636 0ebf 5bff 3dbf 0189 97be 2966 81be
00000050: ecdf c23e 07f2 8dbe 98ad 493f cd65 3cbf
00000060: 825d 66bf 31f8 373f 3290 e43e 2159 243f
00000070: e321 15bf db92 ef3d 3be6 b5be 4822 e93e
00000080: 3f4d b23e b702 d3be 90c7 123f 2a87 ef3e
00000090: fe88 3cbe e705 9abe 2a33 ea3e 902c 683e
000000a0: 8248 813e 8381 24bc c56f 183f 9ea3 89be
000000b0: 16f2 95bd e028 fb3e dfe1 f23d 46ba 10bf
000000c0: eaf1 303f a390 23bf 4c7e 3fba aaf2 9abe
000000d0: 81c8 413f 68ba 9dbe 71bd 2e3f 6822 57bf
000000e0: 763c b2be 1d1e f63e ed59 473f 3951 673f
000000f0: d060 b3ba 00bf 86be ea92 9bbe 342e a9be
-0.86979395 0.16280074 -0.36188945 0.07785204 0.5149449 0.6891483 0.20069464 -0.7032358
0.92091215 -0.37028703 0.27072442 -0.36914214 0.61771417 0.45263386 -0.7221896 -0.61409754
-0.55552137 -0.74217767 -0.29596713 -0.25273255 0.38061464 -0.27723715 0.7878051 -0.73592836
-0.8998643 0.71863085 0.44641262 0.641985 -0.5825483 0.11697932 -0.35527214 0.45533967
0.3482456 -0.4121301 0.5733576 0.4678281 -0.18411633 -0.30082628 0.4574216 0.22673249
0.25250632 -0.010040644 0.59545547 -0.26882643 -0.07321565 0.49054623 0.11859488 -0.5653423
0.6911913 -0.63892573 -0.00073048915 -0.30263263 0.7569657 -0.3080628 0.68257815 -0.84036875
-0.34811753 0.4806985 0.7787159 0.9035831 -0.0013685469 -0.26317596 -0.30385524 -0.33043063

feature_extractor.2.weight f4 [64, 64]
00000000: dc87 c1be b424 2dba e1b6 5b3d b24e b53d
00000010: 39b5 febb 1fc9 a63d 42bc 90bd 355d a53d
00000020: ac8f 8d3e 1892 50bd 5108 ac3d afea 573a
00000030: 9e5f 7abd 2e19 b03d 7a58 85bd d5eb fbbd
00000040: 9348 f1bd 147b 03bc b0f0 02bc ff52 babd
00000050: c804 29bb 00b7 5fbb 3504 f23d 107a 8f3b
00000060: 2783 1abe 5133 c53d 810b 103e 3f8d 6d3e
00000070: 6e59 10bc 76b0 86bd 3877 4dbd d178 fdbc
00000080: ecbd 663d 9c31 d53d cfdf 3a3e 7022 513e
00000090: c4ea bbbd a87c 1c3d 6d5b f83d 3986 423e
000000a0: 3a57 d3bc a833 aa3d 9899 a43e b817 3a3d
000000b0: 24d5 a2bd fa36 973e 0564 623d 46c7 1abd
000000c0: bd8f 793e a668 72be c679 993d bdf6 00bd
000000d0: 77c3 15bd 6887 b7bc 89d7 8c3d 4eaf a3bd
000000e0: 4a79 f4bd 18b7 3b3e 3e40 1e3e 2d4f 243e
000000f0: d271 9c3d 57a4 99bd d0f0 a2bc a82b 1cbd
00000100: fc6f c0bd 2075 683c 40e7 66bd acc6 bd3d
00000110: 2e93 903d bec7 d2bd 5e8b 9ebd 1682 9fbd
00000120: c0cb 693d 10a7 f3bd 64c1 043d 70db 91bd
00000130: d8da 923c f8ea 933c 9062 abbc c0f1 163d
00000140: 7863 d1bc 880b 613d 7e2b fc3d 7417 e4bd
00000150: 8e53 b93d 3a83 e63d 8081 c2ba f0f3 923c
00000160: a807 fd3d 00d0 ddbd d87d b3bd c0c2 a5bc
00000170: d0a1 4ebc 24ff e53d b41b 4bbd 7a7b e5bd
00000180: 1098 78bc f087 80bc 5838 c3bc 0cff 9e3d
00000190: 9091 9e3d e072 9a3b 64b0 883d 22cd c23d
000001a0: 604a e8bb fccf b4bd b85e 9a3c 0830 6d3d
000001b0: 68a0 ad3c d847 e2bd 7048 01bd 1654 b6bd
000001c0: 504a eabc 6448 34bd 1a42 8cbd 40b6 773c
000001d0: fc68 77bd 64a4 8dbd a012 8dbb e001 573c
000001e0: 9489 1f3d c088 ffbc a07a 46bc 90d9 2dbd
000001f0: e0cc 5e3c 4082 703b c4f1 393d 849e bebd
00000200: 7010 12be a255 1bbd 5639 e43d 0f20 8fbd
00000210: 9aa0 603c 53bc 8a3a 7ea1 133e d16a daba
00000220: f425 823d ec3c fabd b0ab 983b bb82 c33c
00000230: 449f a3bd 0c96 a93d a493 e8bd ae83 003e
00000240: 1305 14be bd72 9a3c 007c 9f3a 0e60 18bd
00000250: 3fe7 053e b8bf 923d 4f7d 993d ce80 e9bd
00000260: 7d56 c03c fa59 9c3c b1d0 263e abb8 8e3e
00000270: 17f0 3abe c9fd d33d 7964 a1bd e3dc d93c
00000280: 845e 3e3e d85f bd3d 20ea 5c3e 80c6 233e
00000290: ea69 aa3d 0493 a5bd fd1a 853c df44 6c3e
000002a0: 8229 92bc 3cfc ebbd f803 e33d f499 ec3d
000002b0: b40c b63d 8247 a83e 4ec9 fa3b 5b96 0b3b
000002c0: 6de4 313e 803a 66be 12f7 d2bd 4f56 69be
000002d0: e883 21bd fc4a 273e 66ac 25bd 5a60 303c
000002e0: 904b 7c3d ff11 4a3d 61c8 8f3d 937c 983d
000002f0: 4d54 83bd d2ea 383e 7c15 8abd 49cf a3bd
00000300: 7377 81bd 9442 4d3e 4568 843d 5fd7 3cbe
00000310: 8557 2abe a3db 1f3e dabe 6a3c b937 d9bd
00000320: e8d4 e03d 08e4 b83d 0da3 e03c e748 053e
00000330: 4d0f b6bd 4cea 0d3e e1b2 93bd 6400 503e
00000340: 252b ebbd 9174 9fba 6e8f 98bd 981f 043d
00000350: c348 c93d 689e 40bd 3f26 b53d 1a83 af3d
00000360: 2db4 e93d eb56 6abe faf5 4f3d 2c26 1dbd
00000370: 9b07 39bd afb4 11be 1aea d93c f26b a43d
00000380: 6e20 8d3d 9490 f63d be29 713e 1d14 2f3e
00000390: 03bf 923e d8a0 5fbc 0821 2dbe 7a9a 47bd
000003a0: 3a10 5dbe 7855 c63c 0954 a33d 3436 753d
000003b0: 20b5 ad3b 3f3f 56bd 9df0 e53d 2681 173e
000003c0: 5db1 dcbd 0d79 28be 404a ccbb 35cf 97be
000003d0: ebe5 b1bd fdad 903d 4e38 81bd be6b 523b
000003e0: 200b bbbd 6ef4 823d e224 03be 7630 79be
000003f0: ebfd adbe 5976 b5bd 8039 55bd 2edc 183d
-0.37798965 -0.00066048955 0.053641204 0.088529006 -0.0077730683 0.081438296 -0.07067157 0.080744185
0.27648675 -0.050920576 0.08400024 0.00082365697 -0.061126344 0.08598553 -0.06511016 -0.12300841
-0.117814206 -0.00802495 -0.007991955 -0.090978615 -0.0025790203 -0.0034136176 0.11817209 0.0043785647
-0.15089093 0.096289285 0.14066888 0.23198412 -0.008810384 -0.06576626 -0.050162524 -0.030941399
0.056333467 0.10409853 0.18249439 0.20423293 -0.09175637 0.03820482 0.12126813 0.18996514
-0.025798429 0.08310634 0.32148433 0.045432776 -0.079508096 0.2953413 0.055271167 -0.0377877
0.24371238 -0.23672733 0.074939296 -0.031485308 -0.036563363 -0.022403434 0.068770476 -0.07992421
-0.119371966 0.18331563 0.15454194 0.16045828 0.07638897 -0.075020485 -0.019890219 -0.03812757
-0.09396359 0.014188081 -0.05637288 0.09266409 0.07059322 -0.10292004 -0.07741426 -0.07788484
0.057079077 -0.11897099 0.032410994 -0.071219325 0.017926618 0.018056378 -0.020921022 0.036851645
-0.025560126 0.054942638 0.12312983 -0.11137286 0.0904914 0.11255498 -0.0014839619 0.017938584
0.12354976 -0.108306885 -0.08764237 -0.020234466 -0.012611821 0.11230305 -0.049586967 -0.11205192
-0.015172973 -0.01568982 -0.023830578 0.0776349 0.077426076 0.004713401 0.06674269 0.09511782
-0.0070889443 -0.08828732 0.018843994 0.057907134 0.021194652 -0.11048859 -0.031563222 -0.08902757
-0.028599888 -0.04401435 -0.06848545 0.015119135 -0.060402855 -0.06916121 -0.004305199 0.013123006
0.038949564 -0.031193137 -0.012114197 -0.042443812 0.013598651 0.0036698729 0.04539658 -0.09307578
-0.14264083 -0.037923463 0.111437485 -0.069885366 0.013710165 0.001058469 0.14417073 -0.0016663914
0.06354895 -0.12218651 0.0046591386 0.023866048 -0.07989362 0.08280572 -0.11356285 0.12550232
-0.1445506 0.01885354 0.0012167692 -0.03720098 0.13076495 0.07165474 0.07494604 -0.11401521
0.02347874 0.019085873 0.16290547 0.27875265 -0.1825565 0.1035114 -0.07880492 0.026594585
0.18590742 0.09246796 0.21573687 0.1599369 0.08320983 -0.08084682 0.01624822 0.23073147
-0.017842058 -0.11522719 0.11084741 0.11552802 0.08889142 0.32867056 0.007653392 0.0021299336
0.17372294 -0.22483253 -0.10301031 -0.2278683 -0.039432436 0.16337198 -0.040447615 0.0107651595
0.0615955 0.04933357 0.07020641 0.07445636 -0.064125635 0.18058327 -0.06742379 -0.07998521
-0.06321611 0.20044929 0.064652 -0.18441533 -0.16634949 0.15611129 0.014327729 -0.106063314
0.10978109 0.090278685 0.027421499 0.13016091 -0.08889637 0.13858908 -0.07211853 0.20312649
-0.114828385 -0.0012165477 -0.07449232 0.032256693 0.09828331 -0.047026068 0.088451855 0.085699275
0.11411319 -0.22884719 0.05077169 -0.03836648 -0.04517327 -0.14229082 0.026600886 0.080284014
0.06890951 0.12039295 0.2355108 0.17097516 0.28661355 -0.013649188 -0.16907132 -0.048731305
-0.21588221 0.024210677 0.07975013 0.059866145 0.005301133 -0.05230641 0.11227534 0.1479536
-0.10776017 -0.16452427 -0.006234437 -0.29650274 -0.086864315 0.07064436 -0.063095674 0.0032107676
-0.09132981 0.063942775 -0.12807038 -0.24334893 -0.33982787 -0.08860464 -0.05205679 0.037319355

feature_extractor.2.bias f4 [64]
00000000: 9530 ab3e f0b2 c03d bcdd 4c3e 8adb 123e
00000010: d8ae bebd 1e42 213e 5f8b a33d 6f01 00bd
00000020: 6cc3 0dbd b5bb cfbd 5836 de3d 3039 113e
00000030: cec0 06be 7bcf 0fbd cc4d 833e 36d9 843e
00000040: 5ef4 813e ce4c 813e 84ad d53d 2680 cfbd
00000050: 406b 963d 6e08 d6bd 961a babd 3f4a 173e
00000060: cee8 193e c3ac fdbd c244 363e 9ad2 6cbd
00000070: 8619 b1bd 91fd ab3d 9390 1a3d 8447 453e
00000080: 783a 1b3e 12f3 c1bd 08c1 84bc d281 a8bd
00000090: 333c 41be 6ddc 293e 0441 cabd 49ba 3b3e
000000a0: bcba dabd f5c6 613e b079 86bc 8b1e f53d
000000b0: 020d 0fbe f2ce 723d 27ee 08be 7fbf c53d
000000c0: 604d 213c 3c14 d3bb 7d0b 463d ab78 4d3e
000000d0: b16b 1bbd c4e9 c0bc 70be a2bd eb82 823e
000000e0: 0a0e 263e 469a 7bbd 7fb3 81bd ac8f 0e3d
000000f0: 020b 543e 43f0 8a3d dba5 30be 1180 ea3d
0.33435503 0.094091296 0.2000646 0.1434156 -0.093106925 0.15747878 0.07985567 -0.031251367
-0.034610197 -0.10143224 0.10850209 0.14181972 -0.13159487 -0.03510998 0.25645292 0.2594697
0.2538175 0.2525391 0.10433486 -0.10131864 0.07344675 -0.104508266 -0.09087102 0.14774416
0.15030214 -0.12386467 0.17799667 -0.057818033 -0.08647446 0.08397973 0.037735533 0.19265562
0.15159023 -0.0947019 -0.016205326 -0.08227886 -0.1887062 0.16587992 -0.09875682 0.18332781
-0.10680148 0.22048552 -0.016415447 0.11968716 -0.13969806 0.05927939 -0.13372098 0.096556656
0.009845108 -0.006441621 0.0483508 0.20065562 -0.0379445 -0.023548968 -0.07946479 0.25490507
0.16216293 -0.061426423 -0.06333064 0.034804985 0.20707324 0.067841075 -0.17250769 0.11450208

actor.0.weight f4 [64, 64]
00000000: 9b06 183e c0e0 3c3b 799b 143e 8d89 383e
00000010: 2011 e93c 63dd e03d 76f6 9b3d 3f8d 823d
00000020: 7075 44bd 5c8b debc ac14 54bd c124 393e
00000030: fbad c3bd 14d9 31be 4df2 bf3e cc56 a33e
00000040: 1d7d 9e3e 4825 a63e 772c f03d dc55 40bd
00000050: 083d b53d 0ad0 ffbd 4c97 07bd b1b1 0b3d
00000060: 4468 b0bd f802 cebd 733d 343e 847e a4bc
00000070: ed2a 2c3d 2bbf 843c 90de 16bd 9ddc 433e
00000080: 9137 523e 0c9e 613d fade 9cbd 40b2 723c
00000090: 66b1 1cbe 132d 3a3d cfad afbd f116 e23e
000000a0: 2dac 41bd 94d6 833e 24a6 d4bd c127 d83c
000000b0: 6d52 24be 85a4 153e d3e8 2cbd 0091 51bd
000000c0: 48dd fcbc 25d8 19bd e406 f93d 280f d63c
000000d0: 62dd 32bd cc32 47bd c89e bbbc fa44 f83d
000000e0: bb44 91bd a063 b43d 12d7 b9bd d0cc e73c
000000f0: 624a 933d e80c acbd e0f9 6cbd ba31 ed3d
00000100: 9518 ec3d dac1 b9bd 5b54 f1bc cca9 2abd
00000110: 54f4 413d 34a7 afbd 8033 b23a 1080 47bd
00000120: a0af 2e3d 164c aebd 5a16 a8bd 17c0 15bc
00000130: 48b9 003d 76ef babd d595 ac3d 00f3 07ba
00000140: cb56 8e3b 6341 ecbc e20f dcbd 76cf 99bd
00000150: b5bb 42bd fc69 df3d 1852 c93c edce 073d
00000160: 92fd 0b3d eef7 e93d 2de3 e53c 6857 8abd
00000170: ac08 40bd f29e 173d 6cdc db3d d24e b4bc
00000180: 0943 c2bc 000a 1b3d f0df 3f3d b0ca 7bbd
00000190: 84da 84bd 1d25 acbd 7da1 97bd d8be b63b
000001a0: 1cba 57bd 5102 ba3d 58a5 b5bc df88 ebbd
000001b0: c232 743d d8ca 00be 7ae8 14be 0a7e 40bc
000001c0: d428 49bd 973c f23c 1938 0bbe e736 2839
000001d0: 334b a8bb c664 f33c 8a6e e83d ba69 97bd
000001e0: e41f c0bd 06c8 81bd f437 b5bd 2451 70bd
000001f0: d72c 843d c593 5e3b 98a1 cc3d ac61 453c
00000200: c40a b1bd f6e9 bfbd b699 b73d 63e1 873d
00000210: 040c f0bd 8e9e fabd 8019 5dbb 6ad1 8c3d
00000220: 1ebd b83d 5336 f93c 9c99 89bd 0862 2bbd
00000230: e712 db3d 82c4 1bbc 1df2 9abd 27a7 ce3d
00000240: f310 083d ceb4 9ebd 2c6b edbd e021 d6bc
00000250: 5274 673d a203 a33d c00e 4fbb a106 c73d
00000260: 5f67 b43d 20ab 38bc a84d f1bd a83d b6bc
00000270: 2f62 09be c716 413c ed83 403d 69e2 923c
00000280: 9d40 df3d 7098 3ebc 34af 943d 3487 1dbd
00000290: c0d1 cbbd 7a08 bebd 6ee1 15be 9cb7 de3d
000002a0: 100c 4abd 78d6 14bd bc1d c0bd 7dbe 08be
000002b0: aa7d 9dbd d6b0 6c3b 85ba dfbd 878a 683d
000002c0: 52f7 a93d 6c56 98bd 9a6e babd 8da5 c1bd
000002d0: a347 4139 3579 4b3c ea38 e93d cfed 073e
000002e0: c085 8d3d 2825 8eba dc6d 50bc 1c35 e83d
000002f0: 4611 d3bd d7d7 00be 0042 21ba 093b 873d
00000300: 295a 2e3e 006d d4ba 90df a3bd 7dea d6bd
00000310: d4d6 68bd 63a4 a43d b8c8 7c3c 2b15 7ebd
00000320: 8816 bcbc c670 9e3d 4036 afbb ad9b be3d
00000330: 0812 d4bc 4c23 013e bf1f 8c3e 04dc 683e
00000340: 2dcc 3f3e 4f78 333e 301d f6bd 20a2 4cbd
00000350: 746e f63d 9c40 b93d 90bf b33c d403 deb9
00000360: 716c abbd da5c 363d ed30 adbb bfe7 5dbd
00000370: d604 a73d 4667 86bd e217 cbbd 7ca7 fc3d
00000380: 904f 03be 8c38 e53d 54dc ea3d e4a0 59bd
00000390: 8527 ad3c 22f6 c3bd be09 5bbd 57e5 383e
000003a0: c09d e83c 88be cc3b e8ab ca3d d78a 913d
000003b0: a4f6 14be aaa3 0fbd ef19 6bbd 7929 503c
000003c0: 4084 c0bd 1953 8d3d c0a5 9e3d 32ff 3b3e
000003d0: b1cb 193d c447 63bd e673 e63d d460 103e
000003e0: fa32 b43d 7fef db3c 0fa2 57bd 78a0 4abd
000003f0: 2e8c 2c3e ffa4 17bc b694 6cbd cb26 f4bd
0.1484627 0.0028820485 0.14512433 0.18021221 0.028450549 0.10979726 0.07615368 0.06374597
-0.04796356 -0.027166061 -0.051777527 0.18080427 -0.095546685 -0.17367965 0.37489548 0.31902158
0.3095483 0.32450318 0.11727231 -0.046956882 0.088495314 -0.12490852 -0.033103272 0.034105007
-0.08613637 -0.1005916 0.17601566 -0.020079859 0.042033125 0.016204437 -0.036833346 0.19127126
0.2052901 0.055082366 -0.07659717 0.014813006 -0.15302047 0.045453142 -0.08578073 0.44158128
-0.04728334 0.25749648 -0.10383251 0.026386144 -0.16047068 0.1461354 -0.042214226 -0.051163673
-0.030867234 -0.037559647 0.121595174 0.026130274 -0.04366816 -0.048632428 -0.022902861 0.12122531
-0.070931874 0.088080645 -0.090742245 0.028295904 0.07191922 -0.08400899 -0.057855487 0.1158175
0.11528126 -0.090701774 -0.02945917 -0.041665837 0.04735215 -0.08576813 0.001359567 -0.048706114
0.042647958 -0.08510606 -0.08207388 -0.009140036 0.031426698 -0.09127705 0.08427016 -0.0005186051
0.0043438426 -0.028839773 -0.10745217 -0.07510273 -0.047542293 0.10908887 0.024575278 0.033156324
0.03417737 0.11424242 0.028062427 -0.06754953 -0.04688327 0.037016816 0.107354015 -0.02201024
-0.023713605 0.037851334 0.046844423 -0.061472595 -0.06486991 -0.08405516 -0.07403848 0.0055769496
-0.052667722 0.09082473 -0.022173569 -0.115007155 0.05961872 -0.12577379 -0.14541808 -0.0117488
-0.049111202 0.029569907 -0.13595618 0.00016042181 -0.0051359176 0.029711138 0.11349209 -0.073932126
-0.09381083 -0.063369796 -0.08848563 -0.05867113 0.06453865 0.003396259 0.09991759 0.012047213
-0.086446315 -0.093707964 0.08964865 0.06634786 -0.11721042 -0.12237273 -0.0033737123 0.0687588
0.09020446 0.030421412 -0.06718752 -0.041841537 0.10696965 -0.0095073 -0.07565711 0.100904755
0.03321929 -0.077493295 -0.11592707 -0.0261392 0.056507416 0.07959677 -0.0031594485 0.09718061
0.08808779 -0.011271268 -0.1178239 -0.022246197 -0.1341636 0.011785216 0.047000814 0.017930226
0.10900996 -0.011633024 0.0725998 -0.038459018 -0.09952116 -0.092789605 -0.14636776 0.108748645
-0.04932791 -0.036337346 -0.093806714 -0.13353916 -0.07689984 0.0036116145 -0.10924248 0.056772735
0.08299126 -0.07438359 -0.09103127 -0.094554044 0.00018432601 0.012419035 0.113878086 0.1327431
0.069102764 -0.0010844814 -0.012721505 0.11338255 -0.10306029 -0.12582336 -0.00061514974 0.06603057
0.17026581 -0.0016206801 -0.080016255 -0.10493944 -0.0568455 0.08039167 0.015428714 -0.062031906
-0.022959962 0.077363536 -0.0053470433 0.093070365 -0.025887504 0.12611121 0.2736797 0.2274018
0.1873023 0.17526363 -0.12017286 -0.049959302 0.12032786 0.090455264 0.02194193 -0.00042345992
-0.08370293 0.044522144 -0.0052853734 -0.05417609 0.08155219 -0.065626666 -0.09916665 0.123366326
-0.1282332 0.11192426 0.114678055 -0.053131953 0.021137008 -0.095684305 -0.053476088 0.18056236
0.028395534 0.006248299 0.0989607 0.0710656 -0.14547211 -0.03506819 -0.05739778 0.0127052
-0.09400225 0.06900615 0.07746458 0.18359068 0.03754777 -0.055488363 0.112525746 0.14099437
0.087987855 0.0268476 -0.052644785 -0.04946944 0.1685035 -0.009255647 -0.05775901 -0.11921462

actor.0.bias f4 [64]
00000000: f19d 463e 311f b1bd 8d00 d83b 31d4 80bc
00000010: c7f4 983c e20f e83d 946f 98bd a64e d63d
00000020: 6ea5 4c3e 63e7 323d 2269 063d 65ba ef3d
00000030: 5875 953d 27f8 7c3e 94b1 06be 95bc ae3d
00000040: 4ce5 7d3d b230 50bd 4936 f7bd 6f94 e63d
00000050: 722c 5bbe db8f e33c b64a 32be d8b1 49bc
00000060: 696e 05bd 06d2 5ebc 5588 ca3d 292a 633e
00000070: 6516 3a3d 92a6 d6bd f447 00bd 4532 9a3d
00000080: a0dd 3b3c 8ff7 01be 2c0a 82bd 8a4c 59be
00000090: 2673 853d b47c 4e3e a58c 8a3e b83e dcbd
000000a0: 9350 bfbd e4b0 f0bd fe22 2dbe 48ba 2c3d
000000b0: 93ea cd3d 0a9f 16be 4b10 ef3d 4be4 9dbd
000000c0: 1c26 5e3c 1fa9 e1bd 6e5b a0bd c49f 373d
000000d0: 688b 703d 5fe9 7abe cc99 0b3e 6440 eabd
000000e0: aba4 08bc 6a35 4abe 116d a7bd 2575 6b3b
000000f0: 7d36 71bd 4663 e43d 833e 673e 190b 513e
0.19396187 -0.086485274 0.0065918625 -0.01572618 0.018671406 0.113311544 -0.07443157 0.1046422
0.19984981 0.0436777 0.032815106 0.11705474 0.07297772 0.24704038 -0.13153678 0.08532063
0.061986253 -0.05082769 -0.12070901 0.1125878 -0.21403673 0.027778557 -0.17411312 -0.012310468
-0.032576 -0.013599878 0.098892845 0.22184052 0.045431513 -0.104809895 -0.03131862 0.075291194
0.011466414 -0.12692092 -0.063495964 -0.21220604 0.065161034 0.20164758 0.27060428 -0.1075415
-0.0934154 -0.11752489 -0.1690788 0.04216984 0.10054507 -0.14709106 0.116730295 -0.07709559
0.013558891 -0.110185854 -0.07829939 0.0448301 0.0587267 -0.24503087 0.13632888 -0.11438063
-0.008340041 -0.19746938 -0.081751 0.0035927978 -0.058889855 0.111517474 0.2258244 0.2041439

actor.2.weight f4 [4, 64]
00000000: 467a 8fbe 6b02 46bd 99b1 5ebd b451 26be
00000010: 2661 42be 9612 e0bd d4c6 99be 8936 cdbd
00000020: cb3e 793d 3db2 883d c1b7 aebd 6786 063d
00000030: a5bf 893d 74d4 df3d f3c4 353e 0dd8 503e
00000040: ecdd e43d fc24 233e 060a 083d dceb 8ebe
00000050: 772e 0d3e 80bb 1abd 89eb b83d 02fc 203d
00000060: 7ca0 893b ce9f 2fbe 06ed f4be 384d e9be
00000070: 8359 253e 6b71 2a3d b292 8e3d 0796 b4be
00000080: 7801 9c3c ecb8 0bbd 2579 06be 09bd 3e3e
00000090: a60e 65be 4fd1 a1be 2816 80be d33b 41bd
000000a0: 563b 553e 4abf bb3c 59b1 0a3e 297a 823e
000000b0: 3dde 5abe 5d6e 213d 5d26 483e 0a69 5dbd
000000c0: 8606 a4bd 429a fd3c 9ad9 5abc 12bb 4f3e
000000d0: 6c45 79be 61e1 5b3d bfa8 c7bd 1735 a03d
000000e0: 85f4 cebd a13e 373e 5a8b 353c eaa8 e53d
000000f0: 0c5b ec3d c0ce 493d 7efb 61bd 3a1b 2b3e
00000100: 5023 a03e 070c e33d 9f8a 67bc 4061 293d
00000110: 92ee 213e db57 193e 6e50 7ebd b79b 9bbd
00000120: 6f49 75be c0a0 1abe e1b4 553c da90 96bd
00000130: af43 d63d 090b 9fbd 96ca 093d 2a58 c5be
00000140: ddcc 42be 1a4a bdbe 53ed d9bd e55d 2a3e
00000150: a1c5 8fbe 608d 353a cbba bbbe 7b4b 2a3d
00000160: 87ab eebd 617e 043e e369 843e 68b6 393e
00000170: 765f 63be cf48 7abe f8ee e0bd cd8c 483e
00000180: 3ca6 4dbd 45c4 f2bc cb3b 7e3d 9f6a f5bd
00000190: 1acf f33d 40d9 563e db62 453e 35a7 493d
000001a0: 2484 c1be 104d bf3d 92f3 acbe 1dea 8fbe
000001b0: 7a9d 5f3e 9bc6 a5be 12c5 4bbd 52ab 1e3d
000001c0: dde7 193c faf8 ad3d 55db 6cbe 273d acbe
000001d0: b1d2 823e 3fb0 eebd b1ff 9f3d 06f4 87be
000001e0: e8d8 32bd eaac 2cbe 665e 3cbd 572a 8c3c
000001f0: 997b 9abe 64e8 83bc 6814 8e3e 08b3 a0bd
00000200: bd2d 28bd b3bf f1bb 3a52 9c3d 734f 30be
00000210: 56b5 8f3d aa85 83be 441a 543e 6009 f93d
00000220: 7ab2 35be 00d0 56be 52ef d73c ed51 a6bd
00000230: 1f65 893d a229 a4be ddcf 9ebd 5e17 27bd
00000240: 8886 c3bd 1e3e f13d 42cb c33d b90e 5d3d
00000250: 5550 683e 4238 bc3d 1cf8 523e df9f 633c
00000260: c309 b3bb d374 013e 9854 06be 9c5d 1cbd
00000270: d2ac 2fbe 6189 6e3e 44ae 9e3d 10bf 293d
00000280: f24f f3bd cc72 3b3d 7a6d 003e 0659 883e
00000290: 73ec 01bd f5e6 a6be 68af bdbe b6dd 1ebc
000002a0: 1c9a 1a3e 7e79 2b3e 42af 0a3e ff73 9ebd
000002b0: a297 a93d 6b89 2f3e 0d46 fcbd 4bc4 9d3d
000002c0: cdcb 18bb f4f9 c5bc 757a 113e ffa4 90bd
000002d0: 2677 8a3d b100 553e 0244 e33d 3c37 3f3e
000002e0: afc5 a03d 0f2e 923e eb12 c63d 343e 843c
000002f0: 1200 3e3e 5b6c 473d 1d1a c3be a55f c3bd
00000300: 92ab 053e 3182 fcbc 148b 94bd 85e1 4f3d
00000310: 0659 6cbe 5a83 653e bae0 833e f09d ea3d
00000320: f5f3 f13d 92df 4b3e 2928 b43d 3fbf 353e
00000330: 752c 38be 159a 303e 1daf d53d 6d60 303d
00000340: b2fd fb3c afd1 3ebd 4d74 5ebd 4bf2 92be
00000350: 3944 9bbe db90 ea3d 9835 afbe ae1a 70bc
00000360: 8d59 f9bd 2438 5fbe 1545 9f3d 9226 9c3d
00000370: 60ea b53d 9fd1 acbe e01d bfbb aa91 143e
00000380: d4dd 023d 2966 78bd f677 a7be b380 8ebe
00000390: de4d d73d d238 df3d 86d4 233e 8b39 493b
000003a0: 789e 8ebe 32f3 6abe 119c 8bbe 39b1 a93c
000003b0: 4119 f4bd 5e60 56be 417f 463e a244 01be
000003c0: 6ef6 52be 2e4c 56bd 3860 153e 8391 8e3d
000003d0: eeb0 81be a344 3ebe 477a aabe 9d6e 9dbe
000003e0: 4e91 aa3d a26c a13d eee9 ae3c 89c5 a13d
000003f0: 651b 6bbe db78 e03c 0c34 683e bc31 3c3e
-0.28022975 -0.04834215 -0.05436859 -0.16242105 -0.18982372 -0.10941045 -0.30034506 -0.100201674
0.0608509 0.06674621 -0.08531142 0.03284302 0.067260064 0.10929194 0.17750911 0.20394917
0.11175141 0.15932077 0.033212684 -0.2791432 0.13787256 -0.03777647 0.090293 0.039302833
0.0042000394 -0.17150804 -0.47837085 -0.45566726 0.16147427 0.04161207 0.06961574 -0.35270712
0.01904367 -0.034111902 -0.1313215 0.18626799 -0.22368869 -0.31605002 -0.25016904 -0.047176193
0.20823416 0.022918362 0.13544215 0.25483826 -0.2137384 0.03941189 0.19545884 -0.05405525
-0.08009057 0.030957345 -0.013357544 0.20286205 -0.24342889 0.053681735 -0.09748983 0.07822626
-0.10105232 0.17894985 0.011080587 0.112138584 0.11540803 0.049269438 -0.055171482 0.16709605
0.3127694 0.110862784 -0.014132171 0.04135251 0.15813664 0.1497492 -0.062088422 -0.075980596
-0.23953794 -0.15100384 0.013043613 -0.07351847 0.10462128 -0.07765777 0.033640467 -0.38543826
-0.19023462 -0.36970598 -0.10640969 0.1663738 -0.28080466 0.00069256686 -0.3666595 0.04157589
-0.1165381 0.12938835 0.25862035 0.18135989 -0.22204384 -0.24441837 -0.1098308 0.19584961
-0.05020736 -0.029634604 0.06206874 -0.11983227 0.11904736 0.20981312 0.19275992 0.049231727
-0.37796128 0.093408704 -0.3377958 -0.28108302 0.21837416 -0.32378086 -0.049748488 0.038737603
0.009393659 0.08494754 -0.23130544 -0.33640406 0.2555137 -0.1165471 0.07812441 -0.26553363
-0.04366389 -0.16862836 -0.045988463 0.017110033 -0.30172423 -0.016102023 0.27749944 -0.078466475
-0.041059244 -0.0073775887 0.07632871 -0.17217807 0.07017009 -0.25687915 0.20713145 0.12159991
-0.17743865 -0.20977783 0.026359234 -0.08121095 0.067087404 -0.32063013 -0.077544905 -0.04079377
-0.09547144 0.11779426 0.09560253 0.05396912 0.22686894 0.09190418 0.20602459 0.013893097
-0.00546381 0.12642221 -0.13118207 -0.03817521 -0.1715577 0.23294593 0.07748082 0.041441977
-0.11880483 0.045763776 0.12541762 0.2663042 -0.031719636 -0.3259808 -0.37047887 -0.009696415
0.1509785 0.16745564 0.13543418 -0.07736968 0.08280875 0.17142265 -0.123180486 0.077034555
-0.0023314834 -0.024167039 0.1420687 -0.070627205 0.06761007 0.20801045 0.11096956 0.18673414
0.07850205 0.28550765 0.09671577 0.016142942 0.18554714 0.04868732 -0.3810586 -0.09539727
0.1305373 -0.030823799 -0.072530895 0.05075218 -0.23080835 0.22413388 0.2575739 0.114559054
0.11814109 0.19909504 0.087967224 0.17748736 -0.17985709 0.17246278 0.10433791 0.04306071
0.03076062 -0.04658669 -0.05431013 -0.2870048 -0.30325487 0.1145341 -0.34220576 -0.014654798
-0.121752836 -0.2179876 0.07776848 0.07624544 0.08882594 -0.33753678 -0.005832419 0.14508691
0.031949833 -0.060644303 -0.3270871 -0.27832565 0.10512899 0.108995095 0.1599904 0.0030704464
-0.27855277 -0.22944334 -0.27267507 0.02071439 -0.11918879 -0.20935199 0.19384481 -0.12623838
-0.20601818 -0.052318744 0.14587486 0.06961348 -0.253303 -0.1858087 -0.33296415 -0.30748454
0.08328496 0.07882048 0.02135178 0.07899005 -0.22959669 0.027401378 0.22676104 0.18378347

actor.2.bias f4 [4]
00000000: 726d 10be c6f2 623e 5542 40be 98c5 e3bc
-0.1410425 0.22162923 -0.18775304 -0.027804181

critic.0.weight f4 [64, 64]
00000000: d0fc 15bc e000 b2bc a68d af3d b82a 43bd
00000010: 60fe 98bb f44a ecbd f6ed fb3d 086d a1bd
00000020: c4ab 8cbd 00d0 a4bc 16fa e43d badd edbd
00000030: 8067 44bd c2a9 cdbd be09 bb3d 56a2 ca3d
00000040: 22da cdbd d22d f93d e062 d2bb 20a3 bd3b
00000050: 60f0 12bd 6415 ebbd f89e c53d 16ea cabd
00000060: 9077 ee3d b6b0 933d 7001 9b3d 3801 b6bd
00000070: 421b d63d b00f 66bd 44cb e4bd 32fc a63d
00000080: 1094 c03c 1cd3 cdbd e06c 94bd 2400 513d
00000090: 30e6 79bd 1c63 c0bd 52ec e83d 2080 e3bd
000000a0: 3693 87bd a0c6 2bbc 98cd bebd 80c8 caba
000000b0: 8ea2 edbd 9ca5 25bd d868 553d ae17 8bbd
000000c0: 6081 e9bd 3891 813d fa37 ca3d 8480 87bd
000000d0: 60e8 d7bd b0e5 013c ec43 09bd d47e 18bd
000000e0: 6059 7d3d d8b2 e4bd c01e 0ebc a86d 00bd
000000f0: e0a1 ecbb e82b e8bd 60d6 173c 4426 0c3d
00000100: c803 c63c 0884 f3bd 58d5 c8bc 832f 013d
00000110: e88b 76bd 70c8 ffbd 58a9 97bd 35e4 a1bd
00000120: 3896 f33d 41d0 d93d 0c5a 5f3d 1dfa afbd
00000130: 6ceb f73d 38af 0c3d 1355 93b7 a50a 77bd
00000140: 6f04 45bd ee78 44bd 9e86 de3d 6ad8 9dbd
00000150: ea8e f83d 4409 43bd b8d8 d1bc dc2d 523d
00000160: 1421 a0bd 30e2 393c 5c1d 423d a423 9f3d
00000170: 8c91 efbd 5bd1 d03d fcde 91bd 2cdb c4bd
00000180: 2d60 02be 3e54 aebd 4c76 df3d 7c33 57bd
00000190: f646 0ebe 73d6 d1bd e765 03be 4099 f9bc
000001a0: 002f c9bb f988 803d 288f a73c bbf0 ddbd
000001b0: 918c 38bd e465 0a3d 9323 83bd c805 03bd
000001c0: bcc7 9cbd 2620 61bd 318d c03d fc1d 08bc
000001d0: b055 9b3d 488e 723d 70b8 8dbc c82e 35bd
000001e0: 60b1 563d c17a c9bd 1258 d8bd d043 e8bd
000001f0: 37b9 963d 9fa6 bc3d c0e6 be3d 6cd5 063d
00000200: 9c57 a5bd 303c 783d 3aaa afbd 455d 83bd
00000210: babe 93bd 8240 e6bd 6d1d a0bd 3799 6cbc
00000220: 1ce1 b5bd c18c c9bd 9866 ea3d 1ee7 1c3d
00000230: 4c07 14bd 7e06 0c3d 86f5 debc ae0e 7abd
00000240: 62b0 f6bd c2df 9fbd c52c 913d 107f 443d
00000250: 81f9 cb3d 02f6 d3bd e055 23bd c7ab dc3d
00000260: c626 a7bc db7b 6c3c f886 21bd d2d6 f1bd
00000270: 0572 cd3d f0ff 1ebe 40f9 0f3d 4fd9 82bc
00000280: 3388 95bd cc47 403d 087e bfbd 7001 203c
00000290: 218d 343c 0634 8dbd 7494 883d 6255 903d
000002a0: 5052 233c 7bcf 733d c022 d4bd 56ab 313d
000002b0: 4dfa f83c fd72 c7bd 7116 ed3c 1220 4f3b
000002c0: f446 bd3d 9297 e2bd 4595 d0bd b72b 89bd
000002d0: a2de dabd 68af 723d 2031 873b 083b f2bd
000002e0: 49ed ffbd ce5c 3e3d 6051 c4bd 00d4 6fba
000002f0: 0aba 82bd a9b8 8fbd 1308 bcbb d7f6 06be
00000300: 7a95 71bc bc17 65bd db3f 273d c21a d33c
00000310: 082d e8bd 29c0 87bd 30b2 763d a715 ecbd
00000320: 6c83 393d eaec 0cbe bc61 ed3d 7e9f 9f3c
00000330: a08e 853c ae68 ccbc 6b9f 4abc 5078 b1bd
00000340: 53e3 413d e852 b1bc 7262 d1bd 282c 47bd
00000350: 0ac1 b03d 007c 5539 8847 633d 2510 07be
00000360: 5262 5cba 8091 ec3b e1c4 aabd 445d ac3d
00000370: 7a58 3d3b d6dc 243d a05f efbb e4c7 0dbe
00000380: fc0f ca3d 9832 343d 1486 fbbd 2ced ac3d
00000390: 2996 80bd 5a76 a33d 04f3 f6bd e31b 993d
000003a0: 701e d43d 818a 383d 12cb febd dc2e 82bd
000003b0: 1b44 833d 89ec 42bc 323c 96bd 7faa 9f3d
000003c0: d05a b0bd a8ab 6fbd 97da ca3d 0132 e8bd
000003d0: e836 f0bc 60c2 21bd 2ad3 86bd e454 3fbd
000003e0: 1ca9 17bc 846b 6c3c 9ea4 a63d 20a0 923d
000003f0: f4bb 4b3d 6471 aabd f9e2 803d 84c3 653d
-0.0091545135 -0.021728933 0.08571939 -0.04764816 -0.0046689957 -0.11537734 0.12301247 -0.07882124
-0.06868699 -0.020118713 0.111805126 -0.116145566 -0.047950268 -0.10042144 0.091327175 0.098942444
-0.10051371 0.12166943 -0.006420478 0.0057872683 -0.03587377 -0.11478689 0.096494615 -0.099079296
0.116438985 0.07211439 0.075686336 -0.08886951 0.10454418 -0.056167305 -0.11171582 0.08153571
0.023508102 -0.100500315 -0.07247329 0.051025525 -0.06101054 -0.093939036 0.113731995 -0.11108422
-0.06619875 -0.010484368 -0.09316558 -0.0015471131 -0.116032705 -0.04044114 0.05210194 -0.06791626
-0.114016294 0.063265264 0.09873958 -0.06616309 -0.10542369 0.007928297 -0.03351204 -0.037230328
0.061852813 -0.11166924 -0.008674324 -0.031354576 -0.0072214454 -0.113364995 0.00926742 0.03421618
0.024171725 -0.11890417 -0.024515793 0.03153945 -0.06019202 -0.12489402 -0.07405347 -0.07904855
0.11893886 0.106354244 0.054529235 -0.08592627 0.1210545 0.03434679 -1.7563381e-05 -0.060312886
-0.04809993 -0.04796689 0.1086552 -0.07707293 0.12136634 -0.04761626 -0.025616035 0.051313266
-0.07818809 0.011345431 0.04739128 0.0777047 -0.11697683 0.101961814 -0.07122609 -0.09612116
-0.12732 -0.08512162 0.10911235 -0.052539334 -0.13894257 -0.10245981 -0.12831841 -0.030468583
-0.006139636 0.062761255 0.020454004 -0.10836931 -0.04505593 0.033788577 -0.064032696 -0.031987935
-0.07655284 -0.0549623 0.0940193 -0.00830793 0.07584703 0.05921772 -0.01729986 -0.044234067
0.05241525 -0.098378666 -0.10563673 -0.11341059 0.07359546 0.09211468 0.09321356 0.03291838
-0.08073351 0.060604274 -0.0857739 -0.06414274 -0.072141126 -0.11242773 -0.078181125 -0.014440826
-0.08880827 -0.098413 0.114453495 0.038306348 -0.03613977 0.03418588 -0.027216684 -0.061049156
-0.12045361 -0.0780635 0.07088617 0.04797274 0.099596985 -0.10349657 -0.03987682 0.107749514
-0.02040423 0.014433826 -0.039435357 -0.11808552 0.10031513 -0.1552732 0.035149813 -0.015972761
-0.073013686 0.04694347 -0.093502104 0.009765968 0.011019976 -0.06894688 0.0666894 0.070475355
0.009968355 0.05952404 -0.103581905 0.04337629 0.03039279 -0.09738729 0.028941365 0.0031604809
0.09242049 -0.11064066 -0.10184721 -0.06697791 -0.10686995 0.05924931 0.004125729 -0.118276656
-0.124964304 0.046475224 -0.095858335 -0.0009148717 -0.063831404 -0.07017643 -0.005738267 -0.131801
-0.014745111 -0.055930838 0.04083238 0.025769595 -0.11336714 -0.066284485 0.060228527 -0.11527567
0.04529135 -0.1376225 0.11590907 0.019485231 0.01630336 -0.024952259 -0.01236711 -0.08665526
0.047335934 -0.021645978 -0.10223855 -0.048626095 0.08630569 0.00020359457 0.05548814 -0.13189752
-0.0008406985 0.0072194934 -0.08338333 0.084162265 0.0028891847 0.040249668 -0.0073051006 -0.13845783
0.0986633 0.043993562 -0.12281433 0.084436744 -0.06278641 0.07981558 -0.1205807 0.07476022
0.10357368 0.045053963 -0.12441076 -0.06356594 0.064094745 -0.011897215 -0.073357 0.077961914
-0.08611071 -0.058513314 0.09904974 -0.113376625 -0.029323056 -0.03949201 -0.06583245 -0.046711817
-0.009256627 0.014429931 0.08136867 0.07159448 0.049739793 -0.08322409 0.062932916 0.05609466

critic.0.bias f4 [64]
00000000: 849f c3bd 88de 16bd 8b45 7c3d 8ae5 83bd
00000010: aff6 513e a4e5 83be 6daa 02be 1242 943c
00000020: 5826 bfbc b5fb 67be 2bdb 143c fac9 043e
00000030: c9ba dbbd ceb2 513d dc33 cfbd e86e d9bb
00000040: fdf5 c2bd 72b7 833d d880 143e f33a 033d
00000050: 8efe a53d d0ae 243e 7e1b ed3d f5a8 28bc
00000060: 636f 993e 1e12 853d 665a 273e 7313 163e
00000070: d0be dd3d 12ea 71bd d528 e03d 4927 11bd
00000080: c259 4b3e 9d79 583e 80c2 30bc 56a0 35bd
00000090: b42d 473e a517 03be 8ddb efbd 0a51 7e3e
000000a0: c39f f83d 2e78 dd3d 28f2 5ebd 97a8 e53c
000000b0: a7d4 9c3b dec6 6dbd e4d8 4f3e 70c6 71bd
000000c0: 074c 66bd 41a7 7a3c 0935 973d 8428 0d3d
000000d0: 956a 663e 5163 8cbd 1cf4 363e 4b76 133d
000000e0: b51e 5fbd 76c1 9abd 6a4f 4abe 7405 17bd
000000f0: 81b0 123d 51fe bbbc 68f3 6a3d 1215 b8bd
-0.095519096 -0.036833316 0.06158976 -0.064402655 0.20504259 -0.2576114 -0.12760325 0.018097911
-0.023333713 -0.22654612 0.009085457 0.12967673 -0.10728986 0.051195912 -0.10117313 -0.0066355355
-0.09519575 0.06431474 0.14502275 0.03203864 0.08105193 0.1608231 0.11577509 -0.010294189
0.29967794 0.06497596 0.16343078 0.14655857 0.1082741 -0.059061117 0.10945288 -0.035437856
0.19858459 0.21140142 -0.01078856 -0.04434236 0.19451028 -0.12801988 -0.11711798 0.24835601
0.12139847 0.10813938 -0.054430157 0.028034491 0.0047860923 -0.058050983 0.20297581 -0.059027135
-0.05622485 0.0152986655 0.073831625 0.034462467 0.22501595 -0.068548806 0.17866558 0.036001485
-0.054472644 -0.07556431 -0.19756857 -0.036870435 0.03581286 -0.022948416 0.057361037 -0.08988394

critic.2.weight f4 [1, 64]
00000000: 40c0 a73c 35d7 2e3d 1ee0 2c3d fa32 573d
00000010: 66b6 a43d 83fb d0bd 3b67 4c3d d4e6 0bbd
00000020: 761a 813d c4f9 76be cbda 01be 2724 cc3d
00000030: fcf3 023d d3b7 9bbd e915 9c3d 122c 39bd
00000040: c2c7 ff3c 806e f53c bdec 983d b9ed f6bd
00000050: 3754 6c3d e854 223e f1c6 393e 4923 c6bd
00000060: 0644 ad3d 6a68 b53d 1343 0d3e 795b c9bb
00000070: 4600 dcbd 23ee 6bbe ce36 493e bcf4 85b8
00000080: 4503 5e3d 3058 f23d 5c64 0dbd 4c2e b3bd
00000090: dcd5 46be 50de d5bd 3f15 13be 3582 893d
000000a0: bfa4 123c 67a3 94bd a853 e4bd 47c5 c8bd
000000b0: 0168 96ba 761b 03bd 6f66 9abd a0d6 103d
000000c0: 1be2 653d 62fe da3d 8263 af3c 0ea4 0c3c
000000d0: 11a1 0d3d dbdd c2bd 1fc3 8f3d bed8 bebd
000000e0: 73c7 893d 004d d4bb 7b97 fdbb 240e e83d
000000f0: dd5a 103d abcd c8bd 41f7 36bb 4d53 62bd
0.020477414 0.042685706 0.042205922 0.05253885 0.08042602 -0.10204222 0.049903136 -0.03415568
0.06303875 -0.24118716 -0.12681119 0.09967833 0.031970963 -0.07603421 0.076213665 -0.045208044
0.031223182 0.029959917 0.07467029 -0.12057061 0.0576975 0.15852702 0.18142296 -0.09674699
0.0846024 0.08857806 0.13795118 -0.0061449376 -0.1074224 -0.2304006 0.19649813 -6.3875195e-05
0.054202337 0.11833227 -0.03451954 -0.08749065 -0.19417518 -0.10442793 -0.14363573 0.06714288
0.008950411 -0.07257729 -0.11148769 -0.09803253 -0.0011475087 -0.03200861 -0.07539069 0.035360932
0.056123834 0.10693051 0.021409754 0.008584036 0.034577433 -0.09514972 0.07019638 -0.09318684
0.06727495 -0.0064789057 -0.007739005 0.11330822 0.035242904 -0.09804853 -0.002791837 -0.055255223

exp_avg f4 [64, 2]
00000000: f2b5 363d ccce 323b bcd8 31bc 3f5e d9bb
00000010: 3262 c5b9 0a1b 55ba 52b4 833b 54e8 823b
00000020: e1cd fc3b a43a 0c3c 88cb 4cbc d78b 01bb
00000030: cc39 bd39 0ead 133a 0400 0000 0400 0000
00000040: 3f4d 023b 26b6 833b 0000 0000 0000 0000
00000050: ba8b efba 1afa bab9 c6cf b13b b284 3f3a
00000060: 4cbd 71bb dab4 a13a b39c bbbb 2d57 14bb
00000070: 36f9 573c 4ba3 ec3a 2099 be3b c499 97b9
00000080: 50de 11bb c0a6 3fbb f15d 303c f3d5 8d3b
00000090: 0000 0000 0000 0000 0753 a33b ab47 1e3a
000000a0: 4fd3 48bb defd 4cba 0000 0000 0000 0000
000000b0: 8d86 93ba 9c71 cf3a d74b 5f3c 076d bf38
000000c0: df69 203c 5486 813a 7503 b13b abb1 c43b
000000d0: 3feb 1fbc 8c8e 31bb b00e 63bc 7331 c2bb
000000e0: fc8e 163c 36bd 893a 7e82 073b 6a46 f83a
000000f0: d372 073c 438b cf3a 07f1 c239 00df d43a
00000100: 718d 2bbc 8dd9 aabb 0000 0000 0000 0000
00000110: 79e5 35ba a82e 973b 96a9 53bc d87c c8bb
00000120: 4a57 9abb 74e3 ccbb 42f8 38b9 1cdd 9eb9
00000130: a052 8039 0a6c 453a 9c62 9bb4 0000 0000
00000140: fd4a a53b 8899 ab3b 0000 0000 0000 0000
00000150: d969 c4bc 59ec 0bbc 0000 0000 0000 0000
00000160: 0000 0000 0000 0000 ea90 1236 0400 0000
00000170: 6c0d caba 4750 5339 bd24 733b f9e0 60ba
00000180: 7ef8 843a 7c0a 143b 6999 d0ba 7c4d 4fbb
00000190: 0000 0000 0000 0000 3749 4d3b 8b4a 353b
000001a0: d53b 6ebb abda 86ba f20a 9f34 c5bd cc3a
000001b0: 040c b5bb d908 a03a 88d0 4f3c 7108 243b
000001c0: 0000 0000 0000 0000 65da 61bc 6efc f2bb
000001d0: 5b4b 8bbc f1f8 4eba 2631 1b3c 8fcf 2d3c
000001e0: a3a6 b7b9 b457 5fba 0400 0000 9f51 5d3a
000001f0: 0000 0000 0400 0000 5039 2aba eeaa 2fbb
0.04460711 0.0027283905 -0.010854896 -0.0066335495 -0.0003764793 -0.00081293343 0.0040192986 0.003994981
0.0077149724 0.008558903 -0.0124996975 -0.001976719 0.0003609195 0.0005633392 6e-45 6e-45
0.0019882468 0.0040195165 0.0 0.0 -0.0018275895 -0.00035663025 0.00542638 0.0007305845
-0.0036886511 0.0012337223 -0.005725467 -0.0022634969 0.013181975 0.0018054036 0.0058165938 -0.0002891553
-0.0022257753 -0.0029243678 0.010764585 0.0043284832 0.0 0.0 0.004984263 0.0006037901
-0.0030643528 -0.00078198116 0.0 0.0 -0.0011255309 0.0015826705 0.0136289215 9.127898e-05
0.009790867 0.0009881952 0.0054020234 0.006002625 -0.009760677 -0.0027093021 -0.013858482 -0.005926305
0.009189364 0.001050866 0.0020677145 0.0018941883 0.008267122 0.001583435 0.00037182143 0.0016240776
-0.010470734 -0.0052139224 0.0 0.0 -0.0006938796 0.004613716 -0.01291885 -0.006118398
-0.0047101127 -0.0062527005 -0.0001764009 -0.00030300848 0.00024475623 0.00075310527 -2.8942748e-07 0.0
0.0050443397 0.005236808 0.0 0.0 -0.023976253 -0.008540236 0.0 0.0
0.0 0.0 2.1840046e-06 6e-45 -0.0015415377 0.00020152434 0.0037100755 -0.00085784454
0.0010144857 0.0022589257 -0.001591486 -0.0031631878 0.0 0.0 0.0031324157 0.002766284
-0.003635158 -0.0010288557 2.9624022e-07 0.001562052 -0.005525114 0.0012209668 0.012683995 0.0025029446
0.0 0.0 -0.0137849795 -0.007415346 -0.017003706 -0.00078953715 0.009472167 0.010608568
-0.00035028634 -0.00085198437 6e-45 0.00084426434 0.0 6e-45 -0.00064935256 -0.0026804763

exp_avg_sq f4 [64, 2]
00000000: e837 453c b49d f83b 2ec1 283a a047 003a
00000010: a1e5 3636 bfb1 b338 c3ba 3a3a dab1 403a
00000020: 28b6 ce3a 4966 da3a 9238 5c3a 26f0 093a
00000030: 25b4 5c37 d260 7037 8646 f211 1482 a20e
00000040: 206c 1539 ff23 f83a 0000 0000 0000 0000
00000050: ce73 3038 a746 aa37 2b05 8439 b1c0 3939
00000060: d05a e339 47d4 b839 17e9 6439 e479 3a39
00000070: c7cd 863a c7cb 473a 5bec 503a 27d0 043a
00000080: 1b21 5839 5602 f139 b70e 9e39 1cde 4d38
00000090: 0000 0000 0000 0000 ab09 5739 68d7 e138
000000a0: ed0c 0738 0708 1038 0000 0000 0000 0000
000000b0: d919 4439 0743 3839 acf6 af3a 910f 6a3a
000000c0: d570 653a 1a78 113a 8d0e 303a 4335 383a
000000d0: 995e 193a f01e fd39 a802 803a e27b 2b39
000000e0: ce6e 1e3a a7a7 de39 37ee 9639 e9bc 9e39
000000f0: 931d 333a a6e7 d239 edfe 1239 4310 1339
00000100: 6bed 2c3a 8f4e fa39 0000 0000 0000 0000
00000110: e139 ba3a f93f 9a3a 80e7 5a3a f405 0a3a
00000120: 1b6d f53a 0958 f23a 1fc6 0835 a117 8c37
00000130: b429 ab36 75fc 8538 b1d7 cc30 0000 0000
00000140: e307 863a 68cd 863a 0000 0000 0000 0000
00000150: 3ea2 413b b4ca ab3a 0000 0000 0000 0000
00000160: 0000 0000 0000 0000 7582 bf37 19fd 8632
00000170: 0ce4 9f37 d42f 7a37 529f 143a 920d c939
00000180: 24b7 8f37 62c2 043a f511 6b3a f21e de3a
00000190: 0000 0000 0000 0000 be37 b93a 29b0 da3a
000001a0: 223a 6338 f9d2 3d38 1207 9334 30ca 4039
000001b0: ed0e 273a a4cc ff39 9b1b 723a 86a3 223a
000001c0: 0000 0000 0000 0000 841f bb3a 3957 8c3a
000001d0: c20d 243b 2b21 033b 4f23 f53a f879 093b
000001e0: 8497 0f36 7948 8138 8c28 1826 52b8 4c38
000001f0: 0000 0000 b608 a40d ce9a c639 fc51 b739
0.012037255 0.007587159 0.00064374774 0.00048934855 2.7253775e-06 8.568493e-05 0.00071231666 0.00073507207
0.001577084 0.0016662563 0.00084007636 0.000526192 1.3154965e-05 1.43276575e-05 3.8224331e-28 4.0061344e-30
0.00014250027 0.0018931626 0.0 0.0 4.206952e-05 2.029848e-05 0.00025180852 0.00017714758
0.00043364475 0.00035253374 0.00021830607 0.0001778375 0.0010284715 0.0007621613 0.000796979 0.00050664175
0.00020611698 0.00045968842 0.00030147072 4.9082664e-05 0.0 0.0 0.000205076 0.000107689586
3.2198546e-05 3.433975e-05 0.0 0.0 0.00018701646 0.00017572577 0.0013424954 0.0008928711
0.000875247 0.00055492076 0.00067160354 0.00070269796 0.0005850583 0.0004827897 0.0009766417 0.00016353981
0.0006043733 0.0004246805 0.00028787713 0.00030276857 0.0006832715 0.00040226913 0.00014018612 0.0001402507
0.00065966573 0.00047742247 0.0 0.0 0.0014207923 0.0011768333 0.0008350536 0.00052651693
0.0018724533 0.0018489371 5.095225e-07 1.6700304e-05 5.101052e-06 6.388958e-05 1.4904257e-09 0.0
0.0010225739 0.0010284605 0.0 0.0 0.0029546167 0.0013106675 0.0 0.0
0.0 0.0 2.2829723e-05 1.5714749e-08 1.906047e-05 1.4912297e-05 0.00056694925 0.00038347818
1.713221e-05 0.00050643657 0.00089672144 0.0016946478 0.0 0.0 0.0014130992 0.001668458
5.4175158e-05 4.5257595e-05 2.7386028e-07 0.00018385868 0.00063727685 0.0004878986 0.0009235681 0.00062041765
0.0 0.0 0.001427636 0.0010707147 0.0025032614 0.0020008783 0.0018702539 0.002097724
2.1396854e-06 6.1646984e-05 5.2790545e-16 4.880905e-05 0.0 1.0109377e-30 0.0003788084 0.00034965563

exp_avg f4 [64]
00000000: 3e6c c93b bfdc 04bb 9734 6bb9 d0c5 1b3a
00000010: 7cf5 ca3a 50b8 fcba 01ab 4a38 0400 0000
00000020: 42e0 853a 0000 0000 3dbe 9ab9 c6c3 863a
00000030: e426 27ba 4e24 80ba d0e4 003b ff72 af3a
00000040: 0637 59ba 6461 0f3b 0000 0000 8da2 4d3a
00000050: 38fc 0fba 0000 0000 2d72 eab8 0392 fa3a
00000060: 86a5 d53a 1b31 983a 1d61 b7ba e06d 49bb
00000070: 7f35 bb3a cfb5 6b39 bc84 e93a 641f a538
00000080: f726 e8ba 0000 0000 50f7 e939 1920 20bb
00000090: 30ef eab9 2dbb 65b8 5c87 9639 6a2e 9237
000000a0: 93e9 5f3a 0000 0000 8adc 97bb 0000 0000
000000b0: 0000 0000 9aec 9c37 13ca 38b9 a32f 753a
000000c0: 2fab 273a c9c9 a8ba 0000 0000 97eb 4939
000000d0: 631d 1eba 9d89 b839 a119 75ba 30a1 073b
000000e0: 0000 0000 a5c3 2abb 1734 3dbb ac0c 093b
000000f0: efe5 73b9 b7b7 4639 0400 0000 f56e fe37
0.0061469367 -0.0020273176 -0.00022430938 0.0005942257 0.0015484537 -0.0019281004 4.8319813e-05 6e-45
0.0010213929 0.0 -0.00029514908 0.0010281734 -0.00063763396 -0.0009776445 0.0019667633 0.0013385712
-0.0008286092 0.0021878118 0.0 0.00078443513 -0.00054926006 0.0 -0.000111792564 0.0019117001
0.001629994 0.0011611314 -0.0013990734 -0.0030735657 0.0014282911 0.00022479075 0.0017816047 7.87366e-05
-0.0017711808 0.0 0.00044625485 -0.0024433194 -0.00044810167 -5.4772176e-05 0.0002871108 1.742617e-05
0.000854158 0.0 -0.0046344446 0.0 0.0 1.8706825e-05 -0.00017622886 0.0009353107
0.0006396053 -0.001287752 0.0 0.00019256618 -0.00060316006 0.00035197745 -0.00093498273 0.002069544
0.0 -0.0026056555 -0.002887016 0.0020912094 -0.00023259943 0.0001895119 6e-45 3.0330828e-05

exp_avg_sq f4 [64]
00000000: 4815 613a ab14 6d38 49de 7f36 eacb 6038
00000010: be35 e738 76e5 8638 9c41 8d35 2997 570f
00000020: 6e00 c838 0000 0000 f703 4336 2930 9537
00000030: d6c6 f137 0609 9537 d14d ab38 a2ea 3f38
00000040: d036 0938 411a 7537 0000 0000 ccc9 7037
00000050: 026b 5136 0000 0000 ce2f 5937 ab69 ca38
00000060: 2add 7c38 3aa5 4238 407a 4a38 55a4 6a38
00000070: 04ab 4038 8eb5 bd37 e973 3938 4551 1f37
00000080: eb2a 5b38 0000 0000 7c34 1239 87ef 8338
00000090: b118 d538 bf2c 5935 fe19 a036 1ed4 8a34
000000a0: 74f8 9c38 0000 0000 c829 5e39 0000 0000
000000b0: 0000 0000 3f4d ac35 e86a ba35 61d2 0638
000000c0: bc61 c437 504e 0b39 0000 0000 a5e3 0739
000000d0: 18e1 9236 297b ed36 8be6 2b38 69dc 9338
000000e0: 0000 0000 4ff3 f038 45f1 4639 b60d 0c39
000000f0: e834 3e36 94fc fb35 28cf 110b 1062 bd37
0.000858624 5.652445e-05 3.8127348e-06 5.359567e-05 0.000110249486 6.432358e-05 1.0524413e-06 1.0629431e-29
9.536823e-05 0.0 2.9059572e-06 1.778461e-05 2.8822029e-05 1.7766386e-05 8.16841e-05 4.5756467e-05
3.2714393e-05 1.4609251e-05 0.0 1.4352099e-05 3.1205714e-06 0.0 1.2945338e-05 9.651793e-05
6.0287457e-05 4.6407084e-05 4.8274407e-05 5.5942994e-05 4.5935638e-05 2.2615099e-05 4.4215387e-05 9.496061e-06
5.225364e-05 0.0 0.00013943197 6.291182e-05 0.000101612306 8.0903914e-07 4.7713975e-06 2.585884e-07
7.484938e-05 0.0 0.00021187135 0.0 0.0 1.283748e-06 1.3889194e-06 3.214402e-05
2.3410532e-05 0.00013285247 0.0 0.00012959407 4.3773434e-06 7.077488e-06 4.0984287e-05 7.050561e-05
0.0 0.000114894116 0.00018972631 0.00013356548 2.8343002e-06 1.8774467e-06 2.808183e-32 2.257622e-05
