models/episodes_2/team_goal_center/PPOAgent/model.pt (torch, 168423 bytes, 33 tensors)

feature_extractor.0.weight f4 [64, 2]
000000 bb 76 12 3f 09 42 1c 3e 38 f9 e3 3e 73 59 15 be
       0.5721242 0.15259565 0.44526076 -0.14584903
000010 12 92 2e bf e4 bd 61 bc a9 ff 01 3f f2 14 4f be
       -0.68191636 -0.013778184 0.5078073 -0.20222834
000020 84 f1 a3 be 75 57 a2 3c 2b c6 00 3f a9 93 87 3e
       -0.320202 0.019817093 0.5030238 0.26479843
000030 c9 3f 1f 3f 1d 33 5c be 6b ef e8 be bf 2e 88 be
       0.62206703 -0.21503873 -0.4549516 -0.26598164
000040 ff c7 29 3f bc 01 c9 bc ea 7d f3 be 42 29 d9 3e
       0.66320795 -0.02453696 -0.47557002 0.4241429
000050 04 d7 ab be c6 42 66 3e 6e 74 a6 be 03 bb 01 3e
       -0.3356248 0.2248641 -0.32510704 0.12668996
000060 6f cd 38 3e 33 1a 62 bb 89 77 34 3f 31 62 51 3e
       0.18047117 -0.003450048 0.70494896 0.20447613
000070 6d 6a e6 3d 2e fb b6 be 18 74 3e be 0f 17 0a bf
       0.11250768 -0.3573851 -0.18598974 -0.53941435
000080 91 bf 60 3e 87 35 21 3f c0 93 87 be c9 e8 01 bf
       0.21948077 0.629723 -0.26479912 -0.50745827
000090 ed c6 1d 3f a5 aa b3 be 0b 4e 32 3f 19 98 e8 3e
       0.6163166 -0.3509113 0.69650334 0.4542854
0000a0 e2 27 78 3e 08 d8 94 3d 33 af 46 3e 26 bf ed 3e
       0.24233964 0.07267767 0.1940277 0.46434897
0000b0 37 11 58 3e 9f ea 9f be a6 23 90 3d a1 f3 22 3f
       0.21100317 -0.3123369 0.070380494 0.63653
0000c0 41 45 0d bf d7 a0 2e 3f f8 d9 2d 3f 6e 99 e9 3e
       -0.551838 0.6821417 0.6791072 0.4562487
0000d0 58 4b 0f 3f 7a 43 00 bf 71 3d e7 be 6f 30 84 3e
       0.5597434 -0.5010296 -0.45164064 0.25818202
0000e0 09 2a e6 3d ae a6 af be 1b 46 2a 3f c6 e8 30 3f
       0.11238486 -0.34306854 0.6651322 0.69105184
0000f0 bc 9a 9d 3e 23 fa 33 bf d3 ee 2d 3e d5 88 53 be
       0.30782115 -0.70303553 0.16985635 -0.20657666
000100 ed 4d 85 3a 3d f8 e1 be b5 49 bf bd e7 8f ef 3c
       0.0010170318 -0.44134703 -0.093402304 0.029243423
000110 54 7e 07 bf c2 db c2 3e f5 e3 20 3f a4 ea 45 be
       -0.52927136 0.38058287 0.62847835 -0.1932779
000120 22 4a 17 be 71 ff c2 3e 29 8d e0 be 4e b0 c8 3e
       -0.14774373 0.3808551 -0.43857697 0.3919701
000130 7e 21 90 be c8 fc 2d bf 14 a8 c8 bd 80 54 95 3e
       -0.28150553 -0.6796384 -0.09797683 0.2916603
000140 a2 e9 d0 be 8b 38 30 bf f6 58 b2 bd 0e 60 02 3f
       -0.40803248 -0.6883628 -0.08708374 0.5092782
000150 52 eb 1c bf d6 e3 1c bf b4 41 9b 3e 43 6b 9d 3d
       -0.6129657 -0.6128515 0.30323565 0.07686474
000160 a1 8e 06 bf 7d cd 1a 3f 9e 64 1f be 25 b3 91 3e
       -0.52561384 0.604698 -0.15565726 0.2845699
000170 62 85 28 3f b2 f5 07 3f 05 72 80 3e a7 44 8d 3e
       0.65828526 0.53109276 0.2508699 0.2759144
000180 07 b1 a5 3e 3e 0c e3 3e b0 42 32 3f f7 f9 17 3f
       0.32361624 0.44345278 0.6963301 0.5936579
000190 e7 2f 0e bf db 17 ee be ac f9 dd bd f1 0a 6b 3e
       -0.55541843 -0.46502575 -0.10838637 0.22953393
0001a0 a1 46 a7 be 1f cf 1c bf 44 bd 2c bf bc a7 4f be
       -0.32671073 -0.6125354 -0.67476296 -0.2027883
0001b0 62 c1 1f 3f 92 60 17 bf af 17 8d 3d 82 65 97 3e
       0.62404454 -0.5913173 0.06889283 0.29569632
0001c0 8c 6c 03 3e 99 a7 f6 3e 5d c4 27 3f 67 79 18 3f
       0.12834376 0.48174742 0.65534 0.59560245
0001d0 e5 f4 ed be 7e f3 5e be 08 9b 57 bd 12 03 91 be
       -0.46475902 -0.21772572 -0.052638084 -0.28322655
0001e0 5d 72 22 3e ba 6f 08 3f 6d ed 21 3d 94 6e 2e bf
       0.15863939 0.5329548 0.039533067 -0.6813748
0001f0 7e 4a 06 be de d2 55 bd b3 bc a6 be 73 1c c6 be
       -0.13114354 -0.05220305 -0.3256584 -0.3869358

feature_extractor.0.bias f4 [64]
000000 41 00 f9 bb 94 18 0e 3f 89 c4 e0 3e 63 87 f8 3e
       -0.007598907 0.55506253 0.43899944 0.48540792
000010 68 25 31 3d a4 b6 72 be 43 d8 8e 3e 52 2e 90 3e
       0.043248564 -0.23702484 0.2789937 0.2816034
000020 3a b2 0f 3e ea fa 5d 3e 1f 77 11 bf 39 cb 64 be
       0.14032832 0.21677747 -0.5682239 -0.22343148
000030 c9 f4 0c bf cf 98 88 be 1c fc 21 be 12 c6 a5 3c
       -0.5506101 -0.26679084 -0.15818828 0.020236049
000040 af c3 35 bf a5 bb f0 3e 9a 94 0f bf b1 6c 02 bf
       -0.71001714 0.4701816 -0.56086123 -0.509471
000050 24 43 a3 3d 2c 89 c8 3e df a6 e1 3d 98 97 3a be
       0.079717904 0.39167154 0.11018156 -0.18221891
000060 92 f0 7b be f4 d9 30 bf 9a 3d d1 bd 2b ed ba be
       -0.24603489 -0.6908257 -0.10216828 -0.3650907
000070 e6 87 e4 3e 49 23 56 3b 8a ae eb be 45 38 b1 3c
       0.44634932 0.003267484 -0.460316 0.021633277
000080 3d 42 da 3e 13 79 1c bf dc 3c eb 3e ad a9 12 3f
       0.4262866 -0.61122245 0.4594487 0.57290155
000090 e8 2b 71 3e 0c 79 5a be 89 a0 b3 be f5 48 2e bf
       0.23551905 -0.21335238 -0.35083416 -0.68080074
0000a0 5e 8a f1 3e 70 51 11 bc f2 4d 72 be 38 a0 66 be
       0.47175878 -0.008869514 -0.23662546 -0.22522056
0000b0 44 99 53 be 2e b7 06 be 50 79 03 bf c0 bc 81 bd
       -0.20663935 -0.13155815 -0.51356983 -0.06334829
0000c0 dd e3 38 be d2 b3 06 be 07 33 30 3f ae 8e 89 3c
       -0.18055673 -0.13154534 0.6882786 0.016791668
0000d0 6e 7f 09 3f 66 28 09 3f 1a 45 bb 3e 4a 44 b9 3e
       0.5371007 0.5357727 0.36576158 0.36184913
0000e0 2b 96 19 3f bb e0 09 3e 91 8b 0b bb a3 1c b3 3e
       0.59994763 0.13464634 -0.0021292905 0.34982786
0000f0 92 83 89 be bb af 17 bf 3c e1 5e 3e 4f 80 e9 3e
       -0.26858193 -0.5925252 0.21765608 0.45605704

feature_extractor.2.weight f4 [64, 64]
000000 ae 3e c6 3d 8c 05 d7 bd a0 19 21 bd aa 82 49 ba
       0.09679924 -0.10499105 -0.03933108 -0.0007687012
000010 6b 46 bd bd 8f 77 8e bc e8 e9 aa 3b 6c 8b ce bd
       -0.09241947 -0.017390994 0.005215872 -0.10085186
000020 49 76 a6 3d ef 47 85 bd 24 19 9c 3d 04 8c d4 bd
       0.0812803 -0.06507861 0.07621983 -0.10378268
000030 de ce dd bd 3e 75 c6 3d 26 dc 1a bd d8 a5 c2 3d
       -0.108304724 0.09690331 -0.037807606 0.095042884
000040 0d c0 bb bd 40 3c c1 3b 4a 1b 64 bc 13 80 e6 bb
       -0.0916749 0.005897075 -0.013922522 -0.0070343106
000050 5e b3 90 bd 7f fe d1 3d 3c 82 70 bd 13 63 b5 bd
       -0.070654616 0.102536194 -0.05871795 -0.088567875
000060 14 e2 f2 3d 6f f0 fd 3d 95 aa 42 bd b2 79 6d bd
       0.11859527 0.12399375 -0.04752596 -0.057977386
000070 61 38 c8 bd 8a bc 87 bb e9 14 ea 3c ec 48 34 bd
       -0.097763784 -0.0041423487 0.028574424 -0.044014856
000080 c5 5d 86 bc e8 2a 82 bd 9e d0 fd 3d 8d 57 db 3d
       -0.016402135 -0.0635584 0.12393306 0.10710058
000090 e4 ad 0d 3d f6 e9 98 3d e6 e7 9c 3d 9c d2 cb 3d
       0.034589663 0.074664995 0.076614186 0.0995228
0000a0 40 e6 42 3b e3 c8 7d bd 28 cf 78 bd ef 4e 94 3d
       0.002973929 -0.06195916 -0.060744435 0.07241618
0000b0 6a 38 bf bd 5c ff 6d 3a 74 2c 8f 3d f2 2b 4d 3d
       -0.09336932 0.0009078884 0.06990901 0.050090738
0000c0 f6 6d e9 bc 43 38 21 bd 14 b6 f4 bc 54 63 0d 3d
       -0.028494816 -0.039360296 -0.029871978 0.034518555
0000d0 26 54 db bd ad fc 4d 3d bd b8 f4 3d 9d 1f 9b bc
       -0.107094094 0.0502898 0.119492985 -0.018935973
0000e0 bc 4f 08 3e fd 82 6d bd 8e 7d b7 bd b2 ad b2 bd
       0.13311666 -0.05798625 -0.089594945 -0.08724536
0000f0 80 3a 98 3d e0 fc 2e 3c ec 2f 8a 3d f6 85 c0 39
       0.07433033 0.010680407 0.067474216 0.00036720902
000100 b0 45 66 bd 5f 9f 78 3d d2 ae cc 3d 80 0c 9f 3d
       -0.056218803 0.060698863 0.09994282 0.07766056
000110 14 38 1d bd f8 cd b8 3d d1 74 4e bd 34 4a 89 bd
       -0.03838356 0.090236604 -0.050404374 -0.06703606
000120 0b 92 97 bd be 6f be bd d5 35 95 bd 85 41 2a bd
       -0.07400902 -0.09298657 -0.07285658 -0.04156639
000130 bc 72 5a bd 56 0a 38 3d c8 93 a7 bd c9 ab d7 bc
       -0.053332075 0.044931732 -0.08182484 -0.02632703
000140 ea 04 f7 3c ba d9 62 bd 79 b5 e5 3d 57 e9 35 3d
       0.03015371 -0.05538342 0.11216254 0.044411983
000150 17 41 b8 bc 86 95 83 3d c0 8e b1 3b ad be a2 3d
       -0.022491975 0.06425004 0.0054186285 0.07946525
000160 18 7b 02 3d d3 b8 33 bd 1d 06 9c bd 8a 22 96 bc
       0.031855673 -0.043877434 -0.076183535 -0.018327016
000170 4c 54 da 3d 67 df 68 bd 40 7a a5 bc 19 83 25 bd
       0.106606096 -0.056853678 -0.020199895 -0.040408228
000180 d8 cb ae bd 94 72 4d 3d 94 01 c5 bd cd c3 99 bd
       -0.08534974 0.0501581 -0.09619442 -0.07508049
000190 c2 85 e1 bc b9 28 d1 3c 00 ca 34 bb b4 0e 03 be
       -0.027529601 0.025532113 -0.0027586222 -0.12798578
0001a0 71 ac b2 3c 6d 54 ea bb 90 f4 23 3d 4a cf ff 3b
       0.021810742 -0.0071511776 0.040028155 0.007806693
0001b0 27 74 82 3d 68 6e e6 3d b7 19 e8 bd 4f bc 68 3b
       0.063698106 0.11251527 -0.1133303 0.0035512631
0001c0 eb 3a 1a bd 5c 80 56 bd 4b 52 42 bd 74 f3 e6 bd
       -0.037653845 -0.052368507 -0.047441762 -0.11276904
0001d0 d3 57 90 3d ea 06 f9 3d f4 30 f5 bd 17 a9 8d bc
       0.07048001 0.12159522 -0.11972228 -0.017292542
0001e0 5a 1e 4f 3d 0d f1 72 3d d3 1d b7 3d f9 cf dc 3d
       0.050566055 0.059311915 0.089412354 0.10781855
0001f0 b1 65 ce 3c 9a 91 aa bd 05 51 60 bd 7d cd cb 3d
       0.025194975 -0.083285525 -0.054764766 0.09951303
000200 aa f2 d7 bd ae 6d d6 bd d4 a3 aa bd 80 f0 cd ba
       -0.10544331 -0.104701385 -0.08332029 -0.0015711933
000210 84 05 c3 bd 38 f4 94 3c 1a 67 b5 3d dc da 3e bd
       -0.095225364 0.018182859 0.08857556 -0.04659544
000220 a0 11 94 bb ce da c2 bd 78 12 c9 bd a2 76 de 3d
       -0.0045187026 -0.0951439 -0.09817976 0.10862471
000230 92 c3 db 3d 5c d1 46 3d bc 9b a3 3d 4e 07 a7 3d
       0.107306615 0.048539504 0.07988688 0.0815569
000240 40 c4 c4 3b 26 e4 b3 3d 18 ea fe bd 54 34 14 bd
       0.00600484 0.0878375 -0.124469936 -0.036182716
000250 60 63 3e 3c a0 af b7 3d c0 45 1d bb 68 87 c6 bd
       0.0116203725 0.08969045 -0.0023997873 -0.096937954
000260 c4 1e 68 3d b4 20 e6 bd b4 d4 6b bd e0 d8 a3 bb
       0.056669965 -0.112367064 -0.057575896 -0.0050002187
000270 8e 20 e8 bd 00 0b 8b 3b 9e e6 8c 3d 84 a9 c7 bd
       -0.11334334 0.0042432547 0.06879924 -0.097491294
000280 88 b6 cc bc d6 b9 fe bd d2 2a a9 bd f0 fe 9b 3c
       -0.024989381 -0.12437789 -0.082601205 0.019042462
000290 08 46 b1 3d 08 fb 3d bd 08 85 e4 bc c0 da f7 3b
       0.086559355 -0.04638198 -0.027895465 0.007563919
0002a0 7c c6 c7 bd 34 77 c6 3d b8 c2 d7 bc 24 38 11 3d
       -0.09754655 0.09690705 -0.026337966 0.03545393
0002b0 e0 72 05 bc a8 46 90 bc 30 2e 47 3c b8 c5 e3 bc
       -0.008145064 -0.017611817 0.012157008 -0.02780424
0002c0 d0 ab 7c 3c 80 07 24 bc c0 07 c2 3b ae b3 d5 3d
       0.015421823 -0.010011554 0.005921334 0.10434662
0002d0 28 20 21 3d 82 b3 ae 3d a8 08 d8 3d 2c ed 68 bd
       0.039337307 0.08530332 0.10548526 -0.05686681
0002e0 a0 f9 f8 bc 12 82 f2 bd ee 4c 86 3d c0 b8 a3 3c
       -0.030392468 -0.11841215 0.06557642 0.019985557
0002f0 c4 31 4a 3d 32 95 91 bd c8 50 de bd 0e 20 ca bd
       0.049363866 -0.07108535 -0.108552516 -0.09869395
000300 de 55 9e 3d 25 e6 ee bc 73 dd 9a 3d 90 2a a2 3d
       0.077312216 -0.029162476 0.07561769 0.079182744
000310 ac 5e d9 bd 0b c9 f6 3d 1b c0 ed bd 2b 42 8a 3d
       -0.1061376 0.12050065 -0.11608907 0.06750902
000320 4b 23 db bd b6 be 2a 3d c0 85 68 bd 0b 26 10 3d
       -0.10700091 0.041685782 -0.05676818 0.03519253
000330 4a 16 16 b9 f8 65 1f bd 32 2c 70 bc dd 0f 9c 3b
       -0.00014313418 -0.038915604 -0.0146589745 0.0047626332
000340 d0 e8 26 3c 79 0c b7 bc 2a 3b ad bd 1f b1 16 bd
       0.010187343 -0.022344815 -0.0845855 -0.03679001
000350 e5 3a d1 3c f6 c5 9f bd f4 8e fa bd 78 64 8c bd
       0.025540778 -0.0780143 -0.122342974 -0.068551004
000360 50 40 ec bd 31 27 e6 3d 4c 22 d7 bd 16 60 84 bd
       -0.11535704 0.11237944 -0.105045885 -0.064636394
000370 b0 33 b8 bd 3e 1c ac bc 80 7d 9b 3d 43 dc e9 3d
       -0.089942336 -0.02100956 0.075922966 0.11418965
000380 81 93 95 3d ee a2 e2 bd d0 7f 5a bd e6 18 ee 3d
       0.07303525 -0.110662326 -0.053344548 0.11625843
000390 0d bf 7a bd 74 2f 04 3d b6 c0 df bd 2b 53 8b 3d
       -0.061217356 0.032271817 -0.109254286 0.068029724
0003a0 de b7 38 3d 63 f1 b5 3d ea e3 84 bd 5a 93 f2 bd
       0.045097224 0.088839315 -0.06488784 -0.11844511
0003b0 f3 84 c4 3b ab 5a c3 bd 2b 65 23 3d 77 f8 10 3d
       0.005997294 -0.09538778 0.039891403 0.035393205
0003c0 1e b7 c6 3d 78 2b a1 bc 84 23 d2 bd 8b a6 d5 3d
       0.097028956 -0.019674048 -0.1026068 0.10432156
0003d0 48 53 8f 3c 56 86 fb 3d cd cf d1 3d f5 69 a2 bd
       0.017495766 0.12281482 0.10244713 -0.07930366
0003e0 19 5d 80 3d 35 d6 a6 3d 2f 85 cd bc cf 25 cb bc
       0.06267757 0.081463255 -0.025087921 -0.024798302
0003f0 ce d5 24 3c 80 9e a1 bc e9 65 ba bd ca fb c3 bb
       0.010060741 -0.019728899 -0.09101469 -0.0059809433

feature_extractor.2.bias f4 [64]
000000 51 8a 39 bd 31 d1 87 bd 90 eb 8a 3c e3 fc ea 3d
       -0.045297924 -0.06631697 0.016958028 0.114740156
000010 55 ac f0 3d 68 fa aa bd ab e3 07 3d e2 d4 03 3e
       0.1175162 -0.083485425 0.033176105 0.12874177
000020 12 32 b3 3d 4e 6d 87 3d 1d 5f c9 bc c0 f3 c5 3d
       0.087497845 0.06612645 -0.024581486 0.09665632
000030 8b 84 d4 bc 71 fc ac 3c db b1 85 3d 69 a3 9b bc
       -0.025942108 0.021116467 0.06528064 -0.018998818
000040 9d ca 9b 3d ec 05 45 bd db 69 ee 3c a8 56 ba bd
       0.07607005 -0.04810135 0.02910321 -0.090985596
000050 6c 2f b5 3d e7 75 ee 3d 5e a9 ea 3c 4a 50 9e bc
       0.08846936 0.11643582 0.028645214 -0.019325394
000060 58 cf ff bc 33 59 dd bc c1 61 d1 bc 0d ba 3e bc
       -0.031226799 -0.027020073 -0.025559308 -0.011641038
000070 c3 ed a9 3d dd e6 c5 3d a9 5b c4 bd f6 09 03 be
       0.082973026 0.09663174 -0.09587795 -0.12796769
000080 f3 36 3a bc 09 15 2f bb ec 8a 06 3e 09 e2 b5 3d
       -0.01136564 -0.0026715419 0.13138932 0.088810034
000090 5e 1d fb 3c 20 2a 44 bd 5d 61 9a bd 54 e7 9c 3d
       0.030653652 -0.047891736 -0.07538102 0.0766131
0000a0 0e ac 20 3d 0e 89 c6 3d af 37 af 3b d3 80 bb bc
       0.039226584 0.0969411 0.005347214 -0.022888577
0000b0 a0 de b0 3c d2 b0 e5 bd 08 81 3f 3d fd c0 db bc
       0.02159053 -0.112153664 0.046753913 -0.026825422
0000c0 7f 73 47 bd f9 e7 6a 3d e5 eb db 3d 12 67 5f bd
       -0.04869413 0.057350133 0.10738353 -0.054541655
0000d0 b9 97 ee bd 43 7e 74 3d 14 99 4a 3d 60 ce fc 3d
       -0.116500326 0.059690725 0.049462393 0.123440504
0000e0 4b b2 88 bc 97 d1 e4 3d e3 ce f2 3c 58 b3 86 bd
       -0.01668658 0.111727886 0.029639667 -0.06577176
0000f0 fe f5 6d 3d 1e cf 5f bd e0 43 16 bc 64 a7 84 bd
       0.058095925 -0.05464088 -0.009171456 -0.0647724

actor.0.weight f4 [64, 64]
000000 3a f7 96 bd 36 89 b6 bd 64 b0 da 3d 28 bc c8 bc
       -0.073713735 -0.0891289 0.10678175 -0.024503782
000010 38 08 83 3d d4 7f 60 3d 04 51 e0 bd 6a a2 d5 3d
       0.06398052 0.054809406 -0.109529525 0.10431369
000020 de bc fd bd d8 de 4c bd 8c fa 5e 3d b2 88 e3 3d
       -0.12389539 -0.050017208 0.05443816 0.11110057
000030 38 12 e3 3d d0 3d 5f 3c 04 39 fb 3d d6 a8 8d 3d
       0.11087459 0.013625577 0.12266734 0.069169685
000040 7e c3 a5 3d 46 22 b4 bd a8 df e9 bd bc ed e8 bd
       0.08093928 -0.087956 -0.11419612 -0.11373469
000050 3c 6c 32 3d 6c e3 c9 bd c4 ea ae bd 1e 8c f4 bd
       0.04356025 -0.098578304 -0.08540872 -0.11940788
000060 08 da 81 3d fc 60 72 3d b8 72 b7 bc 14 07 96 bd
       0.06340414 0.059174523 -0.02239357 -0.07325569
000070 38 8b bc bd d6 05 8a bd b0 94 49 3d 66 02 8c bd
       -0.09206241 -0.06739394 0.049214065 -0.06836395
000080 c0 b9 43 bb 74 d6 a6 bd c6 a2 d0 bd 10 48 06 bd
       -0.0029865354 -0.081463724 -0.101872966 -0.032783568
000090 00 d4 02 3d 0c be 49 bd d0 5f 2b bc f8 4d b4 3c
       0.03194046 -0.04925351 -0.010459855 0.022009835
0000a0 30 e5 2d 3c 10 17 0c 3d 38 fd db bd d2 19 bf 3d
       0.010613725 0.03420168 -0.10741657 0.09331097
0000b0 9a b0 f1 bd ca cc e7 3d 20 43 b8 3c 9c b2 0d bd
       -0.11801262 0.11318357 0.022492945 -0.034594163
0000c0 d0 36 07 bc f0 55 bf 3d e8 92 90 bd 8e a0 bc bd
       -0.008252814 0.09342563 -0.0705927 -0.09210311
0000d0 e0 c8 3f 3d 04 39 88 bd 06 4b f0 3d 12 cd c1 bd
       0.04682243 -0.066515 0.117330596 -0.09462942
0000e0 c0 6c e3 bb 00 d5 c7 3a 34 f5 7d bd 4c 1c 03 3d
       -0.0069404542 0.0015245974 -0.062001422 0.032009408
0000f0 80 ab de 3b 84 3e 5b 3d ee f4 88 bd 5c 3e 6f 3d
       0.0067953467 0.053526416 -0.06687342 0.05840908
000100 4e 23 28 3c 15 59 9f 3d d4 68 ac 3d 7f 70 5c 3d
       0.010262324 0.07780663 0.08418432 0.053818222
000110 ca d4 b5 bc 78 59 de 3d 92 8d 6d 3d 6a 21 d0 3c
       -0.022196192 0.108569086 0.05799634 0.025406558
000120 8c ce 1b bd 95 6b ba 3d 13 fa 54 3c cc 88 bc 3d
       -0.038038775 0.09102551 0.012999075 0.092057794
000130 9e 51 d1 bd 30 bc c0 3c f7 8a ab 3d 8a 42 13 3d
       -0.10220645 0.023527235 0.08376115 0.03595213
000140 92 a2 c9 3d f3 26 c0 bd 99 8c 6f bd 7c e4 10 3d
       0.09845461 -0.09382429 -0.058483694 0.03537415
000150 0b 82 74 3c e4 2d 90 3d 06 a4 f5 bd ea ad f4 bd
       0.014923583 0.07040003 -0.119941756 -0.11947234
000160 7c 02 96 bd 67 04 9f 3d 3f f0 83 bd c0 03 90 3c
       -0.073246926 0.077645116 -0.06442308 0.017579913
000170 d8 95 d3 3d 5d 9d aa bd 1f ab 6d 3d 1b 96 cb bc
       0.10331315 -0.08330796 0.058024522 -0.02485185
000180 10 75 89 3d f4 00 ec 3d cb dd 4c 3c 00 3a f1 3c
       0.06711781 0.11523619 0.012504051 0.029446602
000190 93 f9 27 bd fd 71 ea bd 57 73 59 3d 54 cc 23 3b
       -0.041009497 -0.11447523 0.053088512 0.0024993615
0001a0 a0 c2 9a bd 28 05 31 3d 3d 77 24 bd 2b 61 fb bd
       -0.07556653 0.043217808 -0.040152777 -0.12274393
0001b0 17 6e ef bd 09 e9 e8 bd 48 27 8e bd c8 c4 96 bd
       -0.1169092 -0.11372573 -0.06941086 -0.07361752
0001c0 6c 40 e4 bd 0f 8e 5d bd 12 3d ce bd db b6 2d bd
       -0.111451 -0.054090556 -0.10070242 -0.042410713
0001d0 36 9d 59 bd b5 ff f7 bd 32 5d bf 3d 92 0a cd 3d
       -0.053128444 -0.12109319 0.093439475 0.10011782
0001e0 72 13 a5 3d 62 6b 4e 3d 60 49 29 3c b4 10 e6 bd
       0.080603495 0.050395377 0.010332435 -0.112336546
0001f0 46 e0 02 bd fb fa 90 bd 1a b3 f7 bd b7 65 66 3d
       -0.031952165 -0.07079121 -0.12094708 0.056249347
000200 92 c7 c5 bc 8c 9f 5f bc d0 0d d9 3d 82 a6 d2 bd
       -0.024143014 -0.013648879 0.10598338 -0.10285665
000210 ef 32 d8 bd 9a 5f f0 3d 90 e1 f5 3d 62 2f b5 bd
       -0.1055659 0.117369846 0.12005913 -0.08846928
000220 09 af b3 bc c5 19 da bd b5 3a 85 3d 2a f4 1c bd
       -0.02193405 -0.106494464 0.06505338 -0.03831879
000230 c9 77 2c bd a0 94 5d bc 14 b7 2e bb ee 3b 2f 3c
       -0.042106424 -0.0135242045 -0.0026659416 0.010695441
000240 0c 40 2d bd 6c 13 d6 3c ea bc d4 bd 96 6a d7 3d
       -0.042297408 0.026132308 -0.10387595 0.105183765
000250 8e a0 28 3d b8 81 b9 bd 8d 00 c1 3d 84 7c 16 3d
       0.041168742 -0.09057945 0.09423933 0.03673984
000260 8e c8 c3 3d 45 24 1a 3d 2f 8d bc 3d 20 2e 00 bd
       0.09559737 0.037632246 0.09206616 -0.03129399
000270 f3 aa d0 3d aa 6f c2 bd 32 03 f0 3d 32 6d 7b bd
       0.10188856 -0.094939545 0.117193595 -0.061383434
000280 49 ef 4a 3d 04 37 b1 bd 92 98 28 bd 78 10 b5 3d
       0.049544606 -0.086530715 -0.041161127 0.08841032
000290 30 11 00 bd b2 45 b7 3d ca c3 d5 bd 95 c3 d9 3d
       -0.03126639 0.0894884 -0.104377344 0.106330074
0002a0 7d d2 37 3d f3 56 bb 3c 03 ef 8a 3c 7e 17 a5 3d
       0.04487847 0.022868609 0.016959673 0.080611214
0002b0 6d 62 ca 3d 0a c9 60 bc ca f6 8d 3d 48 5f a2 bd
       0.098820545 -0.013719806 0.06931837 -0.0792833
0002c0 21 1c b1 3d 31 12 fc 3c c3 79 4f bd 26 e4 64 3c
       0.08647943 0.030770393 -0.05065323 0.01397041
0002d0 98 89 31 bb 96 d3 42 bd 76 ba 11 bd ee ff c7 bd
       -0.002709007 -0.047565065 -0.035578214 -0.097656116
0002e0 22 2a 85 3d 63 d4 17 bd c3 f8 14 3d b4 49 d4 3d
       0.06502177 -0.037067782 0.03637005 0.1036562
0002f0 a3 dd 5f bd 91 c5 2e bc e0 3c 93 bb d7 55 66 3d
       -0.05465473 -0.010667221 -0.004493341 0.056234207
000300 a3 d7 ae bc 5a 20 29 bd c0 4f 4c 3b d1 3c 52 bd
       -0.021343058 -0.04129062 0.0031175464 -0.05132753
000310 d7 81 ab 3d 2b 71 e9 bc 70 58 4c bd f7 2e 19 3d
       0.08374374 -0.028496346 -0.049889028 0.037398305
000320 3b 3d 6d bd d0 a3 33 bc 84 9b 60 bd 8b d9 81 3c
       -0.057919722 -0.010964349 -0.05483581 0.015850803
000330 06 5b b8 3d 31 d8 f4 bd f9 f6 29 bb 72 be cb bd
       0.09001736 -0.11955298 -0.002593456 -0.09948434
000340 62 bc 66 bd 97 ca c6 bd 72 8a c4 bd 8c 2f cb bd
       -0.056332 -0.0970661 -0.09596719 -0.09921178
000350 a4 1b 7e 3c 99 a3 e0 bd 47 2c 9e 3d d7 42 dd 3c
       0.01550952 -0.10968704 0.07723289 0.02700941
000360 da 49 8a 3c b7 a5 ce 3d 74 92 78 3c 64 b3 a5 3d
       0.016880918 0.10090201 0.015171636 0.08090857
000370 eb 99 01 be 4e 68 9b 3b b0 51 ae bc e7 d9 85 3d
       -0.12656371 0.0047426587 -0.021279186 0.06535702
000380 38 a7 ad 3d a8 37 ad 3d 6a 36 f3 bd e5 31 b9 3c
       0.0847916 0.08457881 -0.11875613 0.0226068
000390 5b 65 78 3d ba fa 71 3d c6 80 31 bc b9 17 2d 3d
       0.060643535 0.059077002 -0.010833925 0.04225895
0003a0 ca 21 f3 bd 7d cf 76 3c 78 36 82 bd 7d b7 87 ba
       -0.11871679 0.0150641175 -0.06358045 -0.0010354366
0003b0 ff 99 6c bd 51 d3 b5 3d 22 57 b5 3d ae 9d b0 bd
       -0.05776405 0.08878196 0.0885451 -0.08623825
0003c0 d0 a6 d2 bd 9f 8a 40 bb 5f a9 f0 bc 92 64 68 3d
       -0.10285723 -0.00293795 -0.029377637 0.056736536
0003d0 15 48 70 bd 61 47 d6 3d 48 6b a6 3d da de b1 3c
       -0.058662493 0.10462833 0.08125931 0.02171271
0003e0 32 0a af 3d 4e 73 ca 3d 32 77 ba bd ec db 0e 3d
       0.085468665 0.09885274 -0.09104766 0.034877703
0003f0 55 7d 23 3d d3 d0 c4 bd 68 34 b1 bd 83 4f b0 3d
       0.039914448 -0.096101426 -0.08652574 0.08608916

actor.0.bias f4 [64]
000000 00 2a 45 3b c8 db 85 3d 8f 0a c0 3d 45 a1 49 3a
       0.0030084848 0.065360606 0.09377014 0.00076915725
000010 30 d8 02 3c 16 6e 36 3c 46 c2 a6 bc fb 54 45 bd
       0.007986113 0.011134645 -0.020356309 -0.048176747
000020 21 38 30 3b b6 0d cb bd 4c 11 1d bd 35 85 e5 bd
       0.0026888924 -0.099147245 -0.038346574 -0.11207048
000030 88 df 10 bd 50 92 9e 3d 2e 41 85 bc 77 a1 0c 3b
       -0.035369426 0.07742751 -0.016266432 0.0021458545
000040 98 a3 23 bd c0 d8 c7 bd 64 52 f1 3d 36 d5 f8 3c
       -0.039950937 -0.09758139 0.11783293 0.030375104
000050 09 bd 8d 3d 6c 2e cb bd 06 62 e6 3d 70 14 d9 3d
       0.06920821 -0.09920964 0.11249165 0.10599601
000060 44 89 d1 bd ab 66 b9 3d 77 6d e8 3c f0 09 b3 3d
       -0.102312595 0.090527855 0.02837251 0.0874213
000070 9d 30 95 3d 9c e5 9f 3d 00 b1 71 3c 9b 7d c0 3d
       0.07284663 0.078074664 0.014751673 0.09398957
000080 c3 2b f9 bd f2 c3 eb 3d ca 84 a8 3d e1 96 0c bc
       -0.1216655 0.11511983 0.082284525 -0.008580894
000090 8c 8a d6 bd c1 da 46 bd 44 8d d9 bd ed 16 74 3d
       -0.104756445 -0.048548464 -0.106226474 0.059592176
0000a0 a4 3b a6 3c d9 cc 34 bd 0c 29 0b bd 4e f6 ad bd
       0.02029211 -0.04414067 -0.033974692 -0.084942445
0000b0 91 22 0b bd d3 ba 9a 3d 2a a0 ad bc dc da cc bd
       -0.033968512 0.07555165 -0.021194536 -0.100026816
0000c0 e0 a8 4d bd d9 05 47 bd 3a c6 bf bc 3f a8 9e bd
       -0.05020988 -0.04858956 -0.023409951 -0.07746934
0000d0 58 7c fa 3c 41 72 de bc a6 98 83 bd 4d 6e 3d bd
       0.03057687 -0.02715409 -0.064256 -0.04624777
0000e0 d8 de b2 bd fb 8b 92 3d bf 9d 7f bd 14 c8 f6 3d
       -0.0873391 0.071556054 -0.062406298 0.120498806
0000f0 40 1e d3 3b 9c 35 d2 bc 5b ef d6 bd 33 9e 7d bd
       0.006442815 -0.025660329 -0.10494872 -0.06191845

actor.2.weight f4 [4, 64]
000000 2c 91 9c bd 81 f2 20 bd 36 c6 3c bd c7 49 8f 3d
       -0.07644877 -0.03929377 -0.046087466 0.06996494
000010 20 8c a1 3c 23 d0 b6 3d 1e 6a ec 3c 4e df cc 3c
       0.019720137 0.08926418 0.028859194 0.025008824
000020 d5 ac 41 3d ff e0 e2 3d ce f2 ea bd f0 cc 08 39
       0.047283966 0.11078071 -0.114720926 0.00013046316
000030 3e de bd 3d e0 7a b3 3c b5 3c c1 3d 1b 5e ea 3d
       0.09270905 0.021909177 0.09435407 0.114437304
000040 00 1a 5c ba ee a5 94 3d 3e 2c b7 3d d7 fa 8c 3c
       -0.0008396208 0.07258211 0.089439854 0.017209454
000050 88 a9 af bd 76 a9 cb bd d9 72 d5 3d 7c f9 83 3d
       -0.085772574 -0.099444315 0.10422296 0.0644407
000060 b4 72 f6 3d c1 c7 38 bd f1 32 e8 bd 96 16 d7 bd
       0.12033597 -0.045112375 -0.11337841 -0.10502355
000070 07 2d 32 bd e7 60 97 bd 7c 28 19 3d 51 d0 94 3c
       -0.043499973 -0.073915295 0.037392125 0.01816574
000080 a5 6d ff 3c 27 da a8 bd d7 7d 8c bc f5 05 52 bd
       0.031180212 -0.08244734 -0.017149849 -0.051275212
000090 cc d5 b7 bd 1f 47 32 bd e0 71 ca bc c3 de 2f 3c
       -0.089763254 -0.043524858 -0.024712503 0.010734263
0000a0 4c af e4 38 ad 3c fb 3c 08 71 f4 3d f8 e0 83 bc
       0.00010904539 0.03066858 0.119356215 -0.016098484
0000b0 56 61 9d bd 7b 65 a6 3d c5 9c e5 bc 88 96 13 bd
       -0.07684581 0.081248246 -0.028028855 -0.03603223
0000c0 6c e1 e9 3d c8 77 a1 3d f2 75 8d 3c 7f 7a a4 3c
       0.11419949 0.078841746 0.017268155 0.020077942
0000d0 18 5b 8f 3d b9 0c 6c bd d3 95 8d 3d ef 0b 96 3d
       0.06999797 -0.05762932 0.06913342 0.07326495
0000e0 71 4a 8d bd 55 89 33 bd 83 68 00 be cc 6a de 3d
       -0.06898964 -0.043832142 -0.12539868 0.10860214
0000f0 7c e8 ee 3d f9 3a 40 bd 08 c5 1c 3d 17 6e e6 3d
       0.116654366 -0.04693124 0.03827384 0.11251467
000100 5c a1 9a bd c8 6f f3 bc f0 90 b2 3d 65 14 e0 3c
       -0.07550308 -0.029716387 0.08719051 0.027353475
000110 3c 1c ff 3d 79 ec 08 3d bb 10 b8 bd 1d 9f e6 3b
       0.12456557 0.033428643 -0.08987566 0.0070380107
000120 e7 3b 55 3d 7f 79 7d 3d 7e 82 e8 3d 83 6f 58 bd
       0.05205908 0.061883446 0.113530144 -0.05284072
000130 7e 1a 8c 3d c5 39 8b 3d 0b 7f 96 3c fb a4 11 3d
       0.068409905 0.06798128 0.018371126 0.03555773
000140 dc 9e 52 bd 7f b5 67 3d 7e d4 96 bd 20 83 92 3d
       -0.05142103 0.056569573 -0.073647484 0.07153916
000150 57 c9 d6 3b bc 9c 3b 3d b1 22 a5 3d 82 7e 2f 3c
       0.0065547633 0.04580377 0.080632575 0.010711314
000160 80 33 f8 3b b5 c3 5e 3b 0a ee 60 3d 38 81 22 bd
       0.0075744987 0.0033991162 0.05491451 -0.039674014
000170 6c a8 89 3a d8 34 df bb a0 b5 d6 bb d3 ee 56 bd
       0.0010502464 -0.0068117194 -0.006552413 -0.052473854
000180 35 2b f1 bd e2 40 60 3d f4 0f 05 3d fb 29 8c bd
       -0.11775819 0.054749377 0.032485917 -0.06843945
000190 1c 58 c3 bd a5 0f c5 3d 18 fd e0 3c ce 3d 05 3d
       -0.0953829 0.096221246 0.027464435 0.032529645
0001a0 da eb 8b 3c ea e5 90 bd d0 f2 02 3c 10 82 bd bd
       0.017080236 -0.070751026 0.007992461 -0.09253323
0001b0 b9 7d b7 3c 4f 59 d0 bc 5f 41 6b bd 28 e6 b3 bd
       0.022398816 -0.02543321 -0.05743539 -0.08784133
0001c0 b7 93 08 3d 8f 67 a7 3b cb a5 de 3d 9a 38 b8 3d
       0.033343997 0.0051087807 0.10871466 0.08995171
0001d0 c2 2f bd bd 83 ea 53 3d 81 ba 86 bd 8f 02 bf 3d
       -0.09237625 0.05173732 -0.065785415 0.0932666
0001e0 20 31 c0 bd 89 e8 7c 3d 24 a4 3e 3c e0 33 2d bd
       -0.0938437 0.0617452 0.011635814 -0.0422858
0001f0 00 4a fb bb c0 6b ba bd 9b ed a1 3c 98 f7 2d 3d
       -0.0076687336 -0.09102583 0.01976662 0.042472452
000200 22 f5 b1 bd 50 cf e7 3d 1c 8a b0 3d f3 ce ca 3d
       -0.086893335 0.113188386 0.08620092 0.09902754
000210 54 db 84 bd 32 ee 28 3c 8a a6 97 bd ca 87 54 3d
       -0.06487146 0.010310696 -0.07404812 0.05188731
000220 e7 ca 73 3d 1c c6 54 bd ca 84 e2 bd 50 3b 26 bd
       0.059519675 -0.051946744 -0.11060484 -0.04058391
000230 cc 54 f8 bd 92 05 10 3d e0 67 b1 bc b6 43 15 3d
       -0.12125549 0.035161562 -0.021655977 0.036441527
000240 b4 22 dc 3d e6 89 e9 3d 59 7a 6f bd b3 04 d9 bd
       0.107488066 0.11403255 -0.05846629 -0.105965994
000250 04 b5 d6 bd 70 e8 1d 3c 80 4e eb bd c4 51 c2 bd
       -0.10483745 0.009637937 -0.11489582 -0.09488252
000260 78 3c 8c bd 3c a2 b9 bd 89 b5 ce bb 7a f4 41 bd
       -0.06847471 -0.09064147 -0.006308262 -0.04735229
000270 a2 81 ec 3b e3 86 0e bd 20 be 24 bd 70 6f 95 3d
       0.007217602 -0.034796607 -0.04022038 0.07296646
000280 52 e4 4a bd ec e9 bf bc 56 a5 b3 bd 1d 7c c0 3d
       -0.04953415 -0.023426972 -0.0877177 0.09398673
000290 58 ec 25 3d 42 f0 c9 3d f2 45 d3 3d 07 32 34 3d
       0.040508598 0.09860279 0.103160754 0.043993022
0002a0 73 fd f6 3d 3a 0b a6 3d 29 bd e3 bd 20 93 69 3c
       0.1206006 0.0810761 -0.11120064 0.014256269
0002b0 41 9d 88 bd 9c f9 81 bd 62 ee c5 ba 9e 3e 9c bd
       -0.06670619 -0.06346437 -0.0015100951 -0.07629131
0002c0 c9 68 f6 bd c9 cf ca 3c 2d 64 64 bd 4f cf b2 bd
       -0.12031705 0.024757283 -0.055759598 -0.08730947
0002d0 50 f8 f2 bc 6e 3f 11 3b c9 cf b8 3d 4d ff cb 3d
       -0.02965942 0.0022163051 0.09024007 0.09960804
0002e0 66 4a f3 bd 28 dc f6 3d f0 6c 07 bd 81 ef d9 bd
       -0.11879425 0.1205371 -0.033062875 -0.10641385
0002f0 18 38 5d bd e9 41 4e 3d 91 89 88 3d 66 ba 36 3d
       -0.054008573 0.050355826 0.06666864 0.044611357
000300 36 de ef 3d 60 60 72 bd d2 e5 0d bd 78 9b 04 bc
       0.11712305 -0.05917394 -0.034643 -0.008093707
000310 54 24 a3 3d 5b 40 aa 3d 7e 8d 8d 3d 7a 61 f9 bc
       0.079659134 0.08313056 0.06911753 -0.030441988
000320 e2 74 cd 3a ee f5 79 bd c2 ca f9 3d 18 2a 03 3e
       0.0015675093 -0.061025552 0.12196876 0.12809026
000330 20 1b 5e 3d c5 11 9d 3d 02 6c c5 bb 23 a5 91 3d
       0.054225087 0.07669405 -0.0060248384 0.071115755
000340 dc ed 41 bd 5e 37 d9 3d 6f 9f db 3b be af fd 3c
       -0.04734598 0.106062636 0.0067023556 0.03096759
000350 b5 65 9a bd a0 18 1b bd c3 16 a7 bd 67 9f d3 3d
       -0.0753893 -0.03786528 -0.08158638 0.10333138
000360 18 34 83 bc 35 b1 1f bc e3 e0 63 3d f8 31 9e 3d
       -0.016016051 -0.009746839 0.05563439 0.077243745
000370 8a 62 cf 3d 93 53 f3 bd de 57 8a 3d e5 e1 d9 3d
       0.10126217 -0.11881175 0.067550406 0.10638789
000380 7a 75 8e 3c 12 03 f2 3d f6 52 ab bc df d3 ae bd
       0.017390002 0.11816992 -0.020913582 -0.08536505
000390 98 82 e5 bc b3 a6 f7 3d 80 d3 19 bd 0c 35 6b bd
       -0.028016374 0.12092342 -0.037555218 -0.057423636
0003a0 fa 73 db 3d 61 d5 bb 3d cc 45 ec bd 60 92 8e 3d
       0.1071548 0.09171558 -0.1153675 0.069615126
0003b0 41 5a 32 bb e1 cb e0 3c 98 05 00 bd 10 e5 ba 3d
       -0.002721444 0.027440967 -0.031255335 0.091257215
0003c0 b4 2f 64 bc 9d 6c d1 bd f5 50 aa 3b 56 f0 43 3d
       -0.013927389 -0.102257945 0.005197639 0.047836624
0003d0 90 c3 52 bc 68 76 1c 3d 1f bd 91 3d df e2 08 3d
       -0.012864009 0.03819886 0.0711615 0.033419486
0003e0 2a 1c df bd a5 18 a1 bd b8 c6 90 3d 41 1f b9 3d
       -0.10894044 -0.07866029 0.070691526 0.09039164
0003f0 70 e6 f2 3c fa 35 ad bb 4d cf 88 3c 98 d2 7a 3d
       0.029650897 -0.0052859755 0.016700411 0.061235994

actor.2.bias f4 [4]
000000 f3 4c c6 3d 37 0b f1 3d a1 cd 0a 3d f9 d7 41 3d
       0.09682646 0.11769717 0.03388751 0.04732511

critic.0.weight f4 [64, 64]
000000 ae ed b7 bd d9 e8 a1 b9 e2 99 c0 3d 40 df c4 3d
       -0.08980881 -0.00030881798 0.09404351 0.09612894
000010 00 71 a3 3d e1 92 e4 3d f7 aa 49 3c d9 9a 02 3e
       0.079805374 0.111608274 0.012308828 0.12754382
000020 4c 15 99 3d 7f 98 6a bd 4c 2c 05 3e 99 1b 26 bd
       0.07474765 -0.057274338 0.13005179 -0.040553663
000030 6c ba 21 bd 9c 8a 4f 3d 44 b6 da bd 69 d1 23 3d
       -0.039484426 0.050669298 -0.10679296 0.03999463
000040 bb ec ba 3a 77 43 90 bd 36 75 bb bc f0 a3 c6 3d
       0.0014261225 -0.07044118 -0.022883039 0.09699237
000050 5a af ae 3d a7 a3 b3 bd 80 e1 8a 3d 23 a2 d1 3d
       0.085295394 -0.087714486 0.06781292 0.10236003
000060 9a 42 c4 3c e5 f5 96 bd 74 59 42 bd 09 e1 02 3e
       0.02395754 -0.073711194 -0.04744859 0.12781157
000070 12 07 af bd 3d 01 58 3c e3 6e ea bd 9d cc b7 bb
       -0.085462704 0.013183889 -0.11446931 -0.0056091086
000080 62 70 8d bd 58 db 9a 37 84 8d a4 3d fa 50 0d 3d
       -0.06906201 1.846037e-05 0.080348045 0.034501053
000090 41 8a f2 3d 20 a5 9f 3d ac 2c a8 bc e8 63 a2 3d
       0.11842776 0.07795167 -0.020529114 0.07929212
0000a0 16 fe 41 bd 2c 0d ea bd 9a ee aa bc 50 2b 3e bd
       -0.047361456 -0.114282936 -0.020865727 -0.046428025
0000b0 fe 99 af 3d ee a1 b1 3d f0 42 95 bc e5 4e 80 bd
       0.085742936 0.08673464 -0.018220395 -0.06265048
0000c0 25 3d 9f 3d 07 dd 6a 3c 1d ec a3 bd 59 1d c9 3c
       0.07775334 0.014334924 -0.080040194 0.024550127
0000d0 d2 37 0a 3c ba 89 d7 3d 5e 1c b6 3d ce a8 d0 bd
       0.00843616 0.10524316 0.08892129 -0.10188447
0000e0 31 5a e1 bb 77 34 ec 3d 9e df 7d bc 12 ac 2a 3d
       -0.0068772067 0.115334444 -0.015495209 0.041668005
0000f0 09 c5 01 3e d1 fc 91 3d d0 9e 27 3d 5a c6 ae 3d
       0.12672819 0.07128299 0.04092294 0.08533926
000100 aa 7a 95 bd a8 c3 da 3d 02 42 ef bd 55 00 8e bd
       -0.07298787 0.1068185 -0.11682512 -0.06933657
000110 7f a3 b2 3c 51 41 0c bd ba eb 22 3d fa fa 96 bc
       0.021806477 -0.034241978 0.039775588 -0.018430222
000120 35 ee 3e bd 75 c5 36 3c be a3 b4 3d ae c7 db 3d
       -0.04661389 0.011155476 0.08820294 0.10731445
000130 3a f6 2d 3c 00 e9 ea 3c 51 c8 f1 3d 94 fa d0 bd
       0.010617787 0.028675556 0.118057854 -0.10204044
000140 26 fd 65 bd 36 8b a3 bd 73 05 c7 3c 88 82 90 3d
       -0.056149624 -0.07985537 0.02429459 0.07056147
000150 33 e1 8b 3a 80 15 7b bd 4b 9c c7 3d ba ed 34 bd
       0.0010671973 -0.0612998 0.097466074 -0.044172026
000160 c5 26 c9 3d ea 4e cc bd a6 ed 48 bd 2c 78 35 bc
       0.09821848 -0.09975989 -0.049054764 -0.0110760145
000170 bd b4 7c 3d 9e 54 58 3c 5d 1d 8b bd 44 03 bd bd
       0.061695803 0.013203768 -0.0679271 -0.092291385
000180 eb ec 21 3c 31 3b 9c 3d 80 25 82 3b 2a e7 86 39
       0.009883146 0.07628477 0.0039717555 0.00025730702
000190 15 32 e7 bd be 90 76 bd 56 5a 0b bc cb 1e 1f 3d
       -0.11288849 -0.06019663 -0.0085054245 0.038847726
0001a0 b7 33 db bc 24 03 97 bd ca a5 ef bd f3 10 96 3d
       -0.026758058 -0.07373646 -0.11701544 0.073274516
0001b0 07 7d bc bd 60 8c 14 3d da c8 ea bd d2 dc dc bd
       -0.092035346 0.036266685 -0.11464091 -0.10784306
0001c0 5e 1a 89 3d 9f 65 1c 3d 15 81 33 3d 62 73 e7 3d
       0.06694482 0.03818285 0.043824274 0.113013044
0001d0 d4 28 e1 bd 7e 60 1b 3d a1 2c f0 3d 7d 13 2d bd
       -0.109941155 0.03793382 0.11727262 -0.042254914
0001e0 a6 72 ee 3d 2a 99 15 bd 57 df 93 bd f4 ba e4 bc
       0.11642961 -0.03652302 -0.07220333 -0.027921177
0001f0 db 53 0d 3d 52 f9 a1 bd 58 9d 09 3d ba 41 a0 3d
       0.0345038 -0.07908882 0.03359732 0.07825036
000200 1e b3 bf 3d 52 49 e4 bd c0 e4 29 bb 30 7b b7 bd
       0.09360336 -0.11146797 -0.00259237 -0.08959043
000210 88 6b 4f bd 40 4c d3 3c 9c c8 c8 bd c0 5b 2a 3c
       -0.05063966 0.025793195 -0.09803888 0.0103978515
000220 cc f6 73 bd d0 32 ae 3d 70 01 5b bd 58 6d e9 3d
       -0.059561536 0.085057855 -0.053468168 0.11397809
000230 8e 85 89 3d e8 f8 ee bc c0 3c 09 3b 8e e5 80 bd
       0.06714927 -0.029171422 0.002094075 -0.06293784
000240 b8 63 55 bd 80 71 ce bb 72 50 ea 3d 30 22 bb bd
       -0.052097052 -0.0063001513 0.11441125 -0.0913738
000250 fc 59 02 bd 94 73 0e bd d0 a4 66 3c ba 26 d9 bd
       -0.031824097 -0.034778193 0.01407738 -0.1060309
000260 ee ec b6 bd 58 c9 fb 3c de 48 f0 bd ba 6b 9b 3d
       -0.089319095 0.030735657 -0.11732648 0.075889066
000270 5e e9 c7 bd ca 22 a0 3d c0 8d bb bd f8 79 d4 bd
       -0.09761308 0.078191355 -0.09157896 -0.10374826
000280 e0 70 46 3c fe 58 b3 bd 50 ed a0 3c 5c 85 48 bd
       0.012111872 -0.08757208 0.01964441 -0.048955306
000290 bc 07 d0 3d 50 8a 7f bd 80 1f 85 3c 5e 9f d4 3d
       0.10157725 -0.062387764 0.016250372 0.103819594
0002a0 f0 49 11 bd 9c 6f 02 bd 7c e6 4e 3d f0 4b a9 bc
       -0.035470903 -0.03184472 0.050512776 -0.020666093
0002b0 f0 3e 89 bc ae b3 86 bd 9e 6b dd bd b4 9b 63 3d
       -0.016753644 -0.0657724 -0.10811542 0.055568412
0002c0 28 5a 8e bd f6 45 b6 3d 80 73 ef 3d 40 a4 40 bb
       -0.0695079 0.08900063 0.11691952 -0.0029394776
0002d0 34 1f fc bd a0 ea 85 3b 0e cf f8 3d e0 ba 35 3c
       -0.12310639 0.0040868074 0.121488675 0.011091918
0002e0 68 ae 98 3d bc 23 3a 3d 10 ed 3e bd 00 be 22 3b
       0.0745514 0.045444235 -0.0466128 0.0024832487
0002f0 f8 4e f8 bc 94 7e 9a 3d 88 bd 80 bc b0 77 14 3c
       -0.030311093 0.07543674 -0.015715376 0.009061739
000300 4d c7 ff bd a1 9f 57 bc 80 32 89 bb dd 35 7c 3d
       -0.124891855 -0.013160617 -0.0041869283 0.061574806
000310 0b a9 72 bc 54 60 4b bd 31 4a cd 3d 68 44 a2 3d
       -0.014810811 -0.049652413 0.100239165 0.07923204
000320 87 d6 04 3c 6d 47 c5 bc 0e 19 2a 3d 1b 1f ee 3d
       0.008107788 -0.02408191 0.0415278 0.11627027
000330 1d 28 0b bd 5e 7d ca bd 08 e3 49 3c 08 bc 46 3d
       -0.033973802 -0.09887193 0.012322195 0.048519164
000340 ad f8 93 3d c1 ae 4d bd a3 79 eb 3c 37 d9 ea bd
       0.072251655 -0.050215486 0.028744524 -0.11467212
000350 57 79 c0 bd ca 57 e3 bd b3 42 27 3c 40 fd 10 bc
       -0.09398144 -0.11100729 0.010208773 -0.008849442
000360 fe f2 e3 3d 6f 08 e7 bd ce f2 0e 3d a5 36 cb bd
       0.111303315 -0.112809055 0.034899525 -0.09922532
000370 21 a2 79 bc 2e 1e f8 3d 03 c9 03 3c ba 73 ef bd
       -0.015236408 0.12115131 0.00804353 -0.11691995
000380 c2 06 c6 bc ca ac 44 bd b6 ab 9a bd 99 00 ed 3d
       -0.024173144 -0.048016347 -0.075522825 0.115723796
000390 6e 76 15 bc 02 69 bc 3d fe 6a 8b bd 68 49 dc 3d
       -0.009122474 0.09199716 -0.068075165 0.10756189
0003a0 14 01 b2 bd 7f 15 bf 3d 44 a8 ae bd 3c e8 0f 3d
       -0.08691612 0.09330272 -0.08528188 0.035133585
0003b0 40 55 97 3d 78 14 d2 3d 08 16 f2 3d bc 30 d0 3d
       0.07389307 0.1025781 0.118206084 0.10165545
0003c0 20 8d 79 bd 69 16 ca 3d a2 bd f3 bd e4 ba 70 3c
       -0.060925603 0.09867556 -0.11901404 0.014692996
0003d0 b6 74 df 3c 17 0b a8 ba b4 19 8b 3d e3 cd e2 3c
       0.027277332 -0.0012820688 0.06792012 0.027686065
0003e0 ed 4d f1 3d 03 49 b2 bc 48 90 58 3d db 43 d8 3d
       0.11782441 -0.02176333 0.052871972 0.105598174
0003f0 55 ff da bd 35 0a b2 bd 28 b1 8a 3c c2 50 34 bc
       -0.10693232 -0.08693353 0.016930178 -0.011005582

critic.0.bias f4 [64]
000000 14 1f 1e 3d e2 c1 cd 3d c0 37 0a 3d ec 7c 4e 3c
       0.038603857 0.10046746 0.033744574 0.012603026
000010 a1 46 3c 3d 60 7a 74 bd 25 53 55 bd 9c bc d2 bd
       0.045965794 -0.05968702 -0.052081246 -0.10289881
000020 1a 13 9b bd 17 35 a7 bd 77 5b 26 3d 80 96 cf bb
       -0.07572003 -0.08164423 0.04061457 -0.0063350797
000030 b0 98 51 bd b0 64 3d 3c 54 d2 dc bd 8c 0c 9b 3d
       -0.051171005 0.01155965 -0.107823044 0.075707525
000040 b4 0d c9 3d bf a8 87 bd 14 da 05 bb b9 d5 4e bd
       0.09817067 -0.06623983 -0.0020424174 -0.05049679
000050 20 c2 1b bd 6c 36 94 3d cc d6 67 3d 35 73 aa bd
       -0.03802693 0.07236943 0.05660133 -0.08322755
000060 a5 3c ca bd b7 a0 90 3d d9 13 c2 bc 6c e1 53 bc
       -0.09874848 0.07061904 -0.023691105 -0.012932163
000070 00 6f 2d bd c9 ff 09 3d 48 be 57 3d ff a3 45 3c
       -0.042342186 0.0336912 0.0526717 0.0120630255
000080 67 0a 81 bd ca 6f 08 3e 76 c1 da bd 3c 23 62 bd
       -0.06300812 0.13323894 -0.10681431 -0.055209383
000090 29 6b 94 bd ea 39 d1 bd 94 d4 48 3d 72 ec fd bb
       -0.07247002 -0.10216124 0.049030855 -0.0077491337
0000a0 09 cb e7 bd a0 61 bf bc e6 96 98 3b c0 48 9b bb
       -0.11318023 -0.02336198 0.0046566604 -0.004738897
0000b0 29 f6 57 3c fc 56 a9 3d 0d 4b 1d 3b d1 38 e4 3d
       0.013181248 0.08268544 0.0024001033 0.11143649
0000c0 20 58 db 3c 80 3f 61 bd d6 2a a9 3d 8f 10 e6 3d
       0.02677542 -0.0549922 0.082601234 0.11233627
0000d0 69 0f be 3d 0b 0c 5e 3d a8 41 8e 3d 52 5a 44 3d
       0.09280283 0.054210704 0.06946117 0.0479377
0000e0 e0 28 48 bd 4d a3 92 3d 4e e0 80 bd 50 81 dc bd
       -0.048867106 0.071600534 -0.06292783 -0.10766852
0000f0 f3 02 e9 3d e4 00 ad 3d 08 d1 2a bd b2 63 d1 3d
       0.11377516 0.084474355 -0.041703254 0.102240935

critic.2.weight f4 [1, 64]
000000 f7 d6 28 bd b3 30 61 bd ec 3a 08 3d e1 0d c3 3d
       -0.04122063 -0.054978084 0.033259317 0.095241316
000010 e4 8c fa 3b 5c e9 39 3d 7b 95 8c bd d8 1d f0 bc
       0.00764619 0.045388564 -0.06864449 -0.029311106
000020 f2 f3 8d bc 53 87 e0 bd 0c c9 03 be a0 93 9a bb
       -0.017328236 -0.10963311 -0.12869662 -0.0047173053
000030 5a ce 7c bd 54 99 97 3d a4 6f 68 3d 17 b2 f0 3c
       -0.06172023 0.07402292 0.056747094 0.029381795
000040 40 2d e9 3d a0 e6 aa bd 5b 9b be bd 98 69 74 bd
       0.11385584 -0.083447695 -0.093069755 -0.059671015
000050 70 31 f1 3c 85 ed 8a bc 07 27 e1 bd 5b 17 73 3c
       0.029442519 -0.016958961 -0.10993772 0.014837111
000060 2d 4b 21 bd c8 44 f6 3c 18 44 9f 3c 7d 2c 38 3d
       -0.039378334 0.030062094 0.01944165 0.044964302
000070 e0 3c a4 3b 09 d6 86 3d 07 b7 f2 3b 49 36 03 be
       0.0050121397 0.06583793 0.0074070725 -0.12813677
000080 03 b7 c5 3c 6d 4d 31 bd b5 d6 23 bd 88 d6 e1 bd
       0.024135118 -0.04328673 -0.039999682 -0.11027247
000090 3d 93 37 bd 40 9c 6e 3d 11 3b cf bd 0e 42 0a be
       -0.04481815 0.05825448 -0.10118688 -0.1350176
0000a0 d2 7e ed bd 9c ce 9f bd c9 ed ab bc 5e a0 e2 3d
       -0.11596455 -0.078030795 -0.020987408 0.11065744
0000b0 29 ef ce 3d 46 ca 02 bd aa d6 c7 3c c8 1f 81 bc
       0.1010421 -0.031931184 0.024394352 -0.015762225
0000c0 14 5a 46 bd 8e 8f b0 3d b7 11 5e 3b 67 ba fa bd
       -0.04842575 0.08621131 0.003388507 -0.12242585
0000d0 41 0a a6 bc 53 aa 58 bb 50 18 06 bd 8d a2 1c bd
       -0.020268561 -0.0033060506 -0.03273803 -0.038240958
0000e0 b8 98 63 bd 8a e0 03 be 7d 3e ed bd c8 46 32 3d
       -0.055565566 -0.12878624 -0.11584184 0.043524534
0000f0 52 b9 94 bd 42 ef 8b bd f2 54 fd bd ac 7e df 3d
       -0.072619095 -0.06832744 -0.12369718 0.109128326

exp_avg f4 [64, 2]
000000 1a d8 6f 3a 7c 9d 58 bb 8a c7 60 ba 41 8f 05 ba
       0.0009149328 -0.0033052852 -0.00085746555 -0.0005094894
000010 00 00 00 00 8e d6 eb bb 14 32 33 bb 82 f3 88 ba
       0.0 -0.007197208 -0.0027343081 -0.0010448548
000020 00 00 00 00 57 2e 85 39 bf 69 18 bb 2f 0d 16 bb
       0.0 0.00025402263 -0.002325639 -0.0022896042
000030 1d 40 9f bb 8a a7 9d bb 00 00 00 00 80 ec 54 37
       -0.004859938 -0.004811232 0.0 1.2691249e-05
000040 10 2d ea 39 82 56 64 3b 1e d9 d2 3a 6f a9 a4 3b
       0.00044665532 0.0034841602 0.0016086434 0.005025081
000050 57 55 89 b9 d7 95 34 bb 09 61 c6 b9 13 75 ca bb
       -0.0002619426 -0.0027555132 -0.000378378 -0.006178507
000060 fc f6 67 ba f9 50 3f b9 f3 f6 8a ba 31 2c 01 3c
       -0.0008848754 -0.00018245344 -0.0010602161 0.007884071
000070 8b 0b 5d ba 4d 6a ef b7 00 00 00 00 00 00 00 00
       -0.0008432201 -2.854052e-05 0.0 0.0
000080 76 72 ba 3a 61 32 8c 3a 00 00 00 00 00 00 00 00
       0.0014224786 0.0010696166 0.0 0.0
000090 f6 7f 05 ba 6a 21 05 39 cd d5 e4 ba 8e 1a 8f ba
       -0.0005092615 0.00012696316 -0.0017458737 -0.0010917948
0000a0 c9 04 21 3a 83 16 cd 3a 67 2f 83 bb 1b e9 5e bc
       0.00061423756 0.0015646968 -0.0040034535 -0.013605381
0000b0 53 f1 b3 b9 e6 ba 46 b8 f7 15 e3 ba 6a ce af bb
       -0.0003432134 -4.738094e-05 -0.0017325272 -0.0053651826
0000c0 90 d2 28 bb 22 fb 1e bc 4e 04 02 bc 77 3c b3 bc
       -0.002576027 -0.009703429 -0.007935597 -0.021879418
0000d0 05 7c 07 ba cc 98 19 38 f6 10 55 ba aa 97 e0 bb
       -0.00051683217 3.6620346e-05 -0.00081278326 -0.0068540173
0000e0 d6 35 46 39 fd d2 32 b8 f5 89 15 3b 6f 33 b2 3b
       0.00018902807 -4.2635005e-05 0.0022817825 0.0054382603
0000f0 79 c0 83 39 09 a8 18 37 fa 44 80 36 aa 24 48 39
       0.0002512967 9.09903e-06 3.822727e-06 0.00019087145
000100 a2 23 bb ba 00 00 00 00 00 00 00 00 00 00 00 00
       -0.0014277587 0.0 0.0 0.0
000110 9d d2 c1 ba 1c 3c ed bb 79 5f 6b bb 2d 7e a6 bb
       -0.0014787499 -0.0072398316 -0.003591506 -0.0050809593
000120 5e 61 13 bb de 5b 14 bc f6 66 42 ba c1 79 84 bb
       -0.0022488455 -0.009055106 -0.0007415855 -0.0040428345
000130 00 00 00 00 00 00 00 00 67 68 5d 3a fc 27 e2 3a
       0.0 0.0 0.0008446038 0.0017254348
000140 00 00 00 00 00 00 00 00 78 69 79 39 29 e9 0a bb
       0.0 0.0 0.0002378578 -0.0021196103
000150 00 00 00 00 00 00 00 00 99 fd 59 bb 19 a9 f3 bb
       0.0 0.0 -0.0033262728 -0.0074359295
000160 3e 9b 5b 3b d7 fc 5b 3c 00 85 da ba d8 2f ed bb
       0.003350928 0.013426981 -0.0016671717 -0.0072383694
000170 16 1a 27 3a da 0d a3 3a 7c a5 60 bb 0c 69 1b bc
       0.00063744315 0.0012440041 -0.0034278324 -0.009485494
000180 64 95 8a ba 94 c5 35 bb e7 67 7b bb 37 d0 2a bc
       -0.0010573086 -0.0027736174 -0.0038361491 -0.010425619
000190 00 00 00 00 aa 48 6f b5 3f 0a 83 ba d8 02 45 bb
       0.0 -8.914018e-07 -0.000999756 -0.003006151
0001a0 00 00 00 00 00 00 00 00 00 00 00 00 9f 58 07 b7
       0.0 0.0 0.0 -8.067261e-06
0001b0 d5 8c 11 bb dd 5a 69 ba 5b 80 62 ba 0e 5c b0 bb
       -0.0022209187 -0.00089017843 -0.0008640342 -0.0053820675
0001c0 55 31 80 bb 29 1c 3e bc 7c be db bb 8a 98 7f bc
       -0.003912131 -0.011603394 -0.006706057 -0.015600333
0001d0 00 00 00 00 00 00 00 00 24 80 02 b7 e3 6d 4e b6
       0.0 0.0 -7.778439e-06 -3.0760355e-06
0001e0 5d 83 1b bb 55 09 e2 bb 00 00 00 00 00 00 00 00
       -0.0023729422 -0.006898085 0.0 0.0
0001f0 00 00 00 00 9b 75 b9 b9 00 00 00 00 03 3e 2d 37
       0.0 -0.00035373573 0.0 1.0326042e-05

exp_avg_sq f4 [64, 2]
000000 eb 39 9a 34 e5 77 80 34 1d b1 3d 33 df d3 a0 33
       2.8726876e-07 2.3929093e-07 4.4166075e-08 7.48912e-08
000010 00 00 00 00 9f 52 d5 35 98 a1 cb 34 56 42 62 33
       0.0 1.5893783e-06 3.7929271e-07 5.2680058e-08
000020 00 00 00 00 53 58 d9 32 8a 7e 18 34 dc bd a2 34
       0.0 2.530229e-08 1.4202138e-07 3.0312992e-07
000030 50 fb 02 36 44 18 a4 35 00 00 00 00 16 95 7c 2f
       1.9517793e-06 1.2226014e-06 0.0 2.2972232e-10
000040 dd ff 63 33 a2 1d d2 34 c8 9a bf 33 65 97 5c 35
       5.3085262e-08 3.913711e-07 8.922285e-08 8.2176695e-07
000050 e9 b9 4e 31 64 b6 03 35 9b 1c 90 31 f6 be 80 35
       3.0082623e-09 4.9066716e-07 4.1942037e-09 9.59232e-07
000060 a4 81 1f 33 93 dd 8c 31 0e 24 ca 34 d8 79 13 36
       3.713798e-08 4.0997263e-09 3.7651665e-07 2.197563e-06
000070 2b d4 f3 32 4b fc 02 2f 00 00 00 00 00 00 00 00
       2.8385406e-08 1.1913064e-10 0.0 0.0
000080 4e c9 36 34 72 cc ad 33 00 00 00 00 00 00 00 00
       1.7023305e-07 8.093129e-08 0.0 0.0
000090 a2 05 dc 33 56 17 93 32 5b cf 31 34 01 96 be 33
       1.0245573e-07 1.7123664e-08 1.6559845e-07 8.87485e-08
0000a0 8f 20 89 33 45 52 0d 35 47 84 06 35 bd 2c ab 36
       6.385482e-08 5.264631e-07 5.011138e-07 5.1014053e-06
0000b0 34 c7 c2 32 88 08 a3 30 28 e6 13 34 91 33 2c 35
       2.267516e-08 1.1862236e-09 1.3774172e-07 6.415003e-07
0000c0 3c 4e 2e 34 5f 13 20 36 60 d9 dd 35 6d a7 48 37
       1.6233474e-07 2.3853133e-06 1.6529048e-06 1.1959911e-05
0000d0 56 5a 88 32 95 34 fa 31 22 a3 80 32 1c 05 9d 35
       1.5873564e-08 7.2819355e-09 1.4975345e-08 1.1698899e-06
0000e0 22 b4 d1 31 14 cd a4 2f b6 fb b2 34 dd c0 6b 35
       6.1031793e-09 2.9977143e-10 3.3338227e-07 8.7824975e-07
0000f0 98 09 92 31 33 6f ad 2e d0 be db 32 1d 63 32 32
       4.25025e-09 7.886882e-11 2.5581727e-08 1.0383499e-08
000100 09 4c 96 33 00 00 00 00 00 00 00 00 00 00 00 00
       6.99875e-08 0.0 0.0 0.0
000110 3e a5 69 33 57 ae 9d 35 dd 30 bd 34 4e 31 23 35
       5.4399827e-08 1.1748151e-06 3.5239546e-07 6.079398e-07
000120 7c dd 15 34 dc 17 16 36 9e 06 54 32 83 31 c0 34
       1.3957282e-07 2.236563e-06 1.2341529e-08 3.579881e-07
000130 00 00 00 00 00 00 00 00 8e f9 9e 33 5e c8 9c 34
       0.0 0.0 7.402842e-08 2.920305e-07
000140 00 00 00 00 00 00 00 00 81 c5 ba 34 13 f6 99 34
       0.0 0.0 3.4788903e-07 2.8677513e-07
000150 00 00 00 00 00 00 00 00 39 db a7 34 64 f4 c6 35
       0.0 0.0 3.126568e-07 1.4823277e-06
000160 7f 68 b2 34 34 ea c5 36 ef 1d cc 33 27 a4 b1 35
       3.3231115e-07 5.8983223e-06 9.504935e-08 1.3235302e-06
000170 2b f5 87 32 51 02 c3 33 56 52 a3 34 12 bb 0a 36
       1.5827558e-08 9.0808165e-08 3.0421023e-07 2.0672492e-06
000180 45 60 d7 33 e2 52 e3 34 d6 96 d8 34 58 e4 1a 36
       1.0029229e-07 4.234235e-07 4.0342883e-07 2.3080702e-06
000190 00 00 00 00 55 88 37 2d ef d7 3f 33 69 da 91 34
       0.0 1.04326174e-11 4.4667043e-08 2.716727e-07
0001a0 00 00 00 00 00 00 00 00 00 00 00 00 a7 32 c9 2e
       0.0 0.0 0.0 9.1494194e-11
0001b0 b0 c2 3a 34 1b 9b 32 33 ca 7e 03 33 27 67 3d 35
       1.7393427e-07 4.1584922e-08 3.061613e-08 7.0558093e-07
0001c0 19 27 bb 34 e0 b5 4a 36 5e a2 e9 35 dd f8 ce 36
       3.4859912e-07 3.020621e-06 1.7407108e-06 6.16825e-06
0001d0 00 00 00 00 00 00 00 00 08 8a 86 30 fb 18 20 2d
       0.0 0.0 9.789014e-10 9.100494e-12
0001e0 c4 39 5f 34 57 4b 97 35 00 00 00 00 00 00 00 00
       2.0789508e-07 1.1272303e-06 0.0 0.0
0001f0 00 00 00 00 1a 16 d0 31 00 00 00 00 b6 51 1d 2f
       0.0 6.0561094e-09 0.0 1.4308096e-10

exp_avg f4 [64]
000000 d4 aa dd b9 ab dc a0 b9 f2 54 cd ba 54 38 17 ba
       -0.00042279682 -0.0003068199 -0.0015665574 -0.00057685864
000010 d0 3e 91 38 5c 2a 3a ba 38 5c b7 ba 32 e2 e8 37
       6.9258385e-05 -0.0007101649 -0.0013989275 2.7761886e-05
000020 b5 2c 20 3a f2 61 85 3a fc 29 0c ba de 56 a2 ba
       0.00061101775 0.0010176285 -0.00053468323 -0.0012385508
000030 b5 d1 34 b9 58 ab 9b 3a 7b 0d 44 b9 5f 38 76 b7
       -0.0001724426 0.0011876626 -0.00018697038 -1.46758675e-05
000040 79 0d cb 39 21 24 06 b8 dd b5 e4 b8 a3 9a e7 b9
       0.00038729215 -3.1981737e-05 -0.00010905762 -0.00044174967
000050 8e 42 ae 39 c5 16 3e bb 02 77 fb b8 f8 60 91 ba
       0.00033237453 -0.002900527 -0.000119907796 -0.0011091521
000060 1f 82 01 bb 30 b4 9d bb c8 a7 0b b9 a7 e4 b0 ba
       -0.0019761396 -0.00481274 -0.00013318576 -0.0013495878
000070 e6 b5 1c 38 e6 0b a5 3a c3 d7 72 38 76 58 9d b6
       3.7362704e-05 0.0012592047 5.789824e-05 -4.689263e-06
000080 c5 e3 c7 b9 00 00 00 00 df 5f c4 ba e1 4e b3 ba
       -0.0003812594 0.0 -0.0014982185 -0.0013680124
000090 bd d6 f0 ba 3a 97 54 ba 00 00 00 00 61 cb ab 39
       -0.0018374544 -0.0008109693 0.0 0.0003276719
0000a0 31 39 af b7 11 b6 b9 b9 00 00 00 00 a5 83 da ba
       -2.0888257e-05 -0.000354216 0.0 -0.0016671313
0000b0 7d 70 31 3b 0d e1 c1 ba f5 f6 b4 39 ac 4d 0b bb
       0.0027075105 -0.0014791802 0.00034516273 -0.0021256013
0000c0 e2 c1 19 ba 4b fd 17 bb 05 07 e3 b7 32 94 15 ba
       -0.00058653776 -0.0023191746 -2.7063777e-05 -0.0005705982
0000d0 f6 fc 17 b7 ee 6e 7b b7 d6 fc 0e ba 21 3a 7c ba
       -9.059198e-06 -1.4986594e-05 -0.00054545456 -0.0009621699
0000e0 57 08 25 bb ed a4 6f bb 64 4e 68 36 d7 f9 c7 b7
       -0.0025181973 -0.003656681 3.4616323e-06 -2.383899e-05
0000f0 4b 4b c4 ba 00 00 00 00 7d 0f fa b8 92 ad 1c 38
       -0.0014976052 0.0 -0.00011923814 3.735495e-05
