models/episodes_5000/team_goal_top_right/PPOAgent/model.pt (torch, 168423 bytes, 33 tensors)

feature_extractor.0.weight f4 [64, 2]
000000 40 81 38 3e 39 3c 05 3e 6e e6 11 bf d8 4c 0f bf
       0.18018055 0.13011254 -0.5699223 -0.5597663
000010 f7 c5 d3 be b8 c7 5e be aa 8b 6a 3d 3b 1e 45 bf
       -0.41361973 -0.21755874 0.0572621 -0.76999253
000020 89 8e 81 3e 00 8d c1 3b 0a 56 34 be c5 95 2d 3f
       0.25304058 0.005906701 -0.17610946 0.67806655
000030 fb dc d9 be f2 89 97 be b0 16 59 bd 75 ce aa bd
       -0.42551407 -0.2959743 -0.053000152 -0.0834016
000040 8b 37 ae 3e 0e f4 ab 3d 93 0a 85 3e 83 c1 c1 bd
       0.3402675 0.08396159 0.2598463 -0.094607376
000050 68 0a d9 3e e8 0e 10 bf a9 10 1c 3f b7 0e 9e be
       0.42390752 -0.56272745 0.6096292 -0.30870602
000060 78 dc 51 3d 4c 2a 1d bf 44 d6 2a 3f bf 85 56 bd
       0.051235646 -0.61392665 0.66733193 -0.052373644
000070 a0 f8 00 bf a4 df 37 3f 01 9a ab be cc de 05 bf
       -0.5037937 0.71825624 -0.33515933 -0.52293086
000080 8b e7 17 3f 57 75 20 3f 18 a1 88 bc 0f f7 1c bf
       0.5933768 0.62679046 -0.016678378 -0.6131448
000090 e5 0c 27 3f 11 5d f2 3e 2e 67 05 3e 22 a5 4a be
       0.6525405 0.4733663 0.13027641 -0.19789556
0000a0 e9 f6 2e bf e1 0f b0 3e 79 35 20 3f 38 98 cd 3d
       -0.68345505 0.34387115 0.6258159 0.10038799
0000b0 2c fd 20 3f ec a0 be 3e 91 9b 97 be f9 91 1c bf
       0.6288631 0.3723215 -0.29610875 -0.61160237
0000c0 11 2b bd 3e cf 87 d5 3e 5e 3c 07 3f 11 4f 63 bb
       0.3694692 0.41705176 0.5282649 -0.0034684578
0000d0 61 60 00 3f fa e5 25 3f 70 ec 06 3d 64 2a 05 be
       0.5014706 0.6480404 0.032940328 -0.13004452
0000e0 88 90 1c bf 68 86 ac be 91 30 ba be f3 9c 1d be
       -0.6115804 -0.33696294 -0.36365178 -0.15391903
0000f0 84 e4 f0 be 78 84 e4 be 71 c7 06 bf 3c 02 19 bf
       -0.47049344 -0.44632316 -0.52648073 -0.59769034
000100 58 bb d3 3e d6 c5 53 3e 33 31 e3 3e b1 bd 80 3e
       0.4135387 0.20680937 0.44373474 0.25144723
000110 cb f9 e2 be 65 01 b2 be 7f 23 c3 3e 18 9f 00 be
       -0.44331202 -0.3476669 0.3811302 -0.1256069
000120 2f 73 fd 3e 78 f3 c6 3e 77 db 18 be bd d0 4b 3e
       0.4950194 0.38857627 -0.14927469 0.19903846
000130 09 24 20 3f 07 02 a9 3e de 42 15 3f 35 81 13 bf
       0.62554985 0.3300936 0.58305156 -0.5761903
000140 a5 45 b0 bd 69 21 29 3f 5b 30 63 be 6e b4 96 bc
       -0.08607034 0.66066605 -0.22186415 -0.018396582
000150 63 e7 26 be 8e f0 19 3f 97 8c 97 bd d8 d8 ae bc
       -0.16299205 0.6013268 -0.07399862 -0.021343634
000160 e7 88 03 bf 0a 3a 22 bf 77 79 83 be b8 f3 37 3e
       -0.5138077 -0.6336981 -0.25678608 0.17964065
000170 98 ed ef bc 6a 35 b8 be 90 5b 2f 3f 7b 10 a1 3d
       -0.029288098 -0.35978252 0.6849909 0.078644715
000180 6a 8a d7 3e 8a d2 c4 be ad 03 2a bf 41 4a a7 be
       0.4209779 -0.3844188 -0.6641186 -0.3267384
000190 a7 52 71 3e 98 7d 86 bf b6 c0 14 3f 95 fa 19 be
       0.23566686 -1.0507078 0.58106554 -0.15036996
0001a0 92 9e b9 3e 44 67 47 bf 94 18 9e 3e cf 23 bc be
       0.36253792 -0.77891946 0.30878127 -0.3674607
0001b0 91 3b 30 bf 9f 20 f3 be 45 d3 19 3f 82 3e 04 bf
       -0.6884089 -0.47485825 0.60087997 -0.5165788
0001c0 70 30 30 3e 84 44 e7 be 1c 4c 1d bf cc 9f 22 3d
       0.17205977 -0.4516946 -0.6144426 0.039703175
0001d0 86 9e 72 be 93 cc 34 3e 4b a2 01 bf 2c eb 1d 3f
       -0.23693284 0.17656164 -0.50638264 0.6168697
0001e0 66 97 c1 3e ea b6 05 3e 2c a7 2b bf 87 f8 14 bf
       0.3781082 0.13058057 -0.6705196 -0.5819172
0001f0 a9 c6 0c bf 5d 0b 23 be ad 2e be be c6 16 7a be
       -0.5499063 -0.15922303 -0.37144986 -0.2442275

feature_extractor.0.bias f4 [64]
000000 da 31 49 3f 07 ba da be 90 43 d0 be 1c ef eb 3e
       0.7859169 -0.42720053 -0.40676546 0.46080863
000010 d4 de 6e 3e 21 c7 0f bf 43 be 0d bf 81 22 59 3f
       0.2332719 -0.5616322 -0.5536844 0.84818274
000020 eb a1 43 3e 19 04 1c 3f b3 f8 e5 be 05 0c db be
       0.19104736 0.6094375 -0.44916305 -0.42782608
000030 63 c0 1b bf ba e6 8f be fc 02 01 bf aa ff b7 3e
       -0.60840434 -0.28105718 -0.5039518 0.35937244
000040 df 1c 59 be d8 d6 23 3f ff 1c de be db bb 2e bf
       -0.2120242 0.639997 -0.43381497 -0.68255395
000050 20 20 46 3d f5 81 c7 bd d6 fc 46 3f bf cf 34 bf
       0.04837048 -0.09741584 0.7772955 -0.70629495
000060 39 e3 d2 be 56 96 b6 be 0a ee 35 3f bc ca 40 be
       -0.41188982 -0.35661572 0.71066344 -0.18827337
000070 ca 2f 90 be a6 85 b6 be d5 c0 19 be 4b d8 f1 3d
       -0.2816146 -0.3564884 -0.15014966 0.11808833
000080 38 49 e5 3e df 08 9b be 93 12 d6 be 4e 43 46 3f
       0.44782424 -0.30280206 -0.41811046 0.7744645
000090 2e 8b 11 3f fd e2 47 3f 55 c5 9d 3e a9 7b a5 3e
       0.56852996 0.7808073 0.30814615 0.32320908
0000a0 6a c8 ff be 29 07 d0 3e ac 02 b3 3e aa 5c 1b 3f
       -0.4995759 0.40630463 0.34962976 0.6068827
0000b0 33 65 00 3f df 13 4c 3e 45 e2 2d be 9e a1 f3 3d
       0.5015442 0.19929455 -0.16980846 0.118960604
0000c0 62 79 3f bf 70 0b 17 bf 69 31 13 be 80 1d 11 3f
       -0.7479459 -0.5900183 -0.14374317 0.5668564
0000d0 7e 9a 2f be cb 1a 53 3f ad af 1e 3f 92 13 41 3f
       -0.17148778 0.8246276 0.6198681 0.75420487
0000e0 a9 f4 e1 3e 7c 6d 29 3e 6b a8 02 3f 58 b9 05 bf
       0.44131973 0.16545671 0.51038235 -0.5223594
0000f0 3d 1e 22 bf 0a 99 22 bf 66 fa 31 3f 16 10 20 be
       -0.6332739 -0.6351477 0.695227 -0.15631136

feature_extractor.2.weight f4 [64, 64]
000000 53 75 92 3c fc c7 ff bd 28 ce c2 bc 30 1b f3 3d
       0.01787821 -0.12489316 -0.023779944 0.1187042
000010 14 80 e5 bd bd 4b 21 bd 28 ee b6 3c ef 25 5e 3d
       -0.112060696 -0.03937887 0.022330359 0.054235395
000020 d4 88 f8 bd 5a 43 3d 3d 2f 34 8c 3d 11 43 f9 bc
       -0.12135473 0.04620681 0.06845891 -0.030427488
000030 e6 12 c6 3d 6d c7 af 3d d4 98 3d bd 4b 40 3a bc
       0.09671573 0.08582959 -0.046288326 -0.011367868
000040 a8 1c fb bd 3d b2 aa 3d 5e a1 e8 bd f0 2b 8f 3d
       -0.12261325 0.083347775 -0.11358903 0.06990802
000050 a1 55 14 3e 73 41 a6 bc ef 79 fc 3d d4 63 e9 bd
       0.1448579 -0.02029488 0.123279445 -0.11395994
000060 8d fa 10 3c d7 11 44 3d 45 75 02 3e 0c b5 ae 3d
       0.008848798 0.047868576 0.12740047 0.08530626
000070 58 1e b9 3c e0 06 c1 bc 26 e8 d4 bd 13 01 0e bd
       0.022597477 -0.023562849 -0.10395841 -0.034668993
000080 d5 54 20 3d 20 47 df bd 60 2d 1c bd 8f 03 cb 3d
       0.039143402 -0.10902238 -0.03812921 0.09912788
000090 16 86 91 3d 80 8b 3b 3e f1 9d 04 bb 5e 8c 9f bd
       0.07105653 0.18314934 -0.0020235742 -0.07790445
0000a0 f5 d8 7a bd 2d 08 08 3e 1d 20 e2 bc 15 a5 a6 3d
       -0.061242063 0.13284369 -0.027603203 0.08136956
0000b0 65 6f bd bd b6 df ff 3c 7c 49 60 3d 11 3d 88 bd
       -0.092497624 0.031234603 0.05475758 -0.066522725
0000c0 0a 6a 66 3c b0 46 32 3d 7e 6e 21 3d dc 94 fd bc
       0.014063368 0.043524444 0.039412014 -0.03095477
0000d0 ea 96 48 bc a2 82 4a 3d ec 20 69 bd a1 64 a5 bd
       -0.012243012 0.049440987 -0.056916162 -0.08075834
0000e0 eb d8 ec 3d f6 29 12 bd ec 7d 22 bd 0c 7d 6f 3d
       0.11564811 -0.03568455 -0.03967087 0.058468863
0000f0 08 10 3e 3d e8 5c e5 3d 28 6e 80 bd 50 ce 78 bc
       0.046402007 0.11199361 -0.06271011 -0.0151859075
000100 57 a7 5a bd 20 b2 e3 bc 7e e9 a9 3d 8e e2 0e be
       -0.053382244 -0.027794898 0.08296488 -0.13953611
000110 11 96 9b bd 3e d4 d3 bb 2c 2b 33 3d e7 e0 8b bc
       -0.07596982 -0.00646451 0.043742344 -0.017075015
000120 a2 76 bf bd 74 06 e0 3d ba 58 04 bd 8d c7 ca bd
       -0.09348799 0.10938731 -0.03231118 -0.099013425
000130 00 3a 68 ba 86 1d 9f 39 7c c6 2c 3d 34 b1 fc bd
       -0.00088587403 0.0003034884 0.042181477 -0.12338486
000140 2f 67 87 bd cb a5 51 be 8a 07 e0 3d ea 54 ef bd
       -0.066114776 -0.20473401 0.10938938 -0.11686118
000150 41 68 9a 3d 54 47 cf bc 6a 83 5a 3c d0 59 e6 bd
       0.07539416 -0.025302567 0.013336996 -0.11247599
000160 8c 39 cb bd 55 ff d2 3c 3d 60 22 3e 11 d7 c6 3d
       -0.099230856 0.025756517 0.15857024 0.097089894
000170 c4 10 d7 bd 3c 27 f3 bd 00 00 86 bc b1 e3 a8 3d
       -0.10501245 -0.11872718 -0.016357422 0.08246554
000180 e6 ca 76 bd da 37 bb bc ea 80 84 bd ff 31 a5 3c
       -0.060252093 -0.02285378 -0.06469901 0.020165442
000190 77 0b 8e 3d 8a 6d 2a 3d 48 02 cd bb a6 f7 92 3c
       0.069357805 0.04160837 -0.0062563755 0.017940354
0001a0 50 42 8d 3d a2 1f a0 bb 73 03 cd 3d 14 26 fb 3c
       0.06897414 -0.0048865834 0.100104235 0.030657806
0001b0 1e bd 7e bc ac 8d 69 bc a0 d2 b4 3c 4f 98 e6 3d
       -0.015548019 -0.014254969 0.02207309 0.11259519
0001c0 80 b2 ab bc e0 99 66 bc f8 48 c8 be 5d 04 0f 3c
       -0.020959139 -0.014074773 -0.3911817 0.008729068
0001d0 ce 5f 24 3e 47 a3 c6 3d 2f 03 b7 bc 0e 27 25 bd
       0.16052172 0.096991114 -0.022340385 -0.04032045
0001e0 9d 0c bb bd 9e de 31 3d 5c ed 34 3e 36 58 d1 3d
       -0.09133265 0.043425195 0.1766867 0.10221903
0001f0 24 2d ab bc 00 c0 ee 38 1b a8 e7 3d a2 42 83 3d
       -0.020895548 0.00011384487 0.113113604 0.064091936
000200 9e c8 9a bc 40 40 a2 bb 1c 4f ec 3d f4 62 58 3e
       -0.01889449 -0.004951507 0.115385264 0.21131498
000210 55 97 fb bd c3 73 af bd 1c 7d 82 3d 3f 92 19 3e
       -0.12284724 -0.08567002 0.06371519 0.14997195
000220 6a 96 85 bd 3d d4 10 3e 7c 29 30 bd 77 04 9f 3d
       -0.0652283 0.14143462 -0.043008313 0.077645235
000230 e8 3f 9f bc 81 09 10 be bf af bf 3d 15 1b 8c 3c
       -0.019439653 -0.14066125 0.09359693 0.017102757
000240 66 f2 cd ba ea 1d 0c 3d d3 15 f6 3c 54 23 a7 3d
       -0.0015712499 0.034208216 0.030039703 0.08161035
000250 c1 5a 02 3d b0 ca 2b 3a 63 04 11 3d 2a ac d7 bd
       0.03182483 0.0006553335 0.035404574 -0.105308846
000260 44 11 0f 3d 30 9a df bd c2 3d 0b bd 6c 4c c5 ba
       0.034928575 -0.10918081 -0.033994444 -0.0015052683
000270 80 bd e9 bb b0 61 29 3c e0 2b ae bb 6f 83 02 3e
       -0.007133186 0.010338232 -0.005315289 0.1274545
000280 08 71 b8 3d 20 08 97 bd c0 d3 f2 bb 50 98 ec 3b
       0.09005934 -0.073745966 -0.0074104965 0.0072203055
000290 04 88 06 bd 6d d8 1d 3d ff aa 83 3b b5 fc 8c bd
       -0.03284456 0.038536478 0.004018187 -0.068841375
0002a0 44 d6 23 3d 8b 07 d4 3d 77 ee 31 3d 26 85 2b 3e
       0.03999926 0.10353001 0.04344031 0.16750011
0002b0 1b 9a 75 3d 93 d8 94 bc 28 d4 b1 bc e0 6a 43 3d
       0.05996142 -0.018169677 -0.02170761 0.047709346
0002c0 d0 75 e3 bd 30 d3 1d bc f3 db 75 3b dd 33 b7 3d
       -0.11106455 -0.009632871 0.0037515133 0.08945439
0002d0 17 c8 16 3d 62 bf f4 ba 0f 02 56 3c b7 10 fa 3d
       0.036811914 -0.0018672759 0.013062014 0.12210219
0002e0 7d 57 aa 3b 05 3f 8a 3d 95 ba e5 3d 78 7b 69 bd
       0.0051984177 0.06750301 0.11217228 -0.057002515
0002f0 7b 83 a6 bd c2 38 dd bd 34 cd 16 bd 80 9f e7 3b
       -0.08130547 -0.10801841 -0.03681679 0.0070685744
000300 4f 0c ee 3d 10 85 53 3c e4 c8 2e 3d a2 63 d0 be
       0.116234414 0.012910143 0.042672053 -0.40701014
000310 f8 ea 02 3d 0a 56 83 3b 40 a9 9d bc 39 7a a4 be
       0.031962365 0.0040080594 -0.019245744 -0.32124498
000320 ea c3 88 3d c7 60 9b bd fe da 22 bd 02 85 57 3e
       0.06677993 -0.07586818 -0.03975963 0.21046832
000330 3e df 98 bd e3 bd 5c 3e 7d d1 14 bd ae ec 0c bb
       -0.07464455 0.21556811 -0.036332596 -0.0021503377
000340 ba ea d1 3d 04 de b6 be 8f 91 5e 3d 1c 61 91 3d
       0.10249849 -0.3571626 0.054338034 0.070986
000350 03 9d 1e 3d 45 c6 b2 3d 78 b2 12 bd f8 cf af bd
       0.038723957 0.08729223 -0.035814732 -0.08584589
000360 ea 73 64 3e 9f 9c e7 3d a4 b2 0c 3d c0 da 91 3c
       0.22309843 0.1130917 0.034350052 0.017804503
000370 28 fe e9 bd 36 9f cc 3d 60 e1 76 bc 2c 2a 39 bd
       -0.114254296 0.099913046 -0.015068382 -0.045206234
000380 2b d6 11 3e 76 5d 85 3e 94 df dd 3d 91 44 c9 bd
       0.14241855 0.26047868 0.1083366 -0.09827531
000390 b3 aa 76 3d 5d 1f fb bd 6c 70 31 3e 0c b3 84 3d
       0.060221385 -0.122618414 0.17328042 0.06479463
0003a0 fe 60 07 3e 4d 98 3e bd e1 3c d2 3d 00 0f a6 be
       0.13220593 -0.046531964 0.10265518 -0.3243332
0003b0 cb 4e 2f bb d6 e1 1c be 98 37 a5 3c dc d4 3d 3e
       -0.0026749845 -0.15320525 0.02016811 0.1853823
0003c0 0d 0a a0 3d 46 48 a0 3d dc 5b 9a be cb 84 1f 3e
       0.07814417 0.07826285 -0.30148208 0.15578
0003d0 99 c3 a2 bd 2b 62 69 bd a0 7d 9e 3d ac f6 0a be
       -0.079474635 -0.056978386 0.07738805 -0.1357066
0003e0 d0 ff 3d be b3 fb 0b 3e 74 17 ac bd 79 8b 38 3d
       -0.18554616 0.13670234 -0.08402911 0.045054886
0003f0 75 ae 5f 3e e0 74 33 3d b0 d8 24 be f8 04 c8 bd
       0.21843894 0.043812633 -0.16098285 -0.09766573

feature_extractor.2.bias f4 [64]
000000 75 03 fb 3d eb f0 23 3e 7d dc 04 3e 3e 1b 0c be
       0.12256519 0.16009872 0.12974735 -0.13682267
000010 c2 1c 2d 3e 9d 2b 8e 3d 08 77 ec 39 17 e2 e6 bc
       0.16905501 0.06941912 0.00045102113 -0.02818398
000020 69 e2 44 3e 11 e9 90 bd 5f 98 25 3e 00 ed 46 bb
       0.19226994 -0.07075704 0.16171406 -0.0030353665
000030 4a 39 0a 3e d9 3a d3 3d 2c 26 4e 3e 57 b6 1e 3e
       0.13498417 0.10313959 0.20131749 0.15499245
000040 c1 8d 60 3e 85 b0 36 3e 7d 03 1d 3e 55 16 bd bd
       0.21929075 0.17840774 0.15333362 -0.09232775
000050 e8 8f c2 bd fe 24 85 3d 61 be c4 bd e1 ea 56 3d
       -0.09500104 0.06501196 -0.096066244 0.05247009
000060 98 0c 87 3d 77 38 6e 3d 0a 3f a1 3d d0 da ca 3d
       0.06594199 0.058159318 0.07873352 0.099050164
000070 aa 9b 46 3e 83 74 82 3d b4 9c 10 bd 39 ee af bd
       0.19395319 0.06369879 -0.035305694 -0.08590359
000080 1b da e1 3d 74 6d dc 3d d7 5f 8a 3e c4 86 d0 bd
       0.110279284 0.10763064 0.27026245 -0.101819545
000090 90 86 46 3d 3b cd 3c 3e e0 43 74 3c a4 50 2c 3d
       0.048468173 0.18437664 0.014908761 0.042069092
0000a0 ff 30 76 3e cc 26 04 bd e1 40 17 3e 93 60 9f bd
       0.24042128 -0.032263562 0.14770843 -0.07782092
0000b0 da e7 2d 3e 9c 8f 23 bd e3 47 a2 bd 6e 94 07 3d
       0.16982976 -0.03993188 -0.079238676 0.033100538
0000c0 1c 4a a0 3d 36 78 89 bd 69 2a c3 bd 8d 04 1b 3e
       0.07826635 -0.067123815 -0.095295735 0.15138455
0000d0 02 9a d4 3d 21 25 89 3e 3a 9e 9b 3d 90 2a fc 3d
       0.10380937 0.2678614 0.07598539 0.12312806
0000e0 92 e5 48 3e 92 89 48 bd 1b 9b 0f 3e c2 e4 5b 3e
       0.19618824 -0.048959322 0.14024012 0.21473983
0000f0 10 ef fd bd a0 4e bf 3d 34 49 b1 3c d6 6d cf bd
       -0.12399113 0.093411684 0.021641351 -0.101283714

actor.0.weight f4 [64, 64]
000000 c6 4e 65 bc 52 53 16 bd 2b 61 b7 3d 25 d8 91 3d
       -0.013995832 -0.036700554 0.0895408 0.071213044
000010 4d e8 ad 3c dd f5 44 bd 38 c4 99 3d 62 13 91 3d
       0.021228934 -0.048086036 0.07508129 0.07083775
000020 cf 9c c8 3d f1 e5 e5 bc 71 83 06 be 92 06 94 bd
       0.09795534 -0.028063746 -0.13136078 -0.07227816
000030 50 6b 36 3d b0 9b a4 bd 10 00 ea 3d 49 59 e9 3d
       0.044535935 -0.080375075 0.11425793 0.11393983
000040 7b d0 11 3d 24 e6 cb bd 03 b5 f8 bd 92 d7 29 3d
       0.035599213 -0.09956005 -0.121439 0.04146535
000050 a4 84 e0 bd 6d c9 80 bd e0 7d bc bd f3 d7 46 bc
       -0.10962799 -0.06288419 -0.09203696 -0.012136447
000060 15 d9 35 bc 0e 19 84 bd be ea 8a bd 6e eb 07 be
       -0.01109912 -0.06450091 -0.06783055 -0.13273403
000070 d9 31 5f 3d e4 4e ab 3d 74 58 47 bd 17 5e 3b 3d
       0.054490898 0.083646566 -0.04866834 0.045744028
000080 0f 36 f5 bd 06 35 f0 bd 11 23 f6 bd ca 0b c6 3d
       -0.119732015 -0.117288634 -0.12018407 0.09670217
000090 44 84 d3 3b 15 80 70 bc f0 99 d2 3d df 04 30 3d
       0.0064549763 -0.014678975 0.102832675 0.042973395
0000a0 7f 85 a6 bd de dc 97 3c 76 f6 2e bd 9a e6 97 bc
       -0.08130931 0.018537935 -0.042715512 -0.018542577
0000b0 2c 70 68 bd c2 33 b6 3d 38 c5 cd 3d 56 b4 8a bd
       -0.0567476 0.08896591 0.10047382 -0.067726776
0000c0 67 0a cb 3c 72 7a 86 3d 20 82 b0 bd 63 3f 9c 3d
       0.024785234 0.06566323 -0.086185694 0.076292776
0000d0 c6 9c 99 3d ed 13 b3 bd 24 e5 01 3d d9 ef 23 3d
       0.07500605 -0.08744035 0.031712666 0.04002366
0000e0 3e 8b bc 3c d8 04 3b bd ee a8 2a bc 85 01 82 3d
       0.023015615 -0.045658916 -0.010416253 0.06347946
0000f0 f8 61 71 bd 21 1e a4 ba 04 ff e0 bd bd 6c d9 3d
       -0.05893132 -0.0012521186 -0.1098614 0.10616443
000100 1c 8b 53 bc 48 8d ca bc 55 96 e1 bd 78 b1 2d bd
       -0.012911584 -0.024725571 -0.11015002 -0.042405576
000110 8a 4d 9e 3d 52 94 2b bc 44 d2 82 3d dc 2e 18 3d
       0.07729633 -0.010472374 0.06387761 0.037154064
000120 78 c5 e4 bc ab 7a 60 3d ce f0 c9 bd 42 67 f4 bd
       -0.027926192 0.054804485 -0.09860383 -0.11933757
000130 0e 42 c4 bc 40 d5 b6 3b 88 b5 3b bd 60 9c 2a bc
       -0.023957279 0.0055796206 -0.04582742 -0.010413259
000140 20 06 aa 3b 2f ca 90 bc f3 7a cc 3c 70 8a 70 3c
       0.0051887184 -0.017674534 0.02496097 0.014681444
000150 7e 82 ec 3d 2c 6b c5 bd 18 93 8c 3c ed 4a 2b bd
       0.11548327 -0.09639582 0.017159984 -0.0418195
000160 d4 ce 42 3d d0 ef 9c bd 1c 73 f8 3d a0 2f 19 3c
       0.047560528 -0.07662928 0.1213133 0.009349734
000170 78 a4 e4 3c fc 54 b9 bc 40 c6 ca bc 75 9d dd 3d
       0.027910456 -0.022623532 -0.024752736 0.10821048
000180 7c 3d 6a bd 30 91 a4 bd 9e b6 98 bd 24 0c 7f 3d
       -0.057187542 -0.08035505 -0.074567065 0.062267438
000190 b9 d7 8e bd f7 71 20 bd e4 30 b3 bd ab 26 4a bd
       -0.069747396 -0.039171185 -0.087495595 -0.049353283
0001a0 0e 39 dc 3d 0e e6 0a 3d b2 b0 f3 bd 26 f7 d5 bd
       0.1075307 0.033910803 -0.11898936 -0.104475304
0001b0 b4 d2 c6 bd c0 c8 fd bd ac ac 5a 3d 18 d3 97 bd
       -0.09708157 -0.12391806 0.05338733 -0.0741331
0001c0 5d 2a a1 bd 06 51 db 3d 51 aa cd bd 4e 11 cc bd
       -0.07869408 0.10708813 -0.10042251 -0.09964238
0001d0 60 ed 5f 3c 96 3f 9d 3d 3e 29 fc 3d 3e 32 65 bd
       0.013667434 0.07678144 0.12312554 -0.055956118
0001e0 f2 d8 fe 3d 0a 9d 4a 3d df bd e9 3c 95 ab 5b bd
       0.12443723 0.04946617 0.02853292 -0.05363043
0001f0 1a 1c b2 bd 30 d1 91 bd 62 cb 05 3d 10 d8 1d bd
       -0.08696766 -0.071199775 0.032664664 -0.03853613
000200 90 31 08 be b1 5d 83 3d 81 e2 75 bd e8 af 7d 3e
       -0.13300157 0.064143546 -0.060030464 0.24774134
000210 b3 9a 89 bc 24 76 38 bc 6c 22 17 3d 22 72 5f 3c
       -0.0167974 -0.011258636 0.03689806 0.013638051
000220 e7 28 0b 3e 3b dc cc bc 6b 01 db bc f2 dc 8d bd
       0.13589822 -0.025007358 -0.026734075 -0.069269076
000230 e5 1b 29 bd 6d 77 a3 be 76 54 89 bd 87 20 d7 bc
       -0.041286368 -0.31927052 -0.06705563 -0.026260627
000240 ec 79 a9 bd 84 9e 8e bd 64 9e 4e 3c d1 8b 97 3d
       -0.08275208 -0.06963828 0.012611005 0.07399715
000250 50 be dc 3d c2 c5 83 bd b5 06 01 3d ab 4b 57 3c
       0.10778487 -0.06434204 0.031500537 0.013140599
000260 01 35 b2 3d b3 35 12 3d 20 93 0f bc 34 00 08 3e
       0.08701516 0.035695743 -0.008763105 0.13281327
000270 70 57 8c bd 83 dc ba bd 76 30 d9 3d 84 63 96 3d
       -0.06852615 -0.091240905 0.10604946 0.073432
000280 e9 99 15 3d 80 ec 81 ba 4a d5 3e be 96 2b 90 bd
       0.036523733 -0.0009912401 -0.18636051 -0.07039563
000290 d9 31 f8 bd 6b 90 b8 3b 0a f4 be bd 00 71 8a bd
       -0.12118883 0.0056324503 -0.093238905 -0.06759834
0002a0 9d 25 f3 3d 8a 79 03 3e bd 4d 2e be 37 72 a6 3d
       0.118724085 0.12839332 -0.17021842 0.081272535
0002b0 83 0f 60 3d 74 fa c2 bd f5 15 d1 3d 37 4a b1 3c
       0.054702293 -0.095204264 0.10209266 0.021641834
0002c0 13 f2 57 be a8 f5 c7 3d c9 59 f3 bc 7f b7 97 3d
       -0.21088438 0.09763652 -0.029705899 0.07408046
0002d0 80 da 3e 3b 22 a0 57 bd aa 96 f5 3d 9f be 1b be
       0.0029121935 -0.05264295 0.119916275 -0.15209435
0002e0 7f 25 86 bd c4 12 c5 bd 3e a4 09 3e c9 93 07 3d
       -0.065501206 -0.0962272 0.1344156 0.033099923
0002f0 64 e4 f1 3d f8 28 be 39 ab 26 7d 3d 1f 41 fa bd
       0.1181114 0.00036270148 0.061804455 -0.12219452
000300 ca f0 f7 3c 9c d5 d1 bd fe 62 0e 3e 72 7f 59 be
       0.030266184 -0.10245821 0.1390495 -0.21240023
000310 90 0f 66 3d d8 c8 38 3e a9 8f 02 be f8 2c ea 3c
       0.056167185 0.18045366 -0.12750115 0.028585896
000320 f0 64 b5 3d 96 d9 92 bd aa 22 11 bc 88 db f5 bc
       0.08857143 -0.071704075 -0.008858362 -0.030011907
000330 44 3a c5 3a 7d 80 45 3e 4f b2 1c 3d 7f 14 8c 3e
       0.0015047272 0.19287296 0.038255986 0.27359387
000340 2e df 91 3e 08 ff 3d 3e bf c0 21 be a7 8d 07 3d
       0.28490585 0.18554318 -0.15796183 0.033094075
000350 e4 70 44 bd eb cf d2 3a ee 55 f2 3c af ef 0d bd
       -0.047959223 0.0016083693 0.02958199 -0.03465241
000360 e3 a9 31 3d 6a 53 06 be 68 c1 58 bd 3e 16 3b 3d
       0.043374907 -0.13117757 -0.05291882 0.04567551
000370 a4 2e 35 ba fd ff 9c 3d 50 03 67 bc 18 1c 95 bb
       -0.0006911552 0.076660134 -0.014099911 -0.004550468
000380 d2 fd 67 3c f0 15 42 3c 39 a9 01 3d e8 11 c8 3c
       0.014159637 0.011846051 0.031655524 0.0244226
000390 9b 8b 7d bd 64 f9 a4 3d 10 36 6a 3d c8 60 31 bd
       -0.061900716 0.0805538 0.057180464 -0.04330519
0003a0 61 51 98 bc 2a 35 96 3d 27 48 69 3e 8e 69 8d 3c
       -0.018593492 0.07334359 0.2278143 0.017262246
0003b0 c2 39 40 3d 60 09 c8 bd 38 5e d3 bd df d4 18 bd
       0.046930082 -0.09767413 -0.10320705 -0.037312385
0003c0 b1 c4 31 3e 60 31 a1 bb 86 7a 82 3d 57 e0 b8 3d
       0.17360188 -0.004919216 0.06371026 0.090271644
0003d0 34 c2 9e 3d 9a 0f 23 3d d0 c1 a3 bd b5 f9 91 3e
       0.07751885 0.0398098 -0.07995951 0.28510824
0003e0 fd e5 29 3d f5 c5 76 3d fd 0c 43 bd ec 4c 4a 3e
       0.0414791 0.06024738 -0.04761981 0.19755906
0003f0 e0 e2 c6 3c 96 29 5c bd 98 cd ec bc 2a ea 1e 3d
       0.024278104 -0.053750597 -0.028906628 0.038797535

actor.0.bias f4 [64]
000000 bb 84 17 3a 1d 08 8a 3b f7 9f d8 bb 23 53 38 3e
       0.0005779971 0.004212393 -0.006610866 0.18000464
000010 c1 bd e3 bb 54 0c 67 bd 66 13 90 bc 58 b6 28 3d
       -0.0069501107 -0.05640824 -0.017587375 0.04118952
000020 15 91 9d bc 9a 62 8a 3d 5d 1b e0 3d a1 36 02 be
       -0.01923422 0.06757088 0.10942719 -0.12716152
000030 97 c2 9d bd 28 01 7e 3c 30 b8 e6 bd 10 0f 69 bd
       -0.07703131 0.015503205 -0.112656 -0.05689913
000040 87 8a 14 bb 28 1f 70 3d da d8 12 3b 41 44 a3 bd
       -0.0022665577 0.058623463 0.0022407086 -0.07972003
000050 6b ab 62 3e 48 9b bf bd 1c 3d 45 3d b2 00 ac bd
       0.22135703 -0.093557894 0.04815398 -0.0839857
000060 01 56 d7 bd 5c be 92 bd a7 ad 5e 3d b0 77 9e bd
       -0.10514451 -0.071652144 0.054364827 -0.07737672
000070 f7 ba 7d 3d ab 74 cf 3c 4e 95 88 bd 47 4a 36 bd
       0.06194588 0.025324186 -0.066691026 -0.04450443
000080 0a 46 d8 bd 8a 72 9a 3d b3 a2 17 bd 60 c4 93 3d
       -0.10560234 0.07541378 -0.037020396 0.0721519
000090 3f 87 14 3d 62 2e aa bd 0e ae d5 bc 28 3b a5 3c
       0.036261793 -0.08309628 -0.026083972 0.02016981
0000a0 39 07 51 bd 7f 92 90 3d 68 8e 98 3c 42 a2 19 bd
       -0.05103228 0.07059192 0.018622592 -0.037508257
0000b0 3b 07 85 bd 3c 17 8d 3d e2 d0 69 3c 3d 8a 86 bd
       -0.0649552 0.06889197 0.014270993 -0.065693356
0000c0 38 40 e3 3c 46 58 24 3c a8 59 45 3d 81 db 57 3d
       0.027740583 0.010030812 0.048181206 0.05269957
0000d0 7d 94 c2 bc 17 85 75 bd e0 66 81 3c 53 2b 3f 3e
       -0.023752445 -0.059941377 0.015796125 0.1866887
0000e0 ff 52 b3 3c 8d 9b ba 3d fd eb 31 be 80 c8 21 3c
       0.021890162 0.091117 -0.17375179 0.009874463
0000f0 79 e5 a6 bb c0 26 39 3d e7 bd 9a bd 98 37 fa bd
       -0.0050932732 0.04520297 -0.07555752 -0.12217635

actor.2.weight f4 [4, 64]
000000 d2 c2 30 bd b1 91 1b bd 39 db 67 3e 0d 28 6b be
       -0.043154545 -0.03798074 0.2264222 -0.22964497
000010 2d 80 3d 3e e4 ce eb 3d 4d 94 f2 3d 0d 4a 4a be
       0.18505926 0.11514071 0.118446924 -0.1975481
000020 b2 90 85 3d 7b fb ea bd ff ee 97 bd d2 a3 f9 3d
       0.06521739 -0.11473747 -0.07418632 0.12189449
000030 7f f7 f1 3d b0 45 40 be b5 81 85 3e 84 5f 34 bd
       0.11814784 -0.18776584 0.2607552 -0.044036403
000040 d1 8b 2a bd 74 0f a9 3d 3d ea 9d be de 28 8b bd
       -0.041637246 0.082549006 -0.30842772 -0.06794904
000050 2b de d8 3c c2 b8 e5 3d 2b e9 62 3e 1f e8 ce 3d
       0.026473125 0.112168804 0.22159259 0.10102867
000060 e0 91 00 3e 4e ee a6 bd 3e b6 a1 be a0 24 20 bd
       0.12555647 -0.08150922 -0.31584352 -0.03909743
000070 56 10 88 3d 62 0d d7 bd f4 4a 3b bd 46 9d 15 3d
       0.06643741 -0.105005994 -0.045725778 0.03652694
000080 67 85 02 3c 76 ba 40 bd 97 04 c3 3d f6 af 06 3e
       0.007966376 -0.047052823 0.0952236 0.13153061
000090 b5 a5 9b bd 62 e7 56 3b 33 70 93 3d 0c eb 35 3d
       -0.075999655 0.0032791723 0.07199135 0.04441361
0000a0 fe dc 87 3d 3d 58 91 3d 80 48 d5 3d b5 41 3f bd
       0.06633948 0.07096908 0.10414219 -0.046693522
0000b0 f3 9c 1d 3e 94 0e 65 bd 8e f7 c0 bd 43 2f 71 bd
       0.15391903 -0.055922106 -0.09422217 -0.058882963
0000c0 0c 9f 29 be ec f8 3a 3e 9a 18 f8 bd 44 74 47 be
       -0.16564578 0.18259019 -0.121140674 -0.19477946
0000d0 82 da fa 3d b0 c2 f8 bd 89 54 84 be c7 cc 4f bd
       0.12248708 -0.12146509 -0.25845745 -0.0507324
0000e0 af c7 28 3e 7d 71 81 bd f9 f5 63 3e 3b 1f a3 3d
       0.16482423 -0.06320474 0.222618 0.07964941
0000f0 d0 e2 8c bd 3f 96 35 be 8e 3d 49 bd e2 2b 84 3d
       -0.068791986 -0.17733096 -0.04913097 0.064536825
000100 ed a7 06 3d 28 03 d1 3d 9b 53 0f 3d 3d 39 0c be
       0.03287499 0.1020568 0.03499184 -0.1369371
000110 d3 c4 97 3c 60 e2 a4 bd 29 19 30 be 0d a8 4f be
       0.01852647 -0.0805099 -0.17197098 -0.2027895
000120 48 1c cb bd e0 ba 1d bd e8 63 ba 3d 6b 10 7d bd
       -0.099175036 -0.038508296 0.09101087 -0.061783236
000130 ef 0f 23 3d 04 13 7e bd b8 6a 5a bd 28 be 6e 3d
       0.039810117 -0.062029853 -0.05332443 0.058286816
000140 03 12 d2 3d 9c 11 04 be 13 96 3d bd 64 54 7b 3d
       0.10257342 -0.12897342 -0.0462857 0.061359778
000150 18 9a 3d be 0c 09 29 bc 85 87 26 3d 0e bf 1d bd
       -0.18515813 -0.010317098 0.040656585 -0.038512282
000160 4e 3f 9c bd a4 d7 79 3d 73 17 87 39 02 73 97 3d
       -0.07629262 0.060996667 0.00025766678 0.07394983
000170 ec ec e7 3c 3c 48 d0 bd 8a 35 a5 bd 90 cd 1a bd
       0.028311215 -0.101700276 -0.080668524 -0.037793696
000180 9a 72 df bd 6a 0e 5f 3c 21 e2 87 bd 84 f9 a6 bd
       -0.109105304 0.013614276 -0.066349275 -0.0815306
000190 7b d7 08 be 2c 14 84 3c 36 1c 98 bd 50 7a 7d 3c
       -0.1336345 0.0161229 -0.07427256 0.015471056
0001a0 68 39 df bd 7a 4e 53 be b8 c7 6a 3d ac e2 9d bc
       -0.10899621 -0.20635405 0.057319373 -0.019273125
0001b0 4f b8 31 be 4d 41 b2 3d 4e 1a 21 3c ed 66 b0 3d
       -0.17355464 0.087038614 0.009832932 0.086133815
0001c0 70 99 08 be 0c 94 2a be e5 ef b6 3d af 9c 95 bc
       -0.13339782 -0.16658038 0.08932475 -0.01826319
0001d0 fd cd 61 bd 3d 07 b7 bd 56 d0 cd bd 3c 65 37 bb
       -0.055128086 -0.089369275 -0.100495026 -0.0027983924
0001e0 3c c9 69 bd 92 c1 cc 3d 78 3b 0e bc 5a c1 0d be
       -0.057076678 0.09997858 -0.008681171 -0.13843289
0001f0 a9 13 e1 3d 16 c4 1a be 97 d2 2b 3d fe b3 c0 bd
       0.10990078 -0.15113863 0.04194888 -0.09409331
000200 00 d2 a5 3d 7b 98 ee bd d6 02 8c bc 36 86 b2 3d
       0.08096695 -0.11650177 -0.017091196 0.08717005
000210 4c fc ba bd ca 37 5d bd 8c 3d 1b bd 21 17 2c 3d
       -0.09130153 -0.054008283 -0.037900493 0.042014245
000220 92 0f 25 bc dd c4 e3 bd ea 0f b4 bd 5f e2 ca bd
       -0.010074513 -0.11121533 -0.08792098 -0.09906458
000230 8c c0 95 bd 81 41 23 3e d5 7d ba 3c 20 4a b3 3b
       -0.07312116 0.15942957 0.02276508 0.005471483
000240 50 e7 c7 3d c7 68 08 3d b8 8b a3 bb 4b a0 b0 3d
       0.09760916 0.03330305 -0.004991021 0.086243235
000250 8b 74 1c be 77 d7 af bd 2b d7 88 3c f2 6d 74 3d
       -0.15278833 -0.085860185 0.016704163 0.059675165
000260 e9 b4 e6 3d 50 2c 92 3c 4f 2d 97 bd 3c fe bd 3d
       0.112649746 0.017843395 -0.07381689 0.09277007
000270 b9 73 61 bd 09 39 1a be 10 f6 43 3c 87 bd aa bc
       -0.055042002 -0.1506082 0.011960521 -0.020842327
000280 08 b3 00 3e e3 a4 e3 3d 77 c9 bc 3c f0 7c 4e 3d
       0.12568295 0.11115434 0.023045285 0.05041212
000290 e8 84 23 ba 76 c6 f8 bb c5 e3 fb bd 3c ca 2e bd
       -0.0006237761 -0.0075920178 -0.12299303 -0.042673334
0002a0 e8 26 11 bd b0 7f 81 bd 36 1c 04 be 49 98 90 bd
       -0.035437495 -0.063231826 -0.12901387 -0.07060296
0002b0 72 94 50 b8 06 16 c5 3d 33 3c d2 3d 31 4d 98 bd
       -4.9729315e-05 0.09623341 0.10265388 -0.07436598
0002c0 db 3b fa 3d 3f 13 c7 bd ec 05 73 bd 7f 75 22 bd
       0.12218448 -0.09720468 -0.05933182 -0.039662834
0002d0 0e 4d 3b 3d c0 14 b9 bd e8 7e 0d 3e 11 96 7d bd
       0.045727782 -0.09037161 0.13817942 -0.061910693
0002e0 d6 eb 8b bb f1 c6 00 3d 5a bc 07 3e 48 bc e6 bd
       -0.004270057 0.031439725 0.13255444 -0.112663805
0002f0 ed 7c ab bd 07 16 1e be 4e 02 ee 3d 20 cf d8 bb
       -0.08373437 -0.1543809 0.11621533 -0.006616488
000300 12 fb 8e 3c 17 d3 7c bd 3b 7b 3b bd b5 62 68 3e
       0.017453704 -0.06172475 -0.04577182 0.22693904
000310 cf 37 99 bc e5 3f 05 be d8 c3 77 bd 45 3b 66 3e
       -0.01870337 -0.13012655 -0.060489506 0.22483547
000320 6c 6b ea bd a8 d3 77 bd 21 9e 66 bd 0d 56 50 be
       -0.1144627 -0.060504586 -0.056303147 -0.20345326
000330 7e 07 d4 3d 52 f6 0f 3e a0 42 f6 bd 16 44 d9 3d
       0.103529915 0.14058807 -0.120244265 0.106086895
000340 9d 39 3a 3a c6 8a 3e be 61 99 1f 3e 9e 9a 6f 3b
       0.0007103922 -0.18607625 0.15585853 0.0036560665
000350 c6 d9 ee 3d 1e 8a 5d bd 54 62 0a be b0 3b 21 3d
       0.11662631 -0.054086797 -0.13514072 0.039363563
000360 24 43 2f be e8 97 28 bd ef eb 81 3e f0 f9 f9 bc
       -0.17115456 -0.041160494 0.25375316 -0.030514687
000370 48 6f e6 bd 74 84 7d 3e d8 ec 90 bd 1d 85 f3 3d
       -0.11251694 0.24757558 -0.07076424 0.11890624
000380 d1 6e 30 be 91 ef 3f bd 77 43 b9 3d 86 a9 2a bd
       -0.17229773 -0.046859328 0.09046071 -0.041665576
000390 60 b1 32 3e 23 57 25 3e 9f 61 d8 bc 8e 07 d4 bd
       0.17450476 0.16146521 -0.026413737 -0.103530034
0003a0 a1 b5 d4 3d 13 0d d4 3c 13 ab d3 3d 21 6d 42 bd
       0.103862055 0.02588514 0.10335364 -0.047467355
0003b0 c6 bb b6 3d 44 05 8b 3d f3 b8 79 3e bb 57 96 3d
       0.08922534 0.06788114 0.24386959 0.07340952
0003c0 56 1c 59 3e 79 d0 fa 3d b5 b6 c8 3d 24 84 a9 3d
       0.21202216 0.12246794 0.098004736 0.08277157
0003d0 fd 43 d2 bd e1 cd 01 3e e7 3d 94 3e 1c 74 5b 3e
       -0.10266874 0.12676193 0.28953478 0.21431011
0003e0 a1 18 2d bd 91 97 01 3c 03 ab 0b be a2 a3 ec bc
       -0.042259816 0.007909671 -0.13639455 -0.02888662
0003f0 30 6c 92 3d 0d 25 13 3e db c1 53 3d 00 36 e5 39
       0.071495414 0.14369603 0.051698547 0.00043718517

actor.2.bias f4 [4]
000000 c1 70 b2 3c 2f 0d 70 3d 0f 6f 24 3d b8 ed 60 3c
       0.02178228 0.058606323 0.040144976 0.013728552

critic.0.weight f4 [64, 64]
000000 87 9e a1 3d 61 35 81 3d 7a 7c ba 3c 44 2f d6 bd
       0.07891565 0.06309009 0.022764433 -0.10458234
000010 c4 c2 8a 3d a5 c9 c1 3d 11 4a bf bc b0 50 43 3c
       0.0677543 0.09462289 -0.023350747 0.011921093
000020 dd 59 fa bc 26 82 92 bd 50 37 23 bd 5c 7e 0c bd
       -0.030560428 -0.0715373 -0.039847672 -0.034300193
000030 62 5d d2 3d e5 e2 c2 bd b0 eb bf 3d e2 79 f2 bb
       0.102717176 -0.09515933 0.09371126 -0.0073997835
000040 b4 5f 8d bc aa f3 6e bd 41 20 c3 3d d4 75 ca bd
       -0.017257549 -0.058337845 0.09527636 -0.09885755
000050 74 6b e6 3d b4 8b a0 bc ba bd da bd ea fd 84 bd
       0.11250964 -0.019597866 -0.10680719 -0.06493743
000060 95 13 6b 3d 9e b3 b2 bd a4 0c 03 bd e1 fc 48 bd
       0.05739172 -0.087256655 -0.031994477 -0.04906929
000070 4c 33 5d 3c f6 7e d0 bd 0c 38 6a bd 26 ee a7 bd
       0.013501 -0.10180466 -0.057182357 -0.0819972
000080 33 04 cd bd 98 7d e8 3d 57 5c 47 3d 10 18 01 bc
       -0.100105666 0.1135208 0.048672047 -0.007879272
000090 77 a3 bf 3d d0 b2 c0 bd 64 6c 04 3d 1d da df bc
       0.0935735 -0.09409106 0.03232993 -0.027325684
0000a0 63 f2 27 be e1 69 70 3d 15 d1 63 3b 65 d6 0f 3c
       -0.16401057 0.058694724 0.0034762074 0.008779143
0000b0 6d f4 89 bd 38 c9 8d bd 7a 6c c1 bd 60 70 be 3d
       -0.06736074 -0.06923145 -0.094445184 0.092987776
0000c0 d4 75 7d bc fc 1a 69 3d 60 e6 3c 3d e0 d6 27 be
       -0.015469987 0.0569105 0.04611814 -0.16390562
0000d0 00 54 e7 3a ce 7d 6f 3d 94 84 1b 3d a7 f0 39 3d
       0.0017648935 0.058469586 0.037968233 0.04539552
0000e0 da 51 16 bd 0a 69 1b 3e 32 55 a7 3d b0 db 3e bd
       -0.036699153 0.15176788 0.081705466 -0.04659623
0000f0 a8 6f d5 3c 99 be 22 bd b1 46 a9 3d b2 f7 92 bd
       0.026054218 -0.03973255 0.082654364 -0.071761504
000100 5e b1 c3 3d 36 bf f5 bd ef 79 b4 bd 90 3a 02 bc
       0.095553145 -0.11999361 -0.088123195 -0.007948533
000110 d8 90 bb bd 76 ac e1 bd 04 83 1c bd 8c c4 76 3d
       -0.09158486 -0.110192224 -0.038210884 0.060246035
000120 7d 97 04 3d 0e 3b 2f 3d 40 ad 9e 3c 8a 40 ee 3d
       0.032371033 0.04278093 0.019369721 0.116334036
000130 08 f8 db bc ee 02 de bd a0 28 96 3d 07 11 87 bd
       -0.026851669 -0.108404025 0.07331967 -0.065950446
000140 90 b8 ce 3c 6a 42 c6 bd d0 82 87 bd 3c 71 26 3d
       0.02523449 -0.09680636 -0.066167474 0.040635332
000150 b0 74 df bc 62 0c 81 bc f6 ad 9b 3d fa fa 54 3c
       -0.02727732 -0.015752975 0.0760154 0.012999291
000160 91 52 65 3d 4a eb a1 bd 0c 38 91 3d 78 82 c9 bc
       0.055986945 -0.07906206 0.07090768 -0.024598345
000170 36 48 5f bd b4 8d 76 3d 5c da 85 3d ff 83 db bd
       -0.054512225 0.060193732 0.06535789 -0.10718536
000180 b8 22 ef bd 74 52 db 3d 9b 78 8a bd 80 4d 86 3c
       -0.11676544 0.10709086 -0.06761285 0.016394377
000190 83 90 90 bd c8 0b 13 bd 50 f3 d6 bd c5 85 56 bd
       -0.070588134 -0.035899907 -0.10495627 -0.052373666
0001a0 2d fa bd 3d 9b 7a 00 bd 80 c9 9b 3a f3 f2 ad bd
       0.09276233 -0.031366926 0.0011885613 -0.084936045
0001b0 7a d1 a5 bd d8 8c 8f 3c 70 e7 a8 bd 67 fe 2f bd
       -0.08096595 0.017523214 -0.08247268 -0.042967226
0001c0 38 00 e1 bc 0c 77 33 3d d4 3f 58 bd ef dc 19 3c
       -0.027465925 0.043814704 -0.052795246 0.009391054
0001d0 48 ce 88 3d c7 ab cf 3c 42 1b 8d bd 78 2c 94 bc
       0.0667997 0.025350465 -0.06889965 -0.01808761
0001e0 ba 84 f1 bd 1e 43 49 bd 79 14 7f bd 29 68 3b 3d
       -0.11792894 -0.049136274 -0.062275384 0.04575363
0001f0 94 00 be bd ea 70 86 3d e2 fb a4 bd 9c 2b 6a 3d
       -0.09277454 0.065645054 -0.08055855 0.057170495
000200 a7 f6 32 bd a9 b4 c7 3d 18 1b 70 3d c2 7f 77 bd
       -0.043692257 0.09751255 0.05861959 -0.060424574
000210 10 a8 91 bd c5 39 ae bd 41 a9 b7 3d 5c cb 83 3d
       -0.071121335 -0.085071124 0.089678295 0.06435272
000220 a6 32 2e 3d a2 c9 5f bd df d5 ff 3c d8 1a 97 bc
       0.04252877 -0.05463565 0.031229911 -0.018445417
000230 4c ce b7 bd 8e f6 16 3d 0c e6 8a bc 62 d9 fd bd
       -0.08974895 0.036856227 -0.016955398 -0.12394978
000240 b8 31 ae bd 22 1e cd 3c 5e 8f 9d bd ca 83 0f bc
       -0.08505577 0.025038783 -0.07693361 -0.008759448
000250 ba 29 f3 bd 3a 7c ee 3d 3c f4 af 3d 84 2f de 3c
       -0.11873193 0.11644788 0.08591506 0.027122267
000260 42 dd c4 bc 45 35 b7 3d 46 87 c3 3d 80 0d ec bd
       -0.024031285 0.08945707 0.09547286 -0.115260124
000270 41 10 91 bd 1b 1a a5 bc b0 ac 10 3c a6 46 de bd
       -0.07083178 -0.02015405 0.008830234 -0.10853319
000280 cf f5 81 bd e0 62 c6 bc eb bd 3a 3d e0 7d 0a bd
       -0.063457124 -0.02421707 0.045591276 -0.03381145
000290 cd b1 27 3d fe fc 2c bd 44 d8 48 3d 51 51 52 bd
       0.04094105 -0.04223346 0.049034372 -0.05134708
0002a0 0c 50 37 3c 31 48 43 bc af 12 c9 3d 2e 49 65 3c
       0.011188518 -0.011919067 0.09818017 0.013994498
0002b0 5d 89 b6 bb ac 4b 96 3d 00 50 72 3d 8e fc 32 3d
       -0.005570574 0.07338652 0.059158325 0.043697886
0002c0 d9 10 b4 bd 74 d6 96 3d 5c a7 8a 3d 4b d0 b0 bd
       -0.08792276 0.073651224 0.067702025 -0.08633479
0002d0 0c e1 b3 3d f1 39 43 bc 18 63 a7 3c 3e 23 a1 bd
       0.08783159 -0.01191567 0.020432994 -0.0786805
0002e0 ce ef 03 3d bd 81 76 bc 58 f2 f9 bd d7 3e 83 3d
       0.032211117 -0.01504558 -0.122044265 0.0640847
0002f0 d8 f1 a0 3d 87 99 c8 3d d6 8d ac 3c 4c d5 87 bd
       0.07858628 0.09794908 0.021063726 -0.0663248
000300 5b 92 a4 bd 75 ef cc bd ee 20 8f 3d a3 21 2d bc
       -0.080357276 -0.1000661 0.06988703 -0.010567102
000310 28 d8 77 3d 3d 94 0a bc f2 b6 04 be f4 80 1d bd
       0.060508877 -0.008458194 -0.12960413 -0.038453057
000320 f9 9e ab 3d 0b 71 8e 3d 0a 00 d0 bd 2a a4 e0 bd
       0.08379931 0.06955155 -0.101562575 -0.10968812
000330 94 08 4a 3d f9 f3 08 bd e6 e5 d0 3c 34 4b 82 3c
       0.049324587 -0.033435795 0.02550025 0.015905
000340 f1 32 90 3c b7 7d 5f 3d 95 9d a0 3d b0 33 0c 3d
       0.017602416 0.05456325 0.078425564 0.03422898
000350 c4 f0 21 bd 7d 3f 92 3b 98 68 c9 3d 27 1c 02 be
       -0.039536253 0.004463135 0.09834403 -0.12706052
000360 04 6e 79 bd 3e ea d7 3d 88 69 82 bc 20 d2 c0 bc
       -0.060895935 0.10542725 -0.015919462 -0.023537695
000370 11 4b 80 bd 35 d4 a6 bd 70 51 ba 3d 34 7e fe bd
       -0.06264318 -0.08145944 0.09097564 -0.12426415
000380 80 00 12 3d e0 12 8b bc cf 19 37 3d 94 8f e1 bd
       0.035645008 -0.016976774 0.044702347 -0.110137135
000390 64 2e 4b 3c 53 5f de 3d 68 0d 62 bd c4 92 53 bc
       0.012401197 0.108580254 -0.055188566 -0.01291341
0003a0 e3 c1 04 be cc 08 8f bd e4 b3 98 bd fa 35 8b 3d
       -0.12964587 -0.069841 -0.074561864 0.067974046
0003b0 02 5f be 3d 00 23 93 3b bc 50 0a bd 7a 11 11 bd
       0.09295465 0.0044902563 -0.0337684 -0.035417058
0003c0 e8 21 db 3d 18 7e 0b 3d be f8 b9 ba b6 76 c8 bd
       0.106998265 0.0340558 -0.0014188511 -0.09788267
0003d0 60 00 d2 3b 76 a1 0b 3d 1e fb cf bd ff 47 f5 bd
       0.006408736 0.034089528 -0.10155319 -0.11976623
0003e0 b7 c6 d5 3c a1 25 6a 3d 0a ad c4 3c 0a 1a a5 bb
       0.026095731 0.057164792 0.024008293 -0.0050385045
0003f0 5c 6a 61 3d bf de af bd 1a b8 ea 3c 33 0c 58 bd
       0.055033073 -0.08587407 0.02865224 -0.05274601

critic.0.bias f4 [64]
000000 85 87 fa 3d 31 a4 aa bd 6e 94 17 3d 24 18 5b 3d
       0.122328795 -0.08332098 0.037006788 0.05348982
000010 80 17 87 bd f6 cd 07 3e 7b 97 f6 3c d4 16 d5 bd
       -0.06596279 0.13262162 0.030101528 -0.10404745
000020 0a c5 01 be 57 da 66 3c ca 06 1f 3e 41 da 08 be
       -0.1267282 0.014090142 0.15529934 -0.13364507
000030 ee 19 cc bc 91 ca 22 bd 4a 82 2e 3d 59 3f a0 3d
       -0.024914708 -0.039743964 0.042604722 0.078245826
000040 b8 70 86 bd 37 38 63 bd 14 ad 08 3d a0 07 98 bb
       -0.06564468 -0.055473533 0.033368185 -0.004639581
000050 04 5a 61 bd 26 61 2d 3e 8e 8d 21 bd 64 0c 3b 3d
       -0.055017486 0.1693159 -0.039441638 0.045666113
000060 de 43 24 3e 1f c8 58 3e 80 43 d7 3d c7 d6 19 3d
       0.16041514 0.2117009 0.105109215 0.037558343
000070 f7 5e 90 bd ad cd d0 3d ef 38 f0 3c 82 2f 31 bb
       -0.07049363 0.101954795 0.029324023 -0.0027036374
000080 81 db 17 3d 55 7a b7 3d 83 fa bf 3d 65 de c5 3d
       0.03707457 0.0895888 0.09373953 0.09661559
000090 5a 5c ee 3d c0 e8 e0 bc 0e b4 a5 bd 50 e4 32 3d
       0.116387084 -0.027454734 -0.08090983 0.043674767
0000a0 f6 3c 2c 3c 6e c4 07 3e ff 8e df 3d 9e 92 62 3e
       0.010512581 0.13258526 0.10915946 0.22126243
0000b0 19 a2 2a bd 6d 2b f5 3d 75 92 1c 3e 84 18 ae 3d
       -0.041658495 0.119711734 0.15290244 0.0850077
0000c0 0b 99 37 be ad 49 ef 3d 8e 19 d3 bc ca fa da 3d
       -0.17929475 0.116839744 -0.025769021 0.106923655
0000d0 2e 62 c5 3d 9b 5a 9c bd 51 b3 3c 3d 22 f8 a4 bd
       0.09637867 -0.07634469 0.046069447 -0.0805514
0000e0 f2 13 f7 bc 25 cd ec 3d 3e af de 3c 76 d8 b5 3d
       -0.030160878 0.11562566 0.027183171 0.08879177
0000f0 be bf 83 bd 5f 70 f0 3c 7d 7c 05 3e 4b d5 ab 3d
       -0.06433056 0.029350458 0.1303577 0.08390292

critic.2.weight f4 [1, 64]
000000 80 e2 b2 bd 77 be 85 bd 69 77 e0 3d 71 e6 6f 3d
       -0.08734608 -0.06530469 0.10960276 0.058569375
000010 b8 23 c5 3d 33 a3 b1 bd d3 da 7a 3d 73 8e e3 3d
       0.096259534 -0.08673706 0.061243843 0.111111544
000020 47 ff 94 3d 5c 7d a2 3b b5 39 2b 3e 31 39 c6 3d
       0.07275253 0.0049587917 0.16721232 0.09678877
000030 4c ee 54 3c e7 f2 59 3c 2b 14 b7 bd 4f 6b 3d 3e
       0.0129962675 0.013302541 -0.089393936 0.18497966
000040 ae cc b5 bd 8f 64 a0 bc b6 0e da bd 20 15 60 bc
       -0.0887693 -0.0195792 -0.10647337 -0.013676912
000050 fa bf d0 bd 03 29 33 3e 40 eb a6 bd d6 4d f1 3d
       -0.101928666 0.17496113 -0.08150339 0.11782424
000060 d8 02 39 3e 6f 52 0b 3e e0 a6 05 be e4 ff 3f 3e
       0.18067491 0.13605665 -0.13051939 0.18749958
000070 2f 16 ef 3d bd 7a 5d 3e 4d ff e7 3d 40 0c 0e 3b
       0.11674153 0.21628852 0.11327992 0.0021674782
000080 b3 1e 58 bd 70 ad bd 3c 6c 90 a2 bd db f1 98 bd
       -0.052763652 0.02315399 -0.079377025 -0.07468005
000090 c3 e8 fb bd a0 96 31 3d 0d 8d da bd 5a 51 80 3d
       -0.12300255 0.043356538 -0.106714346 0.062655166
0000a0 bf 1a 95 bd 03 86 6d 3e 54 a5 dd bd 48 e4 2e 3e
       -0.07280492 0.23195653 -0.108225495 0.1707927
0000b0 36 b6 0b 3d d3 fc 30 3e 39 77 e0 3d 28 38 18 bd
       0.034109317 0.17283945 0.1096024 -0.03716293
0000c0 b7 da 0f be c3 1b 63 3e f6 66 97 3d 1f 09 02 be
       -0.14048277 0.22178559 0.07392685 -0.12698792
0000d0 63 86 de bd 3c 6e 3d bb 15 2d 49 bd d8 e6 4e be
       -0.10865476 -0.0028904816 -0.04911526 -0.20205247
0000e0 07 68 0d 3d 7d 8b f1 bd b3 f3 f0 bd db 85 13 3e
       0.034523036 -0.117941834 -0.11765232 0.1440653
0000f0 ff 88 5d 3d 35 f0 08 be 11 d0 11 be 99 e6 06 be
       0.054085728 -0.13372882 -0.14239527 -0.13173904

exp_avg f4 [64, 2]
000000 19 62 e6 3a 25 cf b2 3b 00 00 00 00 00 00 00 00
       0.0017576843 0.0054568225 0.0 0.0
000010 00 00 00 00 00 00 00 00 e7 7d 23 3a ee bc 7b 36
       0.0 0.0 0.00062367175 3.7511886e-06
000020 ef 87 54 3b 8d 9a 13 3a f6 c3 65 bb 68 29 a4 bb
       0.0032429656 0.0005630635 -0.0035059429 -0.005009819
000030 00 00 00 00 00 00 00 00 9e 8c ac 3b 89 64 52 3c
       0.0 0.0 0.0052657863 0.012841352
000040 cd 11 6f 3a 9a a3 1b 3a 31 54 8e 3b 3f 55 86 3b
       0.0009119779 0.00059371593 0.0043435325 0.0040995176
000050 21 9d 70 b9 8b f4 1d ba ac c0 b6 ba e0 c8 79 39
       -0.00022946719 -0.00060255144 -0.0013942919 0.00023821322
000060 00 00 00 00 00 00 00 00 00 a7 08 3b 94 22 3c bb
       0.0 0.0 0.0020851493 -0.0028707134
000070 72 6a 60 ba d4 16 68 bb 7b e2 ae 33 00 00 00 00
       -0.00085607835 -0.0035413997 8.143703e-08 0.0
000080 03 c4 84 3a 70 87 46 bb cf ab 82 39 2f 65 91 36
       0.0010129217 -0.003029313 0.0002492354 4.333116e-06
000090 eb 44 14 3a f4 ee 7c bb 00 00 00 00 00 00 00 00
       0.00056560215 -0.0038594576 0.0 0.0
0000a0 1a 7f c2 39 10 26 bc 3a 30 03 aa 39 e6 39 85 ba
       0.00037097262 0.0014354605 0.00032427302 -0.001016435
0000b0 75 ba a9 3b b2 d2 0b 3b 00 00 00 00 00 00 00 00
       0.005179698 0.00213353 0.0 0.0
0000c0 2b da 50 ba e9 19 71 bb 9f f2 e9 39 b7 11 7f bb
       -0.000796708 -0.0036789125 0.0004462199 -0.003892047
0000d0 e2 8f b6 3b 24 93 a4 3a 04 00 00 00 00 00 00 00
       0.0055713514 0.0012556058 6e-45 0.0
0000e0 00 00 00 00 00 00 00 00 00 00 00 00 00 00 00 00
       0.0 0.0 0.0 0.0
0000f0 00 00 00 00 00 00 00 00 00 00 00 00 00 00 00 00
       0.0 0.0 0.0 0.0
000100 24 07 17 3b 77 a8 ea 3a ca 41 8f 39 a7 34 6f bb
       0.0023045028 0.001790299 0.00027324102 -0.003649989
000110 00 00 00 00 00 00 00 00 65 a7 6e 3b c3 b7 91 3b
       0.0 0.0 0.0036415693 0.004446955
000120 20 9d 86 3b 9a 5c 19 39 96 e8 d0 3b 8a a0 13 3c
       0.004108086 0.00014625714 0.0063753827 0.009010443
000130 e4 ab 0c 3b 9f e5 b2 b9 73 71 af b9 93 91 b2 b9
       0.002146476 -0.00034121887 -0.00033463127 -0.00034059267
000140 ac e3 13 bb bb 6d 13 bb 30 ce 4b 3a 47 12 3a 3b
       -0.0022566123 -0.0022495824 0.000777456 0.0028392242
000150 59 bd e2 39 3a dd 97 3a 69 0b 95 3b 69 b6 34 3c
       0.00043247154 0.0011586316 0.0045484793 0.011029818
000160 04 00 00 00 00 00 00 00 6d 20 74 3a 7a f3 ff 3a
       6e-45 0.0 0.0009312693 0.0019527518
000170 00 00 00 00 00 00 00 00 dd 42 e2 3a ea c1 c4 ba
       0.0 0.0 0.0017262358 -0.0015011404
000180 7f 56 f5 3b 64 99 0c 38 00 00 00 00 00 00 00 00
       0.007487118 3.3521457e-05 0.0 0.0
000190 d1 eb e6 b9 b2 82 89 b7 14 75 54 3b 60 94 36 3b
       -0.00044044715 -1.6392532e-05 0.0032418417 0.0027859434
0001a0 58 ad e6 3b fc 9e c0 3a 6c fa 13 bb 16 62 1c 3b
       0.007039707 0.0014695819 -0.0022579683 0.0023862175
0001b0 00 00 00 00 84 62 2a 36 60 d3 44 bb 9d 13 d0 3a
       0.0 2.5389318e-06 -0.0030033216 0.0015874986
0001c0 e9 ca 99 39 b3 88 69 3a 04 00 00 80 97 e1 29 39
       0.00029333614 0.00089086144 -6e-45 0.00016201135
0001d0 30 97 ab 37 84 73 1a 3b 37 13 21 bb bb a1 91 bb
       2.045519e-05 0.0023567388 -0.0024578103 -0.0044443286
0001e0 7e 06 39 bb 77 6c c6 bb 00 00 00 00 00 00 00 00
       -0.002823263 -0.0060554105 0.0 0.0
0001f0 b7 b0 cb b7 c5 bb 88 38 00 00 00 00 00 00 00 00
       -2.4281775e-05 6.51996e-05 0.0 0.0

exp_avg_sq f4 [64, 2]
000000 d6 4a cd 3a d7 96 8e 3a 00 00 00 00 00 00 00 00
       0.0015662562 0.0010878694 0.0 0.0
000010 00 00 00 00 00 00 00 00 e3 98 51 3a a0 e2 c4 36
       0.0 0.0 0.0007995499 5.867638e-06
000020 e0 5f ee 38 68 aa 12 38 66 d4 40 3a e5 4a 32 3a
       0.000113665825 3.4967816e-05 0.00073558686 0.0006801321
000030 00 00 00 00 00 00 00 00 5b ed 0b 3c 00 36 bd 3b
       0.0 0.0 0.008540477 0.0057742596
000040 6b 8c 86 37 a3 47 45 37 1c d6 5d 3a 96 f1 fc 39
       1.6039432e-05 1.1758794e-05 0.0008462386 0.0004824518
000050 84 bc aa 39 c2 7f 76 38 d4 eb 11 3a 59 4a 36 39
       0.00032565382 5.8769954e-05 0.0005566452 0.00017384569
000060 00 00 00 00 00 00 00 00 7a 8a fa 39 e5 d1 b8 39
       0.0 0.0 0.0004778689 0.00035251598
000070 53 2c 89 39 e9 ec 14 3a 4b b7 86 2e 00 00 00 00
       0.000261637 0.00056810543 6.126174e-11 0.0
000080 f7 20 0b 3a 9d 3a c9 39 ab 2e 4f 39 0b 92 e0 2f
       0.00053073413 0.00038381378 0.00019758444 4.0849132e-10
000090 4e 2a 4d 3a fa 56 1c 3a 00 00 00 00 00 00 00 00
       0.0007826433 0.0005963888 0.0 0.0
0000a0 cf 5d cb 36 e5 e3 ea 38 79 ee c9 37 9b f9 22 38
       6.060792e-06 0.00011200438 2.4072115e-05 3.8856273e-05
0000b0 51 36 cc 39 13 d9 0d 39 00 00 00 00 00 00 00 00
       0.0003895038 0.00013527674 0.0 0.0
0000c0 84 c7 4a 3a 00 ad 06 3a 60 5c 3a 3a 38 15 0d 3a
       0.00077354186 0.00051374733 0.0007109102 0.0005381885
0000d0 3b bd b5 39 2f cf d1 38 ba 86 39 27 00 00 00 00
       0.00034663998 0.000100044876 2.5746943e-15 0.0
0000e0 00 00 00 00 00 00 00 00 00 00 00 00 00 00 00 00
       0.0 0.0 0.0 0.0
0000f0 00 00 00 00 00 00 00 00 00 00 00 00 00 00 00 00
       0.0 0.0 0.0 0.0
000100 6f 5d 51 39 43 8b d9 38 06 e4 08 3a 05 35 ec 39
       0.000199666 0.00010373306 0.00052219664 0.0004505293
000110 00 00 00 00 00 00 00 00 3c e7 ac 3a 0f f9 3e 3a
       0.0 0.0 0.0013191472 0.00072850374
000120 50 01 2c 39 b5 5c 88 38 53 cf 93 3b cd 5f 35 3b
       0.00016403687 6.5022534e-05 0.004510799 0.002767551
000130 57 8b 48 38 f3 96 e9 37 dc 38 5b 38 d4 28 8a 37
       4.7813486e-05 2.7846056e-05 5.2266623e-05 1.6469894e-05
000140 78 6d fb 38 ef 4c f9 38 da 78 b4 37 a6 7a e5 39
       0.00011989003 0.00011887575 2.1513948e-05 0.00043769664
000150 12 7d bf 38 da c9 81 38 26 42 d7 3b 9c 91 8e 3b
       9.130886e-05 6.188797e-05 0.006569165 0.004350854
000160 c1 ef 15 2e 00 00 00 00 70 e9 b8 37 e2 7f e8 38
       3.4091622e-11 0.0 2.2043212e-05 0.00011086442
000170 00 00 00 00 00 00 00 00 ba f8 1a 39 4a 32 03 39
       0.0 0.0 0.00014779242 0.00012511868
000180 94 a5 77 3b 83 9b 30 3a 00 00 00 00 00 00 00 00
       0.0037787901 0.000673704 0.0 0.0
000190 60 27 b0 3a 23 8d 61 36 10 54 b9 39 35 a4 3d 39
       0.0013439469 3.3609765e-06 0.0003534858 0.00018085616
0001a0 a0 d0 d2 39 5c 64 9d 37 7c 47 bb 3a 9a 55 33 3a
       0.0004020976 1.8762592e-05 0.0014288272 0.0006841064
0001b0 00 00 00 00 0e 48 28 31 b3 25 51 3a c2 98 ca 39
       0.0 2.4488176e-09 0.0007978335 0.00038642256
0001c0 5a 8f 5e 3a 16 35 fe 38 63 59 52 34 90 c4 9a 38
       0.0008489989 0.00012121552 1.9590293e-07 7.379905e-05
0001d0 52 3b cd 39 e2 96 33 3a 7e 67 51 38 cf 77 97 39
       0.00039144844 0.00068507914 4.9925868e-05 0.0002889023
0001e0 4f c8 de 3a 70 f7 99 3a 00 00 00 00 00 00 00 00
       0.0016996952 0.0011746716 0.0 0.0
0001f0 f3 63 40 33 66 0b 47 37 00 00 00 00 00 00 00 00
       4.4794387e-08 1.1863978e-05 0.0 0.0

exp_avg f4 [64]
000000 0b 25 ca 3a 00 00 00 00 00 00 00 00 42 42 ee 38
       0.0015422417 0.0 0.0 0.00011361066
000010 d4 a8 24 3a d9 7f de ba 00 00 00 00 8b ed 79 3b
       0.0006281261 -0.0016975357 0.0 0.0038135971
000020 a2 40 91 39 33 e6 d4 3a 22 74 01 b9 79 fc 1b b9
       0.0002770471 0.0016242921 -0.00012345662 -0.00014876005
000030 00 00 00 00 28 a4 b0 b9 ec 37 84 ba bb 9e 2c 34
       0.0 -0.00033691642 -0.0010087467 1.6076494e-07
000040 bf 0a 11 ba b9 13 57 38 26 de 55 ba 00 00 00 00
       -0.00055329123 5.1278363e-05 -0.0008158408 0.0
000050 57 1c bd 39 b1 62 37 b9 39 01 a9 3a 00 00 00 00
       0.00036070004 -0.00017489005 0.0012894041 0.0
000060 3c bc 83 ba 2a 2b 58 ba 11 56 95 3a 04 00 00 00
       -0.0010050605 -0.0008246178 0.0011393448 6e-45
000070 00 00 00 00 00 00 00 00 00 00 00 00 c6 2d 91 b6
       0.0 0.0 0.0 -4.3266655e-06
000080 46 cf 49 3a 3f 43 4f ba 00 00 00 00 c0 3c d3 3a
       0.00076984277 -0.0007906444 0.0 0.0016116127
000090 ab 64 2b 3a ee 9c 4a 3b 01 c5 8a 39 c8 0e f8 b8
       0.0006538133 0.0030916291 0.0002646819 -0.00011828315
0000a0 32 1d 5c ba 97 05 3e 3a 61 db a7 39 7f 28 57 3b
       -0.00083966844 0.0007248758 0.00032016172 0.0032830534
0000b0 43 41 ce b6 34 60 29 3a 00 00 00 00 c4 5e a8 b8
       -6.146876e-06 0.0006461174 0.0 -8.028516e-05
0000c0 8b 5e a8 3a 00 00 00 00 59 55 a3 b8 3e c6 96 3a
       0.0012845559 0.0 -7.788343e-05 0.0011503173
0000d0 d2 3a bc 3a 71 2d 87 39 94 ee 87 b6 76 ba 17 b8
       0.0014360792 0.00025783063 -4.0510877e-06 -3.617486e-05
0000e0 6f 1a 32 39 2b ab 0b 38 a9 55 3f 3a b5 5b b4 ba
       0.0001698525 3.3299595e-05 0.0007298836 -0.0013760241
0000f0 d6 d4 f0 ba 00 00 00 00 04 a5 a1 b6 00 00 00 00
       -0.0018373977 0.0 -4.8173843e-06 0.0
