models/episodes_5000/team_goal_top_right/PPOAgent/model.pt (torch, 168423 bytes, 33 tensors)

feature_extractor.0.weight f4 [64, 2]
000000 ce a8 d9 be 90 45 e4 bd 2c f0 0e 3e 4a 45 3d 3e
       -0.425116 -0.111460805 0.13958806 0.18483463
000010 80 3f 16 bf 9c a9 0f 3f 34 53 1a bd d9 13 86 3d
       -0.58690643 0.5611818 -0.037677005 0.065467544
000020 20 b4 d4 3e 56 7c 17 3f da 4d cd be fb 96 ca 3d
       0.41543674 0.59174097 -0.4009846 0.098920785
000030 4d 48 28 bf 97 cc 69 3e bb cf 98 3e 78 66 8b 3e
       -0.6573532 0.22831951 0.29845986 0.27226615
000040 ea 66 23 3e cc e1 76 3e fa ca 20 3e 15 6b ae 3d
       0.15957227 0.24109572 0.1570243 0.08516518
000050 9e 25 57 be db 9a f2 3e 77 5f c2 be 6b fb 4f bd
       -0.21010444 0.4738377 -0.3796346 -0.05077688
000060 4d af 3a bf 93 1f a6 be 5c 01 ef 3d 0f a1 65 3d
       -0.7292374 -0.32445964 0.11670181 0.0560618
000070 01 1f 4c be 0f 86 d6 bd 40 bf 8f 3e dc 9f 6e be
       -0.19933702 -0.104747884 0.280756 -0.23303169
000080 bf 02 a2 be de 53 02 3f 7f 48 94 bc 7a bd a1 bd
       -0.3164272 0.5090922 -0.018100975 -0.07897468
000090 85 08 9b be 86 69 eb 3e 61 fc 12 bf 45 12 20 bf
       -0.30279937 0.45978945 -0.5741635 -0.6252788
0000a0 c6 be 05 be 5c 77 00 3f ef 5b d9 be b3 e1 ec 3e
       -0.13061056 0.5018213 -0.42452952 0.46265945
0000b0 9f 5c 6b be 88 7a ad 3e 30 b8 21 3f ed b3 e4 be
       -0.22984551 0.33882546 0.6317167 -0.44668522
0000c0 b6 77 98 3e 29 e3 44 bf 8e 75 3e be 5d fd 7d be
       0.29778832 -0.7690912 -0.18599531 -0.24803682
0000d0 f4 a2 ad bc fc 66 e8 be 2f 02 26 bf 36 21 f4 3e
       -0.021195866 -0.4539107 -0.6484708 0.47681588
0000e0 50 99 af 3e 94 44 03 bf 72 53 01 bf 0e ce 1b 3e
       0.34296656 -0.51276517 -0.5051795 0.15215322
0000f0 f5 b1 0b 3e 5e e7 78 be c7 a6 19 bf 5b 1b ed 3e
       0.13642104 -0.2430701 -0.6002011 0.46309933
000100 5c 8a 85 bd c7 44 48 bc c8 e8 6e be d8 ec c4 be
       -0.065205306 -0.012223429 -0.23330986 -0.38461947
000110 4f 88 42 3e 67 dc 76 3d 8b 81 13 3f c6 f5 a9 be
       0.1899731 0.060268786 0.5761954 -0.33195323
000120 70 89 6e be 35 63 38 3d 86 29 bc 3e 1d 74 1d be
       -0.23294616 0.045016486 0.3675043 -0.15376325
000130 2d 6b 4d bc 98 ad d5 be 92 d4 25 bd 54 32 d4 bd
       -0.01253776 -0.41734004 -0.040485926 -0.10361162
000140 47 b3 9f 3c 05 b2 5d ba c8 b1 8e bf 8b 5f 12 3e
       0.019494666 -0.0008457008 -1.1148005 0.14294259
000150 86 fd c8 3e f9 94 2d 3e c5 d8 2d be 78 44 0f be
       0.39255923 0.1695136 -0.16977222 -0.13990963
000160 f8 43 d7 3e 6c be a7 3d 19 a2 fc 3e 21 5c 2a bf
       0.42044044 0.08190617 0.4934242 -0.6654683
000170 b0 11 96 be a1 b9 3d 3e 52 3c 15 be f6 f9 c8 3e
       -0.2931037 0.18527843 -0.14573792 0.39253205
000180 70 d7 2f 3d f4 b3 89 3e a8 e2 d0 3e 0c fa e5 3e
       0.042930067 0.26895106 0.40797925 0.44917333
000190 80 35 00 be 9d 2a 0e 3e 2d 19 88 3d 0e e5 8f ba
       -0.12520409 0.13883443 0.06645427 -0.0010978298
0001a0 4d a7 42 bf 31 3b db be f5 c7 b2 be 2c 8c 11 3f
       -0.7603653 -0.42818597 -0.3491818 0.5685451
0001b0 de 62 a7 bd 6f 80 1c be 3e a9 f8 be 92 7f 34 bd
       -0.08173154 -0.15283369 -0.48566622 -0.044066973
0001c0 5e 24 b1 3e 07 ee 75 be a9 e3 70 3d d5 02 8b 3d
       0.34598058 -0.24016581 0.058810864 0.067876495
0001d0 7d 7c 65 be 1d f5 b8 bc 96 55 64 be b3 47 33 3a
       -0.2241077 -0.022577817 -0.22298273 0.0006838992
0001e0 44 b3 00 bb 28 37 92 3e 9a 3b c2 be 1e ed 7a 3c
       -0.00196381 0.28557706 -0.37936097 0.015315322
0001f0 d6 69 00 3f f1 3b 5e bd 25 aa 20 bf 1a 42 eb 3d
       0.5016149 -0.054256383 -0.6275962 0.11487217

feature_extractor.0.bias f4 [64]
000000 6a 3a fc 3e 4e 85 3e bf 3e 32 e4 bc 6e 05 31 bf
       0.49263316 -0.74422157 -0.027855989 -0.6914891
000010 a4 b1 8d be d8 23 4c be 53 48 1c 3e fa cb ad 3e
       -0.27674592 -0.19935548 0.15261964 0.33944684
000020 1e e0 58 bf 94 f6 da be 0b 83 e2 be b1 83 0e 3f
       -0.84716976 -0.4276625 -0.44240603 0.55669695
000030 aa 11 86 3f be 3a fd be 0c 83 5e 3f f9 0c 3d 3f
       1.0474141 -0.4945888 0.8691871 0.7384792
000040 53 ec 28 be dc 5f 11 bf 78 0f ad be 5a fc c5 be
       -0.164964 -0.56786895 -0.33800864 -0.3866909
000050 08 d6 90 bf e9 37 30 3f a8 39 0f bd 62 70 ad be
       -1.1315317 0.6883531 -0.034967095 -0.33874804
000060 78 b3 75 3e 8f 25 a1 be ec bd 2b 3f 0c 92 e8 3e
       0.23994243 -0.31473967 0.6708667 0.45423925
000070 9b d3 9c 3e 65 93 97 3e a2 68 8c 3e 7c 97 04 3f
       0.30630192 0.2960464 0.27423579 0.51793647
000080 61 5f e2 be 50 b8 e3 be 85 26 89 3e 51 01 18 3f
       -0.44213393 -0.44476557 0.267872 0.5937701
000090 86 af c4 3e b4 66 86 be b3 c0 d8 be 0c 8f 95 be
       0.38415164 -0.2625023 -0.42334518 -0.292107
0000a0 16 6c 7d 3f 84 fa 9e 3e b8 8e 89 bf ff 6d 5e 3f
       0.9899305 0.31050503 -1.0746679 0.8688659
0000b0 22 35 78 bf df f2 31 3e 13 5f 85 be e6 44 00 3f
       -0.96956074 0.17377804 -0.26049098 0.5010513
0000c0 bd 2a 70 bf e6 cd b5 be 7e 19 da 3d cb d6 3d 3f
       -0.93815213 -0.3550865 0.106493935 0.74155873
0000d0 5d 3c 41 3f 62 85 f8 be 68 da 2c 3f ae 68 b4 bb
       0.7548273 -0.48539263 0.6752076 -0.005505643
0000e0 56 3e 1b 3f 6f 9b 23 3f 90 4a 75 3e c9 90 42 3e
       0.6064199 0.6390905 0.23954225 0.19000544
0000f0 fc c8 c6 be e4 2a 5a 3f e2 54 66 bf 5e c7 43 3f
       -0.38825214 0.85221696 -0.8997327 0.76476085

feature_extractor.2.weight f4 [64, 64]
000000 4f 2a ae 3c ed f3 74 3c fd 9b 10 be ae c9 86 3d
       0.021260409 0.014950735 -0.14122005 0.06581436
000010 32 e5 c9 3d 8c cf 0a 3c 91 d5 18 be be e1 92 3d
       0.09858169 0.008472335 -0.14925219 0.07171963
000020 1d 3d 68 3d d5 e7 80 bd 78 e6 94 bd b7 ed 04 3e
       0.056698907 -0.062942185 -0.07270521 0.12981306
000030 e8 be 0c bd 2f 64 eb 3c 87 f6 7d 3e 0f d9 08 3d
       -0.03436175 0.028734295 0.24801074 0.03341013
000040 65 51 5c bd 6c 8c 57 bd 10 41 1c 3d 1a 79 ac 3d
       -0.05378856 -0.05262415 0.038147986 0.08421536
000050 82 26 54 3e 37 e4 20 be 15 0d 10 3d 4f 83 32 3e
       0.20717815 -0.15712057 0.035168726 0.17432903
000060 06 6f 14 be b8 79 3e bd a7 3d a8 bd 54 a9 23 be
       -0.14495477 -0.0465028 -0.08214884 -0.15982562
000070 2f c9 67 3e 41 75 b2 3b 46 ec 29 3e 28 f3 b1 bd
       0.22635339 0.0054461067 0.16594037 -0.086889565
000080 dc b6 09 bd c0 77 2a 3c 42 37 5f 3d 33 66 23 bd
       -0.033621654 0.010404527 0.054496057 -0.039892387
000090 8b 95 55 bd 88 39 26 3e 4e d0 e8 bd b4 b5 33 bd
       -0.05214457 0.16232884 -0.11367856 -0.043874457
0000a0 60 de d6 bc 52 79 cd bd 4f 6c 7c 3c 8b b9 3f 3e
       -0.026229084 -0.10032906 0.015406682 0.18723123
0000b0 8a c6 4b 3e 4e d2 63 3e 89 8d b0 bd 09 b4 73 3d
       0.19899955 0.22248194 -0.08620746 0.059497867
0000c0 b3 56 52 3e 8c f3 23 3d f2 64 79 3d e9 d5 03 3e
       0.20540886 0.040027186 0.060887285 0.12874569
0000d0 3a 40 15 bd ee 60 f1 3d fb fe d9 3d 50 c6 bc bc
       -0.036438204 0.11786066 0.10644337 -0.023043782
0000e0 46 6d 72 3d 5a cf b0 3d ea 10 7e 3d e4 2e 97 3d
       0.059186243 0.08633299 0.06202785 0.073819906
0000f0 58 31 e1 3d cc ac 85 3d d4 8a e4 3d 4b 9f 5a 3e
       0.1099574 0.06527099 0.11159292 0.21349828
000100 d8 be 88 bd bf 78 f2 3c 25 9b ba bd 18 69 16 bd
       -0.066770256 0.029598592 -0.09111623 -0.03672132
000110 e8 49 e1 bd 50 84 f1 bd 42 62 3f 3d b3 06 5f 3d
       -0.110004246 -0.11792815 0.046724565 0.05444975
000120 72 ea d9 3d 87 9b 84 bd d1 78 32 3d 3c cd fd bd
       0.1064042 -0.06474977 0.04357225 -0.12392661
000130 50 7b 97 3c 03 7f 85 3d 7d d0 a2 3b 9c 88 40 3d
       0.018491417 0.06518366 0.0049687014 0.04700528
000140 3d 2f 69 3d 04 e4 71 3d 7c 85 c2 3d f0 e1 34 bc
       0.056929816 0.059055343 0.094981164 -0.011040196
000150 6d 7c 31 3c 92 96 f8 3a 52 07 11 3c 52 74 d8 bd
       0.010832888 0.0018965772 0.008851843 -0.10569061
000160 98 90 a9 bd dc cd 98 3d 48 fd 17 bd 02 3a 02 bc
       -0.08279532 0.074611396 -0.037106782 -0.0079484
000170 d2 11 ec bc 08 01 c1 bb 1a b7 c1 bd 09 85 fb 3c
       -0.028817091 -0.0058900155 -0.09458752 0.030703085
000180 40 87 f6 bd 48 f1 cf 3d ef d5 8b 3d 0f 63 d2 3c
       -0.12037516 0.101534426 0.06827914 0.025682
000190 20 e7 c8 bd b0 40 2e 3d 36 38 8d bd e4 4a 30 bd
       -0.098097086 0.04254216 -0.06895487 -0.04304017
0001a0 11 51 e8 bd 26 32 08 3d 21 32 d8 bd 63 17 bb bb
       -0.11343587 0.03325095 -0.10556436 -0.005709575
0001b0 01 3f 04 be f8 1f 39 3d f8 5f c2 3d 5a 53 ed 3c
       -0.12914659 0.045196503 0.09490961 0.02897041
0001c0 20 4c 3b 3d 3c dc 9a bb 73 d1 1c bd 24 e3 d9 bd
       0.045726895 -0.004725961 -0.038285684 -0.10639027
0001d0 5a 3a d5 bd 8a 24 f7 bc 48 d0 19 bd a8 25 f7 bd
       -0.1041152 -0.03016879 -0.037552148 -0.12067729
0001e0 75 ec d1 bc 07 92 a1 bd 3b 81 be bb bf fe f7 3b
       -0.025625447 -0.07889181 -0.0058137453 0.00756821
0001f0 0f 1c a3 bd d9 3d 9f bd 4b bb 31 3d d9 31 33 bd
       -0.07964336 -0.077754684 0.043391507 -0.04374871
000200 cc aa a6 bd d6 03 d0 bd 21 35 66 bd 04 75 fe bd
       -0.08138046 -0.10156982 -0.05620301 -0.12424663
000210 b5 7f 61 bc 75 09 3c 3c e7 4a 52 be ed d1 3e 3e
       -0.013763358 0.011476864 -0.20536385 0.18634768
000220 db 46 5f be d1 da 83 bd bb f7 4d bd d5 9d 25 be
       -0.21804373 -0.0643822 -0.050285082 -0.1617349
000230 43 ed 08 38 58 4c 3b 3d d8 68 6c 3e ac 1d 85 3e
       3.2645894e-05 0.045727104 0.2308687 0.259992
000240 4d 1b 0f bc 82 7f c9 3d 11 ff c6 bd dc 66 90 3d
       -0.008734536 0.09838773 -0.09716619 0.07050869
000250 d2 e3 1f be de 59 a2 3d f3 a9 a1 bd 13 93 d1 bd
       -0.1561425 0.07927297 -0.07893743 -0.1023313
000260 17 14 32 be 3a 40 f3 bd 38 63 85 bd 66 f6 86 bd
       -0.17390476 -0.118774846 -0.06513065 -0.065899655
000270 47 be 96 3b 8d d4 fb 3c 05 35 49 3e a4 e7 4d 3d
       0.0046003195 0.030741 0.19649132 0.050269738
000280 50 07 94 bc 20 de ce 3c 2e bd 96 3d 65 f4 cb 3d
       -0.018069893 0.025252402 0.07360302 0.09958724
000290 fb 55 59 3e 6c ca b1 3d 74 e2 23 3d 0e e7 f6 3d
       0.21224205 0.08681187 0.040010884 0.12055789
0002a0 e7 78 ce 3e 48 e7 0c 3d 52 57 46 be 8a 8a 9a 3e
       0.40326616 0.034400254 -0.19369248 0.30183822
0002b0 b1 1d 7e be 2b 54 14 be 24 db 3e be 34 d2 c2 3d
       -0.24816014 -0.14485233 -0.18638283 0.09512749
0002c0 6d 93 c3 be 67 3f 5b bd 42 a1 8b 3d 10 25 1f 3e
       -0.38198414 -0.053527262 0.06817867 0.15541482
0002d0 77 80 31 be 86 27 49 be 84 8e 7f 3e 9e b6 e1 bd
       -0.17334162 -0.19643983 0.24956709 -0.110211596
0002e0 83 e2 44 3d 2b e2 5a 3e 9d 98 0c 3e 35 f2 d3 3c
       0.04806758 0.21375339 0.13730092 0.02587233
0002f0 d5 87 20 3c 0a c4 a0 3e a0 c5 5a be 67 60 bd 3d
       0.00979801 0.31399566 -0.2136445 0.09246903
000300 9a a4 bf 3d 3b 30 24 bb 3b 50 5b be ea d9 c1 3d
       0.09357567 -0.0025053162 -0.21417324 0.09465392
000310 d2 ab af bb 44 82 40 bd 35 e3 45 3e cf b4 19 3e
       -0.0053610587 -0.04699923 0.19324954 0.15010379
000320 a9 99 e4 bd b5 60 c6 bd 51 70 a0 3c 00 05 f6 bc
       -0.11162121 -0.09686414 0.019584807 -0.030031681
000330 5a b8 9e bc 04 78 dd 3d c2 bd 69 be a0 1c 1f 3e
       -0.019375015 0.10813907 -0.22826293 0.15538263
000340 3c 3e a6 bc f0 77 1b 3c 71 5d 0e bf 0c b2 ea bd
       -0.020293348 0.009489045 -0.5561133 -0.11459741
000350 ef dc 2e bf 74 16 8a 3d be 85 0c be 45 e4 ec bd
       -0.6830587 0.06742564 -0.13722894 -0.115669765
000360 f4 d3 56 bc ca 6e 8e bd 72 80 b3 be f3 47 11 be
       -0.013112057 -0.06954725 -0.35058933 -0.14187603
000370 20 6b 45 bf 78 71 33 3e a1 11 ee be 4e 90 53 be
       -0.77116585 0.17523754 -0.46497825 -0.20660517
000380 30 04 e8 bc e2 b6 ab bd 7b 1d 8d 3d 86 8d 15 3d
       -0.02832231 -0.083844915 0.068903886 0.03651192
000390 8f 55 c3 be e2 29 a7 3d 58 32 d3 3d f0 10 5b bd
       -0.38151214 0.081622854 0.10312337 -0.05348295
0003a0 47 ea 85 3d 57 39 96 3d 00 ed 9d bd ae 8d fc be
       0.065388255 0.073351555 -0.0771122 -0.49326843
0003b0 04 f5 93 3d 8b 84 6a bf 6a 95 e5 3d ff d2 87 3d
       0.072244674 -0.91608495 0.11210139 0.06632041
0003c0 b7 a9 11 bf 3d ff ab 3d eb 7f 42 bd 2c a7 a0 bb
       -0.5689959 0.08398292 -0.047485273 -0.004902741
0003d0 dc 94 0f bd ab ad 35 bf 41 3b 3f bf 18 3f 2a 3d
       -0.035054073 -0.7096812 -0.7469979 0.041564077
0003e0 60 ec 87 3d 86 61 12 3d 8d 4e c1 3d 9c ee df 3b
       0.06636882 0.035737537 0.094388105 0.0068338644
0003f0 c5 08 70 3b d8 f5 fb be 77 92 af 3d 1f 87 50 bd
       0.003662632 -0.49211 0.08572858 -0.05091011

feature_extractor.2.bias f4 [64]
000000 fa 09 a6 bc 6a 92 53 bd f8 f2 e7 3e 62 97 d2 3d
       -0.02026843 -0.051653303 0.45302558 0.1028278
000010 a5 db 40 3e 78 e6 b0 be 6a c7 b3 bd 58 ba 18 bd
       0.18833788 -0.34550834 -0.087782696 -0.037287086
000020 59 69 e5 3d 71 13 1f 3e c1 ab 79 3e 41 f6 e6 bc
       0.11201734 0.1553476 0.24381925 -0.028193595
000030 d8 b1 17 bd c1 6f 8c bd 1a 2e 31 be ed d8 38 be
       -0.03703484 -0.06857253 -0.17302743 -0.180515
000040 60 81 51 3d 88 ca 93 3d 1e ee 99 3c e5 d1 aa bd
       0.051148772 0.07216364 0.018790301 -0.083408155
000050 b7 cb 3f 3e ec e5 12 be 85 ad 89 bc 00 48 c7 bd
       0.18730055 -0.1434552 -0.016806373 -0.0973053
000060 62 f6 5a 3e 56 0b ef 3a 08 48 36 bd 71 94 41 3e
       0.2138305 0.0018237631 -0.044502288 0.18904282
000070 e3 2b 68 3e 79 03 57 3d 08 72 02 be 5a 14 95 bd
       0.22672991 0.052493546 -0.12738812 -0.072792724
000080 d5 bf 9e 3d 2b 5d 0b 3d dc a2 a8 3d d2 10 bf 3e
       0.07751433 0.0340244 0.08234188 0.3731752
000090 91 e0 43 3e 3e 51 38 3e ed 6d 91 3e c8 18 8a 3e
       0.19128634 0.17999741 0.2840418 0.26972032
0000a0 08 33 1d 3e 54 9f a7 3d 6d e1 8d 3e d5 50 be 3d
       0.15351498 0.08184686 0.2771105 0.09292761
0000b0 a4 5a 37 3c 2e e5 06 3e d0 09 6e bc 7f a8 24 be
       0.011191044 0.13173363 -0.014528707 -0.16079901
0000c0 7e b6 b9 3e cf 46 aa 3d 28 0e d3 bc cf 9b 79 3e
       0.36272043 0.08314287 -0.025763586 0.24375843
0000d0 02 0f c8 bd c8 4d b5 3d ca 20 98 3e 85 90 af bc
       -0.097684875 0.08852726 0.29712516 -0.021431217
0000e0 4b d1 07 be 28 ec 2a 3b 72 62 bf 3e 61 79 87 3e
       -0.13263433 0.0026080702 0.37379795 0.26459792
0000f0 e7 9e 6c 3d bc 88 4b bd c5 33 05 3f 0c c2 28 3e
       0.05776873 -0.049690947 0.5203212 0.16480273

actor.0.weight f4 [64, 64]
000000 83 94 37 bd 38 64 db bd b5 2b 5e 3d 94 79 53 be
       -0.044819366 -0.107124746 0.0542409 -0.20651847
000010 02 90 ff bc 79 5a 2a be bc 32 bb bd 1c 1b f1 bd
       -0.031196598 -0.16636075 -0.09140536 -0.11772749
000020 9a 17 fa bd 62 b6 d3 bd 84 42 40 be 3a 31 d8 3d
       -0.12211533 -0.10337521 -0.18775374 0.10556264
000030 e9 d6 ae bd ba b4 90 3c 3e 65 ae bc 10 a9 dd be
       -0.085370846 0.017664302 -0.02128851 -0.43293047
000040 ad 93 c7 bd e0 f4 25 3d 4d 3c 97 3d d5 14 a3 3c
       -0.09744964 0.040516734 0.07384548 0.019907394
000050 99 33 65 3e 00 20 93 bd 89 ea 89 3d 27 82 2a bd
       0.22382964 -0.07183838 0.06734187 -0.04162803
000060 f7 6f 58 3e 0a 72 9e 3d 7e e7 ae bd 4c da 7d bd
       0.21136461 0.07736595 -0.085402474 -0.061975762
000070 09 ce 2f 3e db 44 e3 bd f4 08 03 be 00 4c 8f b9
       0.1716844 -0.110971175 -0.12796384 -0.0002733171
000080 0b fd a3 3d 9a af 6b 3d 69 21 c5 3d 29 b8 7e bd
       0.080072485 0.057540514 0.09625513 -0.062187348
000090 ec cd 1a 3e 17 af 9f 3d e7 c6 95 bd bc 58 42 be
       0.15117615 0.077970676 -0.07313328 -0.18979162
0000a0 fb 18 5e 3d cd cb 15 3e 94 4c 03 3e 73 df 27 3d
       0.054223042 0.14628525 0.12822181 0.040984582
0000b0 59 18 c9 3c 59 2a 72 3c 6c 69 61 3d 60 99 18 bc
       0.024547743 0.014780604 0.05503218 -0.009313911
0000c0 8b 2e 9a 3d ef 47 62 3d 00 95 2a 3a 42 58 ef bd
       0.075284086 0.055244382 0.0006507188 -0.11686756
0000d0 a2 52 59 bc da ef 89 bd b0 03 43 3e 5a 8f 86 bd
       -0.01326433 -0.06735201 0.19044375 -0.06570311
0000e0 c2 0d 04 bd ed c4 2c 39 5c 2b 31 3d 54 5a 1c 3e
       -0.032239683 0.00016476559 0.04325424 0.15268832
0000f0 62 17 af bd 15 92 c9 3d 8c 10 3c 3d 66 f1 f6 3d
       -0.08549382 0.09842316 0.045914218 0.12057762
000100 f7 3e fd 3d dd 54 95 bd 16 b5 7b bc 95 80 2b bf
       0.12365525 -0.07291577 -0.0153629985 -0.66993076
000110 a4 2a 7d 3d 92 80 82 3e 74 8c 9a bd 60 19 ca 3d
       0.061808243 0.25488716 -0.075463206 0.09868121
000120 12 f1 05 3e f9 06 ea bd 35 70 f1 be 92 a8 8d bd
       0.13080242 -0.11427111 -0.4715592 -0.06916918
000130 ca 25 94 bd f7 b7 8b 3c e7 a2 6d 3e ed 2d 98 3e
       -0.0723377 0.017055495 0.23206674 0.2972254
000140 e8 3a 78 bc aa 76 5b bc e2 48 08 3f 29 7a 3a bd
       -0.015150763 -0.013394991 0.5323621 -0.045526657
000150 1a 39 b7 3d 87 7f 60 bc 93 a0 b3 bd 0e 4a fd 3d
       0.08946438 -0.01370228 -0.087708615 0.123676404
000160 63 3e 98 3e 1d 22 b4 bd 68 08 14 bd 2e 99 17 3f
       0.29735097 -0.08795569 -0.03614083 0.5921811
000170 de cf a2 3e 0f 76 07 3e 43 c7 1f 3c a8 e9 0b bd
       0.31799215 0.1322863 0.009752098 -0.03415838
000180 e7 ff 28 3e 17 ba 2e be 51 83 13 bc 09 a0 6b 3e
       0.16503869 -0.17063175 -0.009003476 0.23010267
000190 c0 99 9a 3e 8d 43 ac 3e 89 6f 21 be 84 77 a4 be
       0.30195427 0.33645287 -0.15765204 -0.32122433
0001a0 9b f4 b5 3e b2 29 46 be 39 d4 af bd 2a cf ee 3c
       0.35538182 -0.19351843 -0.085854 0.029151518
0001b0 fd 76 18 3f 7e 06 97 3d 30 03 ac bc cc 4c 4f 3e
       0.5955656 0.07374285 -0.020997614 0.2024414
0001c0 e8 5e 19 be 12 f1 af bc 4e f9 96 3d 9e c9 e7 bd
       -0.1497761 -0.021477256 0.0737177 -0.11317752
0001d0 4f 0d 8f 3d 00 56 ef 3a b0 c9 6f 3e 54 1d 06 3e
       0.0698496 0.0018259883 0.23416781 0.13097125
0001e0 72 f5 5d bd 75 6d 19 3e 53 69 b4 3d 53 e4 1f be
       -0.054189153 0.14983161 0.088091515 -0.15614443
0001f0 ec 71 f1 3d ef be 9e 3d dc 5b 37 be 40 bd ae be
       0.11789307 0.077512614 -0.17906135 -0.3412876
000200 6d cd 8e bd 29 a2 34 3d 00 71 09 be 06 e2 c9 bd
       -0.069727756 0.04409996 -0.13422012 -0.09857564
000210 12 44 3a bd f0 94 ee bd 70 aa 6c bd 6a c9 8f bc
       -0.045475073 -0.11649501 -0.05777973 -0.017552096
000220 35 da 96 ba c7 15 36 bd d8 51 84 bd 2b 7e 5f bc
       -0.0011509123 -0.044454362 -0.06460923 -0.013640921
000230 9e bf 88 bd f1 95 9b bd d8 b4 88 bd 48 ae 8d bd
       -0.06677173 -0.075969584 -0.06675118 -0.06918007
000240 eb e1 92 bc 70 15 99 bd f0 0d 05 be de ba f6 3c
       -0.017929992 -0.07474792 -0.12993598 0.030118402
000250 ff 45 23 3d 2d cf 10 bd 41 01 3c 3d dd 04 7e bd
       0.039861675 -0.03535383 0.045899633 -0.062016357
000260 6a af 46 bd 22 0a bf bd 00 82 d8 bc d7 ac d7 3d
       -0.04850713 -0.093281046 -0.026429176 0.105310135
000270 db d5 9e bd 30 05 04 be 62 a4 f1 3b 28 31 f0 bc
       -0.077556334 -0.12892604 0.0073743323 -0.029320315
000280 68 4f 3f 3d 2d 19 23 3d d3 ea 7b 3d ce e7 31 bd
       0.046706587 0.03981893 0.061503243 -0.043433957
000290 9a 6b cc bd fc f8 a6 bd a2 82 28 3d ec 38 a5 3d
       -0.09981461 -0.08152959 0.041140206 0.080674976
0002a0 d9 cf a9 3d bd 40 b4 bd ed ac 91 3d d5 86 78 bd
       0.08291597 -0.0880141 0.07113061 -0.06067546
0002b0 98 dc 84 bd a6 e9 17 bd 38 3c 39 3d c7 82 18 bc
       -0.064873874 -0.03708806 0.045223445 -0.0093085235
0002c0 4b 37 d2 3d 3c f6 1f bd 3c 25 f8 bd e9 28 f9 bd
       0.102644525 -0.039053187 -0.12116477 -0.12166006
0002d0 1c 01 27 bd b0 2b de 3d 46 bd 47 bd 53 cd 6c 3d
       -0.040772542 0.108481765 -0.04876449 0.057813
0002e0 05 c6 2d bd d6 bc b9 3c 34 cc ca 3d cb 4b f1 3c
       -0.042425174 0.022673052 0.0990223 0.029455086
0002f0 49 d9 3c bd 42 c8 94 bd 59 cd 96 3d 6e 00 84 bd
       -0.046105657 -0.07264759 0.07363386 -0.064453945
000300 b5 80 87 3d 3e 9f 5f 3d 60 e1 57 bd 9b 41 03 be
       0.06616346 0.054595225 -0.05270517 -0.12817995
000310 4c 06 8f bd 99 e7 18 be 3a d5 e7 bd 50 90 03 be
       -0.06983623 -0.14932097 -0.113199666 -0.1284802
000320 98 e4 1d be a7 28 a2 bd ea 65 00 3c d9 0d 6c bc
       -0.15419233 -0.0791791 0.007836798 -0.014407598
000330 75 bf a9 3d 80 bc d6 3d e2 0d 27 3d a9 3f 4b bd
       0.08288471 0.10485172 0.040784724 -0.049621258
000340 9d 02 81 bd 00 16 8d b9 06 be 32 3d 06 d9 49 3d
       -0.062993266 -0.00026910007 0.04363825 0.049279235
000350 12 88 95 3c 71 cd 92 bb 3a 00 90 3c ee de 87 3d
       0.01825336 -0.004480057 0.017578233 0.06634317
000360 4e 03 9b 3c da 4c b8 3d 70 c4 4e bc 55 92 e8 bc
       0.018922474 0.08999033 -0.012620077 -0.028390089
000370 a7 d6 55 bd c1 85 d7 bc e5 fa 9d bd 18 36 08 3d
       -0.05220666 -0.026308896 -0.0771387 0.033254713
000380 e6 49 d3 ba c0 0f 1f bd a3 9a a5 3d df eb dc bb
       -0.0016120046 -0.03883338 0.08086135 -0.006741985
000390 6c 8a 89 bd a4 78 d7 bd 7d 27 0d 3d 92 15 84 3d
       -0.06715855 -0.10521057 0.034461487 0.06449427
0003a0 77 0b 9b bd 66 8b ca bd cc 3f 0c 3d 2e c8 3e bd
       -0.07570546 -0.098898694 0.03424053 -0.046577625
0003b0 e1 f8 cf bc 55 21 87 3d 5c 04 6e bd 54 7c 0b bd
       -0.02538723 0.065981545 -0.058109626 -0.034054115
0003c0 ca 09 63 3d ab 16 92 bd 98 eb c7 bc 84 ac af 3d
       0.055429257 -0.0713323 -0.024404332 0.085778266
0003d0 cb 56 41 bd 98 69 ba 3d ae 7f b7 3d 5e ce 14 3d
       -0.047201913 0.09102172 0.089599 0.03632962
0003e0 e7 7d 39 3d ac c8 ef bd 7d 6a 60 bd 3d 7b 9a bd
       0.045286085 -0.11708197 -0.054789055 -0.07543037
0003f0 05 4a e4 bd 41 5b 11 bd 88 2c 86 3c 7b 1b 56 bd
       -0.111469306 -0.035487417 0.016378656 -0.0522723

actor.0.bias f4 [64]
000000 e3 c9 68 3d c3 20 a1 bd 9f eb 94 3d 5c d6 80 3d
       0.05683316 -0.07867577 0.07271504 0.06290886
000010 f7 de 54 bd ed 5d 5a 3e bd a9 d2 3d 32 ab 95 bd
       -0.05197045 0.21324892 0.10286281 -0.073080435
000020 fa 39 fd bd b1 04 92 3a b7 77 5b bb 88 a2 b4 3d
       -0.12364574 0.0011140314 -0.0033488104 0.08820063
000030 eb 67 58 bd 0c 84 c8 bd 17 f9 22 be ac 6a 52 bd
       -0.05283348 -0.09790811 -0.15915333 -0.05137126
000040 28 f5 3f bc 37 ec ab bd a9 d5 ce bd 65 88 e8 3d
       -0.011716165 -0.08394664 -0.10099346 0.1135414
000050 80 61 e4 bb cf 09 2a 3e 6c 66 09 3e e2 49 cb 3d
       -0.0069696307 0.16605304 0.13417977 0.099262014
000060 09 99 09 bb e2 5a b9 b9 2f ed fe 3d 0d 5b a7 bd
       -0.0020995757 -0.00035353663 0.12447583 -0.081716634
000070 91 a9 40 3e 54 57 c7 bd 4e db ba bd 3c 98 ee bc
       0.18814684 -0.097334534 -0.0912386 -0.029125325
000080 74 a3 4a be 0f 7d 0a 3d d4 1a 0d 3d e5 b6 2c 3e
       -0.19788915 0.03381067 0.034449413 0.16866644
000090 b7 8d 42 3e 01 eb cc bd ac 7b dd bd 04 95 48 bc
       0.18999372 -0.10005761 -0.10814604 -0.012242559
0000a0 53 08 ff 3c 9a a7 e8 3d 1f f1 82 3c f3 20 88 be
       0.031131899 0.113600925 0.015984116 -0.26587638
0000b0 69 19 23 3e 68 15 af 3d b7 41 9d bd b0 d1 b6 bd
       0.15927662 0.08549005 -0.0767855 -0.089267135
0000c0 e8 e3 21 be 2f f9 a1 bc b6 ab 48 3d a0 1e e4 3b
       -0.15809596 -0.01977214 0.04899188 0.0069616586
0000d0 e1 5e 8b 3d d8 8f fa bd 06 c0 9f bd 10 90 3e 3d
       0.06805206 -0.12234467 -0.078002974 0.046524107
0000e0 8a 7d 13 3d 73 f1 90 bd a8 54 f4 bd f4 4c 9e bd
       0.036008395 -0.07077303 -0.119302094 -0.077295214
0000f0 63 45 88 be af c1 09 bd 87 69 c2 bd 4e 93 e5 3d
       -0.26615438 -0.033631977 -0.09492784 0.11209737

actor.2.weight f4 [4, 64]
000000 4d b8 ff bd 34 c6 89 3e 88 dd cc 3d c4 7e 3a bd
       -0.124863245 0.2690903 0.10003191 -0.04553105
000010 e9 6f 3c 3c c2 95 ce be 0a 1f 4b be a1 eb 7e 3d
       0.011501291 -0.4034863 -0.19836059 0.062236432
000020 03 ed f7 bd 3e 40 45 be 76 db 4a 3e d8 b3 03 bd
       -0.12105753 -0.19262788 0.1981028 -0.032153934
000030 23 c9 ba 3d 14 ed 1d bf 4c 9a b9 3e 75 80 a3 bc
       0.09120395 -0.6168988 0.36250532 -0.019958714
000040 22 b2 a9 3d 67 dc 1c 3d 4e a1 d5 bd 33 07 30 bf
       0.08285929 0.03829613 -0.10431157 -0.68760985
000050 46 c1 75 3d 89 36 e7 be 9c af 16 bf 45 72 12 bf
       0.059998773 -0.45158795 -0.5886171 -0.5720561
000060 ea f8 d4 bc bf 5e 38 3c 79 fb 00 bf fa 18 47 3e
       -0.025997598 0.011253058 -0.50383717 0.19443122
000070 86 3e ff be d2 70 8c 3d 73 2b d1 3e 84 4e ad ba
       -0.4985239 0.06857456 0.40853462 -0.0013222252
000080 fa 7d 3b 3e 93 4e 11 3e 55 36 0e 3e b5 18 29 bf
       0.18309775 0.1419013 0.13887914 -0.66053325
000090 bd 2d e6 be e1 35 22 be 65 d8 85 3e c1 70 57 3e
       -0.4495677 -0.15840866 0.26141658 0.21039106
0000a0 ff ad 62 3d 59 90 66 bd c1 c7 99 bd 36 8c 24 3f
       0.055341717 -0.056290004 -0.07508803 0.64276445
0000b0 7b 75 f6 be 23 ea 50 be 98 e8 83 3e 93 ba d8 bd
       -0.48136505 -0.20401816 0.25763392 -0.10582461
0000c0 62 89 3b 3f af 1b 50 3e fd 78 06 3d b8 4b 9b 3d
       0.73256505 0.2032306 0.032830227 0.075828016
0000d0 9f d7 3a bd 78 21 c9 3e c0 cd ef bc f6 1a 9b bd
       -0.04561579 0.39283347 -0.029272914 -0.07573502
0000e0 08 3d 37 be c1 bc 00 3e 46 86 cb 3d a7 9b 01 be
       -0.17894375 0.12572004 0.0993772 -0.12657033
0000f0 54 22 58 3f cc 42 af bd 0c 8f 68 bc df 84 ce bc
       0.8442738 -0.08557662 -0.014194261 -0.025209842
000100 cd f1 4c 3d 03 f4 2d bf f3 c6 f8 bc 1e 3a e8 bc
       0.050035287 -0.6795046 -0.030368304 -0.028348025
000110 f2 f7 46 3d cd f6 4f 3e 6c c8 b9 bb 68 05 7c be
       0.048576303 0.20308991 -0.005669644 -0.24611437
000120 10 da 43 3d 09 9c b1 bd f1 2e 14 3e c3 ac 08 3d
       0.047815382 -0.086723395 0.14471032 0.033367883
000130 38 00 08 3e 98 72 3f 3e e7 42 dd be ab 49 b2 3d
       0.13281333 0.18696058 -0.43215105 0.08705457
000140 63 ef 14 bf fd cb c9 3d 13 d5 db 3c ac 13 4f 3e
       -0.58177775 0.09853361 0.026835 0.20222348
000150 1a be f7 bd 63 9a 2a 3e 80 a7 3f 3e 83 0a 8f 3e
       -0.12096806 0.16660456 0.1871624 0.27937707
000160 55 75 ce bc 45 2b a1 3d 6c 44 5e 3d aa 3d 1b be
       -0.025202433 0.07869581 0.05426447 -0.15160242
000170 35 69 4a 3e 71 0a 62 bc 79 aa 78 bf 4e a3 7f bb
       0.19766696 -0.013796435 -0.9713512 -0.003900725
000180 99 f8 cc be 7f 49 85 be 4a ab 14 bf 87 6f 71 3e
       -0.40033415 -0.26032636 -0.58073866 0.235777
000190 9c 1c d4 3d b3 67 51 3e 45 90 01 bf 73 54 1a bf
       0.10357019 0.20449714 -0.5061076 -0.6028511
0001a0 09 85 f4 bc 5a 3a 67 3a c7 ae 8c 3d 4d 46 e8 be
       -0.029848592 0.0008820646 0.06869274 -0.45366135
0001b0 0a 17 39 3e 0a 96 f2 bd 78 7d 50 bf c0 8e aa 3c
       0.18075195 -0.11845024 -0.8144145 0.020820022
0001c0 7f f6 c0 be b4 63 e6 be cf fe 38 3d 42 a8 1f bf
       -0.37688062 -0.44997942 0.04516488 -0.62366116
0001d0 27 87 a6 be 36 05 b4 be a4 23 f4 3d 42 33 b9 3d
       -0.32524988 -0.35160226 0.119208604 0.0904298
0001e0 c4 4e 11 be 8b 0b a7 3d da 78 a5 3d f4 33 be 3d
       -0.14190203 0.081564985 0.08079691 0.09287253
0001f0 55 50 e7 be d6 7f be 3d de 4e af bd 55 06 6b 3b
       -0.45178476 0.093017265 -0.085599646 0.0035861928
000200 4c f8 82 3d 19 fa a6 3d 97 94 e9 3d 82 da bb 3d
       0.06395015 0.08153171 0.114052944 0.091725364
000210 d0 62 76 bd 72 70 b7 bd d7 d5 97 3c cb 29 d6 be
       -0.06015283 -0.08956994 0.018534584 -0.4182876
000220 06 62 54 3d 71 31 44 be 31 0a 2e 3c 70 99 98 bb
       0.051851295 -0.19159485 0.010622547 -0.004656963
000230 00 84 5d 3e a5 70 cf be fc 03 5a 3e f3 8c ce 3d
       0.21632385 -0.40515628 0.21290582 0.10085478
000240 e8 7c d5 be 97 ec a7 bd 34 40 b3 3d f6 16 3d bc
       -0.41696858 -0.08199423 0.0875248 -0.011541119
000250 a7 3a 56 bc 0f de 40 3e c7 3a 80 bd c9 fe 68 3e
       -0.013075507 0.18834709 -0.06261211 0.22753443
000260 6f a3 70 3e 83 50 0c bf ad 09 7d be 58 5b 6b bf
       0.23499845 -0.5481035 -0.24710722 -0.91936255
000270 a1 e4 f8 bb 82 00 0e 3d 39 15 8b bf e1 a1 ba 3d
       -0.007595614 0.034668453 -1.0865852 0.09112907
000280 71 ef 2e 3e 5f 18 ac be f7 bd ca bd 5d c3 b8 3d
       0.17083527 -0.33612344 -0.09899514 0.090216376
000290 ef b6 ea bc 85 e0 c4 be 29 e5 45 3e 83 ed ff bd
       -0.028651683 -0.38452545 0.19325699 -0.12496474
0002a0 03 e3 c7 bd b6 a3 e8 3d 44 dd 5b bd 9e 33 a3 be
       -0.09760096 0.113593504 -0.053677812 -0.31875318
0002b0 e6 e8 2c bc f7 ee 82 bc 04 9d 20 be 97 5a 9b 3d
       -0.010553574 -0.015983088 -0.15684897 0.07585638
0002c0 34 2c 1d bf 03 6f 31 bd bd bd 9d 3d 04 0e c4 be
       -0.61395574 -0.04331876 0.07702205 -0.38291943
0002d0 9b a7 04 3d 7f 9b 94 bd 7c 40 d6 3d 1b a3 0e 3d
       0.032386404 -0.07256221 0.10461518 0.03482352
0002e0 f1 3b 43 bf f6 b8 49 bd 98 92 9d bc 92 e7 dc 3d
       -0.7626334 -0.049248658 -0.01923494 0.10786356
0002f0 30 01 2c be e1 0a 06 bf a4 51 f7 3d b8 6e 4f bf
       -0.16797328 -0.5236035 0.120761186 -0.8102832
000300 b9 0e 5c be 0a 46 6f be 5d fb c5 bd c1 fe 7f bd
       -0.21489991 -0.23366562 -0.09667084 -0.06249881
000310 c9 a3 3e bc 66 c7 d7 3d a7 b8 46 3e 40 bc 38 3e
       -0.011635729 0.10536079 0.19406377 0.18040562
000320 29 91 f0 bd 90 0a 68 3d f7 d1 56 be 9c 73 c7 3d
       -0.11746437 0.0566507 -0.20978533 0.097388476
000330 8b 0a 0d bf fa 55 b8 3e 7c 59 1b be 61 cb bf bd
       -0.5509421 0.36003095 -0.15170854 -0.09364963
000340 a2 b7 00 3e bc a2 64 bc 14 06 da 3c 93 70 3f 3b
       0.1257005 -0.0139548145 0.026614226 0.0029211387
000350 cf 58 61 bd d6 b0 4f 3e c2 35 6f bc bd 1b fc 3c
       -0.055016335 0.20282301 -0.014600219 0.030774945
000360 f5 70 c4 be 0b ab 8b 3e 06 ee 10 3f b0 be 35 3e
       -0.3836743 0.27278933 0.56613195 0.17748523
000370 74 a1 3c 3d 97 c8 b7 bc 2b 4b 87 bd 7f a8 c2 3d
       0.04605241 -0.022434516 -0.06606134 0.09504794
000380 1a f5 50 be 91 8b 63 3e db 70 ee 3d 71 c7 25 3e
       -0.20405999 0.22221209 0.11642619 0.16189362
000390 2c d0 93 3e ef d7 6e 3d 2a b7 82 be f4 f5 fa 3d
       0.2886976 0.0583114 -0.25530368 0.12253943
0003a0 ec 12 64 3d 3d e6 db bd c1 b4 e3 bc bf 49 0b bf
       0.055682108 -0.10737274 -0.027796151 -0.544094
0003b0 42 1f da 3d 7a 43 65 3e fa 6b 34 3c d8 12 ae 3a
       0.10650493 0.22389022 0.011012072 0.0013280762
0003c0 4f bf 27 bf 0c 71 67 3e 5e 03 10 be 7f 2d 9c 3e
       -0.6552629 0.22601718 -0.14063784 0.3050346
0003d0 99 cd 37 3e 4e d5 a5 be 56 35 cf bd fa 08 24 bc
       0.17949523 -0.323893 -0.10117595 -0.010011906
0003e0 5d d1 45 3e 34 9b c6 3c f8 ce 01 3d 73 59 20 3d
       0.19318147 0.024243928 0.03169152 0.039147805
0003f0 6d 56 2e bf 69 36 28 3e 26 ae d6 bb 62 c0 93 3e
       -0.68100625 0.16427006 -0.006551522 0.28857714

actor.2.bias f4 [4]
000000 b4 61 f2 bd 83 b2 5f bc 02 f1 66 3e 4d a2 50 3d
       -0.11835042 -0.0136534 0.22552875 0.050936032

critic.0.weight f4 [64, 64]
000000 f1 24 bf bd 93 5e 4c bd c4 0b ba bd d6 b9 de bd
       -0.09333218 -0.04989488 -0.09084275 -0.10875289
000010 4d 87 9a bd 1c 2e 22 bd 4c 73 81 3d 6d df 26 be
       -0.07545338 -0.039594755 0.06320819 -0.16296168
000020 5f d1 6a bd fa 25 f9 bc 34 b5 17 bd e4 18 0e 3d
       -0.057328578 -0.030413616 -0.037038043 0.034691706
000030 d9 16 cc 3c 35 c2 18 3c d0 71 9c bb 03 43 18 3e
       0.024913238 0.009323646 -0.0047743097 0.14869313
000040 1d 6a 53 bd 18 12 4d bd 49 3d bc bd 58 b3 09 bd
       -0.05161487 -0.050066084 -0.09191377 -0.0336183
000050 aa 36 c0 bc bb 45 f0 bd 00 f9 89 3c bf bb c0 3d
       -0.023463566 -0.1173205 0.016842365 0.0941081
000060 1e 65 a2 bc 4c 38 90 bd 80 8c 45 3d 44 96 19 bd
       -0.019823607 -0.07041988 0.048229694 -0.03749682
000070 f9 ee d6 bd 8f 20 c5 3d 36 fd 0b be d2 77 f0 bd
       -0.10494799 0.09625351 -0.13670811 -0.11741604
000080 b9 45 54 bd 7c e6 c8 3d 84 61 9b bd d2 1f 19 be
       -0.051824305 0.098095864 -0.07586959 -0.14953545
000090 4c 4a 48 bd c2 b1 03 be a6 26 4f bc fc 66 52 bd
       -0.04889898 -0.12860778 -0.012643492 -0.051367745
0000a0 37 12 36 3d 94 61 4e 3d da bb d6 bc 9e a8 dd bc
       0.044450965 0.050386027 -0.026212621 -0.027057942
0000b0 9e df 24 be 70 bb f6 3c 90 c1 d1 3d 0c bc f3 bd
       -0.16100928 0.030118674 0.10241997 -0.119011015
0000c0 a7 58 67 bd 4c 57 92 bc 28 b3 87 bc 81 ce ea 3c
       -0.05648103 -0.017863892 -0.01656492 0.028662922
0000d0 1a 89 8b bd 0c c3 21 3d 58 5b 3b bd 12 d3 5d bd
       -0.068132594 0.03949265 -0.04574141 -0.05415637
0000e0 48 19 f3 bd de ca 8e 3c 73 15 2b bd 87 5e 81 bc
       -0.118700564 0.017430719 -0.041768502 -0.015792144
0000f0 c8 25 83 3d 1b 86 3b 3c 4f 6a a4 3d c9 8d 1c 3e
       0.064036906 0.011445547 0.08028089 0.15288462
000100 df 9d f9 3c 55 5f 27 bd ba 19 3b be 30 b6 a4 3b
       0.030470787 -0.0408624 -0.18271533 0.0050266013
000110 3d 30 1d bd 30 65 79 3d 30 61 80 bc e4 80 02 bd
       -0.03837608 0.060887516 -0.015671343 -0.0318612
000120 71 b0 0c 3d 94 fb df 3d b3 1a dd bd 90 e9 f9 bc
       0.034347955 0.109366566 -0.10796108 -0.03050688
000130 64 5c fa bd 55 7f 87 bd 4a 35 99 3d 01 f8 16 3d
       -0.12224653 -0.066160835 0.07480867 0.03685761
000140 ec cd 70 bd 98 c2 1b 3d 1c 0e 6a bc 68 e7 02 be
       -0.058790132 0.038027376 -0.0142855905 -0.12783587
000150 5c d1 e8 3c 0f 60 a4 bd 14 de b7 3d 38 1b a0 3d
       0.028420143 -0.08026134 0.08977905 0.078176916
000160 b7 b1 a3 3a bd f4 1b 3d e0 74 ef bc 7b 0e 51 3d
       0.0012488876 0.038075197 -0.029230535 0.0510392
000170 44 fd 67 bc 02 18 0c be 37 0f de bd d4 33 09 3d
       -0.014159504 -0.13681033 -0.10842746 0.033496693
000180 76 65 6e bd 61 b6 53 bd 0b 4b 0d 3d 42 17 94 3c
       -0.05820223 -0.051687602 0.034495395 0.018077496
000190 1a 6c e6 bd 01 aa f3 bd 76 35 ba bd 79 02 68 bb
       -0.112510875 -0.1189766 -0.09092228 -0.0035401864
0001a0 35 39 ad 3d 65 ff c4 3d 87 47 a3 bb 51 16 da bd
       0.08458177 0.09619025 -0.004982892 -0.10648788
0001b0 5d 64 98 bd f2 a4 fc bc e0 2c c1 3b d7 fc 19 bd
       -0.07441018 -0.03084037 0.005895242 -0.037594642
0001c0 88 04 29 3d eb 41 24 bc fa 0f b6 bd 11 51 91 3d
       0.041264087 -0.010025482 -0.08889766 0.0709554
0001d0 27 1a ab 3d 7c ed b2 3d ce 9c 9b 3d 26 3e 80 3d
       0.083545975 0.08736703 0.075982675 0.06261854
0001e0 db 12 ac 3d 30 b7 80 3c 41 ee a0 3d 50 51 e4 bd
       0.08402034 0.01571235 0.07857943 -0.11148322
0001f0 45 64 a8 3d ce 90 19 bd 26 0e 3e bd 73 ab df bd
       0.0822225 -0.037491612 -0.04640021 -0.10921373
000200 8c 33 09 3e da c1 68 3d 26 e3 0a 3f 4f 08 b2 3b
       0.1339857 0.056825496 0.5425285 0.0054331194
000210 a9 2c 7d 3e e2 f7 c5 3c a8 27 e4 3c b4 0a 40 3e
       0.24724068 0.024166051 0.02785094 0.18754083
000220 9d 21 c7 3d d7 f4 8d 3d 3e 2d 6f 3d a2 33 98 3d
       0.09723208 0.06931465 0.058392756 0.07431723
000230 39 bc b7 3d 16 59 94 bb 87 70 bc 3d 8e 7f b5 bd
       0.089714475 -0.0045272214 0.092011504 -0.0886222
000240 05 1e 15 3d d4 be 60 3c df c2 b5 bc 3f 39 1f 3e
       0.036405582 0.013717372 -0.022187648 0.15549181
000250 3d e4 01 3d a7 2f 70 3c 41 2d b5 bd 7e 6d 0f be
       0.031711806 0.014659799 -0.08846522 -0.14006612
000260 98 48 43 bd 84 a0 ec 3d 00 6c ff 3a 05 eb 75 bc
       -0.047676653 0.115540534 0.0019487143 -0.015009646
000270 eb 89 16 3e 13 14 53 3e 98 81 6f bd 3c ef 9d bd
       0.14701049 0.20613126 -0.0584732 -0.07711646
000280 c1 3b 9f 3b 9c c8 f0 bd 01 46 00 3e d4 57 f1 3d
       0.004859418 -0.11757013 0.12526704 0.1178433
000290 cf 3b 3e 3e bb 8c a0 3e ee c4 4d 3e d1 84 6b bd
       0.18577503 0.3135737 0.20094654 -0.05749971
0002a0 4e c5 9c 3d ed 5d 26 be c1 b4 90 be d9 41 a5 3d
       0.076548204 -0.16246767 -0.28262904 0.080692
0002b0 7a ef e4 3d 6d 24 b8 3d 28 75 61 3d d1 9a 93 bc
       0.11178489 0.08991323 0.05504337 -0.018018158
0002c0 d1 3a e2 3d d3 e6 49 bd e6 7d d2 3d f7 fe b0 3d
       0.110463746 -0.049292397 0.102779195 0.08642381
0002d0 c6 3d e9 bd 20 1a 26 3c 6a b4 83 be 2e 8f 1b 3c
       -0.113887355 0.010138065 -0.25723583 0.009494586
0002e0 db 3a 74 3d 6a 91 f2 3c 36 7c 6d 3d d6 ec 32 be
       0.05962644 0.029610354 0.057979785 -0.17473158
0002f0 29 d3 1e 3e c6 cb b1 bd 20 2c e0 3e 06 67 94 3d
       0.15510239 -0.08681445 0.43783665 0.07246213
000300 5b 2d 81 be 8a c0 af 3d 76 72 ab 3c 17 53 e0 3b
       -0.25229916 0.08581646 0.020928603 0.0068458426
000310 19 ee 12 be 00 bd 27 be a6 5a c5 3d b9 70 32 be
       -0.1434864 -0.16380692 0.096364304 -0.17425813
000320 28 31 87 bc 4d 7a 76 be 7a 8d 0e bd 9d 94 7e 3c
       -0.016502932 -0.24070092 -0.03480289 0.015538362
000330 ff bf 71 bd 28 0b 9f bb c0 b1 48 bd 51 10 b8 3d
       -0.059020992 -0.004853625 -0.04899764 0.08987487
000340 1e fa a1 bc c8 59 db 3d 36 1e 28 3e 09 a1 e4 bd
       -0.019772585 0.10710484 0.16417775 -0.111635275
000350 1b db 26 be 1c cd 81 bd f6 ec 75 bd 48 1a d5 3c
       -0.1629452 -0.0633795 -0.060040437 0.026013508
000360 f5 8b cb bd 04 57 3d bd a0 6f c7 bb 27 aa 15 3d
       -0.09938804 -0.046225563 -0.006086305 0.036539223
000370 63 cf 74 bd 8b 5e 32 bd 8c 8b 51 bd aa 75 d3 bd
       -0.059768092 -0.043547194 -0.051158473 -0.10325177
000380 a1 38 f2 3d f8 47 d4 3c 79 21 25 be f2 1a 8a bd
       0.11827207 0.025913224 -0.1612605 -0.06743421
000390 40 a9 0b bd 72 9a d5 3d eb ad 0d be 91 19 fc bd
       -0.034096956 0.10429849 -0.13835876 -0.12309564
0003a0 b0 fe 65 bd ae bd 87 bd 4c a9 77 3d d4 24 88 3d
       -0.056151092 -0.066279754 0.06046419 0.066476494
0003b0 4f 33 b4 3d 62 6a 88 bd 84 a3 09 bd a5 7c 5e bd
       0.08798849 -0.06660916 -0.033603206 -0.05431809
0003c0 b1 6d db bd 5e 2d 41 bd 26 2a d4 bd 9e 0d 36 bd
       -0.10714281 -0.047162406 -0.10359602 -0.04444658
0003d0 f5 02 95 bd 0a d7 8d bd 06 7d 15 3e 21 8c 33 bd
       -0.07275955 -0.06925781 0.14598474 -0.04383481
0003e0 90 fc f7 3d 31 a3 5f 3d f1 80 41 3d 2c 3c 20 3e
       0.12108719 0.05459899 0.04724211 0.15647954
0003f0 c3 5c d4 3d 02 5a 03 bd 0a 3c 51 bd 53 43 69 3d
       0.103692554 -0.03206826 -0.05108265 0.05694897

critic.0.bias f4 [64]
000000 7e 84 3d 3a 22 ec b6 3d 69 4f 94 3d 40 56 e9 bc
       0.00072295207 0.089317575 0.07241709 -0.02848351
000010 fd 0e a2 3e 5c 33 0a 3e ff 4c 9c bc a4 2d 0e 3d
       0.3165206 0.13496155 -0.019079683 0.034711495
000020 85 33 47 bd 8e ca 48 bd 1e 77 6b be ed e4 4d 3c
       -0.048633117 -0.049021296 -0.22994658 0.012566787
000030 26 ed 93 bd df 35 03 be f9 80 13 be f0 b6 36 3e
       -0.07222967 -0.12813519 -0.14404668 0.17843223
000040 5f 18 4a bd c7 51 b7 3d 52 b2 c2 3e 98 df eb bc
       -0.04933965 0.08951145 0.38026673 -0.028793141
000050 13 eb 7d bd 69 d8 fc bd f1 55 5a 3c ab 75 e1 3c
       -0.061991762 -0.123459645 0.013326154 0.027521929
000060 96 9c 88 3e 25 e1 a4 bd 8d 53 d9 3c 13 c2 01 bd
       0.26681966 -0.080507554 0.026529098 -0.031679224
000070 93 c9 11 3e c9 90 96 3d e1 64 66 3e 9c ed 55 3e
       0.1423705 0.07351834 0.2249942 0.20891422
000080 85 31 81 3d 1f 56 92 3e 56 b7 f4 bd 3b 99 6e 3e
       0.06308273 0.2858133 -0.11949031 0.2330064
000090 71 eb fa bc 9a 85 53 3e de 80 3f be 5e 1d 07 3e
       -0.030629845 0.20656434 -0.18701503 0.13194796
0000a0 b4 fa 2d 3e 25 a4 5b bd df ba 99 bd 0e 35 8b bc
       0.16990167 -0.053623337 -0.07506346 -0.016993072
0000b0 e8 5c 8d 3e 31 2b 98 bc 3f 9e c2 bd b5 10 5d 3e
       0.27609944 -0.018575283 -0.09502839 0.21588404
0000c0 be 64 dd bd 59 0b d3 bd 1e 91 09 be f3 bd 7b 3d
       -0.10810231 -0.10304899 -0.13434264 0.061460447
0000d0 e1 f2 97 3e b3 13 a8 3d f6 b7 b3 3d 8a 3b ed 3d
       0.2967749 0.08206882 0.08775322 0.11583622
0000e0 2b d4 75 bd 9b cc b9 3d e2 bb 3f bd a1 81 d2 3d
       -0.060016792 0.090722285 -0.04681004 0.10278631
0000f0 c0 01 98 3a a6 4f c7 3d 54 6f 93 3e 14 e2 74 3e
       0.0011597201 0.097319886 0.28795874 0.23914367

critic.2.weight f4 [1, 64]
000000 03 e5 21 bd 56 ea c3 bd 18 2d 52 3e 51 dd 8e 3d
       -0.039525043 -0.095661804 0.20525014 0.069758065
000010 1e 86 38 3e a2 93 a9 3c f7 ca 4b be b7 1e ed 3d
       0.18019912 0.02070028 -0.19901644 0.11578124
000020 ca 9f d1 bc f2 f2 52 3e 19 a2 10 bc e4 2d b5 3d
       -0.025588889 0.20600489 -0.00882771 0.088466436
000030 d6 0b c2 bd 36 9e 69 bd 4b 62 b1 bb 87 0d 01 3e
       -0.09474914 -0.057035647 -0.0054133288 0.12602817
000040 57 5d 96 bc a7 69 ab bd a9 f8 db 3e 9c 62 3b 3d
       -0.018355055 -0.08369761 0.4296315 0.045748338
000050 70 a4 02 be f0 cb 70 bd a2 b8 cb 3d ca f3 f9 3b
       -0.1275804 -0.05878824 0.09947325 0.007627939
000060 9c f9 b2 3d 28 da 4c bc 93 78 51 be 3b 39 90 3d
       0.087390155 -0.012503184 -0.20456152 0.07042166
000070 95 be 29 3e 93 ca 62 3d 41 8f 0f 3e df 6b 0d bf
       0.16576608 0.05536897 0.14019491 -0.55242723
000080 f8 e3 9e 3d a1 32 1d bf f9 98 91 bd fd d9 01 bf
       0.07758325 -0.6140538 -0.07109255 -0.5072325
000090 90 0a 51 3d 64 8d 25 3e ec de 31 3d ed d5 5c bd
       0.051035464 0.16167217 0.043425485 -0.053914953
0000a0 4b b5 47 3e cb 20 60 3d e8 91 85 bd 0b dc 16 bc
       0.19502752 0.054718774 -0.0652197 -0.009207736
0000b0 9a 46 3d 3e 0b 58 8b be b5 f6 69 bd 51 99 14 3e
       0.18483964 -0.2721561 -0.057120044 0.1451161
0000c0 6e 44 81 bd 67 8f 01 be 7c 50 95 bd 4f 58 0d 3c
       -0.0631188 -0.1265236 -0.07290742 0.008627011
0000d0 8a 32 21 3e 97 c6 a5 bd 61 b3 ec 3d f7 19 53 3e
       0.15741935 -0.08094519 0.11557651 0.20615374
0000e0 54 44 a7 bd 3f 3c 70 3d 4a 2d d7 bd 8b 0f 6f 3e
       -0.081673294 0.058651205 -0.10506685 0.23345773
0000f0 3e b6 d1 3d 7e 98 13 3c 1e 4c 8e 3e 19 b0 06 bf
       0.10239838 0.009008525 0.27792448 -0.52612454

exp_avg f4 [64, 2]
000000 0e 4a de b7 89 d6 12 ba 1c 8b a0 bb 01 c0 e2 bb
       -2.6498947e-05 -0.0005601426 -0.0048993956 -0.0069198613
000010 4b 2a 35 3b 3f 9c 58 3b 00 00 00 00 00 00 00 00
       0.0027643617 0.0033052114 0.0 0.0
000020 49 15 19 3c 51 90 aa 3b 7b 4e c0 33 c3 76 d1 35
       0.009343454 0.005205192 8.954972e-08 1.5606278e-06
000030 b1 21 56 b8 c1 ba ad b6 21 a8 06 3c ac 67 a5 3b
       -5.1052953e-05 -5.177543e-06 0.008218796 0.005047759
000040 95 d9 92 bb fd b7 9d bb 96 38 0e bb dd 0c 18 bb
       -0.004481504 -0.004813193 -0.0021701208 -0.0023201026
000050 44 ac f7 39 d6 ad 42 3a bc e5 fd b7 72 09 a7 b9
       0.0004723986 0.0007426416 -3.0266929e-05 -0.0003185976
000060 5b 15 3f b7 d1 25 00 ba a1 2c 32 bb 84 08 5e bb
       -1.1389459e-05 -0.00048884476 -0.0027187245 -0.0033879587
000070 28 db 1d 3b 1d f3 9d b9 76 ad 18 3c 7c b3 ad 3b
       0.0024086926 -0.00030126507 0.0093187 0.005300937
000080 b8 70 2f 3b 8b 7b 4b 3b 00 00 00 00 00 00 00 00
       0.0026770066 0.003104898 0.0 0.0
000090 40 8e 69 bb cc c6 76 bb 00 00 00 00 00 00 00 00
       -0.0035637766 -0.0037655113 0.0 0.0
0000a0 bd ba 0c bc b8 e1 18 bc b1 65 2e 3c c1 8c 39 3c
       -0.008589444 -0.009331159 0.010644362 0.011325062
0000b0 10 0b 6a 3b ad b9 86 3b 4f ff 80 bc 41 09 8a bc
       0.003571216 0.0041114897 -0.01574674 -0.016850116
0000c0 b3 87 dd bb c2 28 35 ba 00 00 00 00 00 00 00 00
       -0.0067605614 -0.00069106754 0.0 0.0
0000d0 63 9e dc bb f3 59 7b ba 76 bf dd 3a 57 2a 05 3b
       -0.0067327484 -0.00095882936 0.0016918022 0.0020319426
0000e0 4d 93 6f 3b 66 8a d4 39 cd 2c 05 b7 42 32 f1 b8
       0.0036556304 0.00040538906 -7.937849e-06 -0.00011501137
0000f0 bb 34 d6 3b a9 37 3e 3a eb 11 68 3b a0 dc 88 3b
       0.0065370477 0.0007256219 0.003541107 0.004176691
000100 00 00 00 00 00 00 00 00 00 00 00 00 00 00 00 00
       0.0 0.0 0.0 0.0
000110 9d 49 03 3c 74 c4 80 3b f1 19 85 3b d6 51 1c 3a
       0.008013156 0.003929669 0.0040619303 0.0005963122
000120 af 2f 30 39 0a 93 a7 38 30 7e be ba 07 df 55 bb
       0.00016802431 7.990569e-05 -0.0014533456 -0.0032634155
000130 00 00 00 00 00 00 00 00 00 00 00 00 00 00 00 00
       0.0 0.0 0.0 0.0
000140 ca c1 9e 3c 33 10 65 3c b7 75 94 38 7b 85 a4 39
       0.019379515 0.013980913 7.079116e-05 0.00031379968
000150 50 f0 54 bc ec 11 3c bc 1d 84 ba 3b b9 85 b5 b8
       -0.012996748 -0.011478882 0.0056920187 -8.65566e-05
000160 c5 16 49 bc 19 77 3a bc 39 0d 87 3a 22 48 b8 38
       -0.012273495 -0.011380934 0.0010303623 8.7872395e-05
000170 15 74 0c b9 0b d0 26 b9 93 63 0b 3c 56 e1 ea 3b
       -0.00013394684 -0.00015908496 0.008507627 0.0071679754
000180 19 14 4e bc 1a b0 58 bc e5 8f 1b 3b 82 7a b3 3a
       -0.012578034 -0.01322558 0.002373689 0.0013693126
000190 f5 a6 df 3b d6 77 f5 3b 67 87 4a 3c 4a 14 06 3c
       0.0068253228 0.007491092 0.012361384 0.008183548
0001a0 04 00 00 00 91 1a 36 b2 7c 80 c6 bb 35 b2 d1 bb
       6e-45 -1.0599835e-08 -0.006057797 -0.0063994178
0001b0 31 12 a7 3b f5 9a f3 b7 00 00 00 00 00 00 00 00
       0.005098604 -2.9040015e-05 0.0 0.0
0001c0 45 cc 8f 3b 20 74 3e 3b 89 83 3e 3c a7 be f4 3b
       0.0043883645 0.0029060915 0.01162804 0.0074690166
0001d0 f3 ea b8 37 68 82 83 b9 69 01 e7 0a 45 fa b4 b7
       2.2043916e-05 -0.00025083427 2.2245021e-32 -2.1574213e-05
0001e0 7a 6e 16 3b 1c f3 14 3b 28 f8 2b 3a 1e 84 8b 39
       0.0022954033 0.0022727912 0.00065601105 0.0002661058
0001f0 7b dd 4a bc 7b 35 2f bc 24 4e 12 39 ab d8 83 b8
       -0.012381907 -0.010693903 0.00013952755 -6.286924e-05

exp_avg_sq f4 [64, 2]
000000 40 c6 93 33 04 9b f6 39 17 d1 4a 3b a5 fe 3a 3a
       6.8812824e-08 0.00047036272 0.0030947381 0.0007133282
000010 c8 3b db 37 7d 68 6c 38 00 00 00 00 00 00 00 00
       2.6134672e-05 5.6364097e-05 0.0 0.0
000020 53 c6 42 3a 17 fd 82 39 42 4d be 31 36 ea c9 36
       0.00074300653 0.000249841 5.538511e-09 6.0175325e-06
000030 a1 a1 5e 37 df 0b 64 39 bf 7b eb 39 ce a1 7c 39
       1.3269863e-05 0.00021748197 0.0004491489 0.0002409287
000040 11 07 a0 3a 41 94 07 3a e0 16 52 39 4a 01 7b 39
       0.0012209137 0.0005171933 0.00020035682 0.00023937706
000050 ca 65 76 39 08 0e b9 39 c7 94 f3 36 9d cc da 39
       0.00023498308 0.00035296404 7.2592843e-06 0.0004173265
000060 13 01 09 34 88 4a f8 39 e3 57 3e 3a db 10 87 39
       1.275951e-07 0.00047357776 0.0007261021 0.00025761765
000070 9d 2e ab 39 fa 0b 89 3a 53 45 97 3a 35 be a0 39
       0.0003265039 0.001045584 0.0011541046 0.00030659293
000080 28 19 4d 39 59 f1 70 39 00 00 00 00 00 00 00 00
       0.00019559695 0.00022978093 0.0 0.0
000090 29 9f f4 39 86 92 02 3a 00 00 00 00 00 00 00 00
       0.0004665789 0.000498094 0.0 0.0
0000a0 7c e4 d0 3a c7 16 fb 3a 48 84 fd 3a ed cd 06 3b
       0.0015937234 0.0019156568 0.0019341791 0.0020569519
0000b0 1d 8f 79 39 af 5e 93 39 e3 f8 94 3b 17 08 95 3b
       0.00023799804 0.0002810857 0.004546271 0.0045480835
0000c0 17 06 66 3a 25 e5 f0 37 00 00 00 00 00 00 00 00
       0.0008774711 2.8716933e-05 0.0 0.0
0000d0 95 ec 14 3b ec 26 9c 38 d7 0e a8 37 51 01 98 38
       0.0022724022 7.4459094e-05 2.0034071e-05 7.24817e-05
0000e0 9f fb 8b 39 80 9d 3e 38 b8 c4 11 37 95 32 02 39
       0.00026699618 4.5446213e-05 8.688476e-06 0.0001241661
0000f0 bf 5a 94 3a 2a 51 91 38 a6 0b be 39 79 1c e9 39
       0.0011318548 6.929257e-05 0.00036248303 0.00044462437
000100 00 00 00 00 00 00 00 00 00 00 00 00 00 00 00 00
       0.0 0.0 0.0 0.0
000110 ca fd 31 3a 1a f9 ca 39 5b c1 17 3a 17 98 76 39
       0.00067898317 0.00038714038 0.0005789005 0.00023517046
000120 95 83 01 38 0d fc 52 39 ec 85 9d 39 df 9f 8b 39
       3.0878542e-05 0.00020121057 0.00030045153 0.0002663126
000130 00 00 00 00 00 00 00 00 00 00 00 00 00 00 00 00
       0.0 0.0 0.0 0.0
000140 ae 78 4c 3b 89 27 a8 3a 7f 18 01 34 c7 cb b1 38
       0.003119986 0.0012829165 1.2022973e-07 8.477974e-05
000150 7e df 48 3b 44 15 00 3b a4 a8 09 3a 11 10 dc 39
       0.003065079 0.0019543925 0.00052512647 0.0004197364
000160 2a d4 f8 3a 88 15 90 3a f2 eb 40 38 0b 51 47 37
       0.0018984128 0.0010992745 4.599611e-05 1.1880194e-05
000170 81 f1 4b 37 21 90 56 39 c1 cc c3 39 ca 18 ca 39
       1.2155972e-05 0.00020462323 0.00037345852 0.00038546912
000180 91 58 a0 3c a8 ba a8 3c ba ec 15 3a 39 b8 58 39
       0.019573482 0.020596817 0.0005719174 0.00020667994
000190 d3 67 67 39 c0 1d 91 39 ea c5 87 3a 26 0e fe 39
       0.00022068554 0.0002767872 0.0010358666 0.00048457197
0001a0 28 60 86 2e 4b 90 5e 33 86 35 b3 3a 73 70 ba 3a
       6.110695e-11 5.1819637e-08 0.0013672567 0.0014224186
0001b0 c8 62 61 3b b7 67 1a 3a 00 00 00 00 00 00 00 00
       0.0034391154 0.00058900885 0.0 0.0
0001c0 41 81 3b 39 e5 6f 9f 38 1b 4b 56 3a 28 34 ec 39
       0.0001788186 7.602553e-05 0.0008174644 0.00045052287
0001d0 44 cb 99 33 ec 41 29 39 67 7b 6f 35 c5 5c 73 37
       7.1615915e-08 0.00016141654 8.921401e-07 1.4505528e-05
0001e0 56 26 a6 38 8b a6 8c 38 75 d4 9a 38 d0 79 df 39
       7.9226375e-05 6.706741e-05 7.3828654e-05 0.00042624632
0001f0 5d f1 be 3a 60 07 80 3a e8 74 80 37 b9 35 2d 39
       0.0014567781 0.0009767823 1.5313228e-05 0.00016518579

exp_avg f4 [64]
000000 96 ea a5 b9 c6 4a 8f ba 55 5a 0c 3a 00 00 00 00
       -0.00031646033 -0.0010932318 0.00053540367 0.0
000010 21 5e 10 3b d6 22 67 35 7b ae 59 b8 fc 25 fe 3a
       0.0022028761 8.61049e-07 -5.189933e-05 0.0019389982
000020 78 be 83 ba cb 45 0e ba c7 ec f1 38 3e 55 7c b9
       -0.0010051271 -0.000542727 0.00011535879 -0.00024064348
000030 f0 e0 92 b9 f9 55 3d ba 70 b0 79 3a 46 dd 10 3b
       -0.00028014882 -0.0007222589 0.00095248874 0.0022104545
000040 1a f6 1d 3a 00 00 00 00 b5 dc 66 ba 00 00 00 00
       0.00060257467 0.0 -0.00088066916 0.0
000050 9e c1 dd ba 3a d7 35 3b 89 ea 66 3a b7 ba 86 bb
       -0.0016918664 0.0027746693 0.0008808752 -0.0041116136
000060 2d 0e c6 ba 00 00 00 00 48 b5 be ba 6a 57 ca 39
       -0.0015110426 0.0 -0.0014549876 0.0003859357
000070 df db 6c 3a a6 e7 07 b8 ee a8 cc 3a cf 20 62 3a
       0.0009035449 -3.2402248e-05 0.001561431 0.00086261047
000080 00 00 00 00 00 00 00 00 56 96 e7 3a cb 6c 70 3a
       0.0 0.0 0.0017668705 0.0009171485
000090 7e 19 19 39 af 81 e9 b9 00 00 00 00 00 00 00 00
       0.00014600714 -0.00044537845 0.0 0.0
0000a0 cc 47 93 3b cd 12 c8 37 57 88 50 bb 9b 5f d9 3a
       0.004494643 2.3850613e-05 -0.0031819546 0.0016584279
0000b0 e9 92 3a bb c7 03 ab 39 cc 2c a6 b8 32 ad 0b 3b
       -0.0028468913 0.00032618476 -7.923841e-05 0.002131295
0000c0 7f 8d 20 bb 6c 82 2c 3a 2f 4d d6 3a 94 8a 43 3b
       -0.00244984 0.00065807137 0.0016349907 0.0029837238
0000d0 e6 4a 23 b2 2c 03 d9 ba ef 6b b2 3a 00 00 00 00
       -9.504879e-09 -0.0016556731 0.0013612489 0.0
0000e0 76 79 8a 3a 38 60 39 3b f5 b4 f0 b8 c7 39 0a 36
       0.0010564763 0.002828611 -0.00011477798 2.0597233e-06
0000f0 20 a5 0f 3a 51 9f eb 39 d5 33 44 bb af 66 80 38
       0.00054796226 0.00044941393 -0.002993812 6.122642e-05
