models/episodes_5000/team_goal_top_left/PPOAgent/model.pt (torch, 168423 bytes, 33 tensors)

feature_extractor.0.weight f4 [64, 2]
000000 15 01 ef be 4a 50 d3 3e 27 1c 91 be 1d d4 07 3f
       -0.46680513 0.41272193 -0.2834179 0.53058034
000010 ac e1 39 3e ee 84 9e bd bc 1d e2 be a8 52 d9 3e
       0.18152493 -0.07740198 -0.4416331 0.42445874
000020 71 cf 0b bf fe 02 48 be 7a 90 3c be 92 89 ba be
       -0.54613405 -0.19532391 -0.18414488 -0.36433083
000030 06 2f 08 bf a0 dc f4 3e 49 59 c4 be 39 fd a6 3e
       -0.5319675 0.47824574 -0.3834937 0.3261507
000040 ba b0 28 bf 41 76 37 be 5e 04 b2 3e 73 a5 57 3e
       -0.65894663 -0.17916204 0.34768957 0.21059208
000050 46 21 e0 3e 69 9a a4 bd 22 1f a0 be 3f c4 06 3f
       0.43775386 -0.08037264 -0.31273752 0.526432
000060 ee e5 17 3f b1 1e 84 be 08 a6 7b 3e 38 ba 28 be
       0.5933522 -0.25804666 0.24575055 -0.16477287
000070 52 1d 10 3f 4b 50 15 bd 03 a0 b3 be b9 3f 70 3e
       0.5629474 -0.036453526 -0.35083017 0.23461808
000080 1c 16 11 3d 89 82 21 3e cd 70 ad 3e db 62 0f bf
       0.035421476 0.15772451 0.33875123 -0.56010216
000090 8f 0f 85 be 1d 59 a5 3e 48 76 ad 3e 3b 65 11 bf
       -0.25988433 0.3229455 0.33879304 -0.5679509
0000a0 ac 09 ef 3c 2a cc 28 bf 46 1e 19 be 83 10 3e be
       0.029179417 -0.6593653 -0.14952955 -0.18560986
0000b0 43 67 a7 3e aa 22 d4 3e 44 c0 16 bf 9d 0c 98 3e
       0.3269597 0.41432697 -0.58887124 0.29697123
0000c0 6c e7 5e be 5a bf 00 3e c0 77 03 3f b2 6f 2c be
       -0.21767968 0.12572995 0.513546 -0.16839483
0000d0 e8 b9 4b 3e ba f2 79 be d6 d7 9f be 2f d1 dd 3e
       0.19895136 -0.24408999 -0.31219357 0.43323657
0000e0 4b dd 9d be 09 82 5c bd fd 14 75 3e fe b9 85 bf
       -0.30832896 -0.05383495 0.23933788 -1.0447385
0000f0 b5 f8 d0 3e 32 e0 f3 be 64 69 28 3f 44 8b 0e bf
       0.40814748 -0.47631985 0.65785813 -0.5568125
000100 d1 5f 2c bc 15 4e fe 3e 32 b4 20 bf 57 b4 92 bd
       -0.010520891 0.49668947 -0.62774956 -0.07163303
000110 64 73 a0 3e 1a e4 66 3d 78 78 52 3e 23 54 1c bd
       0.31338036 0.05636988 0.20553768 -0.038166177
000120 70 9d 88 be 6c 2b 09 3f f7 9f 80 bd b8 e8 24 3d
       -0.26682615 0.5358188 -0.06280511 0.040261
000130 61 c7 d3 bd 8c 3b a9 bd c0 fe 94 bf 8a e4 25 3e
       -0.10340763 -0.08263311 -1.1640244 0.16200462
000140 4d 46 34 bf cd 68 fa 3e 60 2f ca be 88 25 4c be
       -0.7041977 0.48908082 -0.3948927 -0.19936192
000150 27 06 b4 bd 64 87 9e 3e 26 b0 24 3f 4e 39 e2 be
       -0.08790236 0.3096267 0.6433128 -0.44184345
000160 e6 2e 15 be 15 99 f5 bd 2e 9e e3 3c 6c 01 3e 3d
       -0.14568672 -0.11992089 0.027785387 0.046388075
000170 c4 57 27 bf ed b2 0e be c6 6f 80 3e 59 f0 dd be
       -0.65368295 -0.13935442 0.25085276 -0.43347433
000180 21 f9 37 3e 61 50 b0 bc 19 96 77 bd 57 a9 5a bd
       0.17966129 -0.021522703 -0.06044588 -0.05338415
000190 67 d3 5f be e5 96 72 3c 9b e7 19 3f db c8 c6 3d
       -0.21857987 0.014806484 0.60119027 0.09706279
0001a0 6d b6 2d 3e 75 b9 d7 be b5 1a f2 3d 56 6e 40 bf
       0.16964121 -0.4213368 0.118215 -0.7516836
0001b0 eb 0c fc be b7 c8 2e bf 87 48 25 3f b4 57 f5 be
       -0.49228606 -0.68275017 0.6456379 -0.47918475
0001c0 3c cc ba 3e 9b dd ef be ab 3f e8 bd 6e ff cd 3d
       0.36483943 -0.4684876 -0.11340269 0.10058485
0001d0 2b e2 7d 3e 21 cc 49 3e 00 03 d5 bd c7 94 8c 3e
       0.24793307 0.19706775 -0.10400963 0.27457258
0001e0 35 3a a6 be f2 6b a4 3e a3 12 4d 3d 90 58 11 be
       -0.32466283 0.32113606 0.0500666 -0.1419394
0001f0 da 04 e2 bd 82 25 49 3e 54 b0 0b bf bc 70 4f be
       -0.110360816 0.19643214 -0.5456593 -0.20257849

feature_extractor.0.bias f4 [64]
000000 f4 f7 2e 3f 20 20 2a bf eb 76 a7 3e 3a b8 2e bf
       0.68347096 -0.6645527 0.32707915 -0.6824986
000010 d8 e6 26 bf 44 0c 6b be 29 b5 2c 3e 31 3b 2b 3e
       -0.6519599 -0.22953898 0.16865982 0.16721798
000020 3b 77 a9 be 43 85 ed be 0f 83 05 3f 21 7d 73 3e
       -0.33098778 -0.46390733 0.52153105 0.23778202
000030 a6 74 43 bf d1 4e 5f be 5a 26 67 bf 57 25 ae 3e
       -0.76349866 -0.2180741 -0.90292895 0.34012863
000040 02 32 0e 3e 73 f9 f7 3e 52 89 21 3f af 39 61 bd
       0.13886264 0.48432502 0.6310016 -0.054986652
000050 0e 0a 1f 3f 45 b2 7e 3f 11 fa 17 bd 51 9d 5f 3f
       0.6212472 0.9949077 -0.037103716 0.8734942
000060 34 38 8b 3e 34 ad e7 bd 19 a0 89 3e 0d 06 77 3f
       0.27191317 -0.11312333 0.26879957 0.9649361
000070 ee 68 89 3f 80 c6 f9 bb e9 7f 21 3e 34 fd 8e be
       1.0735147 -0.00762254 0.1577145 -0.27927554
000080 a8 28 85 be 20 fc 30 bf 05 e4 90 3e c0 2a 2a bf
       -0.2600758 -0.6913471 0.28298965 -0.6647148
000090 0c ff 0b bc 83 ae 3c 3f 5d 25 d1 be c5 e2 ce 3e
       -0.008544695 0.73703784 -0.40848818 0.40407386
0000a0 13 99 24 3f cf d7 b3 be 72 51 1d 3f 4b cb 17 bf
       0.6429607 -0.35125586 0.614524 -0.59294575
0000b0 8c 6e 66 3f ce ab 0e bf a2 46 ce be 1f 85 0d 3f
       0.9001243 -0.55730903 -0.40288264 0.5528125
0000c0 16 f7 87 be 34 cb ef 3e 6c 24 b7 bd d8 2e 3e 3e
       -0.265557 0.4683472 -0.08942494 0.18572557
0000d0 8e 0d 57 3f 73 3a c7 3e 2f 5d 89 3e 7e 82 e5 be
       0.8400506 0.3891178 0.26828906 -0.4482612
0000e0 f1 de 8f be d9 77 74 3e 87 b8 31 3f 00 35 01 bf
       -0.28099778 0.23873843 0.6942219 -0.50471497
0000f0 28 7e 0b bf 53 b4 73 3f ce bc 38 3f bf 8b 45 3e
       -0.54489374 0.9519703 0.72163093 0.1929159

feature_extractor.2.weight f4 [64, 64]
000000 54 64 1c be 11 e7 85 bc d6 f9 a8 bb c5 43 3f bd
       -0.15272647 -0.016345533 -0.005156736 -0.04669549
000010 68 a3 c7 bd 68 96 f6 3c fd a1 1c 3e 2b 31 6e 3c
       -0.09747964 0.030101016 0.15296169 0.01453809
000020 76 d6 d1 bd e9 70 3b 3d ad 37 28 3e ae 70 f0 bd
       -0.10245983 0.045761976 0.16427489 -0.11740242
000030 2b 7a a0 3d c0 15 73 bd 1b b3 22 3c b4 78 ac 3c
       0.07835802 -0.059346914 0.009930397 0.02105365
000040 72 f1 57 3d de d0 d3 3d 54 1a 8d 3c 95 d2 1b 3c
       0.052720495 0.10342573 0.017224468 0.009510656
000050 c7 69 26 3d f3 e3 46 3e 8f 84 84 bd b1 b2 78 3e
       0.04062822 0.19422893 -0.06470596 0.24286915
000060 ca 21 37 3e b9 c0 93 3d 7b 9c 12 3e 14 ac 97 3d
       0.17883983 0.07214493 0.14317505 0.07405868
000070 4f de 36 3e 88 7a 02 be 2a 14 18 3d d5 cd 3d 3e
       0.17858241 -0.12742054 0.037128605 0.1853555
000080 91 93 5c 3d 08 e5 93 bc 1e 36 6d bd a7 e7 ac be
       0.053851668 -0.018053547 -0.05791294 -0.33770487
000090 64 d0 17 3d 34 52 8a bd 54 35 05 3d 06 b9 d3 3d
       0.03706397 -0.0675396 0.03252156 0.10338025
0000a0 ed 0a 51 3e 30 2c 3c 3c 20 d1 8a 3c a3 c8 86 bd
       0.20414324 0.0114851445 0.016945422 -0.06581237
0000b0 32 80 05 be 10 8a 44 3d 02 46 e5 bd 87 88 ad 3d
       -0.13037184 0.04798323 -0.111949936 0.08473306
0000c0 58 73 b1 3d 5b 8a a3 3e fd 8e 78 3d f3 18 54 3d
       0.08664578 0.31941494 0.06068324 0.051781606
0000d0 da 0f 02 3c e5 21 e2 bd d6 35 fb 3d 3d 7f d2 3d
       0.00793835 -0.11041621 0.12266128 0.10278175
0000e0 ec 26 29 3b 7e 01 05 bc 52 f5 26 3e c3 7f 93 3c
       0.0025810553 -0.008118032 0.1630452 0.018005257
0000f0 cc df 5c be 43 d6 ef bd 2d 50 c2 ba 78 ba aa 3c
       -0.21569747 -0.11710789 -0.001482492 0.020840868
000100 f6 d1 e1 3d 9c fa 85 3a 9c 93 2a 3d 52 0e 80 be
       0.11026375 0.0010221782 0.041644678 -0.25010926
000110 68 5c be bd d8 95 90 bc ba 98 46 bc b7 37 12 bd
       -0.09294969 -0.017649576 -0.012121374 -0.035697665
000120 80 ce b5 3c 60 dc c4 bd 9d ee e3 bd ad 51 c7 3d
       0.022193193 -0.09612346 -0.11129496 0.09732375
000130 b8 b0 0a bf 7b 6f 4f be 97 b0 9e be a2 22 16 3e
       -0.541759 -0.2025737 -0.30994102 0.14661649
000140 da 9c 04 be 24 f3 8b 3e f1 7b 63 3d 37 d4 28 3d
       -0.12950459 0.2733394 0.05553812 0.04121801
000150 e9 53 12 3d 23 4f 09 3f a2 53 84 bc f5 11 46 3e
       0.035724554 0.5363638 -0.01615316 0.19342788
000160 e7 72 c5 3d 87 79 fa bd 4c d3 8c 3d 3a 5c 2f 3e
       0.096410565 -0.12230211 0.06876239 0.17125025
000170 b0 28 9d 3e 4e 66 fc 3c 04 cf e6 bc 90 6b 62 be
       0.30695105 0.030810501 -0.028174885 -0.22111344
000180 60 e2 42 bd 08 a3 90 bc ef 8a 3b bd 88 d8 e9 3d
       -0.04757917 -0.017655864 -0.045786794 0.11418253
000190 43 5e 3f 3c eb 69 73 3e 94 1e 3e 3d aa 85 74 bd
       0.011680189 0.23770873 0.04641588 -0.059697784
0001a0 ca eb 22 3c f6 09 8f bd e2 01 87 3c 2c ed d0 bc
       0.009943912 -0.06984322 0.01648039 -0.025503717
0001b0 cf 6e 63 3d 9c 98 74 bd ce f4 d3 bd 43 da 8e 3e
       0.055525597 -0.059715852 -0.10349427 0.27900895
0001c0 cc 93 bb bd ce bb 02 3f 89 f1 d0 bd d4 43 68 bd
       -0.091590494 0.5106782 -0.10202319 -0.05670531
0001d0 87 2e a0 3e 50 36 21 be b8 45 d3 bd 87 39 6a be
       0.31285498 -0.15743375 -0.10316032 -0.22873507
0001e0 de c3 cb bd 42 05 a9 bc 9c db 70 3c c1 60 32 3d
       -0.09949468 -0.02063239 0.014700796 0.043549303
0001f0 73 7c ee bd 89 e4 4a 3e 8b 71 70 3d 2c 93 48 3d
       -0.116448306 0.19813742 0.058702033 0.04896848
000200 68 af 35 3d 6f 59 81 3d 2c e9 44 3d ff 75 38 3c
       0.044356734 0.06315886 0.048073933 0.011258601
000210 00 6f 9d bc 6a eb ba 3d 56 61 98 3d 08 52 9c 3d
       -0.019217968 0.09126933 0.0744044 0.07632834
000220 d0 15 0a 3d eb ee 01 3c 66 27 02 be 8d 94 2a bd
       0.03371221 0.007930498 -0.12710342 -0.041645575
000230 b8 75 0b 3d 12 58 86 bd 10 41 31 bb 07 a0 f5 bd
       0.034047812 -0.06559767 -0.0027046837 -0.119934134
000240 7a 9e c5 bd 50 15 66 bc 03 8a 74 3d a0 ca 7f 3c
       -0.09649368 -0.014043167 0.05970193 0.015612274
000250 d0 34 13 bc dc 49 aa bd ab 82 c1 bd 18 0b 86 bd
       -0.008984759 -0.08314869 -0.09448751 -0.06545085
000260 b6 08 53 bd 30 cb 52 bd b8 c2 6c 3d 91 ed fe 3c
       -0.05152198 -0.051463306 0.057802886 0.03111914
000270 da 75 d0 3d 80 5b 24 bb c0 a3 3f 3c e0 33 58 bc
       0.101787284 -0.0025078952 0.011696756 -0.013195962
000280 0e 44 ab 3c c0 8e 3c bb 0f d1 3a bd 8c a1 3b 3d
       0.020906474 -0.002877161 -0.04560953 0.04580836
000290 19 ee 5f bd 25 7b f6 bd 2c a0 b8 3d ce 3e a0 3c
       -0.054670427 -0.12035207 0.09014925 0.019561198
0002a0 d6 46 0a 3c 40 db 00 3b 9b b5 69 bd 80 bc e3 3b
       0.00843974 0.0019661933 -0.057057958 0.006949961
0002b0 d3 cc be 3d 9e 91 e6 3d 84 96 21 bd 1c 43 f4 3d
       0.09316411 0.11258243 -0.039450184 0.119268626
0002c0 66 4d ea 3d 6b 5d e2 3d 06 bd f9 bb d2 7f 80 bd
       0.11440544 0.11052974 -0.0076214103 -0.0627438
0002d0 80 ca e5 3b 14 6e 0a 3d 46 d6 80 bd 98 3a a8 bd
       0.0070126653 0.033796385 -0.062908694 -0.08214301
0002e0 a0 c0 dd bc 14 66 a9 bd 92 86 31 3d 46 0c 19 3c
       -0.02706939 -0.08271423 0.043341227 0.009341305
0002f0 06 92 ef bd 98 cb 16 bd ed d7 d3 3c 30 1f cf 3c
       -0.11697774 -0.036815256 0.025859797 0.025283426
000300 ca 7d fd bd 3a 0f a3 bd 44 e4 e0 bd e0 62 99 3d
       -0.12377508 -0.079618886 -0.10981038 0.07489562
000310 3c 7c e3 3d ac 7f 54 bd 90 9d dc 3c 6c ff c1 bd
       0.1110768 -0.05187957 0.0269306 -0.09472546
000320 90 33 0a 3d 0e 22 e5 bd fe 59 83 3d f4 d3 d3 3d
       0.03374058 -0.11188136 0.06413649 0.10343161
000330 80 ad d0 ba 88 55 88 3c 20 88 4b bd 82 5b f9 bd
       -0.0015920848 0.016642347 -0.049690366 -0.12175657
000340 5a a2 c6 3d 6a f7 b4 bd 2a 60 82 bd 18 7f f0 bd
       0.09698935 -0.08836253 -0.06365998 -0.11742991
000350 f6 c6 f1 3d ba 44 b8 bd 32 8d ac bd 64 ce 12 bd
       0.11805527 -0.089974836 -0.08425368 -0.03584136
000360 54 f7 7e 3d 78 bf c3 3d b8 d9 64 bd 40 3f 30 3b
       0.06224759 0.09558004 -0.055871695 0.0026893169
000370 00 c7 b0 3a c6 f1 9d bd aa cf ed bd 60 ce 20 3d
       0.0013487041 -0.0771213 -0.116118744 0.039259315
000380 98 55 a1 3d d8 b2 c5 3c ba ac bc 3d 18 d7 36 3d
       0.07877654 0.02413313 0.092126325 0.044638723
000390 5e 4d bf bd 04 b9 69 3d 80 95 f8 bd 00 05 33 bd
       -0.093409285 0.05706121 -0.1213789 -0.04370594
0003a0 d0 a6 97 bd 68 ca 89 bd 84 b4 4b 3d 00 bd 2e 3a
       -0.07404864 -0.06728059 0.0497327 0.00066657364
0003b0 e4 1d 84 bd ec 52 55 3d 40 df f8 bc 0c f3 15 bd
       -0.06451014 0.052081034 -0.030379891 -0.03660874
0003c0 60 8c b4 bc b0 73 0a bc a0 61 da 3c 2a 0b cc bd
       -0.022039592 -0.008450434 0.02665788 -0.09963067
0003d0 5a a2 9d bd f4 58 5f 3d ac 1d 40 3d c0 bf 26 3c
       -0.07696982 0.05452819 0.046903297 0.010177553
0003e0 e8 86 1c bd 40 71 88 3d 00 50 53 bb c0 0c bc 3d
       -0.038214594 0.06662226 -0.0032243729 0.09182119
0003f0 34 12 f8 3d c0 f4 3b 3c 28 23 b1 bc 76 d7 f1 bd
       0.12112847 0.011471927 -0.02162321 -0.11808674

feature_extractor.2.bias f4 [64]
000000 ef a2 04 3d 6b 96 70 3e 71 76 c4 bd 4c 60 35 3d
       0.032381948 0.2349488 -0.095929034 0.04428129
000010 86 87 87 3d 7f 8a 02 3a 29 e5 fe 3c 50 9d e1 3d
       0.06617646 0.0004979744 0.031115131 0.11016333
000020 07 64 4d 3e 10 e4 26 3e 37 38 0b 3d cd 19 0b bc
       0.20057689 0.16297936 0.033989158 -0.008490038
000030 4c 7c 6f 3e 72 3d 5a 3c 34 7b cb bd 0e 90 f5 bc
       0.23387259 0.013320314 -0.099356085 -0.029975917
000040 af 29 08 3e e3 ca 21 be 49 51 54 3e ab d6 8c 3e
       0.13297151 -0.15800051 0.20734133 0.2750753
000050 00 49 c4 3d 4c b6 36 bd e4 91 b0 3d e2 cb 81 bd
       0.09584236 -0.044607446 0.086215764 -0.06337716
000060 34 e8 88 3e a0 5f 2c 3e c5 b6 0e 3d d5 b7 a9 3d
       0.26739657 0.16833353 0.03484227 0.08287016
000070 a4 6a 94 3b 87 f6 5c be 23 11 f4 bd 85 c8 2e 3e
       0.004529314 -0.21578418 -0.11917331 0.1706868
000080 ee 15 fc bd 90 8f 7d 3e 98 43 d6 bd 28 59 1b bd
       -0.1230887 0.24761796 -0.10462111 -0.037926823
000090 2a cc 1c 3e 91 41 58 bd 18 99 84 b8 97 79 de bd
       0.15312257 -0.052796904 -6.3227664e-05 -0.10863035
0000a0 cf 31 9b be 4d f3 ae bd 4c 8e 0e bd c6 a3 cd bd
       -0.30311438 -0.085425 -0.034803674 -0.10041003
0000b0 c2 d0 44 3d 51 cb 01 be ac 98 5e be 1d 28 e7 3b
       0.04805065 -0.12675215 -0.21737927 0.0070543424
0000c0 21 fb 89 3e 25 91 f8 3b 50 b1 da 3c 68 7d db 3c
       0.2694941 0.007585662 0.026695877 0.026793197
0000d0 9c f6 c9 bd 9d 66 be bd b6 b6 80 3e bf 7f fb bd
       -0.0986149 -0.09296916 0.25139397 -0.12280225
0000e0 e5 4b b3 3d a8 b8 97 3c 2d ed 2b be 78 3e e3 bc
       0.0875471 0.018520668 -0.16789694 -0.027739748
0000f0 c4 6c 49 bc bb 61 81 3d 91 12 14 3c 02 c3 70 be
       -0.012293998 0.06317469 0.00903763 -0.2351189

actor.0.weight f4 [64, 64]
000000 1f c3 d1 3d 07 94 99 bd 26 34 e3 3d ae 56 a0 3d
       0.102422945 -0.07498937 0.11093931 0.07829033
000010 40 be 63 3d dd 33 0a 3e 70 83 28 bd c0 e5 3c bb
       0.05560136 0.13496347 -0.041140974 -0.0028823465
000020 07 20 57 3c 43 06 dc 3d 48 2d d1 bd 8b 45 71 bd
       0.0131301945 0.10743382 -0.10213715 -0.058904212
000030 7d 53 bb bc bc bf 1d 3e 36 c9 dc 3d 2c c5 21 3d
       -0.022866959 0.15405172 0.107805654 0.03949468
000040 98 f4 e4 3c cb 0c d3 3c a2 3f 5e 3d 6f 7f fd bd
       0.027948663 0.025762936 0.054259904 -0.12377822
000050 5e 72 b0 ba b4 53 98 bd d9 98 46 3e 7c 98 88 3d
       -0.0013461818 -0.0743784 0.19394244 0.06669709
000060 00 c3 da 3c 19 dc e2 3c 77 4d e6 3c 4f a8 1e 3d
       0.026704311 0.027692841 0.02811311 0.03873473
000070 31 e4 0f bd 9b 3c f5 3d f0 ad c6 3d 77 02 c6 bc
       -0.03512973 0.1197445 0.09701145 -0.024171097
000080 36 6c fb 3c 6d d2 22 bd d5 e9 b3 3a 50 fb 89 bc
       0.030691247 -0.03975146 0.0013726304 -0.016843468
000090 02 6e ba bb 14 d9 82 3d a6 41 cb 3d f0 77 b7 bd
       -0.0056893835 0.063890606 0.09924631 -0.08958423
0000a0 28 d2 b3 3d b0 a6 6b bc c6 50 ae bd 26 7f f5 3d
       0.087803185 -0.014383003 -0.085115 0.11987142
0000b0 f0 98 c9 3d b4 c1 96 bd 05 70 3b 3d 61 1c a7 3d
       0.09843624 -0.07361165 0.045761127 0.0815971
0000c0 6e 01 0e 3d ec 0a 05 3e 18 41 02 3c 05 58 01 3e
       0.034669332 0.12992448 0.00795009 0.12631233
0000d0 c4 47 4d bd 66 60 2e bd 19 d4 37 3e 07 8f 29 3d
       -0.05011727 -0.0425724 0.17952003 0.041396167
0000e0 49 72 14 bd 38 36 64 bd 0c 9f 13 3e 90 0f 8a bd
       -0.036241803 -0.05571577 0.1441614 -0.067412496
0000f0 0f fe 03 3e ad ff 33 bd 32 a5 4c bc d1 af 95 3c
       0.12889884 -0.043945003 -0.0124905575 0.018272312
000100 46 6f 06 3d ad 46 40 3d 38 c1 6d 3d 44 b6 37 3d
       0.032820962 0.0469424 0.058045596 0.044851556
000110 68 3e 8e 3d e9 82 3f bd 09 f8 12 3d 9c 66 e4 bd
       0.06945497 -0.046755705 0.035881076 -0.11152384
000120 cb a7 87 3c 35 d4 2c bd 20 58 c4 3c d4 10 8a bd
       0.016559502 -0.042194564 0.023967803 -0.06741491
000130 c6 8b c1 bd f2 44 3b 3d 32 65 d3 bd 6c d6 5c bd
       -0.09450488 0.04572005 -0.10322036 -0.053915426
000140 b8 3f 2b bd 8f 20 b8 bd 1b 52 1d bd 94 af 2e bd
       -0.041808814 -0.08990585 -0.03840838 -0.042647913
000150 46 2d a1 bd 5b d2 f8 bd 18 d8 c8 bc 50 7b e6 3c
       -0.07869963 -0.12149497 -0.024517104 0.028134972
000160 71 73 e4 bd 94 3c f1 3d ca 48 87 3d 64 b6 74 bd
       -0.11154831 0.117791325 0.0660568 -0.059744254
000170 1f c5 67 bd bc 75 c4 bd b2 8f b2 bd cd a5 d9 bd
       -0.056584474 -0.095927685 -0.08718814 -0.10627327
000180 84 45 ae 3d d9 03 e8 3d 48 10 c0 bd 48 57 c9 3d
       0.08509353 0.11328859 -0.093781054 0.09831101
000190 d6 c0 d0 bc 80 9d d0 3c 0c 5e 29 3d ac 62 5d bd
       -0.025482576 0.025465727 0.041349456 -0.05404918
0001a0 f6 1b d2 bd 32 2a 9b 3d b0 0a ca bc 8a 47 f9 3d
       -0.102592394 0.075764075 -0.0246633 0.12171848
0001b0 f4 f1 a9 bd 9c 29 8f bd fc bf 1f bd 89 3f 88 3d
       -0.08298102 -0.06990358 -0.03900145 0.06652743
0001c0 ba 7f a4 3d 0f 9a 9b 3d de 8b 53 bd 0c 89 bf bd
       0.080321744 0.07597744 -0.05164706 -0.093523115
0001d0 12 8a a6 3d 1f 1c 04 3a df 75 b5 3d 1f 99 cc bd
       0.081318036 0.0005039591 0.08860373 -0.09990143
0001e0 da d6 92 bd 68 0a d4 bd eb 07 80 3c c0 80 6b bc
       -0.07169886 -0.10353547 0.015628776 -0.014373958
0001f0 b0 2a 7c bd d0 73 83 3d 90 b9 96 bc b7 95 a9 bd
       -0.061564147 0.06418574 -0.01839903 -0.08280509
000200 e6 13 33 bc 2b 8a ae bc 80 25 9e ba 80 ae 7a bb
       -0.010930037 -0.021306118 -0.0012065619 -0.0038250983
000210 88 0d 80 3d a2 03 9c bd d3 12 cc 3d 38 7a d5 3d
       0.06252581 -0.076178804 0.09964528 0.10423702
000220 f5 d1 4a 3d a9 9c ac 3c f8 60 19 3d 7c 6c c3 bd
       0.049516637 0.021070795 0.037445992 -0.09542176
000230 99 54 b1 bd d4 0d 9d bd 00 78 cf 3b f7 22 31 bd
       -0.08658714 -0.07668653 0.006331444 -0.043246236
000240 34 56 bb bd 7b 61 d9 3d f9 b6 bd 3d c7 78 bb 3d
       -0.09147301 0.10614296 0.09263415 0.09153896
000250 59 1d 03 3d 22 17 ca bd 43 55 50 bd c4 c6 b9 bd
       0.03201041 -0.098676935 -0.050862562 -0.09071115
000260 74 16 53 bd 53 ce db bb 99 cb cf bd 20 ab e2 3d
       -0.051535085 -0.0067079454 -0.10146255 0.11067796
000270 a8 d5 af 3d 54 b3 9b bd aa d7 b7 3c 68 53 8d bd
       0.085856736 -0.076025635 0.022441704 -0.06900674
000280 70 d1 c5 bd c0 57 7e bd a1 77 d2 3c e0 19 c7 bc
       -0.09659088 -0.062095404 0.02569181 -0.02430433
000290 94 47 20 3d 9c 3d 77 3d f8 80 dd 3c 94 86 db 3d
       0.039130762 0.06036149 0.027039036 0.10719028
0002a0 41 39 94 3d 4c 47 56 bd 28 7e 1e bd a8 32 ad bc
       0.07237483 -0.052314088 -0.03869453 -0.021142319
0002b0 ea 57 a6 bd 40 10 09 bd d7 6d ce 3d 03 ce ee bd
       -0.08122237 -0.033462763 0.10079544 -0.11660387
0002c0 7b 63 2a 3d 42 e4 94 bd 2c fe c2 bd 87 2f 2b 3d
       0.04159878 -0.07270099 -0.09521136 0.041793372
0002d0 f8 28 b9 bd 5d b8 c3 bd ab 7e dd bd 1f 39 85 3d
       -0.09041017 -0.09556649 -0.108151756 0.065050356
0002e0 37 4f e2 3d 00 c0 4a 3d 80 ca a7 bd 46 95 e9 3d
       0.11050265 0.04949951 -0.08192921 0.11405425
0002f0 dd 8b 5d bd 7b 17 de 3b 3c 5a c4 bd 52 04 f6 bd
       -0.054088462 0.0067777014 -0.09587523 -0.12012543
000300 79 e3 74 3d 13 79 fe 3c 1b 6e c5 3c 90 58 b1 bd
       0.059787247 0.031063592 0.024100354 -0.0865947
000310 cd cc 9e bd 89 6a 96 3d 4d c6 07 bd 23 21 5f 3d
       -0.077539064 0.07344539 -0.0331481 0.05447496
000320 45 d0 ea 3d 2e 97 26 3e b0 0a 04 bd c4 34 c1 3c
       0.114655055 0.16268608 -0.032236755 0.02358473
000330 64 7f 25 3d 0c 66 51 bd 7a 7b 02 3d 9c 13 1c be
       0.040404692 -0.05112271 0.031856038 -0.15241855
000340 8d 0e dc 3a d7 92 30 be cc d8 88 3c 5a 6e 98 3e
       0.0016789004 -0.17243515 0.01670494 0.29771692
000350 2e 87 71 3e 73 27 96 bc 3e b1 2e 3d b2 a3 9b 3d
       0.23586723 -0.018329358 0.0426495 0.07599582
000360 2a 46 0e 3e bf 61 11 3e bd 6d 8a bc 82 8f 6a 3e
       0.13893953 0.14197443 -0.01689803 0.22906306
000370 b0 01 19 bd 8f c5 27 bd b0 c4 34 3e 1a 61 1a 3e
       -0.037355125 -0.04095989 0.17653155 0.15076104
000380 fb 2d 48 3c dd cd c0 bd 99 ec 3a bd 7e 22 b4 3d
       0.012217994 -0.09414265 -0.045635793 0.08795641
000390 2f 27 89 3d 5f 30 d9 bd ee b8 ef 3d 54 df 8c bd
       0.06696927 -0.10604929 0.117051944 -0.06878534
0003a0 59 c6 57 bb 8b 0f 1a bd 54 b5 52 bd e5 78 32 3d
       -0.003292462 -0.03761248 -0.05144246 0.043572325
0003b0 c5 8a 37 3d 28 dd b6 bc 02 27 aa 3d ef 7c 83 3e
       0.044810075 -0.022322252 0.083082214 0.25681254
0003c0 4a 7e 89 bd bb 38 e7 bd db ba c0 bc 2c 65 c2 3b
       -0.06713541 -0.11290117 -0.0235266 0.005932471
0003d0 dc 07 7a bd 65 90 86 bd be cb 45 bd 3e 13 a8 be
       -0.06104265 -0.0657051 -0.048290007 -0.3282718
0003e0 42 2e 0d 3e 88 15 ef 3d 9d f2 09 3d 4a 1d 61 3d
       0.13787177 0.11674029 0.03367864 0.054959573
0003f0 25 e2 98 3e 4a 66 24 3e e8 ad 47 be 15 3e 8c 3c
       0.29860035 0.16054645 -0.19499934 0.017119447

actor.0.bias f4 [64]
000000 ee d6 0c 3d b6 42 d3 3d 7e 28 71 bd 3f 66 06 3e
       0.03438466 0.103154585 -0.058876507 0.13124941
000010 06 f5 b9 bd ec fd c0 3d 9f b0 9a bc ad 6c 3c 3e
       -0.09079938 0.09423432 -0.018883048 0.18400832
000020 b1 0c 94 bd 86 f9 f5 bc 0c b6 95 3c 86 d4 96 bd
       -0.07228983 -0.030026209 0.018275283 -0.073647544
000030 c0 8b 53 bc f4 54 b1 3d 5e a4 f6 3c 7b 2b b2 3d
       -0.012911737 0.08658782 0.030107673 0.086996995
000040 c7 90 3e bd 64 4b ca 3c 05 5c 8f 3d ab e6 b2 3d
       -0.04652479 0.024694152 0.06999973 0.08735403
000050 a5 e5 9e 3b d7 f3 48 bd 5d 54 8a 3d 08 fc de bb
       0.004849153 -0.04906067 0.06754372 -0.006804947
000060 84 e7 18 3d f8 06 4e bd 36 86 7b bd 6e f9 13 3d
       0.037330166 -0.050299615 -0.06140729 0.036126547
000070 64 2c 0f bc 59 70 a2 bd 55 b1 37 be ca 6f 75 3b
       -0.008738611 -0.07931585 -0.1793874 0.0037450665
000080 f6 c7 c7 3d f3 ad 2b ba f8 08 9f 3d 60 ee 6d 3d
       0.097549364 -0.0006549053 0.077653825 0.05808866
000090 78 7f 99 bd ef a7 c4 3d 56 50 97 bd ad 31 5d bc
       -0.07495016 0.09602343 -0.0738837 -0.013500613
0000a0 61 ff cb 3d fb 97 12 bc 3c 18 26 bd 53 20 ae bb
       0.09960819 -0.008947368 -0.040550455 -0.005313912
0000b0 a8 48 d9 bd 95 5b 06 be e2 3b c3 3c 49 ba 8f bd
       -0.10609561 -0.13120873 0.023832265 -0.07017953
0000c0 c0 0f 1f 3c 96 b0 d6 bd b5 9b 22 3e 20 18 5e 3e
       0.009708345 -0.104829 0.1587971 0.2168889
0000d0 5e ce 6a 3d 54 77 b5 bd dc cc 33 bd 34 14 55 3e
       0.057325713 -0.08860651 -0.04389654 0.20808488
0000e0 9a f3 a5 3d ca 44 d0 3c 39 51 29 3e 6c 03 b1 bd
       0.08103104 0.025423426 0.1653489 -0.08643231
0000f0 e8 6c a0 3d 63 6e 77 bc 1a 78 11 3e 35 52 47 be
       0.07833272 -0.015102002 0.14205971 -0.19464953

actor.2.weight f4 [4, 64]
000000 e5 30 cc bd c9 64 04 3c 13 54 d6 3d e7 26 81 be
       -0.099702634 0.00808067 0.10465255 -0.25224993
000010 2c 96 7c 3e f7 df 1e 3e f8 e8 33 3e 89 3d ed bd
       0.24666661 0.15515123 0.1756934 -0.115840025
000020 34 e9 72 bd 7c 50 9b 3e 31 e3 60 3b 63 6a ed 3d
       -0.05930443 0.30334842 0.0034315104 0.11592557
000030 ce da 2f 3e 9e df e5 3d 7e 69 98 be 58 97 07 bd
       0.17173311 0.11224292 -0.29767984 -0.033103317
000040 54 f6 87 3e 05 4c 5d 3e f4 e2 75 bc 7d ca af 3d
       0.2655512 0.2161103 -0.015007723 0.085835434
000050 90 2a 16 3e d4 4d 51 bd f4 99 d9 bd ad fd 5c bd
       0.14664674 -0.051099613 -0.10625067 -0.05395286
000060 75 e7 0e 3e 53 fa 77 3d e8 65 95 3d 53 f7 c1 bc
       0.13955481 0.060541462 0.07294828 -0.023677504
000070 b0 87 cb 3c b5 85 16 3e fb 6b 1e 3e f2 5d 9f be
       0.024844974 0.14699443 0.15470879 -0.31126362
000080 8c 93 40 3e 9d 13 5e 3e 3d ba a8 bc e6 eb 21 3e
       0.18806285 0.2168717 -0.020596618 0.15812644
000090 f6 c2 20 3e 49 63 ba b9 14 3e a5 3d 33 8f e6 be
       0.15699372 -0.00035550658 0.08068481 -0.45031127
0000a0 f1 8a 84 be 04 f4 08 3e b4 89 b8 bd e3 79 69 be
       -0.25887254 0.13374335 -0.0901064 -0.22800402
0000b0 52 9d 97 3e 07 c7 a9 bd dd c5 39 3d 55 75 a5 bc
       0.29612213 -0.082899146 0.045354713 -0.02019755
0000c0 08 fa ed bd 41 59 7d bd ab c5 93 be 18 d0 c6 3e
       -0.11619955 -0.061852697 -0.28861746 0.38830638
0000d0 56 cc d0 bd f0 8c ad 3d 80 f8 f5 ba 43 47 12 be
       -0.10195224 0.08474147 -0.0018766075 -0.14284997
0000e0 f7 7a 42 3d 4f 4a 6f bd 57 ef 88 be 8e 62 72 3e
       0.04748055 -0.058420476 -0.26745102 0.23670408
0000f0 8e cf 60 bd 66 20 d4 3d 6a d1 b4 3d 79 d7 87 3e
       -0.05488544 0.10357742 0.08829005 0.2653158
000100 55 d5 30 3d 25 3d 8c 3c 56 11 6d bd 83 3d 81 bc
       0.0431722 0.017119 -0.05787786 -0.015776401
000110 87 dd 89 bd 62 8d 72 be 8c 21 5f be a6 35 05 be
       -0.06731706 -0.23686746 -0.21790141 -0.13008747
000120 96 81 86 bd d5 1e 0a be 6a 08 d6 3b bd a3 34 bd
       -0.06567685 -0.13488324 0.0065317648 -0.044101465
000130 03 50 ac be 71 5c 8f 3e 16 71 df bc a0 78 a0 bd
       -0.33654794 0.28000215 -0.027275603 -0.078355074
000140 a3 96 2f be 2c a2 2a bc c7 d8 c5 3d 30 47 31 3b
       -0.17147307 -0.010414641 0.096604876 0.0027050488
000150 15 9a 47 be 99 f7 1e be a9 c8 54 bb ce 40 b2 3d
       -0.19492371 -0.15524139 -0.0032468236 0.08703767
000160 b5 17 64 be 27 44 45 be f4 a5 93 bd 7b 23 48 be
       -0.22274669 -0.1926428 -0.072093874 -0.19544785
000170 c7 33 af be fd 7a 88 bd 11 e9 43 3d 7d b8 9a 3e
       -0.3421919 -0.06664083 0.04782969 0.30218878
000180 b8 fb 32 be 3e 48 29 be b2 b8 06 be 66 87 77 3e
       -0.17478836 -0.16531464 -0.13156393 0.24172744
000190 99 f9 9b be c9 3e 96 bd 80 cc 23 bd 9c e7 4d 3f
       -0.30463865 -0.07336194 -0.03998995 0.8043153
0001a0 0c f6 9a 3d 56 27 01 be 18 12 8e bd 10 dd f4 bd
       0.07566461 -0.12612662 -0.06937045 -0.11956227
0001b0 db 64 7b be c6 af 02 bd 39 b8 a3 bd 62 aa 9c 3b
       -0.24550192 -0.031905912 -0.07994122 0.0047810534
0001c0 8a 85 5a 3e 07 7b 71 be 65 d0 08 3d bf 46 ec 3d
       0.21340004 -0.23582087 0.033401866 0.11536931
0001d0 91 61 6b 3d 00 40 19 3c 38 0e ca 3d 1d b7 1f be
       0.057466093 0.009353638 0.09865993 -0.15597196
0001e0 16 9b 1d bd 31 7e c7 3d c3 22 bd bd 9f 31 44 be
       -0.03847798 0.09740866 -0.09235146 -0.19159554
0001f0 dc 4f d1 3d 0f 6d 56 3d 8c 3a 9f be a2 24 69 be
       0.1022031 0.0523501 -0.31099355 -0.2276788
000200 e2 4b 16 3e 64 9c f0 3d 43 81 b6 bd ae ef 8c 3e
       0.14677384 0.11748579 -0.089113735 0.2752661
000210 f0 80 95 3c 31 39 c6 bc be 2d 4c bd 84 5f 39 3e
       0.018249959 -0.024197193 -0.04984831 0.18102843
000220 7e 50 d7 3c cf 8d b8 be ff 2b 4f 3c 22 d0 2c be
       0.026283499 -0.3604569 0.012644767 -0.16876271
000230 d5 ba c6 3d e6 8c 68 be 90 f4 75 3e 1f aa 0f 3e
       0.09703604 -0.22709998 0.24019074 0.1402974
000240 fc 59 17 be 2c 20 b8 3d 92 be ca 3d 9e 8d 3f bd
       -0.1478042 0.08990511 0.0989963 -0.046765916
000250 75 8c 0b be 3e 5a c1 3d 0b 74 ae bd 3c 84 43 3d
       -0.13627799 0.094410405 -0.08518227 0.04773353
000260 24 da 12 3e 4b 7e 52 bd 86 89 4f bd 8c db 5a 3e
       0.14341027 -0.051389974 -0.050668262 0.21372813
000270 90 c0 8d 3d ef e9 43 bd 92 9e 08 3e 78 fb 8b 3e
       0.06921494 -0.04783052 0.1334174 0.27340293
000280 14 99 5e be 7f 31 a6 3d f2 bb 11 bd 42 87 a9 be
       -0.21738082 0.081149094 -0.03557963 -0.33111006
000290 83 cb 30 bc c9 30 70 3e e0 94 1d 3c 6c 1f f3 3e
       -0.0107907085 0.2345611 0.009618014 0.4748491
0002a0 18 4c d7 3d 76 19 24 be d2 1b 46 bc f4 7b 70 3e
       0.105125606 -0.16025338 -0.012091594 0.23484784
0002b0 18 b4 c1 be f6 bb 09 3c 2d 5b 6c be fe 4d 9e be
       -0.37832713 0.00840663 -0.23081656 -0.30918878
0002c0 60 0b d7 3d 8e ff 85 3e 7d de 97 3e 6b 41 a5 be
       0.105002165 0.26171535 0.29661933 -0.32276472
0002d0 4a 89 b3 bd 7e 07 e7 3d f0 24 e3 bc 9f 07 69 bc
       -0.0876642 0.11280726 -0.027727574 -0.014223008
0002e0 25 40 5d 3e ac 37 2f 3b 56 ae 06 3e 2e 6c 99 3d
       0.216065 0.0026736064 0.13152441 0.07491337
0002f0 41 2b a7 be b8 7a 93 3c 94 e0 83 3e 36 96 fc bd
       -0.32650188 0.018002853 0.25757277 -0.12333338
000300 3e 55 24 3e 14 e8 1f 3d 7c 86 fd 3d 25 70 77 3d
       0.16048142 0.039039686 0.123791665 0.060409684
000310 1f 38 bd be 0f d9 28 3e c0 6a 38 b9 06 a8 21 3e
       -0.3695688 0.16489051 -0.00017587375 0.15786752
000320 e5 31 f0 3d 0c 9e ff bd 61 39 72 3d 68 70 ae 3d
       0.117282666 -0.12481317 0.059136752 0.085175335
000330 92 09 86 be c6 c5 06 3e ab ac 3b 3e 4b ef 61 3e
       -0.26179177 0.13161382 0.18327586 0.2206394
000340 5f a7 1c 3e 9d 0e c4 be ef 11 78 bd 81 09 6b 3d
       0.15298222 -0.382924 -0.060563978 0.05738211
000350 7c 18 09 3e 8e c7 85 be 22 39 96 3e d3 1d 3c 3d
       0.13388246 -0.2612881 0.29340464 0.04592688
000360 11 0c 8b be 49 d0 0e 3e 20 0f dc bd 47 3d bb be
       -0.27157643 0.13946642 -0.10745072 -0.36570188
000370 45 80 8d be 57 8d 04 bf d5 b0 d6 be fd 5b 0b 3d
       -0.27636924 -0.5177817 -0.41931787 0.034023274
000380 ac 0b 6c 3d eb 80 10 bf f0 35 b3 3d 1f 16 bf bd
       0.05762832 -0.56446713 0.08750522 -0.09330391
000390 4f 24 90 3d db 02 c7 be d0 1b 75 3d d8 e9 00 bd
       0.07038175 -0.38869366 0.059840977 -0.03147301
0003a0 4b 99 4a 3e e6 e6 4b 3e d5 de a7 3c cb 98 59 be
       0.19785039 0.199123 0.020491997 -0.21249692
0003b0 d7 cd 00 be 35 79 a5 bc dc 99 49 3e 36 8c 0d 3e
       -0.12578522 -0.020199398 0.19687599 0.13823017
0003c0 10 8c 32 3e 22 c4 bd be 43 19 dc 3d e7 20 e7 be
       0.17436242 -0.370637 0.10747006 -0.4514229
0003d0 89 33 a6 bd 80 61 5b 3d 28 05 9a 3c 13 29 4c 3e
       -0.08115298 0.05355978 0.018801287 0.19937544
0003e0 01 b9 63 be de 61 84 3d 05 14 1e 3d 72 13 1c be
       -0.22238542 0.06463979 0.03859331 -0.15241793
0003f0 80 66 4f 3e 7e 93 96 bd b0 88 5d be f6 32 77 bd
       0.20253944 -0.07352351 -0.21634173 -0.060351335

actor.2.bias f4 [4]
000000 f4 93 d3 bc 5d 35 3a 3d d5 c3 d9 3d 2c 0a be 3d
       -0.025827385 0.045461047 0.10633055 0.09279284

critic.0.weight f4 [64, 64]
000000 e8 5b 03 3d 30 1c 1c 3c f6 06 e1 bd 34 b8 d4 3d
       0.03207007 0.009528205 -0.10987656 0.103866965
000010 3c d7 f7 3d 8c 5d b6 bd 50 ae bb bd c0 35 c4 bb
       0.121015996 -0.089045614 -0.09164107 -0.005987853
000020 c0 3b c1 3b 3e 3a c6 bd 20 25 c7 bd e0 2f c8 bd
       0.0058970153 -0.096790776 -0.09723878 -0.097747564
000030 90 d1 0f 3c 40 09 17 3c 1e 44 c2 3d 88 29 3a 3d
       0.008777991 0.009218514 0.094856486 0.045449764
000040 d8 20 52 bd 9c 02 d3 3d 30 19 72 bc 94 70 76 3d
       -0.051300853 0.10303232 -0.014776513 0.060165957
000050 82 d0 c1 bd 3a 39 a7 bd d8 9d c8 3c 6c 16 1a bd
       -0.09463598 -0.08165212 0.024489328 -0.03761904
000060 d8 d6 fd bc e4 c1 27 bd fe 3a f5 bd 04 81 6c 3d
       -0.030986235 -0.040956393 -0.119741425 0.057740226
000070 e0 cb 9b bb ec 83 5d bd a0 9d 2d 3c 30 d7 60 bc
       -0.0047545284 -0.05408089 0.010596663 -0.01372318
000080 5e 88 e5 bd 04 c7 58 bd ec 51 4f 3d 40 40 da 3d
       -0.112076506 -0.05292417 0.050615236 0.10656786
000090 18 b8 f5 bd 24 bd 70 bd 18 da 46 3d 98 d3 ba bd
       -0.11998004 -0.05877413 0.048547834 -0.091223896
0000a0 70 fc c0 bc c8 3a 83 bd 3c 88 05 bd 16 c9 f3 3d
       -0.023557872 -0.06407696 -0.032600626 0.119035885
0000b0 a8 64 a6 3c fa 2b 89 bd 8c f4 26 3d 56 73 e1 bd
       0.020311669 -0.06697841 0.04076056 -0.11008327
0000c0 00 9a d4 b9 8c af 41 3d 70 ac 72 3d dc 89 17 bd
       -0.0004055053 0.047286555 0.05924648 -0.036996707
0000d0 06 b9 cd bd 28 bb eb 3d b2 47 fd 3d d0 de 29 3d
       -0.10045056 0.115103066 0.123671904 0.041472256
0000e0 9c c9 0b bd a0 48 4d 3d 78 e0 c5 bd 86 33 c0 bd
       -0.034127817 0.05011809 -0.09661955 -0.09384827
0000f0 30 cd 98 bc 42 fa a3 bd 30 59 74 3c 8e 0d f8 bd
       -0.018652529 -0.08006717 0.014913842 -0.1211196
000100 d8 bf fd bc e0 91 54 3d 7c 83 84 3d 50 4d 9d 3c
       -0.030975267 0.05189693 0.06470391 0.019201905
000110 d2 70 f5 3d 48 7f 30 3d 00 cc 27 39 c6 ce da bd
       0.119844094 0.043090135 0.00016002357 -0.1068397
000120 d8 c1 6c bd 66 60 b4 bd 50 26 77 3d 18 58 cf 3c
       -0.05780205 -0.08807449 0.060339272 0.025310561
000130 c0 53 6f bd 6c 17 11 3d 64 05 5f bd 12 f0 a9 bd
       -0.05842948 0.035422727 -0.0544485 -0.08297743
000140 8e 16 ef bd 4c 99 25 3d 70 2e 26 3d 00 f7 1a bd
       -0.11674224 0.0404294 0.04057163 -0.037833214
000150 f8 d7 f4 bc 88 95 ab 3d 14 70 bd bd 2a 2e 9b bd
       -0.029888138 0.0837813 -0.09249893 -0.075771645
000160 40 80 02 3c 18 46 d4 3d 48 42 58 bd 40 51 3f bc
       0.0079651475 0.10364932 -0.052797586 -0.011677086
000170 40 c7 59 bb 9e 25 fc bd 98 ed 6b 3d 00 e3 fe ba
       -0.0033230335 -0.123118624 0.057599634 -0.0019446313
000180 f0 cb ae bc d8 c8 f7 bd 98 53 77 bd a0 e6 49 3c
       -0.02133748 -0.12098855 -0.060382456 0.012323052
000190 58 ff fe 3c 80 6e 5c bb c8 14 16 bd 2c c1 34 bd
       0.031127617 -0.00336352 -0.036640912 -0.044129536
0001a0 44 76 b8 bd 94 53 2b bd f2 ea f3 bd 4a 68 b4 bd
       -0.090069324 -0.041827753 -0.11910047 -0.08808954
0001b0 b4 b2 16 3d 00 e9 30 ba 36 f1 89 bd 38 cb e3 bd
       0.03679152 -0.0006748587 -0.067354605 -0.11122745
0001c0 1c 6a 25 bd d8 fd ad bd 34 e5 81 bd b8 cb 39 3d
       -0.040384397 -0.084956825 -0.06342545 0.045360297
0001d0 8a 78 cc bd d8 2f 6d bd 14 23 39 bd f8 78 f8 3c
       -0.099839285 -0.057906955 -0.04519947 0.03033112
0001e0 64 a0 06 3d a8 49 53 bd 70 44 ca bd 96 0a f8 3d
       0.032867804 -0.051583916 -0.09876335 0.12111394
0001f0 ec 9b d3 bd 10 38 2b bd c0 92 0e bc c8 88 ad bd
       -0.10332474 -0.041801512 -0.00870198 -0.084733546
000200 27 f9 cf bd ca 8b e5 3d b4 c2 6b 3d 0c 3b 24 bd
       -0.10154944 0.11208303 0.05755873 -0.040095374
000210 e0 d2 df 3c 2e 8a 0a be c8 45 ea bd de ca 9a bd
       0.027322233 -0.13529274 -0.11439091 -0.07558225
000220 a7 ae c2 3d 0c f1 93 3d 98 0e c1 3d 03 e3 fd bb
       0.095059685 0.072237104 0.09426612 -0.007748009
000230 2a 83 9d bd e6 e9 a4 bd 9a 55 f5 bd 77 53 29 bd
       -0.07691033 -0.08052425 -0.11979218 -0.041339364
000240 77 d1 82 bd 59 5f a1 3d 01 b2 f1 3c d8 fd 82 bd
       -0.063876085 0.07879514 0.029503824 -0.06396073
000250 01 63 34 bd 88 b0 f5 bc 65 d8 0e 3d 38 2c 40 bd
       -0.04403973 -0.029991403 0.03487434 -0.04691717
000260 0e 6e dd bd 78 d9 89 bd 1b 6d 39 bd b4 c0 e2 3d
       -0.10812007 -0.06730932 -0.045270067 0.110719115
000270 d7 78 9b bd be 01 c3 bd cf 38 88 bc 1c 1d a1 bd
       -0.07591408 -0.09521817 -0.016628651 -0.0786688
000280 f9 64 12 be 78 d8 b4 3b 89 98 d6 3c c8 fc 0e bd
       -0.1429633 0.005518969 0.026195781 -0.03490904
000290 94 57 b6 bd 54 f9 43 bd b8 6e 53 bd 46 38 be 3d
       -0.08903423 -0.0478452 -0.05161926 0.09288077
0002a0 59 b8 0c 3b 46 ae f6 3d fc 0d 4b 3d 0e 69 a3 3d
       0.0021472184 0.12044959 0.049573883 0.07979022
0002b0 f8 91 c3 bc 1a 7b fc 3d b8 57 89 3d 55 72 1d 3d
       -0.023873314 0.12328167 0.06706184 0.038439114
0002c0 f4 55 d2 bd 02 44 dc 3c af fd 30 bd 25 d1 c0 3d
       -0.102703005 0.026887897 -0.04321068 0.09414891
0002d0 64 55 e2 3d 74 7f 07 3d 2d 08 ad bd a0 80 7b bd
       0.11051443 0.033080533 -0.08448825 -0.061401963
0002e0 45 5e 03 be 2a fd c3 bd f1 98 8a 3d e8 91 6d bd
       -0.1282893 -0.095697716 0.067674525 -0.058000475
0002f0 e8 df 01 be 43 a4 25 3d 79 7f 12 be 27 ce b1 3c
       -0.1268307 0.040439855 -0.1430644 0.021704746
000300 86 7c 07 be e2 90 13 bd 39 08 a4 3d ec 85 33 bd
       -0.13231096 -0.036026843 0.08009381 -0.04382889
000310 d4 1c 9b 3d f7 64 42 3c 65 19 d0 3b 70 80 e8 bd
       0.07573858 0.011864892 0.0063506835 -0.113526225
000320 f6 76 02 be 56 9b eb bb e0 13 b8 3d 08 f5 3b 3d
       -0.12740692 -0.0071901483 0.08988166 0.045887977
000330 dd d6 2c 3d 91 55 e6 3d 46 71 62 3d 9d 4f 48 be
       0.042197097 0.11246789 0.055283807 -0.1956162
000340 fc 1f cd bd 38 26 d2 3b 3d 1a d9 bd 49 fb 92 bd
       -0.10015866 0.0064132474 -0.10600708 -0.07176835
000350 b4 52 a4 3c 87 eb 00 be 54 25 c0 bd 9d db c3 3d
       0.020058967 -0.12589847 -0.0938212 0.09563372
000360 cf e4 f6 bd fb b8 dc 3c da 95 5d bd c3 4c 8f bd
       -0.120553605 0.026943674 -0.054097988 -0.06997063
000370 9f 1f 55 3d 8d 5c 97 bd ae af c7 3d 1a d8 9d 3d
       0.05203211 -0.073906995 0.09750305 0.07707234
000380 48 d9 a6 3c c4 87 20 bc 51 69 0d 3d f2 d0 a5 3d
       0.02036728 -0.009797994 0.034524266 0.08096494
000390 0b 3d 44 3d 0c 6a 79 bc 52 8c 4a 3c 4f fb 25 bd
       0.047909778 -0.015223037 0.0123625565 -0.04052287
0003a0 c6 e7 a6 bc bf 36 ed 3d c4 f7 b5 3d c4 b6 5b 3d
       -0.02037419 0.115827076 0.08885148 0.053641096
0003b0 55 cc 8e 3d 78 7e dc bd cf d3 d6 bc c3 3d a5 bd
       0.06972567 -0.107663095 -0.026224045 -0.08068421
0003c0 84 44 08 bd 65 ff de bb f1 c3 05 3c 72 c2 1d be
       -0.033268467 -0.0068053477 0.008164392 -0.15406206
0003d0 14 44 ca 3d 37 d9 13 bd 8f 3d 40 bd 47 72 b6 bd
       0.09876266 -0.036095824 -0.046933707 -0.089085154
0003e0 4a 66 c5 3d 4c 09 1d 3d f2 9f ab 3d d2 d2 8b bd
       0.09638651 0.038338944 0.083801165 -0.0682732
0003f0 44 20 9d 3d f4 a2 69 3d 08 4f 6f 3c 76 92 84 3d
       0.0767217 0.05704017 0.014606245 0.06473248

critic.0.bias f4 [64]
000000 40 44 bd 3c 66 c9 9a 3d c2 29 c0 3c 68 d0 95 bd
       0.023103833 0.07557945 0.023457412 -0.07315141
000010 5d 13 dd bd e2 81 c4 bc 22 2a 9a bd 7e f2 0f 3d
       -0.10794709 -0.023987714 -0.075275674 0.035143368
000020 8c 0d 3d 3e c6 c2 d5 bd 01 f4 fc 3c 09 05 81 3c
       0.18462199 -0.10437541 0.030878069 0.015749471
000030 38 fb f8 3d d8 23 83 3d 45 0a eb bd 7d 2f 4b 3d
       0.12157291 0.06403321 -0.11476568 0.049605835
000040 00 03 cd 3d aa 6e b4 3e e5 ba a1 3d f6 a4 f1 3d
       0.10010338 0.3524068 0.078969754 0.11799042
000050 e2 81 d7 3d 04 33 cf bd 77 06 e2 3d e3 21 55 bd
       0.1052282 -0.10117152 0.11036389 -0.05203427
000060 74 63 3d bd bc 6d 9e b9 55 b4 37 3e fd e9 f2 3d
       -0.046237424 -0.00030217867 0.17939885 0.11861036
000070 d6 a3 5f 3d 59 35 e8 3d 58 76 68 bd 3f 52 b7 3d
       0.054599606 0.113383 -0.056753486 0.08951234
000080 46 c9 66 bd 6b 43 0e 3e 35 2f e6 bd d3 5b c7 3e
       -0.056344293 0.13892905 -0.11239473 0.38937244
000090 88 25 89 3d 9b 9c 33 3e e7 6c bb 3d 0d 48 ed 3d
       0.06696612 0.17540209 0.09151631 0.11586008
0000a0 64 95 25 be ba fa f3 3c a3 88 43 3e 87 5a 03 3e
       -0.16170269 0.029782642 0.19095092 0.12827502
0000b0 8d ea e5 bd 79 06 9a bd 56 5e 29 3e 86 9e 8d 3e
       -0.11226378 -0.07520766 0.16539893 0.27660006
0000c0 8f 8e 9c 3d 12 fc dd bc f6 fc 95 3b cc 76 82 bc
       0.076443784 -0.027097736 0.0045772744 -0.015925787
0000d0 b3 38 52 bc 6f 05 16 bd 3b e5 6b 3d cc bb c6 3e
       -0.012830901 -0.036626276 0.057591658 0.38815153
0000e0 26 be 3b bd 36 fa b5 bd b2 dc f0 3d 66 f8 da 3d
       -0.045835637 -0.088856146 0.11760844 0.106919095
0000f0 30 e4 58 3c 20 f2 be 3c 58 9a d6 3c d5 43 0b 3c
       0.013237998 0.023308814 0.026196644 0.008500059

critic.2.weight f4 [1, 64]
000000 f4 95 8e bd 40 6e 3b bd fc 63 9b bd 3a 13 92 bd
       -0.06962195 -0.04575944 -0.0758743 -0.071325734
000010 53 59 25 bd 4c 59 95 bc 2d 13 f8 3d 03 54 97 be
       -0.04036839 -0.018231057 0.121130325 -0.29556283
000020 b6 7c e3 be 71 be ed 3d 79 01 22 3e 21 46 37 3e
       -0.44431084 0.116085894 0.15820874 0.17897846
000030 dc 8b 44 bd 5f 48 2d 3e d5 f9 1a bc 74 01 7f 3e
       -0.047984943 0.16922139 -0.009458979 0.24902898
000040 7c d8 c0 bc 99 c9 10 bf a1 5f 07 3e b0 a4 53 be
       -0.023540728 -0.56557614 0.13220073 -0.20668292
000050 0f e2 94 be 90 ed 1a 3d 21 ca a9 bc 92 18 c3 bd
       -0.2907872 0.037824214 -0.020726265 -0.09526171
000060 6e 12 a2 3d 32 08 92 be 2b 6d 63 3e 63 a7 28 3e
       0.079136714 -0.28521878 0.22209613 0.16470103
000070 28 a4 57 3e c9 bd 2e 3e 1e 02 3a be 13 da d5 bd
       0.21058714 0.17064585 -0.1816487 -0.10441985
000080 23 63 33 bd f4 51 37 3e f1 3f 84 3c 94 19 15 bf
       -0.043795716 0.17902356 0.01614377 -0.58242154
000090 44 ba 70 bd 98 68 36 3e 0a 77 0c 3e 75 e2 4d 3e
       -0.058771387 0.17813337 0.13717285 0.20105918
0000a0 71 d5 6e be 14 96 37 3e e5 43 d4 3d c2 e8 22 3e
       -0.23323609 0.17928344 0.10364512 0.15909103
0000b0 02 0e 33 be 19 f6 6d bd e2 6d b0 3d 54 fc 12 bf
       -0.17485812 -0.058096025 0.086147085 -0.5741627
0000c0 69 74 63 be d8 3d 17 3e 97 88 84 be f2 0a 0e bd
       -0.22212376 0.14769685 -0.2588546 -0.034678407
0000d0 50 f2 a3 bd 84 37 09 bd d7 e3 2b 3e 7c 67 3f bf
       -0.08005202 -0.03350021 0.16786133 -0.7476728
0000e0 16 d7 5b be 55 0c e0 3d 32 db 48 3e 5a ce 28 3e
       -0.21468768 0.10939852 0.19614866 0.16484967
0000f0 a0 e2 90 bd 50 cb 95 3c 9f 46 20 3d c7 07 32 3e
       -0.07074475 0.018285424 0.03912985 0.1738578

exp_avg f4 [64, 2]
000000 79 7a 66 ba b6 53 d7 ba eb 36 ae ba d3 ae 9e ba
       -0.00087920536 -0.0016428146 -0.0013291513 -0.0012106545
000010 4e b7 1d 39 62 77 10 ba 7a 27 c5 ba 6e 2d 87 bb
       0.00015040973 -0.00055109535 -0.0015041672 -0.0041252887
000020 00 00 00 00 00 00 00 00 00 00 00 00 00 00 00 00
       0.0 0.0 0.0 0.0
000030 a3 13 4c bb f1 1e 2e bb 48 a1 8b ba 43 45 53 ba
       -0.0031139634 -0.0026568735 -0.0010652924 -0.0008059332
000040 00 00 00 00 00 00 00 00 5c 6e a5 39 1f da 53 3a
       0.0 0.0 0.00031553477 0.0008081514
000050 fa 2b 99 3a ec da ed 39 50 7c 84 b8 20 ba b3 38
       0.001168608 0.00045367272 -6.3174055e-05 8.5700536e-05
000060 ab a1 53 3a b7 b8 9a 3a c1 46 32 ba dd a4 86 ba
       0.00080731016 0.0011804317 -0.0006800704 -0.0010272522
000070 2e ff dc 39 e2 f0 e8 3a a1 b8 8f 3a 72 01 1c 3b
       0.00042151794 0.0017771984 0.0010965058 0.0023804572
000080 6f 26 f2 37 58 f0 2b ba 01 3f 42 3a 2d 91 dd b9
       2.8866545e-05 -0.00065589463 0.0007409901 -0.0004226057
000090 cd 0b 93 b9 d7 b3 8a b9 ff 12 9d ba fc bc 86 39
       -0.00028046817 -0.00026455402 -0.0011983811 0.00025699276
0000a0 f4 55 fb 3a 90 32 35 b8 69 ec ba 3b 10 e5 1c 3b
       0.0019175396 -4.3200853e-05 0.005704452 0.0023940243
0000b0 d7 6b 07 3a a3 e9 4d 39 55 34 05 3b 23 a6 95 3b
       0.00051659107 0.0001963736 0.0020325382 0.004566924
0000c0 d8 1b 74 3a da d6 ef 3a a2 45 97 39 a3 69 97 38
       0.00093120104 0.0018298284 0.00028852845 7.2199175e-05
0000d0 68 f6 87 39 f9 a9 c9 ba 25 37 d8 b9 df fd 74 ba
       0.00025932794 -0.0015385739 -0.00041239816 -0.0009345691
0000e0 a2 cb 78 3a 4e 66 3e 3b 7a b5 ec ba 9d 13 6b 38
       0.0009490793 0.0029052678 -0.0018059455 5.6046632e-05
0000f0 61 71 38 39 5a 37 6d ba 52 c0 ba 3a bb 32 3c 3a
       0.00017589844 -0.00090490805 0.001424799 0.000717919
000100 80 2d e8 b8 84 ae f6 37 00 00 00 00 00 00 00 00
       -0.00011071097 2.940675e-05 0.0 0.0
000110 26 9c 42 3a ee 6a cf 39 98 32 84 3b cf e5 05 3c
       0.00074237806 0.00039561786 0.0040343516 0.008172466
000120 0d 7c f5 b9 91 44 46 ba 8a 47 71 3a 81 c1 5c b9
       -0.00046822467 -0.0007563318 0.00092040806 -0.00021052921
000130 00 00 00 00 00 00 00 00 d4 24 9e b8 31 2e 5c b9
       0.0 0.0 -7.540887e-05 -0.00020998043
000140 b9 06 2a 3a b4 b6 e8 3a 00 00 00 00 00 00 00 00
       0.0006485987 0.0017754645 0.0 0.0
000150 35 38 07 3a 9a b1 aa b9 2c 94 ca b8 c5 15 66 3a
       0.0005158217 -0.0003255725 -9.65971e-05 0.00087770476
000160 fc 35 95 bb 76 66 3d 39 04 00 00 00 04 00 00 00
       -0.0045535546 0.00018062614 6e-45 6e-45
000170 00 00 00 00 00 00 00 00 f1 09 9d b9 66 64 f7 ba
       0.0 0.0 -0.0002995278 -0.0018874526
000180 2e e1 1f 3a 2e 30 f7 39 e9 6a 53 3a b5 2b 5a 3a
       0.0006098923 0.00047147408 0.0008064942 0.0008322553
000190 00 00 00 00 04 00 00 00 5e b6 90 3a e9 89 98 39
       0.0 6e-45 0.0011040678 0.0002909445
0001a0 a9 a7 f1 37 7e db ed ba c0 c6 94 b9 5f bb 3e b7
       2.8807512e-05 -0.0018147079 -0.0002837684 -1.1368508e-05
0001b0 00 00 00 00 00 00 00 00 a9 e4 a3 39 3e 17 13 3a
       0.0 0.0 0.00031260148 0.00056110683
0001c0 4b 57 e8 ba 19 ec 07 39 42 bc 4e b9 ba 89 b6 38
       -0.0017726211 0.00012962557 -0.00019715822 8.70409e-05
0001d0 79 82 c0 39 88 74 d7 b9 fe dd fe b8 b2 67 6f b9
       0.00036718303 -0.00041094818 -0.00012153013 -0.00022831446
0001e0 9b 39 f8 ba de 2f af bb 49 8d 47 38 49 b1 bf ba
       -0.0018938066 -0.0053462824 4.757688e-05 -0.0014624979
0001f0 1d e4 20 3a 76 c1 08 39 00 00 00 00 00 00 00 00
       0.0006137507 0.0001304204 0.0 0.0

exp_avg_sq f4 [64, 2]
000000 bb f6 5b 3a a3 f8 83 3a 60 aa c4 3b 79 9a be 3b
       0.0008390953 0.0010068606 0.0060017556 0.0058167544
000010 be 3d e3 38 bc 14 ca 38 0f ca 83 38 4b 3b 91 3a
       0.00010835704 9.635973e-05 6.284203e-05 0.0011080293
000020 00 00 00 00 00 00 00 00 00 00 00 00 00 00 00 00
       0.0 0.0 0.0 0.0
000030 5e ec 51 3a fe 22 70 3a 70 ef da 39 41 94 06 3a
       0.0008007939 0.00091604877 0.00041758595 0.0005133786
000040 00 00 00 00 00 00 00 00 88 a0 29 39 67 21 20 39
       0.0 0.0 0.00016176898 0.00015271232
000050 f3 e8 8d 39 49 6b 0e 39 bf 3d fa 38 da 99 0d 39
       0.00027067176 0.00013582142 0.0001193243 0.00013504122
000060 4a 05 cb 3a 23 15 b4 3a 25 b9 1f 3b 46 46 1c 3b
       0.0015489247 0.0013739209 0.002437183 0.0023845597
000070 28 e1 96 3a e3 42 28 3a 47 33 b2 39 f0 e5 38 3a
       0.0011511194 0.00064186583 0.0003398901 0.00070533063
000080 10 08 b4 38 b6 f7 78 38 3d 34 c1 39 b8 03 d7 38
       8.5845706e-05 5.9358506e-05 0.0003685075 0.000102526916
000090 91 99 f4 38 a1 23 0f 39 8d c8 ed 39 d2 14 d8 37
       0.000116634306 0.00013650816 0.00045353585 2.5758902e-05
0000a0 50 cc 84 3a 64 7e af 37 df 50 f8 3a 30 7d 97 3a
       0.0010131691 2.092048e-05 0.0018945 0.0011557695
0000b0 fa 9f 32 38 18 18 e7 37 a4 a1 86 3a 82 ec 08 3b
       4.2587497e-05 2.7548565e-05 0.0010271561 0.0020892923
0000c0 14 3b 68 39 43 18 e4 39 67 19 ae 38 a1 93 8c 38
       0.00022147252 0.00043505625 8.301698e-05 6.703218e-05
0000d0 b0 12 a6 3b 05 df 8f 3b 06 dd 06 3a 00 18 11 3a
       0.0050681457 0.0043905997 0.00051446294 0.00055348873
0000e0 12 20 66 39 2c fe f8 3a ff 1b f6 39 3c 7b 84 36
       0.00021946456 0.0018996648 0.00046941635 3.948253e-06
0000f0 82 8b bd 39 0b 8d f9 38 b6 a0 96 3b a2 48 90 3b
       0.0003615283 0.000118995165 0.004596795 0.0044031898
000100 d3 ea e9 37 a5 21 db 37 00 00 00 00 00 00 00 00
       2.7885113e-05 2.6122501e-05 0.0 0.0
000110 0a 34 91 39 c5 c6 67 39 46 44 9f 3c f5 ed 04 3c
       0.00027695327 0.00022103924 0.019441735 0.008113374
000120 d2 5d 82 38 a8 49 ea 38 dc 78 81 3a ef 8c 2f 3a
       6.2163585e-05 0.00011171709 0.0009877938 0.0006696721
000130 00 00 00 00 00 00 00 00 fa bc 22 38 3f 00 97 3a
       0.0 0.0 3.8799808e-05 0.0011520459
000140 60 8f 1e 3a 3c 34 96 3a 00 00 00 00 00 00 00 00
       0.0006048586 0.0011459659 0.0 0.0
000150 d1 6b fd 39 c0 60 a7 39 f6 9b 15 3a 12 f2 c7 39
       0.0004833625 0.00031924807 0.0005707139 0.00038136594
000160 82 a1 21 3b dd c4 ab 3a 28 8b 0b 1e 70 21 1c 1e
       0.0024662917 0.0013104934 7.3873756e-21 8.265486e-21
000170 00 00 00 00 00 00 00 00 7d 14 ab 3a 15 c6 49 3a
       0.0 0.0 0.0013052371 0.0007697058
000180 f9 1f 88 39 cc 64 72 39 5c 26 50 3c cf 71 51 3c
       0.00025963763 0.00023116468 0.012704458 0.012783482
000190 00 00 00 00 27 fb fa 1c fc d2 9b 39 1e 16 38 39
       0.0 1.6608534e-21 0.000297211 0.00017555847
0001a0 05 7b 8a 3b 48 e9 5a 3b cd 65 ef 39 cb e7 83 37
       0.004226091 0.0033403207 0.0004566148 1.5724354e-05
0001b0 00 00 00 00 00 00 00 00 53 c9 73 3b 77 26 6e 3b
       0.0 0.0 0.0037198856 0.0036338845
0001c0 93 87 19 3a 22 89 1c 38 c8 04 89 38 f0 ec ca 38
       0.0005856689 3.7321013e-05 6.53356e-05 9.676244e-05
0001d0 4e 07 97 39 7a 4d 2a 39 64 18 52 3b 65 e7 49 3b
       0.00028806407 0.00016241326 0.0032057995 0.0030808088
0001e0 dc 10 d1 38 0b b0 de 3a 51 c8 db 3a 61 86 9d 3a
       9.969037e-05 0.0016989721 0.0016768073 0.0012018197
0001f0 a9 47 bc 39 6a a9 78 39 00 00 00 00 00 00 00 00
       0.00035911545 0.00023714235 0.0 0.0

exp_avg f4 [64]
000000 ce c7 ea b9 94 97 17 ba da 80 55 39 67 9f 06 ba
       -0.00044780824 -0.000578278 0.00020361264 -0.0005135447
000010 00 00 00 00 00 00 00 00 e0 06 2e ba b2 91 8d 38
       0.0 0.0 -0.00066385977 6.750542e-05
000020 00 00 00 00 80 cf 2c 39 ea 75 24 3a d7 c6 12 b8
       0.0 0.00016480498 0.0006273674 -3.4994297e-05
000030 90 2b 69 38 c4 2e a5 b9 0b 87 ae b8 b1 f1 63 3a
       5.55921e-05 -0.00031506096 -8.32212e-05 0.00086953776
000040 e3 46 40 37 f3 b3 81 39 a7 0b cf b6 b2 5d 11 ba
       1.1460596e-05 0.0002473887 -6.1704372e-06 -0.0005545273
000050 9d 99 54 3a 54 dc 45 3b 22 36 5d 39 13 28 c9 3a
       0.00081100484 0.003019114 0.00021096368 0.0015347026
000060 7c 4b 4c 3a bd 11 a7 38 a3 65 af 39 e7 1d 4e b8
       0.00077932305 7.9664846e-05 0.00033454326 -4.9142076e-05
000070 46 99 b6 3a 79 57 41 ba f9 dd 70 39 fa 40 47 39
       0.0013931177 -0.00073754 0.00022970875 0.00019002325
000080 1d 73 59 b8 00 00 00 00 f9 aa 03 3a c7 98 31 3a
       -5.184404e-05 0.0 0.00050227303 0.000677478
000090 d6 1c 9c b9 9c 46 4b 3a 00 00 00 00 90 53 95 b7
       -0.00029776123 0.0007754357 0.0 -1.7801096e-05
0000a0 51 7a 92 3a 00 00 00 00 ae 94 b9 39 37 5b aa b9
       0.0011175369 0.0 0.00035396725 -0.00032492887
0000b0 6a 12 ad ba 04 00 00 00 00 00 00 00 fa 0a 1d 39
       -0.001320434 6e-45 0.0 0.00014976776
0000c0 0c d9 13 39 e6 0b f2 3a 04 00 00 00 47 58 0f 3a
       0.00014099869 0.0018466681 6e-45 0.00054681714
0000d0 b9 4a 07 3a 0a 54 f2 b8 00 00 00 00 0f 17 7d b9
       0.0005160976 -0.00011555113 0.0 -0.0002413655
0000e0 70 44 49 ba 53 c5 22 39 04 9e a2 39 0f 82 a6 b9
       -0.00076777395 0.00015523033 0.0003101678 -0.00031758889
0000f0 a0 4a 38 ba 4b 6c e2 39 18 03 ff 39 00 00 00 00
       -0.0007030163 0.00043186764 0.00048639695 0.0
