models/episodes_5000/team_goal_bottom_left/PPOAgent/model.pt (torch, 168423 bytes, 33 tensors)

feature_extractor.0.weight f4 [64, 2]
0.053516213 -0.69015557 0.08298009 0.291323 -0.6638103 -0.45862338 0.122201666 -0.39479098
-0.2859549 -0.34059164 0.27757797 -0.84398997 -0.5449064 0.18986331 -0.2661582 -0.3983452
-0.51398855 0.38702288 -0.42081735 0.33251622 -0.3476064 -0.24532145 0.359987 -0.87394315
0.24600004 0.102462165 0.045428682 0.17488241 -0.20231338 -0.005085354 0.1946144 0.43361834
0.4977742 -0.19206704 -0.14335725 0.33883828 0.023169288 -0.06228002 0.009942863 -0.048482783
-0.020007277 -0.4040212 0.69991034 -0.5211134 0.53102624 -0.52142525 0.3706299 0.44303152
0.63396806 -0.30079105 0.41588342 -0.1418975 0.08042004 0.518652 -0.08563027 -0.18626146
-0.6702119 0.64690316 0.38180566 -0.41430345 -0.48345697 0.41459715 -0.3809807 -0.5894898
0.1130867 -0.4375113 -0.5414882 0.4484524 -0.6649171 -0.64197844 0.18441163 -0.4433212
0.3559206 -0.42768964 -0.24481934 -0.03919887 0.29649284 -0.6206374 0.40380388 -1.0897503
0.061197247 0.3405632 -0.70698094 -0.3531351 -0.65104336 -0.09068813 -0.49697587 0.40079278
0.20381105 0.3594512 0.4862807 -0.6046426 -0.21191679 0.033459034 0.38603666 0.52482903
0.8016094 -0.5138127 0.32096663 -0.12454523 -0.69409066 -0.43520263 -0.03835409 0.012603754
0.25798288 0.2162539 0.17991638 -0.6448639 0.103858665 -0.38891053 0.062146537 -0.024029098
-0.1687842 0.49670163 0.18023662 -0.049848642 -0.053919468 0.16556877 0.587202 -0.35305086
-0.07123122 0.56454676 0.43286648 -0.5911649 0.0054555275 -0.5346038 -0.5513369 -0.024890749
00000000: d133 5b3d 09ae 30bf 77f1 a93d 4a28 953e
00000010: 79ef 29bf afd0 eabe de44 fa3d 0b22 cabe
00000020: ae68 92be 0762 aebe b31e 8e3e ba0f 58bf
00000030: fc7e 0bbf 876b 423e e345 88be e7f3 cbbe
00000040: c194 03bf dd27 c63e 5f75 d7be 913f aa3e
00000050: 77f9 b1be 8c35 7bbe 3750 b83e bdba 5fbf
00000060: 6fe7 7b3e afd7 d13d 6d13 3a3d 6014 333e
00000070: 3d2b 4fbe 0ba3 a6bb ff48 473e 3903 de3e
00000080: 43dc fe3e 39ad 44be 3ecc 12be 367c ad3e
00000090: 85cd bd3c 5619 7fbd 64e7 223c e295 46bd
000000a0: 4de6 a3bc dedb cebe 532d 333f b067 05bf
000000b0: 56f1 073f 207c 05bf 34c3 bd3e 07d5 e23e
000000c0: bb4b 223f 4901 9abe acee d43e 944d 11be
000000d0: 43b3 a43d 61c6 043f ec5e afbd 53bb 3ebe
000000e0: 0293 2bbf 729b 253f 087c c33e 951f d4be
000000f0: ac87 f7be 1446 d43e e70f c3be cee8 16bf
00000100: 009a e73d 7b01 e0be f89e 0abf 8e9b e53e
00000110: 0238 2abf b358 24bf 67d6 3c3e fffa e2be
00000120: 3a3b b63e 23fa dabe ecb1 7abe ff8e 20bd
00000130: e9cd 973e 18e2 1ebf 62bf ce3e f07c 8bbf
00000140: f7a9 7a3d 4d5e ae3e b4fc 34bf 20ce b4be
00000150: c7aa 26bf b3ba b9bd 9f73 febe b634 cd3e
00000160: d8b3 503e fd09 b83e c9f9 f83e dcc9 1abf
00000170: b700 59be 570c 093d 99a6 c53e 325b 063f
00000180: 4636 4d3f 3b89 03bf bd55 a43e 9211 ffbd
00000190: edaf 31bf e1d2 debe 2e19 1dbd fa7f 4e3c
000001a0: 5516 843e aa71 5d3e 003c 383e cd15 25bf
000001b0: dab3 d43d 481f c7be 5e8d 7e3d acd8 c4bc
000001c0: c4d5 2cbe ad4f fe3e f38f 383e 172e 4cbd
000001d0: a9da 5cbd dc8a 293e df52 163f 15c3 b4be
000001e0: ade1 91bd 2386 103f ada0 dd3e 9556 17bf
000001f0: 48c4 b23b cbdb 08bf 6a24 0dbf afe7 cbbc

feature_extractor.0.bias f4 [64]
-0.56436807 -0.90305054 -0.5921069 1.106067 -0.34382337 -0.37252375 1.0379157 -0.21593617
0.5016096 0.72907245 -0.007693486 -0.74633765 -0.6863962 -0.3558569 -0.1066794 -0.3757516
0.79037684 0.6397204 0.8686614 -0.52510536 -0.5680612 0.28266853 0.8313654 -0.8937146
-0.6893321 0.6419647 -0.81942284 1.0367123 0.4489287 -0.10264152 0.25906935 -0.25990647
0.20832711 -0.45219925 -0.35485092 0.6477679 0.033015396 0.8298132 0.56250167 -0.6020456
-0.69096315 0.11359757 -0.030121088 0.37093782 0.5532532 0.12379309 -0.22289369 -0.5005873
-0.28851745 0.52592623 0.3661857 0.62051505 -0.98235357 -0.29324347 0.9055638 -0.5229027
-0.7721746 -0.609592 0.49929225 -0.47051278 0.08316452 0.38822109 0.4200879 0.6755835
00000000: 6d7a 10bf 522e 67bf 5194 17bf 9a93 8d3f
00000010: 9e09 b0be 6fbb bebe 6cda 843f 5f1e 5dbe
00000020: 7d69 003f 7ea4 3a3f a319 fcbb fc0f 3fbf
00000030: a9b7 2fbf e032 b6be bb7a dabd 8462 c0be
00000040: 2356 4a3f b7c4 233f 9860 5e3f 4e6d 06bf
00000050: 756c 11bf eeb9 903e 5dd4 543f 7bca 64bf
00000060: 1278 30bf cc57 243f b2c5 51bf fdb2 843f
00000070: fcd9 e53e b835 d2bd bda4 843e 7612 85be
00000080: b453 553e a986 e7be 05af b5be 1ed4 253f
00000090: 273b 073d a36e 543f 1c00 103f a91f 1abf
000000a0: f6e2 30bf d8a5 e83d 80c0 f6bc 90eb bd3e
000000b0: 00a2 0d3f 3b87 fd3d 3e3e 64be 7d26 00bf
000000c0: 8fb8 93be 1aa3 063f b17c bb3e 13da 1e3f
000000d0: 867b 7bbf 0224 96be 07d3 673f f4dc 05bf
000000e0: 3cad 45bf 390e 1cbf 3ca3 ff3e 0de7 f0be
000000f0: 2952 aa3d eac4 c63e c315 d73e 0af3 2c3f

feature_extractor.2.weight f4 [64, 64]
0.08212665 0.6856715 -0.119939014 -0.3634993 -0.0749549 -0.30020827 0.027701566 0.06615323
0.015912293 -0.34920472 -0.042278945 -0.39375108 0.13396858 0.03712081 -0.04794997 -0.009115945
-0.007755152 0.03825324 -0.09573942 -0.049644932 -0.06712338 0.094332635 -0.19368139 0.22581352
0.25033817 -0.03163476 0.19017251 -0.45216233 -0.20210458 -0.17834887 0.039207574 -0.0946164
-0.46489793 0.11193792 -0.035601318 -0.21586017 -0.029464714 -0.3195031 -0.11246891 -0.48542264
0.50935704 -0.00086354127 0.04447432 -0.007238879 0.024945099 -0.059047356 0.111686975 0.17120937
0.27750155 -0.008428451 0.012118285 -0.1318711 0.39204162 -0.30504778 -0.28774428 -0.11376721
0.15423985 0.6947158 -0.07236559 0.24678756 0.050277065 -0.1569452 0.017188178 -0.61893785
0.12450522 -0.05109985 -0.091778144 -0.062989905 -0.039095014 -0.03971604 0.14883421 0.06946969
-0.12068304 0.024804635 -0.060780406 -0.21149144 0.10874669 -0.05886606 -0.047235176 0.09498354
0.14467946 0.087457165 0.12514019 -0.09367412 0.1101765 -0.24211521 -0.18949808 -0.09700918
-0.13195355 -0.05715119 -0.037074663 0.45899096 0.032785542 -0.48927015 0.10718833 -0.07520124
0.103499874 -0.39642888 0.07681331 -0.013362222 -0.077295884 0.46649483 -0.071642086 -0.04081342
0.01828735 0.13993563 -0.033144876 0.12321925 0.06904182 -0.12595305 0.02753818 -0.023474561
-0.2904791 -0.013315709 0.05800788 -0.0004893223 -0.09595491 -0.1732516 0.38416842 0.11106342
0.032526847 -0.010828725 -0.08590582 -0.26030645 0.10650193 0.0429497 0.059074756 0.1763909
-0.003835231 -0.016474083 -0.1027119 -0.08915889 -0.11681236 -0.03130743 -0.05401069 0.1118107
0.02842091 0.0020884275 0.05456382 0.100389466 -0.06357622 -0.06267275 -0.03387484 -0.1109889
-0.11366618 -0.1188263 0.110442236 0.08308029 0.09006685 0.02076742 0.10558215 -0.06702915
0.005061224 -0.11146541 0.0819011 -0.06412454 -0.09844151 -0.062695265 0.044684365 0.065928325
0.07993057 -0.062343 -0.01793541 0.027907804 -0.0760255 0.101888314 -0.12435645 0.0126871765
0.034562886 0.116446406 -0.050119594 0.06589115 0.013995573 0.047134623 0.041388333 -0.0978159
-0.11890654 -0.12492977 -0.099983186 -0.079421505 0.057053044 0.0928051 -0.08387679 0.043452546
-0.035921946 0.033135146 0.09972809 0.12257488 -0.024509743 -0.06119539 -0.014686763 -0.076921135
-0.090393886 0.12241301 0.093501806 -0.10872534 -0.122059 -0.019204214 -0.09312454 -0.07560822
-0.05584614 -0.02331175 0.011824116 -0.06942752 -0.03216368 0.031031206 -0.102627754 0.008021563
-0.10512033 -0.034293547 0.059062824 -0.043776155 0.0983513 -0.06603208 0.05022779 0.02991812
-0.020708457 -0.09058063 0.016541183 0.083257794 0.070847675 0.100853205 -0.06125702 0.08867666
-0.0959917 0.038184986 0.08350502 -0.029700816 0.10676567 0.12070908 0.075944304 -0.025012806
-0.064602 0.09540972 -0.03876351 -0.041731507 -0.0075448602 0.005999133 -0.019733116 -0.11207709
0.12383115 -0.048200577 -0.09112775 -0.06731969 0.0015051514 0.0880401 -0.035629705 -0.09612313
0.123738185 0.09281623 0.08530244 -0.014224961 -0.09332259 -0.017468616 0.06959425 -0.026633218
00000000: 0432 a83d 2b88 2f3f 96a2 f5bd 951c babe
00000010: f481 99bd e6b4 99be 65ee e23c 587b 873d
00000020: 7f5a 823c f6ca b2be b02c 2dbd be99 c9be
00000030: 0f2f 093e fe0b 183d 3067 44bd 0b5b 15bc
00000040: ee1e febb 6eaf 1c3d 0713 c4bd 7c58 4bbd
00000050: fc77 89bd 7831 c13d 6a54 46be a93b 673e
00000060: 532c 803e 7393 01bd 95bc 423e d281 e7be
00000070: 81f4 4ebe 16a1 36be 1f98 203d 3ec6 c1bd
00000080: 1a07 eebe b53f e53d b0d2 11bd 730a 5dbe
00000090: fc5f f1bc e995 a3be 1a56 e6bd 5189 f8be
000000a0: 3965 023f 465f 62ba b42a 363d 1e34 edbb
000000b0: aa59 cc3c a4db 71bd 24bc e43d 8251 2f3e
000000c0: af14 8e3e 7c17 0abc c58b 463c 3809 07be
000000d0: aeb9 c83e 392f 9cbe 3853 93be c8fe e8bd
000000e0: 0df1 1d3e e5d8 313f 6934 94bd e1b5 7c3e
000000f0: 53ef 4d3d 3eb6 20be 39ce 8c3c b672 1ebf
00000100: 98fc fe3d 144e 51bd 2ef6 bbbd da00 81bd
00000110: 1822 20bd 49ad 22bd ff67 183e 2046 8e3d
00000120: ab28 f7bd 1733 cb3c e0f4 78bd 3691 58be
00000130: 96b6 de3d 8a1d 71bd ac79 41bd bb86 c23d
00000140: da26 143e be1c b33d c024 003e 38d8 bfbd
00000150: 38a4 e13d 0ded 77be c90b 42be c0ac c6bd
00000160: d51e 07be 5e17 6abd 9adb 17bd dd00 eb3e
00000170: 224a 063d 9e81 fabe 8e85 db3d 1c03 9abd
00000180: bef7 d33d baf8 cabe 4c50 9d3d 39ed 5abc
00000190: 4e4d 9ebd 69d8 ee3e 16b9 92bd f92b 27bd
000001a0: 5acf 953c 494b 0f3e ecc2 07bd 605a fc3d
000001b0: cc65 8d3d d6f9 00be c097 e13c b94d c0bc
000001c0: adb9 94be 222a 5abc ac99 6d3d dd45 00ba
000001d0: 0284 c4bd de68 31be b9b1 c43e 3875 e33d
000001e0: df3a 053d f76a 31bc 64ef afbd e346 85be
000001f0: af1d da3d 06ec 2f3d 5ff8 713d d19f 343e
00000200: 8058 7bbb a8f4 86bc 9e5a d2bd f098 b6bd
00000210: 523b efbd 383c 00bd 503a 5dbd 02fd e43d
00000220: f8d2 e83c 00de 083b 507e 5f3d fe98 cd3d
00000230: 4034 82bd 925a 80bd 58c0 0abd 264e e3bd
00000240: d0c9 e8bd 345b f3bd 8a2f e23d 0026 aa3d
00000250: f874 b83d 7020 aa3c 743b d83d 9446 89bd
00000260: a0d8 a53b fa47 e4bd c4bb a73d ba53 83bd
00000270: b49b c9bd 6066 80bd f406 373d 6e05 873d
00000280: a4b2 a33d 605b 7fbd 48ed 92bc e89e e43c
00000290: 42b3 9bbd d2aa d03d 98ae febd e0dd 4f3c
000002a0: d091 0d3d 747b ee3d 344a 4dbd f0f1 863d
000002b0: b04d 653c 3c10 413d d086 293d b453 c8bd
000002c0: 4685 f3bd 2edb ffbd fcc3 ccbd bea7 a2bd
000002d0: 74b0 693d 9a10 be3d 98c7 abbd 4cfb 313d
000002e0: e422 13bd b8b8 073d 3e3e cc3d 8a08 fb3d
000002f0: a8c8 c8bc 04a8 7abd c0a0 70bc d488 9dbd
00000300: 6e20 b9bd acb3 fa3d e07d bf3d 64ab debd
00000310: 12fa f9bd 2852 9dbc 14b8 bebd 7cd8 9abd
00000320: ecbe 64bd 48f8 bebc f0b9 413c 0430 8ebd
00000330: 10be 03bd 2835 fe3c 802e d2bd e06c 033c
00000340: 5449 d7bd 6477 0cbd dceb 713d a04e 33bd
00000350: 686c c93d d43b 87bd a8bb 4d3d d816 f53c
00000360: c8a4 a9bc 5682 b9bd 6081 873c 1083 aa3d
00000370: 9618 913d 208c ce3d a4e8 7abd 1c9c b53d
00000380: 4c97 c4bd dc67 1c3d ae04 ab3d 204f f3bc
00000390: f6a7 da3d 5236 f73d b088 9b3d a8e7 ccbc
000003a0: 0e4e 84bd 2c66 c33d 7cc6 1ebd a8ee 2abd
000003b0: e03a f7bb 6094 c43b 58a7 a1bc ac88 e5bd
000003c0: 309b fd3d f86d 45bd 30a1 babd e8de 89bd
000003d0: 8048 c53a 5e4e b43d 74f0 11bd 34dc c4bd
000003e0: 726a fd3d 7016 be3d 0cb3 ae3d d00f 69bc
000003f0: ea1f bfbd 581a 8fbc 6e87 8e3d e82d dabc

feature_extractor.2.bias f4 [64]
-0.471299 0.19784719 -0.12361881 0.08948399 0.17245921 0.35152552 -0.010652412 0.029484518
0.16969979 -0.07807398 0.3096511 0.09866106 0.15729964 -0.3079988 0.05126777 0.14039497
0.1496465 0.14525634 -0.11586435 0.0854888 0.38771117 0.083179176 0.25363272 0.34006956
0.336836 -0.1409289 0.28213528 -0.027420843 -0.3310317 -0.18263628 0.122502975 0.39544562
-0.13262382 0.2270842 -0.11043502 0.3548978 -0.13266572 0.35971972 0.42082196 0.039267577
0.33215478 -0.123879544 -0.17180629 0.15913443 0.10769066 0.03570969 -0.0344783 0.32537517
-0.11080174 -0.29909804 0.14107595 0.0106765935 0.095273465 0.08922389 -0.017609352 -0.01323922
-0.117089264 -0.024780452 0.19358534 0.24105312 -0.021033658 -0.09745188 0.17660706 0.2668272
00000000: 1a4e f1be 7498 4a3e dc2b fdbd 6243 b73d
00000010: 2699 303e 27fb b33e 7487 2ebc 8489 f13c
00000020: c8c5 2d3e 40e5 9fbd 978a 9e3e cf0e ca3d
00000030: 2813 213e 05b2 9dbe 27fe 513d b3c3 0f3e
00000040: ef3c 193e 14be 143e 4a4a edbd c114 af3d
00000050: 1482 c63e d859 aa3d 26dc 813e 991d ae3e
00000060: c575 ac3e aa4f 10be 0974 903e ada1 e0bc
00000070: fd7c a9be 0105 3bbe d7e2 fa3d d977 ca3e
00000080: 8ace 07be c388 683e c12b e2bd 2ab5 b53e
00000090: 86d9 07be 2f2d b83e fa75 d73e 0ad7 203d
000000a0: 3110 aa3e 8fb4 fdbd fded 2fbe 23f4 223e
000000b0: ec8c dc3d 5344 123d 1e39 0dbd 9397 a63e
000000c0: 06ec e2bd 6123 99be 3776 103e e1ec 2e3c
000000d0: bc1e c33d 04bb b63d 7d41 90bc 50e9 58bc
000000e0: 7fcc efbd 6000 cbbc 3c3b 463e a1d6 763e
000000f0: c74e acbc da94 c7bd 7bd8 343e 939d 883e

actor.0.weight f4 [64, 64]
-0.06641826 -0.07530902 0.020574912 0.10122889 -0.025628347 0.09603321 -0.03998758 -0.01967025
-0.0123920115 -0.09903976 -0.113568254 -0.04407947 -0.09639752 0.09753479 -0.0780862 -0.12977141
0.02402009 0.06896466 0.02482713 -0.011070269 -0.076718755 0.06949232 0.025118083 0.12665187
0.037645496 -0.020081619 -0.058372527 0.06531167 0.007362322 -0.009628584 0.12265535 -0.0029217002
-0.024601758 -0.05089609 0.045249984 -0.069246314 0.02012588 0.039765157 0.05067094 0.08477022
-0.044933505 0.057555106 0.036813557 -0.13187326 -0.05658797 -0.04685749 -0.114534 -0.13428758
0.021248603 -0.04420922 -0.014251801 0.117157325 0.14028116 -0.00021183491 0.10074687 -0.089233175
-0.10555663 -0.11570175 -0.080417484 0.02227142 0.0727876 -0.055293307 0.06840422 0.029390387
-0.37751347 0.091676615 -0.11188407 0.0659941 0.2416911 0.10448349 0.044996187 0.13791226
0.20362628 -0.011355905 0.054125328 0.15721463 0.35087717 -0.15022622 -0.03993286 0.100198224
0.07315426 0.06933422 0.047453262 -0.09194985 0.09488531 0.18021803 0.10178957 -0.6639998
0.33027303 -0.09486284 -0.13809411 -0.020544924 -0.3225812 -0.26674482 -0.07682405 -0.017122127
0.04565407 -0.24815542 0.027615564 0.20053351 0.034829512 -0.5947256 0.5424457 -0.0023294024
-0.6029337 0.00046972136 0.23371531 -0.07508474 0.13059616 -0.008622411 -0.3093484 0.123229615
-0.023625582 -0.16923994 0.038758006 0.05353009 0.081716955 -0.11649945 -0.19259168 -0.08854455
-0.06701321 -0.06868389 0.09481065 0.004435784 -0.09896958 -0.22366047 0.19428155 0.15008312
0.04236975 -0.0029289576 -0.09343955 -0.0066782087 0.1324889 0.006684783 -0.014159008 0.16862151
0.012187379 0.024135359 0.16456595 0.12503284 -0.05320661 -0.106045365 -0.008460627 0.10569072
0.15911876 -0.03335263 -0.13234718 -0.006641077 -0.08543272 -0.062090833 -0.109274015 -0.0009328171
-0.007800972 -0.046864584 0.14397152 -0.04586861 -0.03571574 0.050813995 0.112091266 0.05960804
0.07369706 0.22341758 -0.11599743 -0.073671214 -0.008816376 0.0711062 -0.13028076 0.037066683
0.004363797 0.03263989 0.037758723 0.10919074 0.062106594 0.046363235 0.08201054 0.061088804
-0.006397938 -0.15812102 0.040612914 -0.100074954 -0.05071355 0.02685316 0.015516696 -0.096422076
0.14963493 -0.04337798 0.044356152 0.019171339 0.094934344 -0.13310303 0.02458686 -0.04998098
-0.40705016 0.025764385 -0.0089249015 -0.09964344 0.36561534 -0.006479079 0.04416862 0.07197253
0.037456617 0.06592869 0.15208237 -0.07715453 0.54560304 -0.13384557 0.06952956 0.05768589
0.024703978 0.37834865 0.0051333047 -0.009178575 0.10074439 0.17896284 0.17268923 -0.5387018
0.44904613 -0.058478132 -0.08348565 0.11529771 -0.30832797 -0.1277792 0.12670843 -0.10470952
0.018929496 -0.43058085 0.022646287 0.23063743 -0.04611857 -0.47218734 0.6527769 0.0019340152
-0.7677948 -0.04472146 0.24463654 0.11307569 0.30602542 -0.10902429 -0.020524057 0.08430016
-0.17834346 -0.16632651 0.12872656 -0.10758608 0.04739906 0.11085631 0.090319015 -0.0796494
0.06158314 0.0049521476 0.2035861 -0.048623994 -0.008160643 -0.11116586 0.15940721 0.04131528
00000000: 4c06 88bd 9e3b 9abd b88c a83c 1851 cf3d
00000010: 8af2 d1bc 0fad c43d 04ca 23bd 8123 a1bc
00000020: dd07 4bbc 5cd5 cabd 7996 e8bd ad8c 34bd
00000030: 106c c5bd 52c0 c73d a8eb 9fbd cce2 04be
00000040: c8c5 c43c 583d 8d3d 4462 cb3c 1360 35bc
00000050: b91e 9dbd fd51 8e3d 70c4 cd3c 07b1 013e
00000060: 2a32 1a3d 3582 a4bc 0818 6fbd 20c2 853d
00000070: a23f f13b 35c1 1dbc ba32 fb3d ff79 3fbb
00000080: a089 c9bc 6b78 50bd 0c58 393d 03d1 8dbd
00000090: 08df a43c cae0 223d 558c 4f3d 029c ad3d
000000a0: 320c 38bd e7be 6b3d d0c9 163d c909 07be
000000b0: cac8 67bd a4ed 3fbd cd90 eabd af82 09be
000000c0: 8d11 ae3c ba14 35bd 6380 69bc 2ef0 ef3d
000000d0: dda5 0f3e 0020 5eb9 6054 ce3d e2bf b6bd
000000e0: 132e d8bd 0af5 ecbd ecb1 a4bd 8e72 b63c
000000f0: aa11 953d 3c7b 62bd 8317 8c3d 1cc4 f03c
00000100: 7249 c1be f3c0 bb3d 7a23 e5bd ea27 873d
00000110: df7d 773e 71fb d53d ec4d 383d df38 0d3e
00000120: 6883 503e 1e0e 3abc 85b2 5d3d dffc 203e
00000130: 2ca6 b33e e7d4 19be a390 23bd ba34 cd3d
00000140: e7d1 953d 19ff 8d3d 5a5e 423d 3450 bcbd
00000150: 3b53 c23d 138b 383e 0d77 d03d e4fb 29bf
00000160: 8c19 a93e 7347 c2bd 8b68 0dbe d44d a8bc
00000170: 5d29 a5be c792 88be ed55 9dbd b443 8cbc
00000180: c3ff 3a3d 741c 7ebe 093a e23c a858 4d3e
00000190: 64a9 0e3d f03f 18bf b9dd 0a3f e3a8 18bb
000001a0: dd59 1abf ef44 f639 1153 6f3e 07c6 99bd
000001b0: 00bb 053e 0345 0dbc ea62 9ebe cf5f fc3d
000001c0: 708a c1bc 3c4d 2dbe b7c0 1e3d 5e42 5b3d
000001d0: 385b a73d 4397 eebd c136 45be d856 b5bd
000001e0: 393e 89bd 24aa 8cbd 162c c23d 0e5a 913b
000001f0: 90b0 cabd 4007 65be bef1 463e 64af 193e
00000200: e78b 2d3d c1f3 3fbb 3c5d bfbd e0d4 dabb
00000210: 2cab 073e 060c db3b 2ffb 67bc 1eab 2c3e
00000220: 93ad 473c 84b7 c53c fa83 283e 9c08 003e
00000230: 2def 59bd 502e d9bd 719e 0abc 6074 d83d
00000240: 07f0 223e c49c 08bd 0586 07be 649d d9bb
00000250: 5af7 aebd f552 7ebd 0ecb dfbd 4c88 74ba
00000260: 4c9f ffbb 14f5 3fbd 456d 133e b9e0 3bbd
00000270: ab4a 12bd 5622 503d 1b90 e53d 8f27 743d
00000280: 7cee 963d 94c7 643e 1090 edbd efe0 96bd
00000290: 9072 10bc 21a0 913d 5268 05be 3cd3 173d
000002a0: 2ffe 8e3b 68b1 053d e4a8 1a3d 659f df3d
000002b0: 7c63 7e3d 60e7 3d3d 24f5 a73d 4138 7a3d
000002c0: cba5 d1bb 7aea 21be ba59 263d 19f4 ccbd
000002d0: 03b9 4fbd 28fb db3c bd39 7e3c f078 c5bd
000002e0: e639 193e 1cad 31bd ccae 353d 360d 9d3c
000002f0: f06c c23d 294c 08be 626a c93c dbb8 4cbd
00000300: e168 d0be d50f d33c c039 12bc dc11 ccbd
00000310: ef31 bb3e 744e d4bb 28ea 343d 5566 933d
00000320: 1c6c 193d 9f05 873d 7bbb 1b3e 3203 9ebd
00000330: a4ac 0b3f d00e 09be 8465 8e3d 0a48 6c3d
00000340: ff5f ca3c eab6 c13e 4835 a83b bc61 16bc
00000350: 1353 ce3d 0942 373e 72d5 303e 5ce8 09bf
00000360: 60e9 e53e c486 6fbd 86fa aabd 3521 ec3d
00000370: 2add 9dbe 8dd8 02be dbbf 013e f271 d6bd
00000380: 0812 9b3c 1875 dcbe b584 b93c 382c 6c3e
00000390: d3e6 3cbd 8ac2 f1be 631c 273f c87e fd3a
000003a0: 338e 44bf da2d 37bd 0082 7a3e 3a94 e73d
000003b0: 5daf 9c3e 2148 dfbd 1122 a8bc 90a5 ac3d
000003c0: ab9f 36be 7f51 2abe e5d0 033e 1756 dcbd
000003d0: 8425 423d a208 e33d 2df9 b83d 3a1f a3bd
000003e0: 9a3e 7c3d a045 a23b e078 503e f429 47bd
000003f0: 38b4 05bc edaa e3bd a53b 233e 363a 293d

actor.0.bias f4 [64]
-0.035611685 0.23853497 -0.04318876 0.1738861 -0.0051692794 0.050302554 0.26167852 0.13919932
-0.038665373 -0.07027981 0.024296502 0.20324567 -0.023961712 -0.086852975 0.020296235 -0.08228663
-0.1023809 0.102711834 -0.047153782 -0.06607668 0.04976866 0.051802132 -0.07818898 -0.038657464
0.03396491 -0.14222819 0.11774294 0.008733257 -0.0069522522 0.09263397 0.24988046 -0.1253898
-0.036164057 -0.057749037 0.07075181 0.023342777 0.026708318 0.010981805 0.06561435 -0.17382039
-0.021029519 0.14656834 -0.033519175 -0.092100956 -0.024543451 -0.09372259 -0.029377459 -0.083842434
0.06421293 0.05997965 -0.18529616 -0.033193436 -0.23634295 -0.11269311 0.30476275 -0.06448969
-0.060838502 0.188944 -0.033611067 0.031485286 0.04419973 -0.17511122 0.068598986 -0.06878246
00000000: 8fdd 11bd 8342 743e b2e6 30bd 330f 323e
00000010: 0f63 a9bb 0d0a 4e3d bafa 853e 448a 0e3e
00000020: 955f 1ebd dcee 8fbd 7509 c73c a21f 503e
00000030: 5a4b c4bc f9df b1bd 4a44 a63c e585 a8bd
00000040: 14ad d1bd 955a d23d 5324 41bd 3653 87bd
00000050: 39da 4b3d 792e 543d 8b21 a0bd 4a57 1ebd
00000060: ca1e 0b3d 44a4 11be 3623 f13d ef15 0f3c
00000070: b8cf e3bb e1b6 bd3d aae0 7f3e 2f66 00be
00000080: c320 14bd 418a 6cbd 53e6 903d 5a39 bf3c
00000090: 67cb da3c 07ed 333c d160 863d f9fd 31be
000000a0: 1946 acbc 0316 163e 674b 09bd 6d9f bcbd
000000b0: 590f c9bc a1f1 bfbd ffa8 f0bc 95b5 abbd
000000c0: 1282 833d 39ad 753d 47be 3dbe d7f5 07bd
000000d0: e303 72be a5cb e6bd dd09 9c3e 2c13 84bd
000000e0: cb31 79bd 897a 413e c2ab 09bd b7f6 003d
000000f0: c70a 353d 5b50 33be a07d 8c3d d2dd 8cbd

actor.2.weight f4 [4, 64]
0.14868665 0.13502386 -0.001712187 0.16087194 -0.13487749 -0.19051017 -0.0046368474 -0.1262324
-0.00051671953 -0.008144141 0.023649583 0.1251753 0.05286034 0.0422678 0.21470797 0.09367091
-0.7058175 0.039240934 0.1944312 0.002388073 -0.035416134 0.059432816 0.041338906 -0.121442646
-0.067186624 -0.7047378 -0.08456285 -0.11000758 0.11695868 0.12405436 0.13728635 -0.20625612
0.058970127 -0.09123695 -0.06457733 0.14500265 -0.005198121 0.04903934 -0.117917955 -0.25824073
0.14637923 0.046913955 0.018551322 0.0909341 -0.22579089 0.14599887 -0.3623033 0.08878546
-0.078950286 0.21334708 -0.81376123 0.055519186 -0.20433491 -0.684782 0.08186544 -0.37465617
0.05690444 0.065450974 -0.0189728 -0.03625695 0.26834494 0.2974487 -0.2314182 -0.38456422
-0.015345976 -0.052522525 -0.0563226 0.020110777 0.4167519 0.31534797 0.14237718 -0.22346033
0.026536968 -0.028621135 0.21329811 0.020222127 0.08376042 -0.04456744 -0.22529344 -0.085731894
0.11237104 0.19980875 0.17571928 -0.17760202 0.012960958 0.20431896 0.04052798 0.26694226
-0.07094344 0.16628805 -0.056840103 0.4217327 0.020818979 -0.019886613 0.15565422 0.36921334
-0.20362554 -0.14037344 -0.055451613 -0.38007596 0.119655386 0.18583116 -0.083170556 0.13093261
-0.38437793 0.19111264 0.012164074 -0.06751222 -0.5009449 0.10082552 0.024170356 0.036045276
-0.12189066 0.008567923 0.29675937 -0.28574023 0.049100336 0.3928191 -0.50145125 -0.4229528
0.14259705 -0.065929525 0.08174857 0.113003425 0.09574397 -0.08844799 -0.070121124 0.27057832
0.06962748 -0.9109474 0.18212174 -0.8299066 -0.43097416 -0.22419275 -0.724584 0.25062883
-0.1141715 -0.04707561 -0.40264934 -0.8758041 -0.38581792 -0.04603492 0.11225129 0.14334618
0.17969628 -0.055174388 0.08604929 0.079197094 0.13836217 -0.5748523 -0.011717552 -0.16828667
0.07920973 0.3216412 0.1521053 -0.37450153 0.08827803 -0.15336739 -0.66656363 -0.30030954
0.20579123 -0.099124394 -0.21685648 0.25165027 -0.10824954 -0.14568433 0.00689887 0.3188109
-0.08854209 -0.5199014 -0.1807427 0.34386355 0.3841641 0.22494715 0.30222243 -0.09503405
0.11886726 0.095065355 0.28972638 0.4122852 0.30207855 0.1587899 0.23266856 0.1760366
-0.33700904 0.088702865 0.072855994 0.042127393 -0.23480034 0.2583447 -0.0014280451 -0.20447144
0.13900326 0.4171066 0.062791385 0.3623749 -0.044445515 -0.27548587 0.29863018 -0.33181047
0.022815308 0.06620292 0.14178501 0.30981007 0.059313 -0.07606089 0.019627957 0.07310202
-0.21876068 -0.84194756 -0.6387035 -0.04340131 0.04835191 0.27900136 -0.14985427 -0.21750383
-0.111292005 -0.26370028 -0.08149633 -0.108721316 -0.061226115 -0.0698883 0.34008396 -0.2117321
-0.042767525 0.026768306 0.25094813 0.055843588 0.014199942 0.0455699 0.06213632 -0.7829803
0.011196786 0.21807674 0.12671742 -0.6327293 0.18315627 -0.7529055 -0.113512784 0.17624915
-0.15932328 0.10008839 -0.63881075 -0.23882258 -0.5487807 -0.45102522 0.34736297 -0.02850312
0.06060561 0.30453432 -0.01807699 -0.06058266 0.16561337 -0.6056477 -0.0137710925 -0.06401708
00000000: 5041 183e b243 0a3e 766b e0ba 9dbb 243e
00000010: 531d 0abe 1915 43be b2f0 97bb 1143 01be
00000020: 7674 07ba 016f 05bc c5bc c13c f42d 003e
00000030: 1584 583d 0021 2d3d 68dc 5b3e 89d6 bf3d
00000040: 75b0 34bf 1abb 203d f918 473e 3781 1c3b
00000050: 8210 11bd d36f 733d fc52 293d ecb6 f8bd
00000060: 2499 89bd b269 34bf 4a2f adbd a74b e1bd
00000070: 0888 ef3d 3610 fe3d cb94 0c3e ce34 53be
00000080: a98a 713d 70da babd 1f41 84bd 937b 143e
00000090: 0055 aabb 7add 483d f87e f1bd 2138 84be
000000a0: 70e4 153e d928 403d f1f8 973c a83b ba3d
000000b0: ba35 67be ba80 153e d17f b9be 27d5 b53d
000000c0: b0b0 a1bd a877 5a3e a852 50bf 1668 633d
000000d0: 2c3d 51be e04d 2fbf 11a9 a73d efd2 bfbe
000000e0: a114 693d 290b 863d d86c 9bbc 2b82 14bd
000000f0: 8264 893e 324b 983e e5f8 6cbe 9ae5 c4be
00000100: b06d 7bbc dc21 57bd 87b2 66bd 5bbf a43c
00000110: 8160 d53e 4a75 a13e 53cb 113e c9d2 64be
00000120: 0e64 d93c df76 eabc d26a 5a3e e0a8 a53c
00000130: 958a ab3d 598c 36bd 53b3 66be 3494 afbd
00000140: ca22 e63d aa9a 4c3e c1ef 333e 4edd 35be
00000150: 335a 543c fd38 513e ab00 263d a8ac 883e
00000160: cb4a 91bd 6a47 2a3e 2bd1 68bd 59ed d73e
00000170: 908c aa3c 40e9 a2bc d263 1f3e 8809 bd3e
00000180: 3783 50be 0ebe 0fbe 3b21 63bd 5199 c2be
00000190: e20d f53d 864a 3e3e 5355 aabd 3313 063e
000001a0: 2fcd c4be 08b3 433e d34b 473c d943 8abd
000001b0: ed3d 00bf 9c7d ce3d e900 c63c 36a4 133d
000001c0: cfa1 f9bd 7960 0c3c d8f0 973e 8b4c 92be
000001d0: 6f1d 493d 961f c93e 1c5f 00bf 458d d8be
000001e0: f604 123e 0f06 87bd cb6b a73d 576e e73d
000001f0: 6a15 c43d 3824 b5bd aa9b 8fbd 3e89 8a3e
00000200: da98 8e3d d933 69bf 1f7e 3a3e c274 54bf
00000210: a5a8 dcbe c992 65be 567e 39bf 6c52 803e
00000220: bfd2 e9bd 5bd2 40bd 0e28 cebe b334 60bf
00000230: ed89 c5be 1d8f 3cbd 01e4 e53d 57c9 123e
00000240: 4d02 383e 8afe 61bd 9c3a b03d 1632 a23d
00000250: d0ae 0d3e 8529 13bf fafa 3fbc 5753 2cbe
00000260: b638 a23d 28ae a43e 7ec1 1b3e aabe bfbe
00000270: 1dcb b43d 570c 1dbe eaa3 2abf 2cc2 99be
00000280: f0ba 523e bb01 cbbd a00f 5ebe 4ed8 803e
00000290: efb1 ddbd 462e 15be eb0f e23b 2f3b a33e
000002a0: 8e55 b5bd 4218 05bf 9d14 39be e20e b03e
000002b0: 28b1 c43e 8c58 663e e6bc 9a3e 36a1 c2bd
000002c0: ae70 f33d a0b1 c23d 0457 943e 0c17 d33e
000002d0: 0aaa 9a3e d299 223e ab40 6e3e f042 343e
000002e0: 738c acbe d9a9 b53d 8635 953d c68d 2c3d
000002f0: 806f 70be c245 843e 3e2d bbba f660 51be
00000300: df56 0e3e ff8e d53e c598 803d 3489 b93e
00000310: 800c 36bd 7c0c 8dbe 0ee6 983e 10e3 a9be
00000320: 2be7 ba3c 6695 873d 1730 113e 6d9f 9e3e
00000330: 30f2 723d d0c5 9bbd cfca a03c 83b6 953d
00000340: cd02 60be e089 57bf 1382 23bf 92c5 31bd
00000350: a70c 463d 44d9 8e3e 6673 19be 53b9 5ebe
00000360: 10ed e3bd b903 87be 8ce7 a6bd 48a9 debd
00000370: 3cc8 7abd 9921 8fbd 7c1f ae3e 4dd0 58be
00000380: 002d 2fbd 3549 db3c 467c 803e 3fbc 643d
00000390: e0a6 683c 81a7 3a3d a782 7e3d 6671 48bf
000003a0: b972 373c 824f 5f3e 36c2 013e 8cfa 21bf
000003b0: 518d 3b3e 6abe 40bf 6479 e8bd a87a 343e
000003c0: a425 23be 24fb cc3d 1a89 23bf e88d 74be
000003d0: e47c 0cbf c7ec e6be 8fd9 b13e 607f e9bc
000003e0: 973d 783d eceb 9b3e 3216 94bc 8625 78bd
000003f0: 8d96 293e ba0b 1bbf 26a0 61bc 631b 83bd

actor.2.bias f4 [4]
-0.047419537 -0.17544784 0.011919928 0.278797
00000000: fd3a 42bd 99a8 33be cd4b 433c 7bbe 8e3e

critic.0.weight f4 [64, 64]
-0.40333402 0.1442053 -0.0543897 -0.11095224 -0.7764606 0.060997523 -0.011005059 0.113817886
0.17695732 0.015651979 -0.052974675 0.17619596 -0.19793764 -0.1812636 -0.018570729 0.18581805
-0.053669386 -0.14333645 0.050356753 0.19090776 -0.5682951 -0.04166259 0.22736834 0.22463374
-0.06700183 -0.008579575 0.12288936 -0.043940224 -0.0032523167 0.009407621 -0.068124026 0.30738875
0.055657934 0.18215027 0.044793516 -0.4135806 0.06790005 0.3953913 -0.58294475 0.033396095
0.17577419 -0.05067342 -0.04547143 -0.030150004 0.18536128 -0.048294123 0.14808972 0.21297228
0.023343569 0.09570647 -0.05902178 -0.098651685 0.40834343 -0.040387943 0.05732686 0.07288997
-0.12514728 0.10806647 -0.018457215 0.3365921 -0.044021383 0.037107535 0.18517183 -0.12814292
-1.0933707 0.010935573 0.039183363 0.0038956404 0.050107777 0.14724308 0.009358738 -0.20070948
-0.03233146 -0.01903629 0.07715111 0.095638335 0.123281896 -1.0687841 -0.070018336 0.085680075
-0.041425448 0.08072958 0.020682259 -0.00030252844 0.310537 -0.027191322 -0.09021728 -0.14208294
0.19515672 -0.08516158 0.0044674487 -0.02591169 -0.35082516 -1.2229484 -0.07906679 -0.7111768
0.059666216 0.16140601 0.052938968 0.24223047 -0.115844294 -0.7114215 0.33088562 0.08271055
-0.48426175 0.053928185 -0.330238 0.0178935 -0.45607707 0.10258219 -0.098167814 0.1322903
-0.1999668 -1.108674 0.16000208 0.051367424 0.09516482 0.040363636 0.0799689 -0.025842175
-0.06335963 0.10227345 0.12085495 0.048564505 -0.109665155 -0.920459 0.12693232 0.016611632
0.2131289 -0.057577427 0.046052307 0.11659555 0.05899294 -0.08098941 -0.11411578 -0.3359757
0.09313195 0.06005332 0.27644283 0.19495647 0.010830762 -0.144429 0.0045834626 -0.0046142973
0.058633447 -0.01563871 0.08826426 -0.060327727 -0.26695725 0.053431295 -0.18731548 0.056516547
-0.23242801 0.047073547 -0.06565295 -0.09404995 -0.039071172 0.16060694 -0.043912143 -0.017703285
-0.12221417 0.119950324 0.052382767 -0.23191613 0.108419284 -0.10255561 -0.061187293 0.022012195
0.015644189 0.09334255 -0.02684355 0.14274411 -0.029868253 0.117120676 -0.22184326 -0.07607385
-0.010697862 -0.051639974 -0.07641485 0.07837917 0.029614545 0.069655485 0.015475973 -0.036141858
-0.1735066 0.12333745 -0.15425666 -0.08907377 -0.09473185 -0.019117624 0.16582474 -0.23979479
-0.88485444 0.05052899 -0.01681444 0.10910237 0.07827353 -0.080989785 0.043066252 -0.17134836
-0.07861689 0.040192142 0.15574966 0.0077476506 0.30392146 -1.3060739 0.0071592415 0.05596347
-0.020426447 0.20377856 -0.122852884 -0.07187901 0.3879902 -0.03333306 -0.22861104 -0.18100716
0.2621411 0.033801373 0.1502068 0.06912263 -0.2902025 -1.1692859 -0.060184054 -0.52095085
0.04219675 0.016876673 -0.115099534 0.34397823 -0.022349935 -0.808651 0.34088317 -0.09043421
-0.42112416 -0.09368872 -0.29543403 0.04067624 -0.40563455 -0.06666497 -0.061894387 0.13092676
-0.059490975 -1.3320787 0.038012207 -0.069434315 0.07044337 0.04383858 0.0042014755 -0.06436367
0.0048635146 0.1172414 0.10396636 0.09772792 -0.09058379 -1.1903439 0.062036645 0.041283686
00000000: cc81 cebe 8eaa 133e bcc7 5ebd ee3a e3bd
00000010: 1fc6 46bf 8ad8 793d 904e 34bc 5a19 e93d
00000020: 4d34 353e 9438 803c f9fb 58bd b76c 343e
00000030: 2ab0 4abe 2a9d 39be a421 98bc 1647 3e3e
00000040: 6ed4 5bbd cac6 12be e242 4e3d 537d 433e
00000050: ca7b 11bf 64a6 2abd 3fd3 683e 6306 663e
00000060: 4138 89bd 5991 0cbc 6bad fb3d aafa 33bd
00000070: d224 55bb 6c22 1a3c 9c84 8bbd 0f62 9d3e
00000080: 93f9 633d 9a85 3a3e 6879 373d d6c0 d3be
00000090: 2e0f 8b3d ba70 ca3e de3b 15bf 58ca 083d
000000a0: 26fe 333e ef8e 4fbd 4040 3abd 24fd f6bc
000000b0: 59cf 3d3e 0fd0 45bd d5a4 173e 6815 5a3e
000000c0: 033b bf3c c101 c43d d2c0 71bd e509 cabd
000000d0: 6412 d13e d46d 25bd 92cf 6a3d 5647 953d
000000e0: 9c26 00be f451 dd3d 9633 97bc cd55 ac3e
000000f0: c44f 34bd 12fe 173d af9d 3d3e e637 03be
00000100: 92f3 8bbf 1e2b 333c bc7e 203d 004e 7f3b
00000110: d03d 4d3d e4c6 163e 6455 193c c986 4dbe
00000120: fe6d 04bd fef1 9bbc 6701 9e3d 08de c33d
00000130: 387b fc3d ebcd 88bf c665 8fbd 0979 af3d
00000140: bbad 29bd 8d55 a53d d76d a93c ae9c 9eb9
00000150: b5fe 9e3e 56c0 debc d6c3 b8bd 317e 11be
00000160: 2ad7 473e 3269 aebd ad63 923b c144 d4bc
00000170: 5b9f b3be 9389 9cbf c5ed a1bd af0f 36bf
00000180: 9064 743d 9e47 253e 88d6 583d 440b 783e
00000190: c63f edbd b81f 36bf d769 a93e 2664 a93d
000001a0: 28f1 f7be cde3 5c3d f514 a9be 6495 923c
000001b0: ef82 e9be 9c16 d23d 350c c9bd 1c77 073e
000001c0: 19c4 4cbe 08e9 8dbf 96d7 233e a666 523d
000001d0: c6e5 c23d 5754 253d bcc6 a33d f8b2 d3bc
000001e0: b2c2 81bd be74 d13d cd82 f73d 93eb 463d
000001f0: 2098 e0bd 33a3 6bbf 8cfa 013e 1e15 883c
00000200: 763e 5a3e 4fd6 6bbd 58a1 3c3d a6c9 ee3d
00000210: 95a2 713d c7dd a5bd 89b5 e9bd 0205 acbe
00000220: f7bb be3d 78fa 753d ea89 8d3e aba2 473e
00000230: 8273 313c 32e5 13be df30 963b 8833 97bb
00000240: a029 703d c11c 80bc e4c3 b43d 351a 77bd
00000250: 9fae 88be c6da 5a3d a1cf 3fbe e57d 673d
00000260: 9c01 6ebe 31d0 403d 0e75 86bd 439d c0bd
00000270: 1809 20bd 2576 243e 38dd 33bd 7b06 91bc
00000280: 6c4b fabd 84a8 f53d 508f 563d 6c7b 6dbe
00000290: ee0a de3d ad08 d2bd 879f 7abd eb52 b43c
000002a0: 3e28 803c 612a bf3d 01e7 dbbc 832b 123e
000002b0: 44ae f4bc f7dc ef3d e12a 63be 9bcc 9bbd
000002c0: 1646 2fbc 7084 53bd 647f 9cbd 4285 a03d
000002d0: 349a f23c 89a7 8e3d ef8e 7d3c 7c09 14bd
000002e0: b7ab 31be 5898 fc3d 75f5 1dbe 4f6c b6bd
000002f0: c602 c2bd 909c 9cbc f6cd 293e c48c 75be
00000300: d285 62bf 7cf7 4e3d 70be 89bc 1071 df3d
00000310: df4d a03d f9dd a5bd 3d66 303d f275 2fbe
00000320: e401 a1bd 84a0 243d d77c 1f3e 01e0 fd3b
00000330: 989b 9b3e 6e2d a7bf 1298 ea3b f439 653d
00000340: 5d55 a7bc 54ab 503e 4b9a fbbd 4d35 93bd
00000350: a7a6 c63e 3f88 08bd 0319 6abe f159 39be
00000360: 5c37 863e 4f73 0a3d d0cf 193e 2a90 8d3d
00000370: 6c95 94be 29ab 95bf 8e83 76bd 095d 05bf
00000380: 80d6 2c3d f340 8a3c 4eb9 ebbd ea1d b03e
00000390: 3617 b7bc c003 4fbf 3d88 ae3e 9235 b9bd
000003a0: 969d d7be dfdf bfbd 2143 97be 219c 263d
000003b0: 55af cfbe a587 88bd f884 7dbd aa11 063e
000003c0: cfac 73bd 8e81 aabf b0b2 1b3d 9433 8ebd
000003d0: 9d44 903d 1590 333d 88ac 893b 1ad1 83bd
000003e0: 1e5e 9f3b 421c f03d 51ec d43d 9325 c83d
000003f0: fe83 b9bd 305d 98bf 231a 7e3d 1519 293d

critic.0.bias f4 [64]
0.025694069 0.15291081 -0.12116032 0.15087034 0.17388344 -0.00082620396 0.1989187 -0.0076877885
0.19923928 -0.11671673 0.33849725 -0.014597543 -0.12546144 -0.13966173 -0.11016787 -0.2510579
0.29392117 -0.07492678 0.093133144 -0.12028178 -0.0698736 0.19951068 0.36380073 0.11127478
-0.036194652 0.037871175 0.3468951 0.30633745 0.07674884 0.080551445 0.05808517 0.2306178
-0.15981464 0.026876098 -0.033145525 -0.056755338 0.025739038 -0.07695624 0.13728835 0.15935759
-0.107734986 -0.110234596 -0.07773529 0.32592472 0.032329563 0.18640906 -0.10895903 -0.11268083
-0.1460715 0.06895295 0.2354073 0.33900344 0.028212463 0.019360628 0.031549938 -0.24842627
-0.14494741 0.13373661 0.0021952093 -0.04222381 0.003419658 0.3502351 0.14672284 0.0066025537
00000000: 5e7c d23c a794 1c3e e722 f8bd c17d 1a3e
00000010: 800e 323e 9c95 58ba 58b1 4b3e d8e9 fbbb
00000020: 6205 4c3e 2e09 efbd 834f ad3e 882a 6fbc
00000030: f778 00be 7c03 0fbe b19f e1bd a98a 80be
00000040: d67c 963e 3673 99bd 97bc be3d 4b56 f6bd
00000050: e419 8fbd 874c 4c3e 1744 ba3e 08e4 e33d
00000060: d840 14bd ce1e 1b3d 3c9c b13e 43d8 9c3e
00000070: 7f2e 9d3d 28f8 a43d b7ea 6d3d 1327 6c3e
00000080: 73a6 23be 432b dc3c 9ac3 07bd 4978 68bd
00000090: adda d23c 3c9b 9dbd 5195 0c3e a32e 233e
000000a0: 29a4 dcbd adc2 e1bd ae33 9fbd 9bdf a63e
000000b0: 016c 043d 04e2 3e3e e925 dfbd 35c5 e6bd
000000c0: c493 15be 3437 8d3d 9c0e 713e dc91 ad3e
000000d0: d31d e73c 2e9a 9e3c 823a 013d 7563 7ebe
000000e0: 186d 14be 40f2 083e 80dd 0f3b e0f2 2cbd
000000f0: 571c 603b 0452 b33e 833e 163e 3c5a d83b

critic.2.weight f4 [1, 64]
-0.24753734 -0.3008867 0.36752558 -0.36661118 -0.33248726 -0.08650975 0.2118786 -0.25773537
0.14730328 -0.012028336 0.11479795 0.09375043 0.16060357 -0.2727289 -0.078958 0.026963105
0.14150688 -0.0033747186 -0.04074312 0.004787027 0.007315366 0.23204304 0.2031187 -0.35916746
-0.105084345 -0.15398428 0.1724482 0.15536971 -0.060655665 0.3463265 0.08313533 -0.41857994
-0.087601684 0.14463077 0.00055646396 -0.055002082 -0.25970906 -0.058645185 0.08970473 0.15883611
0.01577996 0.06468645 -0.09654732 0.17817736 -0.0039314497 0.18251126 0.008022939 -0.17445745
-0.15075585 -0.11522643 0.008489531 0.20403068 0.10127176 -0.299535 -0.06223403 0.093350165
0.024993926 -0.3235732 -0.030885503 0.10722704 -0.081357196 0.23029599 -0.3895418 -0.18408222
00000000: 6e7a 7dbe d20d 9abe 502c bc3e 76b4 bbbe
00000010: c53b aabe 062c b1bd b4f6 583e e4f5 83be
00000020: acd6 163e 7f12 45bc 301b eb3d 3a00 c03d
00000030: 4375 243e 1fa3 8bbe bbb4 a1bd bbe1 dc3c
00000040: 2ee7 103e 622a 5dbb 42e2 26bd 7edc 9c3b
00000050: bdb5 ef3b b19c 6d3e 59fe 4f3e cce4 b7be
00000060: 7636 d7bd 0eae 1dbe 4396 303e 3d19 1f3e
00000070: 1372 78bd b551 b13e db42 aa3d 1c50 d6be
00000080: 8368 b3bd 171a 143e aadf 113a dd49 61bd
00000090: 96f8 84be ef35 70bd 1db7 b73d efa5 223e
000000a0: fa44 813c 547a 843d 9aba c5bd 2074 363e
000000b0: 64d3 80bb 3be4 3a3e a572 033c f9a4 32be
000000c0: be5f 1abe d6fb ebbd ad17 0b3c 6bed 503e
000000d0: 9267 cf3d a75c 99be 1ce9 7ebd 5f2e bf3d
000000e0: 10c0 cc3c 63ab a5be 9803 fdbc da99 db3d
000000f0: 9a9e a6bd b6d2 6b3e 0672 c7be 0d80 3cbe

exp_avg f4 [64, 2]
0.0 0.0 -0.006072382 -0.006149129 0.0 0.0 0.0023356923 0.0023105203
0.0 0.0 3.0393142e-06 -9.2206125e-07 7.982413e-06 3.649816e-05 0.0 0.0
0.0008122049 0.00080273143 0.0022331504 0.002264829 0.0 0.0 2.9689013e-06 -9.2176316e-07
0.00052071834 0.0005035786 0.00070739945 0.00070143933 0.0 0.0 0.00089775946 0.0008916324
0.0020875153 0.0020702798 0.002307273 0.0023427028 0.0016046826 0.0016184921 0.0 0.0
0.0 0.0 -1.1726418e-05 6.9458083e-06 0.00023714692 0.0002538854 0.0013416801 0.0013348203
-0.0017592075 -0.0017361043 0.0023908194 0.002357123 0.00042818632 0.00041750274 -1.3087734e-05 -9.024205e-06
0.00059770694 0.0006005684 1.1070945e-05 1.0678028e-06 0.0005417763 0.0005108071 0.0 0.0
-8.796335e-07 -6.461798e-07 -4.8153164e-05 -9.264609e-05 0.0 0.0 1.1369635e-06 7.8259475e-08
8.837853e-06 1.687065e-06 -1.3469974e-05 5.4723267e-05 4.246186e-06 -2.597993e-06 -3.5710104e-06 -1.8009335e-06
-0.0024368651 -0.00247945 0.0 0.0 0.0 0.0 -0.00023969558 -0.0002596232
0.0031969424 0.0032004884 1.0036725e-05 -3.9124625e-06 0.0 0.0 0.0015893214 0.0015892835
-0.0009847798 -0.00095950323 0.002343761 0.0023283348 0.0 0.0 0.0032782773 0.0032930537
-0.0015521545 -0.0015477521 6.32884e-06 -1.5677872e-09 -2.2834135e-07 -2.0257089e-07 0.0 0.0
0.0008570316 0.0008485357 -0.00015518558 -5.833842e-05 0.0028940896 0.0029023925 -0.001652517 -0.0016305889
0.0013531061 0.0013543923 9.972241e-06 -1.6683615e-06 -1.3050619e-05 0.0 1.7532426e-07 -5.104575e-06
00000000: 0000 0000 0000 0000 d5fa c6bb a27e c9bb
00000010: 0000 0000 0000 0000 6a12 193b 196c 173b
00000020: 0000 0000 0000 0000 05f7 4b36 9183 77b5
00000030: 34ec 0537 9a15 1938 0000 0000 0000 0000
00000040: 26ea 543a 656e 523a 0c5a 123b 866d 143b
00000050: 0000 0000 0000 0000 563d 4736 156f 77b5
00000060: d180 083a 9602 043a c670 393a cce0 373a
00000070: 0000 0000 0000 0000 9e57 6b3a 70bc 693a
00000080: b2ce 083b 88ad 073b 9e35 173b 0888 193b
00000090: 3754 d23a 9523 d43a 0000 0000 0000 0000
000000a0: 0000 0000 0000 0000 95bc 44b7 0a10 e936
000000b0: a4aa 7839 ec1b 8539 50db af3a 23f5 ae3a
000000c0: 3595 e6ba fe8d e3ba 4baf 1c3b f679 1a3b
000000d0: 327e e039 45e4 da39 6493 5bb7 aa66 17b7
000000e0: 6faf 1c3a 776f 1d3a 59bd 3937 6d51 8f35
000000f0: fe05 0e3a afe7 053a 0000 0000 0000 0000
00000100: f41f 6cb5 2375 2db5 11f8 49b8 fe4a c2b8
00000110: 0000 0000 0000 0000 c599 9835 9a0f a833
00000120: 4a46 1437 1d6f e235 19fd 61b7 a986 6538
00000130: 767a 8e36 2e59 2eb6 7ea5 6fb6 9bb7 f1b5
00000140: d0b3 1fbb 457e 22bb 0000 0000 0000 0000
00000150: 0000 0000 0000 0000 cb56 7bb9 091e 88b9
00000160: cb83 513b 49bf 513b 6863 2837 cc47 83b6
00000170: 0000 0000 0000 0000 c750 d03a 814f d03a
00000180: ba13 81ba 2c87 7bba c999 193b fa96 183b
00000190: 0000 0000 0000 0000 5ed8 563b 46d0 573b
000001a0: aa71 cbba f1dd caba 525c d436 9c79 d7b0
000001b0: fe2d 75b4 4382 59b4 0000 0000 0000 0000
000001c0: 6baa 603a 4470 5e3a 50b9 22b9 67b0 74b8
000001d0: c4aa 3d3b 1136 3e3b 4599 d8ba 7cb9 d5ba
000001e0: b55a b13a dd85 b13a 734e 2737 77ec dfb5
000001f0: fbf3 5ab7 0000 0000 c440 3c34 f747 abb6

exp_avg_sq f4 [64, 2]
0.0 0.0 0.0080531705 0.007134915 0.0 0.0 0.0016849067 0.0004853045
0.0 0.0 6.910388e-05 9.635231e-07 0.00044280957 0.0005237588 0.0 0.0
0.0014299178 0.0016798544 0.00036779334 0.00066115055 0.0 0.0 5.5787117e-05 7.037225e-07
0.00038907176 0.00025657957 0.00044584347 0.00022428113 0.0 0.0 0.00012766509 6.567544e-05
0.000482145 0.00034259065 0.0002103143 0.00014005977 0.0004655 0.0003825351 0.0 0.0
0.0 0.0 0.0014349155 0.0014151274 0.0017163513 0.0016701753 0.0008169658 0.00043634046
0.0011743342 0.0008485328 0.00047277048 0.0002590693 0.0006250453 0.00023517713 0.004143119 0.0013866373
0.00029036592 0.00036262523 0.00029038676 5.009263e-05 0.005284456 0.0057577146 0.0 0.0
0.00072041765 4.5085966e-05 8.172333e-05 0.000810177 0.0 0.0 0.0022613362 0.00041514213
7.794769e-05 1.566595e-05 0.0007611409 0.0011032948 0.0008349236 0.00015486164 7.6123855e-05 1.1053482e-06
0.0018876691 0.0015707163 0.0 0.0 0.0 0.0 0.0055804 0.0059800595
0.00060819456 0.00046022877 0.00017460105 3.4901488e-05 0.0 0.0 0.00012880778 8.5667074e-05
0.0010795878 0.001099225 0.0005096064 0.00039650992 0.0 0.0 0.0006780149 0.00052115915
0.0017392149 0.0009612145 2.7830769e-05 2.4303912e-07 0.0033813827 0.00078869605 0.0 0.0
8.621809e-05 0.000106123225 0.0022936512 0.0012437854 0.0005571012 0.00044565284 0.00073777634 0.00062046264
0.00016591075 0.00012731038 0.00062648853 0.00011565398 6.815803e-05 0.0 4.9313558e-06 0.00019754401
00000000: 0000 0000 0000 0000 72f1 033c 01cc e93b
00000010: 0000 0000 0000 0000 16d8 dc3a 7870 fe39
00000020: 0000 0000 0000 0000 ddeb 9038 6752 8135
00000030: e528 e839 dc4c 093a 0000 0000 0000 0000
00000040: 146c bb3a 8f2e dc3a 63d4 c039 1051 2d3a
00000050: 0000 0000 0000 0000 f6fc 6938 71e7 3c35
00000060: 54fc cb39 8785 8639 19c0 e939 022d 6b39
00000070: 0000 0000 0000 0000 d6dd 0539 3cbb 8938
00000080: 68c8 fc39 bd9d b339 d187 5c39 02dd 1239
00000090: 5a0e f439 fe8e c839 0000 0000 0000 0000
000000a0: 0000 0000 0000 0000 c613 bc3a cc7b b93a
000000b0: 31f7 e03a c9e9 da3a a629 563a a0c4 e439
000000c0: 1eec 993a 1370 5e3a 2ede f739 b1d3 8739
000000d0: 14da 233a e199 7639 00c3 873b d4bf b53a
000000e0: 413c 9839 bc1e be39 0d3f 9839 8d1a 5238
000000f0: 3b29 ad3b 36ab bc3b 0000 0000 0000 0000
00000100: 69da 3c3a b01a 3d38 e162 ab38 0f62 543a
00000110: 0000 0000 0000 0000 ed32 143b 6fa7 d939
00000120: d977 a338 5f6a 8337 4d87 473a 6e9c 903a
00000130: c6de 5a3a 5b62 2239 afa4 9f38 7a5b 9435
00000140: aa6b f73a 7ee0 cd3a 0000 0000 0000 0000
00000150: 0000 0000 0000 0000 cadb b63b 60f4 c33b
00000160: 3f6f 1f3a dc4a f139 1d15 3739 3063 1238
00000170: 0000 0000 0000 0000 9310 0739 29a8 b338
00000180: f580 8d3a df13 903a 1b97 053a a9e2 cf39
00000190: 0000 0000 0000 0000 cfbc 313a 669e 083a
000001a0: 5ef6 e33a 03fa 7b3a 1f76 e937 0b7b 8234
000001b0: 309a 5d3b 7fc0 4e3a 0000 0000 0000 0000
000001c0: fccf b438 798e de38 1551 163b 8306 a33a
000001d0: 6e0a 123a 83a6 e939 5567 413a 8ba6 223a
000001e0: 54f8 2d39 9f7e 0539 ef3a 243a 428b f238
000001f0: 10f0 8e38 0000 0000 0678 a536 d123 4f39

exp_avg f4 [64]
0.0 -0.001506741 0.0 0.0005599765 0.0 3.300228e-06 8.074759e-07 0.0
0.00021397058 0.0005528784 0.0 1.576449e-06 0.00012689842 0.00017348054 0.0 0.00022510509
0.00049857906 0.0005695251 0.00039083074 0.0 0.0 -6.888631e-06 3.6185113e-05 0.00033238664
-0.0004387585 0.00057624566 0.00010887366 -2.2288125e-06 0.00015411896 4.877068e-06 0.00015211021 0.0
3.1491534e-06 -1.1523128e-05 0.0 -1.13281185e-05 5.138669e-06 -1.2048581e-05 -2.9661408e-06 1.6569124e-06
-0.00060288707 7.78407e-06 0.0 -4.800126e-05 0.00078584783 5.3843365e-07 0.0 0.00039932795
-0.00024859354 0.0005683078 5.060151e-06 0.0008044534 -0.00039066566 5.2870796e-06 -1.1541406e-05 0.0
0.00021743505 -2.3817187e-05 0.0007109926 -0.0004084558 0.00033867793 -1.0404678e-05 1.6694257e-05 -2.3310536e-06
00000000: 0000 0000 d77d c5ba 0000 0000 63cb 123a
00000010: 0000 0000 7c79 5d36 52c1 5835 0000 0000
00000020: 4a5d 6039 0bef 103a 0000 0000 6096 d335
00000030: 0910 0539 54e8 3539 0000 0000 300a 6c39
00000040: 13b3 023a 2f4c 153a 6ae8 cc39 0000 0000
00000050: 0000 0000 e424 e7b6 78c5 1738 2e44 ae39
00000060: 2b09 e6b9 310f 173a 1a53 e438 b592 15b6
00000070: fe9a 2139 b2a5 a336 c67f 1f39 0000 0000
00000080: 0b56 5336 7553 41b7 0000 0000 e60d 3eb7
00000090: d56c ac36 4324 4ab7 e90d 47b6 1463 de35
000000a0: 110b 1eba 5398 0237 0000 0000 f654 49b8
000000b0: 5b01 4e3a e188 1035 0000 0000 e45c d139
000000c0: a955 82b9 7efa 143a 5eca a936 f4e1 523a
000000d0: 42d2 ccb9 ab67 b136 f6a1 41b7 0000 0000
000000e0: 47ff 6339 05cb c7b7 e861 3a3a 0226 d6b9
000000f0: 9590 b139 c08f 2eb7 a50a 8c37 326f 1cb6

exp_avg_sq f4 [64]
0.0 0.0004445556 0.0 0.000101369056 0.0 3.4026052e-06 6.012197e-05 0.0
0.00012331153 4.4720327e-05 0.0 2.5892648e-06 2.6446189e-05 2.5396139e-05 0.0 8.058372e-06
2.9270777e-05 1.3580507e-05 3.770055e-05 0.0 0.0 9.245581e-05 0.00010189608 5.2787578e-05
8.312994e-05 2.8982922e-05 3.9100527e-05 0.0003034521 2.3398012e-05 1.5077702e-05 0.00038836696 0.0
4.409387e-05 3.5269983e-05 0.0 0.00012423763 4.178318e-06 0.00011749917 4.382011e-05 4.1659364e-06
0.00011686296 7.3118105e-07 0.0 0.00039396397 3.4107834e-05 8.8582565e-06 0.0 8.8956795e-06
8.217191e-05 2.8300048e-05 5.795908e-07 4.4584365e-05 0.000112426824 1.4026168e-06 0.00019185101 0.0
5.9139397e-06 0.00011459065 3.1381533e-05 5.6259796e-05 1.18272665e-05 3.381529e-05 9.315089e-06 1.0633274e-05
00000000: 0000 0000 3e13 e939 0000 0000 1996 d438
00000010: 0000 0000 5058 6436 792b 7c38 0000 0000
00000020: 304d 0139 1692 3b38 0000 0000 3bc3 2d36
00000030: c2d8 dd37 cb09 d537 0000 0000 7232 0737
00000040: 848a f537 d5d7 6337 a820 1e38 0000 0000
00000050: 0000 0000 d6e4 c138 0bb1 d538 3b68 5d38
00000060: 0c56 ae38 5a20 f337 dfff 2338 a718 9f39
00000070: d946 c437 3df6 7c37 bb9d cb39 0000 0000
00000080: 6ff1 3838 dbee 1338 0000 0000 c945 0239
00000090: 7a33 8c36 e369 f638 7ccb 3738 1fc9 8b36
000000a0: 5314 f538 6146 4435 0000 0000 f38c ce39
000000b0: 020f 0f38 ec9d 1437 0000 0000 a73e 1537
000000c0: b553 ac38 e465 ed37 2d95 1b35 1900 3b38
000000d0: b1c6 eb38 8c41 bc35 9d2b 4939 0000 0000
000000e0: 5b70 c636 6350 f038 aa9f 0338 7ff8 6b38
000000f0: b96d 4637 e4d4 0d38 0148 1c37 9065 3237
