models/episodes_2/team_goal_bottom_left/PPOAgent/model.pt (torch, 168423 bytes, 33 tensors)

feature_extractor.0.weight f4 [64, 2]
0	0x3e5cbb0b	0.21555726
1	0x3e7d883b	0.24758999
2	0x3eba7586	0.36417788
3	0x3f0f88b5	0.56067973
4	0xbed03b9d	-0.4067048
5	0x3ee2ecec	0.44321382
6	0x3e53da50	0.20688748
7	0x3f15064c	0.58212733
8	0xbec86679	-0.3914068
9	0xbf300791	-0.68761545
10	0x3f1a56e3	0.6028883
11	0x3dd98b74	0.10622302
12	0x3db185fc	0.086681336
13	0xbee6e72b	-0.45098242
14	0x3f1a9495	0.6038297
15	0x3e59b270	0.21259475
16	0xbc281119	-0.010257983
17	0xbe140728	-0.14455855
18	0x3f200a10	0.62515354
19	0xbf00122c	-0.5002773
20	0x3f045b4e	0.5170182
21	0xbec95435	-0.39322057
22	0x3edbeb0c	0.42952764
23	0x3f244143	0.6416208
24	0xbf303800	-0.6883545
25	0x3ef0fdad	0.4706854
26	0xbed15600	-0.40885925
27	0x3f326807	0.69689983
28	0xbef80874	-0.4844395
29	0xbe9d6a0c	-0.3074497
30	0xbf1c624d	-0.61087495
31	0xbdf8a168	-0.12140161
32	0xbd11e643	-0.035619985
33	0xbe75e4e6	-0.24013099
34	0x3f24f2b3	0.6443283
35	0x3ed74057	0.42041275
36	0x3f072f9c	0.5280702
37	0xbebbb411	-0.36660817
38	0xbe5a23e2	-0.2130275
39	0x3f1c027b	0.60941285
40	0x3ea0996e	0.31367058
41	0x3f18c093	0.59668845
42	0xbf34903d	-0.7053259
43	0xbcffac1a	-0.031209994
44	0x3eee12fd	0.46498862
45	0xbd0540af	-0.03253239
46	0x3e4fd75b	0.20296995
47	0xbf303514	-0.6883099
48	0xbf022fd0	-0.50854206
49	0x3e9aa7c3	0.30206117
50	0xbf0d27f2	-0.55139077
51	0x3e190333	0.14942627
52	0xbe22c66c	-0.15896004
53	0xbe0ea7ae	-0.13931152
54	0x3f1208ae	0.57044494
55	0xbea1b0d3	-0.3158022
56	0x3ecc7c9c	0.3993882
57	0x3dde9c17	0.108696155
58	0xbf0f977d	-0.5609053
59	0x3f0cef70	0.5505285
60	0x3f10d6b0	0.5657759
61	0x3e4606ab	0.19338481
62	0x3e92ea83	0.28694543
63	0x3ee80738	0.45318007
64	0x3dde1a9e	0.108449206
65	0xbe815cea	-0.252662
66	0x3e6431ba	0.22284594
67	0xbec26f17	-0.3797538
68	0x3ebbac75	0.36655012
69	0xbe718020	-0.23584032
70	0x3f0ed0ef	0.5578756
71	0x3eda1a4c	0.42598188
72	0x3dd8a72f	0.10578763
73	0x3f0e7c9b	0.5565888
74	0xbe10f58a	-0.14156166
75	0xbeeeb4da	-0.46622354
76	0x3ecc1442	0.39859205
77	0x3e592d73	0.21208744
78	0xbec5257b	-0.38505158
79	0xbf2ce9df	-0.6754436
80	0xbefcd2b0	-0.49379492
81	0xbf0e97c2	-0.55700314
82	0x3ee267ec	0.4421991
83	0xbe0aed9a	-0.135672
84	0xbdb0e7bc	-0.0863795
85	0xbec88163	-0.39161214
86	0x3efc6372	0.4929462
87	0xbf1f6462	-0.62262547
88	0x3e860c6e	0.26181358
89	0x3d5b9e77	0.05361792
90	0x3ee36d80	0.4441948
91	0x3e92a2af	0.28639743
92	0xbe5e7cb4	-0.21727258
93	0x3f03471a	0.5128037
94	0xbf09326b	-0.53592557
95	0xbf0656ef	-0.524764
96	0xbda666ab	-0.08125051
97	0xbea6307f	-0.32458875
98	0xbeeb3b09	-0.45943478
99	0xbee006e9	-0.43755272
100	0x3eae368d	0.34025994
101	0xbec0eaeb	-0.37679228
102	0x3d990695	0.074719585
103	0x3ebe487c	0.37164676
104	0x3f2fc290	0.68656254
105	0xbeb32993	-0.34992656
106	0x3de3e020	0.11126733
107	0xbeeffd90	-0.4687314
108	0xbec85639	-0.39128283
109	0xbe89fe9a	-0.26952058
110	0xbf1dd6e3	-0.61656016
111	0xbe93d10c	-0.28870428
112	0xbe517e3a	-0.20458308
113	0xbf150dc2	-0.5822412
114	0xbec6a921	-0.3880091
115	0x3d115905	0.035485286
116	0x3e464615	0.19362672
117	0xbe931782	-0.28728873
118	0xbe56e6ac	-0.20986432
119	0x3ec86f40	0.39147377
120	0xbe3823ce	-0.17982408
121	0xbea24f43	-0.31701097
122	0x3f2248c5	0.6339229
123	0x3e358052	0.17724732
124	0x3d239228	0.039934307
125	0xbefb6aa9	-0.49104813
126	0x3ec84d94	0.39121687
127	0x3cd85434	0.026407339

feature_extractor.0.bias f4 [64]
0	0x3f164e6b	0.58713406
1	0x3e9d9b09	0.30782345
2	0x3f208437	0.62701744
3	0x3f0dcbb3	0.55388945
4	0xbf2f7020	-0.68530464
5	0x3ea0f83c	0.31439388
6	0xbd067c7d	-0.032833565
7	0xbe2729fa	-0.16324607
8	0x3ec01866	0.37518615
9	0x3e97c623	0.29643354
10	0xbef7866e	-0.4834475
11	0x3eb2abff	0.34896848
12	0x3f09a343	0.5376474
13	0xbab1b336	-0.0013557437
14	0xbe6493ea	-0.2232205
15	0x3f067856	0.5252737
16	0xbdc96e6d	-0.09835515
17	0x3edbca8c	0.42927969
18	0xbc93af2c	-0.018027864
19	0xbea49dfe	-0.32151788
20	0x3d267d17	0.04064664
21	0xbe16a6b0	-0.14712024
22	0xbef1ba03	-0.47212228
23	0xbbab777d	-0.00523275
24	0x3ec3a555	0.38212076
25	0xbebc8a55	-0.3682429
26	0xbf1ac097	-0.6045012
27	0x3e8b6390	0.27224398
28	0xbef2c57c	-0.47416294
29	0x3e19ded6	0.15026411
30	0xbe2bf9c8	-0.16794503
31	0xbf057475	-0.52130824
32	0x3e34c585	0.17653473
33	0x3e10020d	0.14063282
34	0x3f29595d	0.6615198
35	0xbe7440e2	-0.23852876
36	0xbea3fe47	-0.32029936
37	0x3eb04920	0.3443079
38	0x3e87883f	0.26471135
39	0xbe4d0188	-0.20020115
40	0xbea1f6e3	-0.31633672
41	0xbed5820f	-0.4170079
42	0x3f3307a9	0.69933563
43	0xbe7efaf5	-0.2490042
44	0xb90b72ce	-0.00013298841
45	0x3d9bff02	0.07616998
46	0xbeadd094	-0.33948195
47	0x3d0ef0c1	0.03489757
48	0x3ebc7576	0.36808366
49	0x3e9fce0c	0.3121189
50	0x3ee0e577	0.43925068
51	0x3d0a432f	0.033755478
52	0x3ef73f3c	0.48290431
53	0x3f2b6945	0.66957504
54	0xbde1dbf2	-0.11028279
55	0x3ed12f30	0.40856314
56	0xbedadf46	-0.4274847
57	0x3ed4e60b	0.4158176
58	0xbdca3ca5	-0.09874848
59	0x3e9717bd	0.29510298
60	0x3d03e805	0.032203693
61	0xbe1ea804	-0.1549378
62	0xbea039b2	-0.31294018
63	0x3ed36e04	0.41294873

feature_extractor.2.weight f4 [64, 64]
0	0xbd15cb30	-0.036570728
1	0xbdee5eb8	-0.1163916
2	0x3dbabe80	0.09118366
3	0x3ab3056a	0.001365823
4	0x3af29000	0.001850605
5	0xbd8d9837	-0.06913798
6	0x3c1f64e6	0.009728646
7	0xbd180f9a	-0.037124254
8	0xbdd51fb2	-0.10406436
9	0x3dd388ae	0.10328804
10	0xbdd1db2e	-0.10246883
11	0xbde8e5c1	-0.11371947
12	0xbc20977d	-0.009801743
13	0xbd050e46	-0.032484315
14	0xbd6dc030	-0.058044612
15	0xbdbf06ac	-0.093274444
16	0x3cc53a48	0.024075642
17	0xbcfedd76	-0.03111146
18	0xbcc466c5	-0.023974786
19	0x3d5a9dd3	0.05337317
20	0x3d16a577	0.036778893
21	0x3ddc79d0	0.107654214
22	0x3de0676a	0.10957225
23	0x3dd886fa	0.1057262
24	0x3d3bc394	0.045840815
25	0xbcc7e140	-0.0243994
26	0xbd7a4924	-0.06110491
27	0x3dbb241f	0.09137749
28	0x3dde7136	0.10861437
29	0xbdf8e14d	-0.12152348
30	0x3df9a9be	0.12190579
31	0x3db1c9de	0.08681081
32	0x3d225864	0.039635077
33	0xbc47cfeb	-0.012195568
34	0xbd0395b4	-0.03212519
35	0x3d5c6495	0.05380686
36	0xbc25aa4d	-0.010111404
37	0xbca5ce3c	-0.020239942
38	0xbbdc0542	-0.006714494
39	0xbde67674	-0.11253062
40	0x3d80e416	0.06293504
41	0x3d916ca6	0.07100801
42	0xbdada42e	-0.084785804
43	0xbdde1235	-0.108433165
44	0x3dd197ae	0.10234009
45	0xbca2c815	-0.019870797
46	0xbdab716a	-0.083712414
47	0xbd114b48	-0.035472184
48	0x3c6e87e6	0.014558768
49	0xbc0f9680	-0.008763909
50	0x3b11260e	0.0022147927
51	0x3d0e6c85	0.03477146
52	0x3de5433f	0.11194467
53	0x3da95427	0.08268004
54	0xbdcb1d64	-0.09917715
55	0xbd9b9574	-0.07596865
56	0xbdcd0276	-0.10010235
57	0x3d07c2ce	0.033144765
58	0x3b94d194	0.004541585
59	0x3da282d8	0.07935113
60	0xbd75f1ac	-0.06004493
61	0x3d9e3dc8	0.077266276
62	0x3dd7e708	0.105421126
63	0x3df5b50a	0.11997421
64	0xbd5713a0	-0.05250895
65	0xbdbefe86	-0.0932589
66	0xbdfcec86	-0.12349801
67	0xbd89d0aa	-0.06729253
68	0x3c259250	0.010105684
69	0xbde83bc0	-0.113395214
70	0x3dbc9458	0.09207982
71	0xbdfe57ae	-0.12419067
72	0x3b92d760	0.004481241
73	0xbca482e0	-0.020081937
74	0x3dfb7074	0.12277308
75	0x3bf4be80	0.0074689984
76	0xbdad889c	-0.08473322
77	0x3dd879fe	0.10570143
78	0xbd91b09e	-0.07113765
79	0x3d41a370	0.047275007
80	0xbde3a16c	-0.11114773
81	0xbdd217f2	-0.102584735
82	0xbc01fd80	-0.007933974
83	0xbb0b0940	-0.002121523
84	0x3df09b82	0.11748411
85	0xbdc0f356	-0.09421413
86	0x3b9e9560	0.004839584
87	0xbdfde266	-0.12396698
88	0xbd136ef0	-0.03599447
89	0xbd8e5664	-0.069500715
90	0x3d92ac02	0.07161714
91	0xbc501df0	-0.01270245
92	0xbd9b3176	-0.07577793
93	0xbd2a7018	-0.041610807
94	0xbd27ec50	-0.04099685
95	0xbc9617a0	-0.018321812
96	0x3c900928	0.017582491
97	0xbdc380f6	-0.09546082
98	0xbd80b556	-0.06284587
99	0x3c36fed0	0.0111691505
100	0xbd9fb5ea	-0.07798369
101	0x3dfac7de	0.12245153
102	0xbc09f100	-0.008419275
103	0x3b5aaf80	0.0033368766
104	0x3d8debf4	0.0692977
105	0xbd8566de	-0.06513761
106	0x3c106350	0.00881274
107	0xbca3b430	-0.019983381
108	0xbd5d6c54	-0.054058388
109	0x3d0dbc90	0.034603655
110	0x3daa9bf8	0.0833053
111	0xbc280950	-0.0102561265
112	0xbd4c01a0	-0.049806237
113	0xbd56bb14	-0.052424505
114	0x3dce604a	0.100769594
115	0x3d813de4	0.06310633
116	0x3d7e4b9c	0.062083825
117	0x3da425b0	0.08015001
118	0xbd8ad73e	-0.067793354
119	0xbdc98816	-0.098404095
120	0xbd98fb84	-0.07469848
121	0xbd209198	-0.03920135
122	0x3daab3e2	0.08335091
123	0x3cc1acf8	0.023642048
124	0xbdb79ce6	-0.08965473
125	0xbdf09dbc	-0.117488354
126	0xbbd62a00	-0.0065357685
127	0xbc985c58	-0.01859872
128	0x3db3e1e8	0.087833226
129	0x3cf26ddd	0.029593403
130	0x3dfc10ed	0.12307916
131	0x3c593c7a	0.013259048
132	0x3d163318	0.03666982
133	0xbd9469d3	-0.07246747
134	0xbd53534c	-0.05159311
135	0xbd923e3a	-0.07140775
136	0xbd19aa25	-0.037515778
137	0x3df4c059	0.1195075
138	0xbc363d56	-0.011123022
139	0xbdad5ef1	-0.08465374
140	0xbdcd466a	-0.10023196
141	0xbdc6447c	-0.09681031
142	0x3d5cc590	0.053899348
143	0x3ca76a09	0.020436304
144	0x3d0b4988	0.03400567
145	0xbd5488a2	-0.051888116
146	0xbd2ebb4e	-0.042659096
147	0xbd9ca2e0	-0.076482534
148	0xba9b5e27	-0.0011853621
149	0xbdebec40	-0.115196705
150	0x3de1b4a0	0.110207796
151	0xbd19ef2e	-0.037581615
152	0xbdee981d	-0.11650107
153	0xbdb885ca	-0.09009893
154	0x3dda6d54	0.10665384
155	0x3df7b4d9	0.12095041
156	0x3d94d8ab	0.07267889
157	0x3d6a3715	0.057181437
158	0x3ddc1999	0.1074707
159	0xbe0082a7	-0.1254984
160	0x3ddcb447	0.10776573
161	0xbcc91db3	-0.024550295
162	0x3d2ee4f1	0.042698804
163	0xbbdf3351	-0.0068115373
164	0xbd007802	-0.03136445
165	0xbdee6fca	-0.11642416
166	0x3d1323c9	0.0359228
167	0x3d7f2f1c	0.062300786
168	0x3db6891e	0.08912872
169	0xbdd2e424	-0.102974206
170	0x3deba290	0.11505616
171	0x3dd6cf27	0.1048873
172	0xbde55e12	-0.11199583
173	0xbd96cc07	-0.07363134
174	0x3deb2a16	0.11482637
175	0x3d54aa3a	0.051920153
176	0xbd0e2a76	-0.034708463
177	0xbcceb10b	-0.025230905
178	0xbdf06286	-0.11737542
179	0x3d935c3d	0.071953274
180	0xbd227781	-0.03966475
181	0x3d910a57	0.0708205
182	0x3df0bfb4	0.117553145
183	0xbd8892e4	-0.06668642
184	0xbd875550	-0.06608069
185	0x3d3b72be	0.045763724
186	0x3bc43c37	0.0059886235
187	0xbd8122d8	-0.06305474
188	0x3c59ab96	0.013285538
189	0xbd96354b	-0.073343836
190	0xbda0591e	-0.07829498
191	0x3dd02b0d	0.10164461
192	0xbd09b61b	-0.033620935
193	0xbc0b5639	-0.008504444
194	0xbd65aa7e	-0.056070797
195	0x3d228ff0	0.03968805
196	0xbc2bd8d0	-0.010488704
197	0x3d1227d7	0.035682525
198	0x3c8c6d30	0.017141908
199	0xbbdc644b	-0.006725823
200	0xbe0198ea	-0.12655988
201	0x3dba16ca	0.09086378
202	0x3cb2fb01	0.021848204
203	0xbd017236	-0.03160306
204	0x3ca22197	0.019791408
205	0x3d989990	0.07451165
206	0xbde0cece	-0.10976945
207	0x3d0a9322	0.033831723
208	0x3d70ca20	0.05878651
209	0x3ddd05c7	0.107921176
210	0xbd9883c3	-0.074470066
211	0x3d6e5fa5	0.058196682
212	0xbcf86ac6	-0.030324351
213	0x3d919752	0.0710894
214	0xbdc12374	-0.0943059
215	0xbdb1dc3c	-0.086845845
216	0xbcd4eaba	-0.025990833
217	0x3dc2c969	0.09511072
218	0xbd46ce74	-0.048536733
219	0xba9abe79	-0.0011806033
220	0x3c9c335e	0.019067463
221	0x3df03552	0.1172892
222	0x3ddb1d1f	0.10698914
223	0x3da0bea3	0.07848861
224	0x3cc665bf	0.024218438
225	0xbd9844f8	-0.0743503
226	0xbda612f7	-0.08109086
227	0x3d2542fc	0.040347084
228	0xbd9c24bc	-0.07624194
229	0x3d65c570	0.056096494
230	0xbd3ec3a7	-0.046573307
231	0xbddfa0a2	-0.1091931
232	0x3d8a257c	0.06745431
233	0x3dc71928	0.09721595
234	0xbc90a36c	-0.01765605
235	0xbdbce0b4	-0.09222546
236	0xbd120940	-0.035653353
237	0xbd802d23	-0.06258609
238	0xbdb9baab	-0.09068807
239	0xbdf97f80	-0.12182522
240	0xbd7c2559	-0.061559055
241	0xbdd185b4	-0.1023058
242	0xbc8fd937	-0.01755963
243	0x3da9cbb3	0.08290806
244	0x3d16d6b1	0.03682584
245	0xbdee64d2	-0.11640324
246	0xbd6b43c4	-0.057437673
247	0xbdd32ecb	-0.103116594
248	0x3d6a3ec4	0.057188764
249	0x3dd6da9b	0.104909144
250	0xbcbf0deb	-0.023322066
251	0x3d71a371	0.05899376
252	0x3d89907c	0.06717011
253	0xbdf32627	-0.11872511
254	0x3df80ae2	0.12111451
255	0xbd838b5d	-0.06423066

feature_extractor.2.bias f4 [64]
0	0x3b326592	0.0027221185
1	0xbd7ceb4c	-0.061747834
2	0xbd70ff3a	-0.058837153
3	0x3bb79627	0.0056026164
4	0x3c956488	0.018236414
5	0xbdab835e	-0.08374666
6	0x39aef0db	0.00033367318
7	0x3d80e123	0.062929414
8	0x3cd12917	0.025532288
9	0xbd49774f	-0.049186047
10	0x3a9ede00	0.0012120605
11	0xbda44b5e	-0.08022188
12	0x3cd38c34	0.02582369
13	0xbcc77eb8	-0.024352416
14	0x3e0657ff	0.13119505
15	0x3d946246	0.07245307
16	0x3d652358	0.05594191
17	0x3df231ed	0.11825929
18	0xbc27ace0	-0.010234088
19	0x3d641b89	0.055690322
20	0xbda2a8ac	-0.07942328
21	0x3e02c917	0.12772022
22	0x3d00de98	0.031462282
23	0xbd27f1c8	-0.041002065
24	0xbda61492	-0.08109392
25	0x3d095ffe	0.03353881
26	0x3c3fa5bc	0.011697229
27	0x3deaef86	0.11471467
28	0x3dcd99e6	0.100391194
29	0xbd6bd2db	-0.057574134
30	0x3c9ad210	0.018898994
31	0xbdd093a0	-0.10184407
32	0xbd473ec0	-0.048643827
33	0x3d4becdc	0.049786434
34	0x3d31da39	0.043421004
35	0x3da55fae	0.0807489
36	0x3dcba64b	0.09943827
37	0x3d67d629	0.056600723
38	0x3dc7a8d2	0.09748997
39	0x3dc7b2a2	0.097508684
40	0x3bc9d044	0.0061588604
41	0xbd6dbb94	-0.058040217
42	0x3db450ef	0.08804499
43	0xbdd13d27	-0.10216742
44	0xbd820843	-0.06349232
45	0x3d764ff6	0.06013485
46	0xbdc5bb58	-0.096548736
47	0xbbea3a7d	-0.0071480856
48	0x3d96b36e	0.07358442
49	0x3d9e2dfd	0.07723615
50	0x3d4e8f73	0.050429773
51	0x3dca2bce	0.09871636
52	0x3da245d9	0.07923479
53	0xbdd51746	-0.1040483
54	0x3d4d742b	0.050159615
55	0x3d6e9c1a	0.05825434
56	0x3dad5e1d	0.08465216
57	0x3ca18133	0.019714927
58	0x3b281b0e	0.0025650891
59	0xbcee048c	-0.029054902
60	0xbd917e70	-0.07104194
61	0xbdedb17e	-0.116061196
62	0x3d04f774	0.032462552
63	0x3d8edf2d	0.06976161

actor.0.weight f4 [64, 64]
0	0xbe033f17	-0.12817036
1	0x3d4665e8	0.04843703
2	0xbdb8a4f4	-0.09015837
3	0xbd2d6ec9	-0.04234198
4	0xbd27ccbd	-0.040966738
5	0xbd4bb138	-0.049729556
6	0xbd997742	-0.0749345
7	0xbd104d42	-0.03522993
8	0x3db6e3e9	0.08930189
9	0x3d9cfb2f	0.07665097
10	0xbd875050	-0.06607115
11	0xbdbf28a2	-0.09333922
12	0xbddeb40c	-0.10874185
13	0xbc03a660	-0.008035272
14	0xbdeeece7	-0.11666279
15	0x3dbada18	0.09123629
16	0xbd3b0f28	-0.04566875
17	0xbd5370ea	-0.051621355
18	0xbdce2c1c	-0.10067007
19	0x3d9cf1e5	0.07663325
20	0x3d5e6a6b	0.054300707
21	0xbd6488e8	-0.055794626
22	0xbc819cc0	-0.015821815
23	0xbcc39f98	-0.023879811
24	0x3defc50e	0.11707507
25	0xbd6ff7d0	-0.05858594
26	0xbde56e96	-0.11202733
27	0xbcbc2d62	-0.022970859
28	0xbded0674	-0.115734965
29	0xbde67520	-0.112528086
30	0xbd988e18	-0.07448977
31	0x3d691e09	0.05691341
32	0xbd00b41c	-0.031421766
33	0x3dffde5e	0.12493585
34	0xbd992462	-0.074776426
35	0xbccf1e1f	-0.025282918
36	0x3d82b244	0.06381658
37	0xbc680f40	-0.014163792
38	0x3d4578d3	0.04821093
39	0xbd796506	-0.06088736
40	0x3d98652d	0.07441173
41	0xbd5dc98c	-0.05414729
42	0xbde8bbd2	-0.11363949
43	0x3de91bc0	0.11382246
44	0xbd84348a	-0.064553335
45	0xbd3b16c5	-0.04567601
46	0x3d66fef4	0.056395486
47	0xbdb636c6	-0.08897166
48	0x3d301f07	0.04299834
49	0x3c26e1b9	0.010185652
50	0x3dbbd988	0.0917235
51	0xbd96bb86	-0.07359986
52	0xbd4a7240	-0.049425364
53	0x3ce214d1	0.027597817
54	0xbde470c2	-0.11154319
55	0x3dbfbf48	0.09362656
56	0xbcce8b2d	-0.025212849
57	0xbdd9d4dc	-0.10636303
58	0x3bf2c3aa	0.007408579
59	0x3d85b889	0.06529338
60	0x3d99963c	0.07499358
61	0xbd835514	-0.06412712
62	0xbd31be74	-0.04339452
63	0x3d1b5f32	0.037932582
64	0x3db814e1	0.08988357
65	0x3d9da10e	0.07696734
66	0x3d4beb8f	0.049785193
67	0x3daca55a	0.08429976
68	0xbdad233e	-0.084539875
69	0xbdec13a6	-0.11527185
70	0x3ce9206f	0.028457848
71	0x3d7f8a43	0.062387716
72	0xbd1d7941	-0.038445715
73	0x3dba9650	0.09110701
74	0x3d33e420	0.04391873
75	0xbd9ec6da	-0.07752772
76	0xbda9b469	-0.08286364
77	0xbd3b9408	-0.04579547
78	0xbdf0fa65	-0.11766509
79	0xbdb3e03c	-0.08783004
80	0x3d62ecc8	0.055401593
81	0xbdd53074	-0.10409632
82	0x3d39cc1c	0.04536067
83	0x3dac0250	0.083988786
84	0xbdf32b9a	-0.11873551
85	0x3dd0b7d8	0.101913154
86	0xbd067200	-0.032823563
87	0xbd4b74d8	-0.049671978
88	0x3ca157b8	0.019695148
89	0x3cf78a8b	0.03021743
90	0xbd5ae6e1	-0.05344284
91	0xbd2a660d	-0.04160123
92	0xbd2f149b	-0.04274426
93	0x3e003e17	0.12523685
94	0xbd27181c	-0.040794477
95	0x3dddfd3f	0.108393185
96	0xbd9cd418	-0.07657641
97	0xbd6f3b60	-0.058406234
98	0xbd4bbfe6	-0.049743555
99	0xbcef33d8	-0.029199526
100	0xbd5481ab	-0.051881474
101	0xbd8a8895	-0.06764332
102	0x3c4da56c	0.012551647
103	0xbd956eed	-0.07296548
104	0x3db23bea	0.08702834
105	0x3c8a3368	0.016870216
106	0x3b9ea4b4	0.0048414115
107	0x3c9c0e51	0.019049795
108	0xbe000b0c	-0.12504214
109	0x3c8f9e92	0.017531667
110	0x3d020918	0.031746954
111	0xbceeabb3	-0.029134607
112	0x3dcb245b	0.09919044
113	0xbd974170	-0.07385528
114	0x3dee7291	0.116429456
115	0x3c3b5d00	0.011435747
116	0x3d05c777	0.032660928
117	0xbd98faba	-0.07469697
118	0x3d4e8335	0.050418098
119	0x3dbcc28c	0.09216794
120	0xbd61b618	-0.0551053
121	0xbd49b202	-0.049242027
122	0x3de1072d	0.10987697
123	0xbdb4ec12	-0.08834089
124	0xbd9e4d8a	-0.07729633
125	0xbde9d2b4	-0.114171416
126	0xbc4df540	-0.012570679
127	0x3de108cd	0.10988007
128	0xbdafa1f7	-0.08575814
129	0x3d9b6b78	0.075888574
130	0xbdd61e7c	-0.10455033
131	0xbd949c64	-0.07256392
132	0xbd8692f7	-0.06571
133	0xbd85b4e6	-0.06528644
134	0x3dcf20f0	0.10113704
135	0xbd2545d5	-0.0403498
136	0x3dc9c3cb	0.09851798
137	0xbd322ec3	-0.043501627
138	0x3d3219a4	0.043481484
139	0x3c059000	0.008152008
140	0x3d1b9e97	0.03799304
141	0xbdf346aa	-0.118787125
142	0xbd8975be	-0.06711911
143	0xbdcbc05f	-0.09948801
144	0x3caf81d0	0.021424204
145	0x3df085e2	0.11744286
146	0xbcf6bff0	-0.03012082
147	0x3a5a8ce0	0.0008337032
148	0xbd5751e5	-0.052568335
149	0xbd19f781	-0.037589554
150	0xbdd957e2	-0.106124654
151	0x3c14b460	0.009076208
152	0x3dd45aa6	0.10368852
153	0xbdbde728	-0.09272605
154	0x3d3b3308	0.045702964
155	0xbdabdb0c	-0.08391389
156	0xbd872509	-0.06598861
157	0x3db02b49	0.08602006
158	0xbd7e3910	-0.062066138
159	0xbcfecb3d	-0.031102771
160	0xbddf9306	-0.10916714
161	0xbdd0c22c	-0.10193285
162	0xbdcca02f	-0.0999149
163	0xbbc351e2	-0.005960689
164	0x3dad52e1	0.084630735
165	0x3da180b1	0.07885874
166	0x3d8aacc1	0.067712314
167	0xbcafeda0	-0.021475613
168	0xbc72a77d	-0.01481044
169	0xbd3f3b30	-0.046687305
170	0xbd66edd6	-0.05637916
171	0xbdc80e54	-0.09768358
172	0xbc5801de	-0.013184039
173	0xbd0e40af	-0.034729656
174	0x3d798670	0.060919225
175	0xbccb7edb	-0.024840763
176	0xbd8ea1c3	-0.06964447
177	0x3d354c2c	0.044262096
178	0xbda1ca21	-0.07899881
179	0xbcdd7e58	-0.027037784
180	0x3dd0a205	0.10187153
181	0xbd805ce8	-0.062677205
182	0xbdc77aaa	-0.09740193
183	0xbd88e4fa	-0.06684299
184	0xbd6352ba	-0.055498816
185	0x3d8fb1ab	0.07016309
186	0xbde6c294	-0.112675816
187	0x3d267894	0.040642336
188	0x3d39b034	0.045334056
189	0xbdadab9a	-0.08479996
190	0xbae6aa80	-0.001759842
191	0x3d4ac51d	0.049504388
192	0x3d5568a1	0.052101735
193	0xbd03854c	-0.032109544
194	0x3d990182	0.07470991
195	0xbde1da28	-0.11027938
196	0x3da2c28d	0.07947264
197	0x3dba6744	0.091017276
198	0x3dc2552d	0.09488902
199	0x3d5da813	0.054115366
200	0x3ca9fa1c	0.020749144
201	0x3d2a2d3b	0.04154704
202	0x3da9c9e8	0.08290464
203	0xbdc47f12	-0.09594549
204	0xbc6ac9a2	-0.0143303
205	0xba941600	-0.001129806
206	0xbd1823ef	-0.037143644
207	0xbd689a2a	-0.056787647
208	0xbd4f77e8	-0.05065146
209	0xbda300ac	-0.079591125
210	0x3d1c3160	0.038133025
211	0x3dd71cdf	0.105035536
212	0xbdef30ac	-0.11679205
213	0xbd49cbab	-0.0492665
214	0x3d424ef4	0.047438577
215	0x3d76a3b0	0.0602147
216	0xbd532a04	-0.05155374
217	0x3d30d587	0.043172386
218	0x3daa657f	0.0832014
219	0xba1de0fc	-0.00060226
220	0x3dc6579a	0.096846774
221	0xbdafcf15	-0.0858442
222	0xbd536714	-0.051611975
223	0xbdbc9113	-0.09207358
224	0x3dc5bf8e	0.09655677
225	0x3d1fe9cc	0.039041325
226	0xbd822b9e	-0.063559756
227	0xbdd593bb	-0.10428568
228	0x3d1263b9	0.035739634
229	0x3df2f152	0.118624344
230	0x3c638009	0.013885506
231	0xbc8e768a	-0.017390508
232	0xbd15d472	-0.036579557
233	0xbd0c7d34	-0.03429909
234	0xbdfd95c8	-0.12382084
235	0xbdf09745	-0.117476024
236	0x3d955e2a	0.07293351
237	0xbc2623bf	-0.0101403585
238	0x3d2d8941	0.042367224
239	0x3dba57e8	0.09098798
240	0x3bf79780	0.007555902
241	0x3d6f8a92	0.05848176
242	0xbdeb8059	-0.1149909
243	0xbd4fdbe4	-0.050746813
244	0xbd02765f	-0.03185117
245	0x3dc5e4a6	0.09662752
246	0xbd3f216f	-0.046662744
247	0x3dc4837f	0.095953934
248	0xbd67364d	-0.05644827
249	0x3d5f0c62	0.05445517
250	0x3d908d80	0.07058239
251	0xbd1e2d30	-0.038617313
252	0xbca81d08	-0.020521656
253	0x3da14f02	0.07876398
254	0x3d304fe4	0.04304494
255	0xbcedd45d	-0.029031927

actor.0.bias f4 [64]
0	0x3d0a4e93	0.03376634
1	0xbc776706	-0.015100246
2	0x3d9642f4	0.07336989
3	0xbdc78335	-0.09741823
4	0xbcbe0b17	-0.023198647
5	0x3d927c8b	0.07152661
6	0x3cd235b3	0.025660371
7	0xbddf6f78	-0.10909933
8	0x3da84616	0.08216493
9	0x3db73636	0.08945887
10	0xbc57e030	-0.013176009
11	0xbcc2666e	-0.023730483
12	0x3d504f58	0.050856918
13	0x3dc6c239	0.09705014
14	0xbda4532e	-0.08023678
15	0x3dd22c16	0.10262315
16	0xbd096fe8	-0.033553988
17	0x3dbc4849	0.09193475
18	0xbd1ed040	-0.03877282
19	0x3d252db4	0.04032679
20	0xbd2db5d7	-0.042409744
21	0x3d2b0b3b	0.041758757
22	0xbc7e0a97	-0.0155054545
23	0x3d1c424f	0.038149174
24	0x3cf68e44	0.030097134
25	0xbc8c3ed6	-0.017119806
26	0x3c7094bb	0.014683898
27	0x3d0a4451	0.033756558
28	0xbca6641f	-0.020311413
29	0xbd77f0a6	-0.060532235
30	0x3881b509	6.18492e-05
31	0x3d01454d	0.03156023
32	0x3db097c8	0.086227
33	0xbdabd09a	-0.08389397
34	0x3d902e4a	0.07040079
35	0x3df68533	0.120371245
36	0xbce7495b	-0.02823322
37	0x3d082e70	0.03324741
38	0x3da08911	0.07838643
39	0x3caca96e	0.021076884
40	0x3dfccbea	0.12343581
41	0xbd14063f	-0.03613877
42	0x3d8682d8	0.06567925
43	0xbdec7037	-0.11544841
44	0xbda1d7ac	-0.07902464
45	0x3bb6aa65	0.005574512
46	0xbd999c96	-0.075005695
47	0xbde4ee80	-0.11178303
48	0x3d2d7d3e	0.04235577
49	0xbcb94f01	-0.02262068
50	0x3d8bc1c8	0.0682407
51	0x3cbfc9b2	0.023411606
52	0x3daeab9f	0.08528828
53	0xbcc2dcc5	-0.023786912
54	0x3cc5a288	0.024125353
55	0x3825ebbc	3.955861e-05
56	0x3d9148f1	0.070939906
57	0xbd8114ea	-0.06302817
58	0x3d9cd7f2	0.07658376
59	0xbd95ac84	-0.07308295
60	0x3d0dd32d	0.03462522
61	0x3dad1d1f	0.0845282
62	0xbdbaad90	-0.09115136
63	0xbd8925f5	-0.06696693

actor.2.weight f4 [4, 64]
0	0xbd5d21bc	-0.05398725
1	0xbd4e25f6	-0.05032917
2	0x3d62a167	0.055329707
3	0x3da0759a	0.07834931
4	0xbd2c1123	-0.04200853
5	0x3d53839a	0.051639177
6	0xbdc5b4ad	-0.09653602
7	0x3d0cfb88	0.034419566
8	0xbd15a250	-0.036531746
9	0xbd620782	-0.05518294
10	0xbbbaebbe	-0.005704372
11	0xbcb625bf	-0.022234796
12	0xbd85250a	-0.06501205
13	0x3df35df6	0.11883156
14	0xbdf9de49	-0.12200601
15	0x3ddfce0a	0.10927971
16	0x3c9b7f30	0.018981546
17	0xbd7789ea	-0.06043426
18	0xbdc6dfc7	-0.09710651
19	0xbca678e8	-0.020321324
20	0xbcc90345	-0.024537692
21	0x3d81638e	0.06317817
22	0x3aa0c93b	0.0012267003
23	0xbde0bc6e	-0.1097344
24	0xbd72a877	-0.05924269
25	0xbd36600e	-0.0445252
26	0xbdfc787d	-0.12327669
27	0xbd4a04fe	-0.049321167
28	0xbced18fc	-0.028942578
29	0x3d7b95db	0.06142221
30	0xbdab10bb	-0.083528005
31	0x3dc0ba16	0.09410493
32	0x3dccc585	0.09998611
33	0xbdeea36c	-0.11652264
34	0x3d86b190	0.06576836
35	0x3da4f441	0.080544
36	0x3d5694ac	0.05238788
37	0x3de6a466	0.11261825
38	0x3df688da	0.12037821
39	0xbdc772f8	-0.097387254
40	0xbd827483	-0.06369879
41	0x3bf168c8	0.007367227
42	0x3ad9dacb	0.0016620992
43	0xbdd4a2b0	-0.10382593
44	0x3dc0cb27	0.09413748
45	0x3d4a3f36	0.04937669
46	0x3dd57488	0.10422617
47	0xbdc849e4	-0.097797185
48	0x3cc6ac29	0.024252014
49	0x3dbab7de	0.09117101
50	0xbbe22c2a	-0.0069022374
51	0x3af5bd9a	0.0018748522
52	0xbc953547	-0.018213881
53	0xbdc9768f	-0.098370664
54	0xbd4b0030	-0.049560726
55	0xbbb451c1	-0.00550291
56	0xbd3938c7	-0.045220163
57	0x3dda7ae3	0.1066797
58	0xbd98e552	-0.074656144
59	0x3d05e49a	0.032688715
60	0xbd1819f1	-0.037134115
61	0x3deacc8d	0.11464796
62	0xbd877550	-0.066141725
63	0xbc48580f	-0.012228026
64	0xbbb2bb50	-0.0054544583
65	0x3dfbfc00	0.123039246
66	0xbd87de9d	-0.06634257
67	0x3d6b6c97	0.057476606
68	0xbc7ae471	-0.015313254
69	0xbcef10ed	-0.029182876
70	0xbdda5d27	-0.10662299
71	0x3da2c5ef	0.07947909
72	0xbc4e5b05	-0.012594943
73	0x3e00d3e0	0.12580824
74	0x3d7e9b39	0.06215975
75	0x3de73301	0.11289025
76	0xbd2ba918	-0.041909307
77	0x3d7d9d61	0.061917666
78	0x3d96fb38	0.07372135
79	0x3d32ea25	0.04368033
80	0x3d198d54	0.037488297
81	0xbd85f33b	-0.06540533
82	0xbba4414c	-0.005012667
83	0xbc978df8	-0.018500313
84	0x3ceaafc5	0.028648267
85	0x3dc5bf8a	0.09655674
86	0x3c11d39d	0.00890055
87	0xbd1757d1	-0.036948983
88	0x3cfa34be	0.030542728
89	0x3df5d4d5	0.12003485
90	0x3de4b481	0.11167241
91	0x3d9080df	0.0705583
92	0x3d24cb22	0.040232785
93	0x3ccd39a4	0.0250519
94	0x3d4373c7	0.047717836
95	0xbc173b35	-0.009230425
96	0x3d9e8d33	0.07741775
97	0xbc8c1ba8	-0.017103031
98	0xbde582ee	-0.112066135
99	0x3d768d53	0.06019337
100	0x3de103e4	0.1098707
101	0x3dc0efd2	0.09420742
102	0xbdf528c8	-0.11970669
103	0x3dc76d41	0.097376354
104	0x3d805acc	0.06267318
105	0x3cfea204	0.031083114
106	0x3da35012	0.079742566
107	0x3d0db903	0.03460027
108	0xbd969c8b	-0.07354077
109	0x3bc6e176	0.0060693575
110	0xbde4adcc	-0.111659616
111	0xbcb33950	-0.021877915
112	0xbcfbab3d	-0.030721301
113	0xbd9d87b2	-0.076918975
114	0x3d8d2b79	0.068930574
115	0xbde431a4	-0.11142281
116	0x3db90923	0.09034946
117	0x3d99cc42	0.07509662
118	0xbd2e2f97	-0.042525854
119	0xbbc1bae9	-0.005912174
120	0xbdcb96f2	-0.099409
121	0x3d291d7a	0.041287877
122	0x3dd52da2	0.104090944
123	0x3d8588c2	0.06520225
124	0xbdbfde2c	-0.09368548
125	0x3e0166a8	0.12636817
126	0x3e00ff3f	0.12597369
127	0xbc1c03f2	-0.009522425
128	0xbded7ff7	-0.11596673
129	0xbd920e24	-0.07131603
130	0x3d7d6b5c	0.061869964
131	0xbdcb253e	-0.09919213
132	0x3cf5bd6d	0.029997552
133	0xbda1f70b	-0.07908448
134	0xbc2f2d94	-0.010692019
135	0x3dad2ff9	0.08456416
136	0x3d9ac7a2	0.07557608
137	0x3d931ce0	0.07183242
138	0xbc37cca9	-0.011218228
139	0xbdf7ca7f	-0.1209917
140	0xbd97468c	-0.073865026
141	0xbd818663	-0.0632446
142	0xbd8facc9	-0.07015378
143	0x3d133914	0.035943106
144	0xbdec1cc6	-0.115289256
145	0xbdbe8e13	-0.09304442
146	0xbdf53016	-0.11972062
147	0xbdce24de	-0.100656256
148	0x3deb5f14	0.11492744
149	0x3d36fda9	0.044675503
150	0x3d54b433	0.051929664
151	0x3b8f4850	0.004372634
152	0x3db4af20	0.08822465
153	0xbdb2762f	-0.08713948
154	0x3de946eb	0.1139048
155	0x3d53105b	0.05152927
156	0x3d97e49d	0.074166514
157	0xbd05cad0	-0.03266412
158	0xbdf97ad2	-0.12181629
159	0x3db494ab	0.08817419
160	0xbd8963f0	-0.06708515
161	0xbc30c3d0	-0.010788873
162	0x3b7709ac	0.0037694974
163	0x3c653ce1	0.013991565
164	0x3b96ca32	0.0046017403
165	0xbd332688	-0.04373792
166	0xbd61598e	-0.055017047
167	0xbd88b496	-0.06675069
168	0xbc008ea4	-0.007846508
169	0x3d6a94b8	0.057270736
170	0xbd2a5a54	-0.04159005
171	0x3d2434f1	0.04008955
172	0xbdedcc0b	-0.11611184
173	0x3d39e5c0	0.045385122
174	0x3d6046b0	0.054754913
175	0xbdf1ec6a	-0.118126705
176	0xbd4cac4c	-0.049969003
177	0x3b860a88	0.004090611
178	0x3df4dceb	0.11956199
179	0xbacc700a	-0.0015597355
180	0x3ddd9098	0.10818595
181	0x3d28fd99	0.041257475
182	0xbd8e40f9	-0.06945986
183	0x3d42bbee	0.047542505
184	0x3d914667	0.07093506
185	0x3d98f41a	0.07468434
186	0xbdec3440	-0.115334034
187	0xbc8f73d5	-0.017511288
188	0x3da9bca5	0.08287934
189	0xbd59ec00	-0.053203583
190	0xbd93e621	-0.07221628
191	0xbde6b633	-0.112652205
192	0x3d9e345e	0.07724832
193	0x3d9e0413	0.07715621
194	0xbdf872e0	-0.12131286
195	0xbddcb6fa	-0.107770875
196	0x3d2ec802	0.04267121
197	0xbdf550d2	-0.11978306
198	0xbdcf3596	-0.101176426
199	0xbe03ebdd	-0.12882943
200	0x3befd51a	0.007319105
201	0xbdcc8478	-0.09986204
202	0x3cd78633	0.026309108
203	0x3df3cdeb	0.1190451
204	0xbd9c52a4	-0.0763295
205	0x3d309d0c	0.04311852
206	0xbcdeac98	-0.027181908
207	0x3daa5deb	0.08318695
208	0xbcaed768	-0.021342948
209	0xbcc9dd05	-0.024641523
210	0x3bbb0aa8	0.0057080574
211	0xbd872f42	-0.066008106
212	0x3d64100b	0.055679362
213	0xbd812354	-0.063055664
214	0x3df334ca	0.11875303
215	0x3ceab008	0.028648391
216	0x3c3fe4c2	0.011712255
217	0x3dd47b75	0.1037511
218	0xbded5d72	-0.11590089
219	0xbdb6ef61	-0.08932377
220	0xbdabda41	-0.08391238
221	0x3bef6a83	0.0073063984
222	0x3de084e7	0.10962849
223	0xbdfc105b	-0.12307807
224	0xbdc4d122	-0.096102014
225	0x3a7de300	0.000968501
226	0x3dce7ad8	0.10082024
227	0xbd3daad8	-0.046305507
228	0xbd775e1d	-0.060392488
229	0x3c488e00	0.012240887
230	0x3db5b588	0.08872515
231	0xbcca311e	-0.024681624
232	0x3cffb538	0.031214342
233	0xbd68fc58	-0.05688128
234	0x3ddb17b0	0.106978774
235	0xbd10e997	-0.03537902
236	0x3dcb8060	0.09936595
237	0xbdaedd45	-0.085382976
238	0xbdaeb968	-0.08531457
239	0xbd891ea2	-0.06695296
240	0x3da6d9b1	0.0814699
241	0xbdd3bac1	-0.10338355
242	0xbd1a763a	-0.037710406
243	0x3cd0ea7c	0.025502436
244	0xbdcdf99b	-0.10057374
245	0x3be4a308	0.0069774427
246	0x3c945ff5	0.018112162
247	0xbda63e2e	-0.081173286
248	0xbc0d25c9	-0.008614966
249	0xbda51c70	-0.08062065
250	0x3de48792	0.111586705
251	0xbd553a4f	-0.05205756
252	0x3d73bb01	0.059504513
253	0xbc814461	-0.015779676
254	0xbde58fec	-0.112090915
255	0xbcf51e10	-0.029921561

actor.2.bias f4 [4]
0	0x3d5574cf	0.05211335
1	0x3dd3d2de	0.10342954
2	0x3df93407	0.121681266
3	0x3dc7d90f	0.097581975

critic.0.weight f4 [64, 64]
0	0xbab9b180	-0.0014167279
1	0x3db42682	0.08796407
2	0xbd7229a4	-0.059121743
3	0xbd40e0b8	-0.04708931
4	0xbd2d5ea0	-0.04232657
5	0xbd229ce8	-0.03970042
6	0xbdf03e0c	-0.117305845
7	0xbd4f8990	-0.0506683
8	0x3d62d37c	0.05537747
9	0xbb8450a0	-0.0040379316
10	0xbdceeb02	-0.10103418
11	0x3db1fbb2	0.08690585
12	0xbdab6fc0	-0.08370924
13	0xbdb9bd26	-0.0906928
14	0xbdb952d2	-0.09049
15	0x3dcba6f4	0.09943953
16	0x3db30ee2	0.08743073
17	0xbc1b7b10	-0.00948979
18	0xbdd10072	-0.10205163
19	0xbd4c09c0	-0.049813986
20	0x3c895c88	0.016767755
21	0xbd6234f8	-0.055226296
22	0x3d9b6374	0.075873286
23	0xbdedef84	-0.116179496
24	0xbd6ea530	-0.058263004
25	0xbd93a6d8	-0.07209557
26	0xbdd65e4c	-0.104672045
27	0xbce48c30	-0.027898878
28	0x3d2012e0	0.0390805
29	0xbd73c3c0	-0.059512854
30	0x3d8c319c	0.068454
31	0xbcb53648	-0.02212061
32	0xbc9181b8	-0.01776205
33	0x3bd498c0	0.006487936
34	0xbdfd68e2	-0.123735204
35	0xbd4c654c	-0.04990129
36	0x3de926a0	0.1138432
37	0x3ca1f580	0.019770384
38	0xbd925900	-0.07145882
39	0xbdf6a448	-0.12043053
40	0x3daf9a76	0.08574383
41	0xbd407430	-0.046985805
42	0xbbfebca0	-0.0077739507
43	0xbd353b98	-0.044246286
44	0x3dbb706e	0.09152304
45	0xbddf7698	-0.10911292
46	0xbd2a91c4	-0.04164292
47	0xbdf5bee2	-0.11999299
48	0xbd93df2c	-0.07220301
49	0xbdc981a6	-0.098391816
50	0x3b670fc0	0.003525719
51	0xbdc96d24	-0.0983527
52	0x3c4c5a20	0.012472659
53	0xbc63f430	-0.013913199
54	0xbdb7693a	-0.08955617
55	0xbc8d2b68	-0.017232612
56	0xbdcf2f6e	-0.10116468
57	0xbc8baf70	-0.017051429
58	0x3de605d2	0.11231579
59	0x3de9eb9e	0.114218935
60	0xbd94dac0	-0.07268286
61	0xbd9f4084	-0.07775977
62	0xbdf448d4	-0.11927953
63	0xbdedbc9c	-0.1160824
64	0xbd6df392	-0.058093615
65	0xbc998540	-0.018740296
66	0x3d425148	0.047440797
67	0x3c62f10b	0.013851414
68	0x3ddbd8df	0.10734724
69	0xbdb28e9c	-0.08718607
70	0x3daf48ce	0.08558808
71	0xbcbc7f1c	-0.02300983
72	0xbd8b0a6c	-0.06789097
73	0xbdb05d8f	-0.08611595
74	0x3d2a28f4	0.041542962
75	0xbc547520	-0.012967378
76	0x3d27f8d5	0.04100879
77	0x3deab770	0.11460769
78	0x3d4fcfac	0.05073516
79	0xbd72e95b	-0.059304576
80	0x3ca33a30	0.019925207
81	0xbdc2e6d0	-0.0951668
82	0xbd1228a4	-0.03568329
83	0xbdb2fe70	-0.08739936
84	0x3df1e143	0.118105434
85	0x3dcddea5	0.10052232
86	0xbda1beac	-0.07897696
87	0x3d03e8f8	0.0322046
88	0xbd898590	-0.06714928
89	0x3da78083	0.081788085
90	0xbd60e4ea	-0.05490581
91	0x3d4c41a4	0.049867287
92	0xbdcc9fba	-0.09991403
93	0x3b04bb6c	0.0020253314
94	0xbdbe436a	-0.09290202
95	0x3d330b18	0.04371175
96	0x3db637ec	0.08897385
97	0x3da8e54c	0.0824686
98	0xbd9bc8b3	-0.0760664
99	0xbd5841d5	-0.052797157
100	0x3dcfd84e	0.10148679
101	0xbd9ffb8a	-0.07811649
102	0x3d8bf4b0	0.0683378
103	0xbb830840	-0.003998786
104	0x3de7d3d7	0.11319702
105	0xbd2d39f8	-0.04229161
106	0x3b88bfc0	0.004173249
107	0x3db4926b	0.088169895
108	0xbdd5427d	-0.10413072
109	0xbdfa47c2	-0.12220718
110	0xbc14cdef	-0.0090823015
111	0x3df736c8	0.120709956
112	0xbc8e6a10	-0.017384559
113	0xbd2fe1c4	-0.042939916
114	0xbd018615	-0.03162201
115	0x3db0d038	0.086334646
116	0xbdde587a	-0.10856719
117	0x3de27820	0.11058068
118	0x3dfb4913	0.12269797
119	0x3d91f6b5	0.07127134
120	0x3d802bde	0.06258367
121	0xbdc0c25e	-0.094120726
122	0xbd01d11c	-0.031693563
123	0x3d975f12	0.0739118
124	0x3dda859e	0.10670017
125	0xbd07f818	-0.033195585
126	0x3daeada2	0.085292116
127	0x3d8f8478	0.07007688
128	0x3dee9a81	0.11650563
129	0x3df9e702	0.12202264
130	0x3ddd9d5d	0.1082103
131	0x3db5eaec	0.088826984
132	0xbdcd2cc0	-0.10018301
133	0xbcf04c78	-0.029333338
134	0xbdf1cb6b	-0.11806377
135	0x3d8ed3e9	0.069740124
136	0x3d4e1910	0.05031687
137	0xbcaeba68	-0.02132912
138	0x3d9851ce	0.07437478
139	0x3d765174	0.060136274
140	0xbdb804b1	-0.0898527
141	0x3d006870	0.0313496
142	0xbe057f01	-0.1303673
143	0x3d573e54	0.052549675
144	0xbcec2608	-0.028826728
145	0x3d901dd5	0.0703694
146	0xbdca2bde	-0.09871648
147	0xbd2cf5b8	-0.042226523
148	0x3ca044bd	0.019564027
149	0xbd700c40	-0.058605433
150	0x3ddd2aa2	0.10799147
151	0x3d1725a4	0.03690113
152	0xbde70002	-0.11279298
153	0x3d6bac53	0.057537388
154	0xbdd04a49	-0.10170419
155	0xbce64696	-0.02810983
156	0x3c4419a1	0.011969001
157	0x3d874a1c	0.06605932
158	0x3d548078	0.05188033
159	0x3da6b33a	0.081396535
160	0x3d49cbb4	0.049266532
161	0x3dd1ee68	0.102505505
162	0xbceb1797	-0.028697772
163	0x3dd53f0f	0.10412418
164	0x3d91fc03	0.071281455
165	0xbd94df70	-0.0726918
166	0x3c6a804c	0.014312815
167	0xbd8d0b23	-0.0688689
168	0x3dd9f759	0.10642881
169	0x3d5d9460	0.05409658
170	0xbd093145	-0.033494253
171	0xbbd8155e	-0.006594344
172	0xbd1f6789	-0.0389171
173	0x3c400c52	0.011721687
174	0x3d273d9d	0.040830243
175	0x3da762e8	0.08173162
176	0x3e0457e2	0.1292415
177	0x3ca448e9	0.020054298
178	0x3d8c2613	0.068431996
179	0xbddc87e4	-0.107681066
180	0xbc033cd0	-0.008010104
181	0xbd8a574e	-0.06754933
182	0xbd74cad2	-0.059763737
183	0xbda939a2	-0.08262946
184	0x3d74d05e	0.059769027
185	0x3d83e3c2	0.06439926
186	0xbd47ed68	-0.048810393
187	0x3d777452	0.060413666
188	0x3d9bb1f6	0.07602303
189	0x3dc8779c	0.09788439
190	0xbd51e6c8	-0.05124548
191	0x3de502b9	0.1118216
192	0xbd980440	-0.074226856
193	0x3dd36b12	0.103231564
194	0xbdc8ab4b	-0.097982965
195	0x3d826ff6	0.06369011
196	0x3d71f08d	0.059067298
197	0x3d0cbda0	0.034360528
198	0x3d7a1e46	0.061064027
199	0x3d7a66b1	0.06113309
200	0x3c95569d	0.018229777
201	0x3e00933e	0.12556168
202	0x3b3e1280	0.0029002726
203	0x3dc7ae30	0.097500205
204	0x3d1b3d1b	0.03790007
205	0x3dd2e18a	0.102969244
206	0xbc89967f	-0.016795395
207	0xbdc27fad	-0.094970085
208	0xbd7af3a0	-0.061267495
209	0x3dd5f838	0.104477346
210	0x3de9f538	0.11423725
211	0xbdba6064	-0.09100416
212	0xbd4de9ff	-0.050271984
213	0x3d2b8e18	0.041883558
214	0x3d1a4dcc	0.03767185
215	0xbcb6b6f8	-0.022304043
216	0xbcbf13e0	-0.023324907
217	0x3dcd2c55	0.10018221
218	0x3d3d8c5d	0.04627644
219	0xbde11709	-0.10990722
220	0xbdb6bd6f	-0.0892285
221	0x3c4aa2ca	0.0123679135
222	0xbc827610	-0.015925437
223	0xbd8df15a	-0.069308
224	0x3dd5bfc2	0.104369655
225	0xbdecab20	-0.11556077
226	0xbdbf77e4	-0.09349039
227	0x3d944f9f	0.07241749
228	0xbdc9413a	-0.09826894
229	0x3dd795c8	0.105266154
230	0x3be709ad	0.007050714
231	0x3ce4abaa	0.027913887
232	0xbd91375d	-0.07090638
233	0x3d8a71ec	0.0676001
234	0xbc7165ee	-0.014733775
235	0x3d740081	0.059570793
236	0x3dcbd560	0.099528074
237	0x3d8cf27c	0.06882188
238	0xbd9e27f9	-0.07722468
239	0xbd53f7a1	-0.05174983
240	0xbdfe4616	-0.124157116
241	0xbd7cb7e6	-0.061698817
242	0xbd92b85b	-0.07164069
243	0xbceeccc8	-0.029150382
244	0x3ddda036	0.108215734
245	0x3c5555a0	0.013020903
246	0xbc9b98e9	-0.018993812
247	0x3d507703	0.05089475
248	0xbdf56a80	-0.11983204
249	0xbd1d8237	-0.03845426
250	0x3e08a9c5	0.13346012
251	0xbd3a207f	-0.045441147
252	0xbdf6348a	-0.1202174
253	0x3d0b1fe0	0.033965945
254	0x3bfbff60	0.007690355
255	0x3db3798a	0.08763416

critic.0.bias f4 [64]
0	0x3c2547a0	0.0100878775
1	0xbd9fda7c	-0.078053445
2	0xbdd932b1	-0.10605372
3	0xbdb81473	-0.089882754
4	0x3cdf998c	0.027294897
5	0xbdca6054	-0.098816544
6	0x3d7201d6	0.059083782
7	0x3d3ad76c	0.0456156
8	0xbd7af6a0	-0.061270356
9	0xbdb30c3d	-0.08742569
10	0x3dd79540	0.10526514
11	0x3d766afd	0.060160626
12	0x3ceb4260	0.028718174
13	0xbb76c4d4	-0.003765394
14	0xbdd2cf64	-0.10293463
15	0xbdcdae6e	-0.100430354
16	0xbb3fff00	-0.002929628
17	0xbddbfc2e	-0.10741459
18	0x3df3875b	0.118910514
19	0xbd77a7e7	-0.06046286
20	0xbd73fc1d	-0.059566606
21	0xbd953340	-0.07285166
22	0xbd98647c	-0.07441041
23	0xbbc0b8b8	-0.005881395
24	0x3de6f585	0.11277298
25	0x3bce3693	0.006293127
26	0x3d84fca6	0.06493501
27	0xbdae87e2	-0.08522011
28	0x3d728ea8	0.05921808
29	0xbc2f27d8	-0.010690652
30	0x3d992cd9	0.07479257
31	0xbd861510	-0.06546986
32	0x3dc16a7b	0.09444138
33	0x3dbc2a86	0.09187798
34	0x3db2ffec	0.087402195
35	0xbd36b708	-0.044608146
36	0xbd60fd98	-0.054929346
37	0x3da5f27f	0.08102893
38	0xbdada451	-0.084786065
39	0xbdd599da	-0.104297355
40	0xbd63bdea	-0.055601038
41	0xba3b8b44	-0.0007154236
42	0xbd9c51b8	-0.07632774
43	0x3c5f7606	0.013638979
44	0xbcbb222f	-0.022843448
45	0x3cf8012b	0.030273994
46	0x3dad6f88	0.084685385
47	0x3d818181	0.06323529
48	0x3d1d5191	0.038407866
49	0xbcb6a66e	-0.022296157
50	0xbdd06096	-0.10174672
51	0xbd70b28b	-0.05876402
52	0xbdce0985	-0.100604095
53	0x3cbc38e8	0.022976354
54	0xbd6764ba	-0.056492545
55	0xbdbb78ac	-0.09153876
56	0x3dbf9ccf	0.09356081
57	0xbdab2822	-0.08357264
58	0x3c6eec80	0.014582753
59	0x3debd0c7	0.115144305
60	0xbdcf8310	-0.1013242
61	0x3d4ad7c2	0.04952217
62	0xbddc19da	-0.10747118
63	0x3ded7783	0.11595061

critic.2.weight f4 [1, 64]
0	0xbd183fc8	-0.0371702
1	0xbce9b953	-0.028530752
2	0xbde5493a	-0.111956075
3	0x3d76c45c	0.060245857
4	0x3d317a5f	0.043329593
5	0xbdf0ed2a	-0.117639855
6	0xbdbbce2d	-0.09170184
7	0x3c8bf96d	0.017086709
8	0xbd9dde8c	-0.07708463
9	0x3dd446da	0.10365076
10	0x3c57f733	0.0131814955
11	0xbda630e1	-0.08114792
12	0xbd838f67	-0.06423836
13	0x3de032d7	0.10947197
14	0x3df6d8f6	0.12053101
15	0xbd9a7bab	-0.07543119
16	0xbdeac844	-0.11463979
17	0xbb291a2b	-0.002580295
18	0x3df84b5a	0.12123747
19	0x3df15d17	0.117853336
20	0x3db3d081	0.08780003
21	0x3d83aaa2	0.0642903
22	0xbd2fc55c	-0.042912826
23	0x3de428d7	0.11140602
24	0xbdebf574	-0.11521426
25	0xbd8199e6	-0.06328182
26	0x3d1073af	0.035266574
27	0x3db67b06	0.089101836
28	0xbca8fdb8	-0.020628795
29	0x3cc7cc4a	0.024389405
30	0x3d4fde64	0.050749198
31	0x3cc42a88	0.023946062
32	0xbd62b0e2	-0.05534447
33	0xbc150c76	-0.009097209
34	0x3ca6e279	0.020371662
35	0xbdac4016	-0.08410661
36	0xbde28899	-0.1106121
37	0xbdf490dd	-0.11941693
38	0x3da10948	0.078630984
39	0x3de0aa22	0.1096995
40	0x3965de61	0.00021921984
41	0xbdeef25e	-0.116673216
42	0x3d542e9c	0.051802263
43	0xbc3002e3	-0.010742876
44	0x3d28a939	0.04117701
45	0xbd1133e2	-0.03544987
46	0x3d856913	0.06514182
47	0x3d232c5f	0.039837237
48	0xbd520533	-0.05127449
49	0x3d81cd4a	0.06337984
50	0x3dbb5261	0.09146572
51	0x3dc84f01	0.09780694
52	0x3beea28b	0.00728256
53	0xbdfaa9e4	-0.12239435
54	0xbd40de2c	-0.04708688
55	0xbda959ba	-0.08269067
56	0x3dcd8dd9	0.10036821
57	0xbdd51a2b	-0.10405382
58	0xbbbd17ae	-0.005770645
59	0xbd11b4c0	-0.035572767
60	0xbdbf3a48	-0.09337288
61	0x3cc07742	0.023494367
62	0xbdad4d56	-0.08462016
63	0xbdaca739	-0.08430333

exp_avg f4 [64, 2]
0	0xbb3561e5	-0.0027676758
1	0xbc0271c4	-0.007961694
2	0xbaf38a98	-0.0018580733
3	0xbbba0d76	-0.005677874
4	0xba006d0b	-0.0004899061
5	0xba5f4cce	-0.00085182197
6	0xbb616d9b	-0.0034397605
7	0xbc273a6f	-0.010206803
8	0x00000000	0.0
9	0x00000000	0.0
10	0x389b1fd1	7.396902e-05
11	0x3b15a525	0.002283403
12	0xb7aae3c3	-2.0371639e-05
13	0xb2052661	-7.750345e-09
14	0xb9076957	-0.00012913845
15	0xba114a9c	-0.00055424287
16	0xb706e94e	-8.041343e-06
17	0x36de4104	6.6236844e-06
18	0xb8e75dbc	-0.00011032398
19	0xb8788043	-5.924726e-05
20	0x38e0407e	0.00010693165
21	0x388487ec	6.319568e-05
22	0xbb418328	-0.0029527638
23	0xbc0cb0f5	-0.008587112
24	0xba144bd7	-0.0005657053
25	0xba7f702f	-0.00097441947
26	0xbb8a54a2	-0.004221515
27	0xbc7bb985	-0.0153640555
28	0x00000000	0.0
29	0x00000000	0.0
30	0x00000000	0.0
31	0xb94821b6	-0.00019086045
32	0x00000000	0.0
33	0x00000000	0.0
34	0x39c1bc20	0.00036951993
35	0x3a909ceb	0.0011033093
36	0xb9e35775	-0.00043361975
37	0xb9fee70a	-0.00048618793
38	0xba5f6c57	-0.0008522919
39	0xbb394850	-0.0028271861
40	0xbb0e661d	-0.0021728345
41	0xbbfce4df	-0.0077177132
42	0x00000000	0.0
43	0x00000000	0.0
44	0x3a12bb3b	0.00055973575
45	0x3a19967a	0.00058589096
46	0x3915162a	0.00014218004
47	0x37f46c4f	2.9137502e-05
48	0x383e2fc2	4.5344008e-05
49	0xba14f9d6	-0.00056829804
50	0x3678fd8b	3.7102461e-06
51	0x3adaaafd	0.0016683039
52	0x00000000	0.0
53	0x00000000	0.0
54	0x3ac465d4	0.001498396
55	0x3afedf82	0.0019445273
56	0x3b9a4d72	0.004708939
57	0x3c41ef96	0.011836907
58	0x38aa560a	8.122258e-05
59	0x3b54ce3b	0.0032471556
60	0x3aa1e5bb	0.001235179
61	0x3b4866b7	0.00305788
62	0x3b2b4205	0.002613188
63	0x3c232a83	0.009958866
64	0xb852608c	-5.0157818e-05
65	0xb78aa50f	-1.6527743e-05
66	0x390629d5	0.0001279482
67	0x3858d591	5.1697312e-05
68	0x3a2e984e	0.00066602684
69	0x3a95a5af	0.0011417175
70	0xb8848724	-6.3194224e-05
71	0xba9df4e6	-0.0012051135
72	0x3a8f746b	0.001094473
73	0xb91cd195	-0.00014955395
74	0xb6ae8b30	-5.2018077e-06
75	0x00000000	0.0
76	0xbb2f0661	-0.0026706683
77	0xbc17e075	-0.009269823
78	0x00000000	0.0
79	0x00000000	0.0
80	0x00000000	0.0
81	0x00000000	0.0
82	0xb99ab3fe	-0.00029507274
83	0xb97eb74f	-0.00024291615
84	0x38898c46	6.558797e-05
85	0x37aa2184	2.0281186e-05
86	0x3913b193	0.00014085164
87	0x38567537	5.113074e-05
88	0xbabc9d8f	-0.0014390218
89	0xbba78c79	-0.005113181
90	0x3a208b00	0.0006124228
91	0x3b16a225	0.002298483
92	0xba0f936a	-0.00054769835
93	0xb9d3e064	-0.0004041224
94	0x00000000	0.0
95	0x00000000	0.0
96	0xb6f9b6ba	-7.4420504e-06
97	0x3832fa8f	4.2671858e-05
98	0x00000000	0.0
99	0x00000000	0.0
100	0x35559da7	7.95781e-07
101	0xb64fe9a6	-3.0981405e-06
102	0xbac53aa6	-0.0015047386
103	0xbba3afee	-0.0049953377
104	0x3a34c7c5	0.0006896223
105	0x3a807878	0.0009801527
106	0xb983620f	-0.00025059326
107	0xb95f43fb	-0.00021292262
108	0x00000000	0.0
109	0x00000000	0.0
110	0x00000000	0.0
111	0xb86536ec	-5.4649005e-05
112	0x00000000	0.0
113	0x00000000	0.0
114	0xb983fcc6	-0.00025174598
115	0xba38c81e	-0.0007048863
116	0x3905cc4a	0.00012759972
117	0x383be29c	4.479532e-05
118	0x3a4604ca	0.0007553814
119	0x3b29e07a	0.0025921152
120	0x00000000	0.0
121	0x00000000	0.0
122	0x3a98a496	0.001164573
123	0x3b188b13	0.0023276254
124	0x00000000	0.0
125	0x00000000	0.0
126	0xba65d5c1	-0.00087675086
127	0xbb98eca2	-0.0046668807

exp_avg_sq f4 [64, 2]
0	0x3585fdc2	9.983125e-07
1	0x361d32f7	2.3424489e-06
2	0x33ffb37e	1.1907012e-07
3	0x35578dfd	8.030036e-07
4	0x32f21471	2.8181804e-08
5	0x34882853	2.5361314e-07
6	0x34dd47a2	4.1216578e-07
7	0x362d5c4a	2.5832728e-06
8	0x00000000	0.0
9	0x00000000	0.0
10	0x3478cae5	2.3170612e-07
11	0x348da411	2.638267e-07
12	0x3050bfa0	7.5942275e-10
13	0x29e463d6	1.0142553e-13
14	0x3399b641	7.1577695e-08
15	0x34653785	2.1347485e-07
16	0x32484879	1.1658011e-08
17	0x31a20723	4.715632e-09
18	0x342d1c59	1.6122193e-07
19	0x33391964	4.309676e-08
20	0x3316795c	3.5034972e-08
21	0x3222f1eb	9.484647e-09
22	0x351cfb97	5.848064e-07
23	0x3608941d	2.0351793e-06
24	0x32c58748	2.2995337e-08
25	0x34a02aee	2.9833558e-07
26	0x351f8ab2	5.9433944e-07
27	0x36ed4b91	7.0719475e-06
28	0x00000000	0.0
29	0x00000000	0.0
30	0x00000000	0.0
31	0x33727903	5.6455075e-08
32	0x00000000	0.0
33	0x00000000	0.0
34	0x347aeb91	2.3368763e-07
35	0x34fabc84	4.6703292e-07
36	0x3483cbc8	2.4548922e-07
37	0x33a5e345	7.724751e-08
38	0x3335d4d0	4.23359e-08
39	0x35212224	6.0026855e-07
40	0x33ff764d	1.18958816e-07
41	0x35bc5346	1.4031327e-06
42	0x00000000	0.0
43	0x00000000	0.0
44	0x3387cecd	6.324044e-08
45	0x33b8f152	8.6120636e-08
46	0x318835f8	3.9642565e-09
47	0x2de61909	2.615909e-11
48	0x33173b20	3.52112e-08
49	0x34abad52	3.197734e-07
50	0x2eaa1c9e	7.7357884e-11
51	0x34cdc74d	3.8329236e-07
52	0x00000000	0.0
53	0x00000000	0.0
54	0x341cb91e	1.4595977e-07
55	0x34246a47	1.5312354e-07
56	0x352e17a1	6.4854436e-07
57	0x366de1a9	3.5447104e-06
58	0x32e82d2a	2.7028893e-08
59	0x357482d6	9.1087475e-07
60	0x356ac907	8.7464326e-07
61	0x3540d540	7.1835893e-07
62	0x354ab894	7.551946e-07
63	0x36a554e9	4.927268e-06
64	0x333a1bdd	4.333184e-08
65	0x31fae7a1	7.3022908e-09
66	0x338ddd66	6.606096e-08
67	0x324f27bc	1.205802e-08
68	0x336d2fd8	5.5224376e-08
69	0x341fdb45	1.4887799e-07
70	0x33decd6b	1.0375046e-07
71	0x34a25e8c	3.0243643e-07
72	0x3495bcd1	2.7890795e-07
73	0x34902834	2.6851342e-07
74	0x2ea3df82	7.452085e-11
75	0x00000000	0.0
76	0x34d8b1c5	4.036248e-07
77	0x36178c6a	2.2582485e-06
78	0x00000000	0.0
79	0x00000000	0.0
80	0x00000000	0.0
81	0x00000000	0.0
82	0x3295e47e	1.744979e-08
83	0x325a8799	1.2720101e-08
84	0x3293e71a	1.7218145e-08
85	0x30ab647d	1.2470448e-09
86	0x330535ab	3.1015286e-08
87	0x31d66d38	6.2406365e-09
88	0x34232db9	1.5197192e-07
89	0x358a24bc	1.0292492e-06
90	0x342f82eb	1.6345773e-07
91	0x34b273ec	3.3239428e-07
92	0x33855072	6.207928e-08
93	0x346b36b3	2.190598e-07
94	0x00000000	0.0
95	0x00000000	0.0
96	0x2fb88a25	3.3567563e-10
97	0x30c0dabf	1.403201e-09
98	0x00000000	0.0
99	0x00000000	0.0
100	0x32b96ef5	2.1587292e-08
101	0x3213afbb	8.596483e-09
102	0x349c1c01	2.907764e-07
103	0x35a3f9de	1.2217167e-06
104	0x33fdcef0	1.1818872e-07
105	0x33500647	4.8434483e-08
106	0x332623c1	3.8682405e-08
107	0x32237319	9.514019e-09
108	0x00000000	0.0
109	0x00000000	0.0
110	0x00000000	0.0
111	0x307f80cc	9.295149e-10
112	0x00000000	0.0
113	0x00000000	0.0
114	0x319e51ad	4.6076907e-09
115	0x34353862	1.687745e-07
116	0x3234b707	1.0518995e-08
117	0x30d03587	1.5149205e-09
118	0x359a3096	1.1488034e-06
119	0x356fc5d0	8.9322293e-07
120	0x00000000	0.0
121	0x00000000	0.0
122	0x3400160c	1.192895e-07
123	0x35e7031e	1.7211748e-06
124	0x00000000	0.0
125	0x00000000	0.0
126	0x33e8f0d9	1.0847152e-07
127	0x35c593b1	1.4720628e-06

exp_avg f4 [64]
0	0xbaf20583	-0.0018464777
1	0xbab40cbb	-0.0013736704
2	0xb9a7bce0	-0.00031993445
3	0xbb28a157	-0.0025730932
4	0x00000000	0.0
5	0x39e88852	0.00044352055
6	0xb68ecc54	-4.2557167e-06
7	0xb988bd59	-0.00026081016
8	0xb7e26983	-2.6990432e-05
9	0xb8c90426	-9.5851996e-05
10	0x37f075e6	2.866513e-05
11	0xbaebce4c	-0.0017990558
12	0x373fd6c2	1.1434489e-05
13	0xbb7390e9	-0.003716523
14	0x00000000	0.0
15	0x3707ac0f	8.086688e-06
16	0x00000000	0.0
17	0x39d2d225	0.0004021089
18	0xb91be4ed	-0.00014867233
19	0xba45cb22	-0.0007545223
20	0xbae4e736	-0.0017463926
21	0x00000000	0.0
22	0x390f51f4	0.00013668073
23	0x380403e6	3.1474883e-05
24	0xb8f707a3	-0.000117793
25	0x39d2b11e	0.00040186284
26	0x00000000	0.0
27	0x39e81b33	0.00044270753
28	0x3b24367f	0.0025056896
29	0x3a3bad15	0.0007159275
30	0x3a4e574d	0.0007871285
31	0x3b149b77	0.0022675672
32	0xb898be6a	-7.283392e-05
33	0x382dbeeb	4.142422e-05
34	0x39e73815	0.00044101538
35	0xb9c5d812	-0.00037735753
36	0xb8b62ef3	-8.687181e-05
37	0x389df14d	7.531289e-05
38	0xbb18c718	-0.0023312028
39	0x00000000	0.0
40	0x00000000	0.0
41	0xb8b34d02	-8.549729e-05
42	0x375c874f	1.3144526e-05
43	0x3837cfa2	4.3823973e-05
44	0xbaa45209	-0.0012536655
45	0x3a35f1f4	0.0006940656
46	0xb90d3a4a	-0.00013468522
47	0x375629a8	1.2765093e-05
48	0x38c41a6d	9.3509305e-05
49	0x385749ba	5.1328658e-05
50	0x390a3c7e	0.0001318324
51	0xba808f5d	-0.0009808351
52	0x3982311c	0.00024832122
53	0xb9b09dc7	-0.0003368689
54	0x00000000	0.0
55	0xb8bf4d63	-9.122004e-05
56	0x00000000	0.0
57	0xb958ede9	-0.00020687994
58	0x37ce6675	2.4604824e-05
59	0x3a07b7fd	0.00051772577
60	0x368fe894	4.2888078e-06
61	0x398141fa	0.00024653954
62	0x00000000	0.0
63	0xbaa2ab84	-0.0012410735

exp_avg_sq f4 [64]
0	0x34355784	1.6888777e-07
1	0x3355153e	4.9612247e-08
2	0x328c98c7	1.636762e-08
3	0x344b2c8d	1.8922056e-07
4	0x00000000	0.0
5	0x32c6b41b	2.3132136e-08
6	0x2effe44d	1.1636612e-10
7	0x32d44177	2.4709818e-08
8	0x30cfd4fe	1.5121768e-09
9	0x3207c1e1	7.902117e-09
10	0x30ff94a3	1.8595937e-09
11	0x33cf43ee	9.651545e-08
12	0x32d9f509	2.5373554e-08
13	0x351bed1b	5.8087033e-07
14	0x00000000	0.0
15	0x3220e27a	9.3647206e-09
16	0x00000000	0.0
17	0x3322caa7	3.7902876e-08
18	0x324d5842	1.1952638e-08
19	0x337eacf3	5.929628e-08
20	0x33b1088f	8.2437616e-08
21	0x00000000	0.0
22	0x31a3f6d0	4.7719837e-09
23	0x2fe75c9d	4.208446e-10
24	0x32f16cfc	2.8105653e-08
25	0x32e93d17	2.715255e-08
26	0x00000000	0.0
27	0x322447dc	9.562395e-09
28	0x342ed41e	1.628218e-07
29	0x338b3947	6.4831106e-08
30	0x333f5c57	4.4554636e-08
31	0x34991917	2.8516726e-07
32	0x312da053	2.5265947e-09
33	0x316d66ff	3.4546586e-09
34	0x32f5c68f	2.8612048e-08
35	0x33162569	3.495862e-08
36	0x32c03e85	2.2380172e-08
37	0x2f9292fd	2.6661687e-10
38	0x342b54f6	1.5956525e-07
39	0x00000000	0.0
40	0x00000000	0.0
41	0x30b9327d	1.3474871e-09
42	0x315ad8e8	3.1846472e-09
43	0x30e6d18b	1.6794258e-09
44	0x33a39d9f	7.61895e-08
45	0x330b0b91	3.237398e-08
46	0x32a23636	1.8883934e-08
47	0x2d05568d	7.579393e-12
48	0x30dbdf0f	1.5997744e-09
49	0x2ee6bb56	1.04924666e-10
50	0x3120c757	2.3396376e-09
51	0x33a82f18	7.831676e-08
52	0x31e7ec38	6.74984e-09
53	0x3201bb32	7.5513515e-09
54	0x00000000	0.0
55	0x308e184a	1.0338763e-09
56	0x00000000	0.0
57	0x324a988a	1.1792631e-08
58	0x302ea4a7	6.3534816e-10
59	0x3386793d	6.2619144e-08
60	0x2cb8c0a1	5.2509806e-12
61	0x34208e19	1.4952856e-07
62	0x00000000	0.0
63	0x342de369	1.6194612e-07
