models/episodes_2/team_goal_top_right/PPOAgent/model.pt (torch, 168423 bytes, 33 tensors)

feature_extractor.0.weight f4 [64, 2]
00000000: 32a1 fc3e 8bea 05bf 1d2d 773e bf4c c2be
00000010: cb8a 1a3f edb8 163f 1039 56bd 91f6 a13e
00000020: cf51 2b3f f0d8 1bbf aecb 813e ed98 b7be
00000030: 515a 3cbd 61f6 57be 11ce dcbe 4dc0 973e
00000040: dfde 493e 5b23 313f cc30 eabe 0b1e 50be
00000050: bdc3 d4be 9d08 e8be 2af7 fbbe 2464 03bf
00000060: 084a 02bf f67c b1bd 29cc ff3e f540 903e
00000070: c627 ddbe bcfa acbe 412f f73e bb79 a6be
00000080: bb07 193f d043 5b3e ccf9 11bd 06a1 ebbd
00000090: 006b 2a3d a893 883e 0fa0 4a3e 4d45 453e
000000a0: a44a 0a3e b7ca 16bf e5ef 0bbf 77bf 053f
000000b0: 2413 303f 8f58 303e fa21 3f3e d0ec a93e
000000c0: 5f5e edbd 2c56 58be e8f6 31bf 32fb af3e
000000d0: a104 23bf b3ef 19be 5faa a63e 75f4 cc3e
000000e0: 0946 213f a102 2f3d 29f6 033e e1d2 073f
000000f0: 8349 69be 1eea b73e 68f8 113f 825d 023f
00000100: 54dd 2a3f c04b 6d3e 3796 ea3d 13e7 13bf
00000110: c2b7 6c3d c768 84be 3379 fa3e 494e 323f
00000120: 7284 04bf f63c c9be 6e3d 1f3f b44a ae3d
00000130: d0b9 d0bd a8c4 ed3e 10ac dd3e d91d 05be
00000140: 4a96 1a3d 748a 05bf fa5b 2a3e 67bb 113f
00000150: 61a1 f5bc ef2b 1c3f 87b9 013f 6129 1bbf
00000160: abb8 c23e 2996 18bf 4faf b63e c75d a63e
00000170: ee3c 573e b455 22bf a417 953e 77fb e03e
00000180: 68e0 6c3e 8d3d 33bf 2e1a bf3e 6e30 17be
00000190: 45ac b5be 02a1 7fbe 4dad 8cbc 3368 bf3c
000001a0: c865 b5be aa82 8e3e fb76 ec3e 0cb0 98be
000001b0: b898 083f 3a93 073f 0a69 003f d989 093f
000001c0: b579 1a3f 2885 103e 12ca 663d 717e 05be
000001d0: 1a7d 2d3f faa0 c6be 090a 31be 296c a3bd
000001e0: d078 413e ff8b 27be 2588 33be f04c 863e
000001f0: 0e73 a23e 0769 d83e c5d5 1bbf 7077 6bbe
0.49341732 -0.5231101 0.24138303 -0.37949178 0.6036803 0.58875924 -0.052300513 0.31633428
0.66921705 -0.60877895 0.25350708 -0.3585886 -0.04598457 -0.2109008 -0.43125966 0.296389
0.19713925 0.69194573 -0.45740354 -0.2032396 -0.41555586 -0.4531907 -0.4921201 -0.5132468
-0.5089421 -0.086664125 0.4996045 0.28174558 -0.43194407 -0.33785045 0.4827824 -0.32514748
0.5977742 0.21412587 -0.035638615 -0.11505322 0.04160595 0.26675153 0.1978762 0.19264717
0.13505036 -0.5890307 -0.54662925 0.5224528 0.68779206 0.17221282 0.18665305 0.33188486
-0.115902655 -0.21126622 -0.69517374 0.34371334 -0.6367894 -0.15032844 0.32551858 0.40030256
0.6299749 0.042727116 0.12886871 0.5305615 -0.22781949 0.35920805 0.5701966 0.5092393
0.6674397 0.23173428 0.114544325 -0.57774466 0.057792433 -0.2586119 0.48920593 0.69650704
-0.51764596 -0.39304322 0.6220311 0.08510342 -0.10191691 0.464391 0.43295336 -0.12999667
0.037740983 -0.5216439 0.16636649 0.5692658 -0.029984178 0.6100454 0.5067372 -0.60610014
0.38031515 -0.59604126 0.35680625 0.3249342 0.21019337 -0.6341202 0.291196 0.43941852
0.23132479 -0.70015794 0.3732466 -0.14764568 -0.35482994 -0.24963763 -0.01717248 0.023365116
-0.35429215 0.27834064 0.46184525 -0.29821813 0.5335803 0.52959025 0.50160277 0.53725964
0.6034196 0.14113295 0.056345053 -0.13036515 0.67769015 -0.3879469 -0.17288984 -0.07979614
0.18893743 -0.16361998 -0.17532404 0.26230574 0.31728405 0.4226763 -0.6087306 -0.2299478

feature_extractor.0.bias f4 [64]
00000000: 2ae3 303f 56fe 4ebe 8be5 30be 9c0d 173f
00000010: e880 bdbe 8c27 aabe e5e5 14be 37c4 1ebf
00000020: f265 943d 3bb4 03bf b161 b43d 26e9 993e
00000030: be43 0f3f c058 12bf 808b 193f 34c0 0f3f
00000040: 6cd8 14be bcba aabe 9c38 963e a02b 10bf
00000050: b4c4 203e 2391 113d 8cc0 09bf f201 903e
00000060: f9f4 22bf a51a cc3e 91fe e2bc 9d0d 9bbe
00000070: 430b 28bf 9800 223f 5672 243f b19f 283f
00000080: 9144 2d3f 90ca dcbe e2e0 113f ee64 cf3e
00000090: 6eef 01be e6ce e3be 963c 363e 605a 1a3f
000000a0: 6a42 0fbf 63da 15be 107f 863d 2335 a8be
000000b0: fcc2 e8be 5073 1ebf 81e0 113e 39cd 11bf
000000c0: 2451 253e d2fa 1a3f fbae edbe 2cdf dabe
000000d0: 906a 9fbe d469 aa3e eafc 883e 7ab9 aebe
000000e0: 3802 87be 6dbe d63c 137e bebe eebc ba3e
000000f0: f5a2 07bf c1a9 6d3e 6af5 0abe 52cb 49be
0.69096625 -0.20214209 -0.17275064 0.5900514 -0.3701241 -0.33233297 -0.14540823 -0.6201815
0.07246007 -0.51446885 0.08807696 0.3006069 0.5596274 -0.5716667 0.59978485 0.56152654
-0.14535683 -0.33345592 0.29340065 -0.56316566 0.15700036 0.035538804 -0.5380943 0.28126484
-0.6365505 0.39864078 -0.027709277 -0.30283824 -0.65642184 0.63282156 0.6423696 0.6586867
0.6768275 -0.43123293 0.5698377 0.4050669 -0.12688991 -0.44493788 0.17796549 0.6029415
-0.55960715 -0.14634089 0.06567204 -0.3285304 -0.4546126 -0.618947 0.14245798 -0.5695377
0.16144234 0.6053897 -0.46422562 -0.42748392 -0.31135988 0.33283865 0.26755458 -0.34125882
-0.2636888 0.026213849 -0.37205562 0.36472267 -0.5298303 0.23209287 -0.1357018 -0.19706467

feature_extractor.2.weight f4 [64, 64]
00000000: 2eb6 a53d a06f 0fbd 8327 97bd 2405 e5bc
00000010: 8fce 65bc 5715 0e3d 28dc 793d b36a d13c
00000020: 2fc0 fb3d f4ed c93d 212c ca3d a233 d53d
00000030: 9064 9c3b d111 b4bd 4fdc 413d 1372 2e3c
00000040: 1d02 99bd d856 8ebd 40bf 893d dd11 34bd
00000050: 1cb8 e63d ba7c c7bb ac1b a6bc 976e f13d
00000060: 36a7 ac3d c266 68bd 5828 23bd 990b ccbd
00000070: db0a bf3d 056a 503c 9c6f ea3d eb67 b23d
00000080: 1c61 9d3d 5da3 053d 039a c83d 9b91 d23d
00000090: 585d b5bc eab3 b83d 9d02 b439 c888 cf3d
000000a0: a0d3 5fbd e3e0 89bd e3ff 9abd 96c9 74bc
000000b0: 450e 913d 9198 943d d8be a0bc 52d4 d5bc
000000c0: 037f bf3c ff10 14bd 2298 d23d 80e0 533c
000000d0: 068a 813d 739d 623b c02f e1bd 109d 4ebd
000000e0: 7613 88bd 6f4a f0bd d0d3 85bd 5a38 e43c
000000f0: 340f 8e3d fe3f 1dbd 9c42 cfbd d03b b63d
00000100: 0f4d 133d bc2d 4b3d 1673 533b 4fcc 9b3d
00000110: 0eb7 81bc 767a c3bd 7491 f2bd 3655 4dbd
00000120: 0e88 86bd e80d b13d 754d c2bc 60b6 9abd
00000130: 21d5 b4bd 4c8a c9bd 90fd a73c 08ac 56ba
00000140: 5e30 e43d 289f e5bd c9cf 9dbd 8fbe e3bd
00000150: a6a0 ecbd 547a 873d ede4 d9bd 7928 a7bd
00000160: 0028 ccba 3d1f d33d 9433 c13d 3875 b7bb
00000170: 402e fcbd 13b8 5b3d 77c2 c3bd 71fd 2dbd
00000180: 7cc5 9c3d aca8 0ebd f359 653c d48b f13d
00000190: 4058 5f3c 9abf 943d c8d1 ec3d 8f07 9a3c
000001a0: 1494 24bd 5e47 4e3d 92d6 c63c e1c4 593c
000001b0: 8910 d53c f444 c1bd 708f a6bd 997d bbbd
000001c0: b16b 50bd 983d 483c 9c31 493d 5cb5 c63d
000001d0: 4c07 163d 5d1f 22bc 28d2 f6bd 5037 9cbd
000001e0: 6305 773c 88d5 75bd 7923 883c 0562 4a3d
000001f0: c8b2 ecbd 9a81 88bd fdbe f4bd 309f d8bd
00000200: 8c25 4abd 30e2 ebbc cea0 a5bd 7d03 1a3c
00000210: 321a 953d a838 d2bd 7004 893d ea15 e9bd
00000220: 0813 723d 40bb fb3b 287e 3fbd e6c9 66bd
00000230: 0f58 d6bd 2095 97bd 004c 77bc 9843 253d
00000240: 6c4b 03be 7c25 55bd ce3d 963d 280a b2bc
00000250: 6e89 4dbd 003e 69bd d0ea 86bc 0a2b dc3d
00000260: 781f 903d 20c0 9dbd 3081 fb3c c775 16bd
00000270: e05c db3c 5fae 343c c148 ab3d b4ee b3bd
00000280: eb0d dabd 4e6e b3bd 81e3 943d 1301 e83c
00000290: 9c74 033d 7654 d83d f085 ca3d 2d17 ff3c
000002a0: 8052 68bd cbf1 bdbd 9aa4 04bd 9ece 8e3d
000002b0: 50aa 29bc 2645 f63d d8a8 de3d 9c3d bcbd
000002c0: 53a5 633d dff6 113d 0aaf e3bd b88b d7bd
000002d0: 189e fdbc 7e55 85bd 84aa f7bd dfc0 50bd
000002e0: 64ff dfbd e8c7 e4bc c0e6 bdbc e371 c73d
000002f0: 1a89 c33d 64d2 123d 3c19 ef3d 92de b5bd
00000300: ea57 733d 3ced a7bc 16f2 c83d 0a20 d1bd
00000310: def7 013e 32c4 ef3d 802b 46bd 4aa1 32bd
00000320: c9b3 3d3d 2096 73bd e970 6c3d e547 d33d
00000330: 3eb7 e4ba ba22 86bc 5381 c8bd 01fd a23c
00000340: 2dec 5f3c 7cf1 6bbd 7090 d5bd 8d28 06bd
00000350: be87 b6bd 66fa 9d3d 1385 91bd a820 4e3a
00000360: b03a 50bd 9456 b3bd 60dd f0bb daf7 93bc
00000370: fc8b bf3d 209e b33d d426 6ebd 6cab 7a3d
00000380: 87ff 9f3d 2670 e93d a7ca 0e3c 039a 823d
00000390: ec29 343d 102c 0bbb a8f1 aa3d e4c2 46bc
000003a0: f42c 01bd 0f73 b6bd 11db 643c b3ff fb3d
000003b0: 5c1b 643d 9379 6abc 1d83 e2bd 18d9 9abc
000003c0: 01ff cbbd 571f f4bc 84c5 993d 2416 29bd
000003d0: 1c4c d0bd f54b 8cbd ef1a f13d 0c16 94bc
000003e0: c1e7 cc3c 9fff a73d aceb e83d 5866 0b3d
000003f0: 8a2d 4fbd f10e ad3d da00 e73d e2fd ddbd
0.08091389 -0.035018563 -0.07380583 -0.027956553 -0.014026298 0.03468832 0.061000973 0.025563573
0.122925155 0.09859839 0.09871698 0.10410239 0.00477273 -0.08792461 0.047329243 0.010647315
-0.07471106 -0.06950158 0.06725931 -0.04396235 0.11265585 -0.0060878666 -0.020276867 0.117886715
0.084303305 -0.056738622 -0.039833397 -0.099631496 0.093282424 0.0127205895 0.11447069 0.08711227
0.07684538 0.0326265 0.097950004 0.10281678 -0.022139236 0.09018691 0.00034334222 0.10133511
-0.05464518 -0.06732347 -0.07568338 -0.01494064 0.070828 0.07255662 -0.019622251 -0.026102219
0.023375994 -0.03614902 0.10282923 0.012931943 0.06325154 0.003457871 -0.10995436 -0.050442755
-0.06644337 -0.11732947 -0.06534541 0.027858902 0.069364935 -0.038391106 -0.101201266 0.08898127
0.03596216 0.049604163 0.0032264641 0.07607328 -0.015834358 -0.09544842 -0.11844149 -0.05013009
-0.06568919 0.086452305 -0.023718575 -0.075543165 -0.088297136 -0.09840831 0.02050665 -0.0008189087
0.11142038 -0.11211997 -0.077056475 -0.111203305 -0.11554079 0.06615129 -0.10639367 -0.081620164
-0.0015575886 0.103086926 0.09433666 -0.0055986904 -0.12313509 0.053642344 -0.095585756 -0.04247803
0.07654855 -0.034828827 0.013998496 0.11794248 0.01363188 0.072631076 0.1156345 0.018802432
-0.04018028 0.05036103 0.024272237 0.0132915685 0.026008861 -0.0943698 -0.08132827 -0.09154815
-0.050883953 0.012221716 0.049119577 0.0970256 0.036628053 -0.009895173 -0.12051803 -0.076277375
0.015076968 -0.060018092 0.016618477 0.049409885 -0.11557537 -0.066653445 -0.119504906 -0.105772376
-0.049352214 -0.028794378 -0.08087312 0.009400246 0.07280387 -0.102647126 0.066902995 -0.11381133
0.05910018 0.007682234 -0.04675117 -0.05634489 -0.104660146 -0.0740149 -0.015093803 0.040347666
-0.1282174 -0.0520377 0.07336007 -0.021733359 -0.05017989 -0.056943893 -0.01646939 0.107503965
0.07037252 -0.077026606 0.03070125 -0.036733415 0.026777685 0.011027901 0.08363486 -0.087857634
-0.10647186 -0.08761273 0.072699554 0.028320825 0.03209363 0.10562985 0.09888828 0.03113898
-0.056719303 -0.09274634 -0.03238354 0.06973003 -0.010355547 0.12024908 0.10872048 -0.091914386
0.055577587 0.035635825 -0.111173704 -0.10524696 -0.030959174 -0.06510447 -0.1209307 -0.050965186
-0.10937384 -0.027927354 -0.02318132 0.09738519 0.095476344 0.035845175 0.11674735 -0.088803425
0.059410013 -0.020498864 0.09811799 -0.10211189 0.1269221 0.11707343 -0.04838133 -0.04361085
0.046314035 -0.059469342 0.057724867 0.10316447 -0.001744963 -0.01637398 -0.09790292 0.019896032
0.013667149 -0.057603344 -0.1042794 -0.032753516 -0.089126095 0.07713775 -0.0710546 0.00078631425
-0.05083722 -0.08756748 -0.0073506087 -0.01806252 0.09352872 0.08770394 -0.058142498 0.061198637
0.0781241 0.11398344 0.008715308 0.06377032 0.043985292 -0.002123598 0.083468735 -0.0121314265
-0.03153701 -0.089086644 0.013968245 0.1230463 0.055690154 -0.014311212 -0.11060164 -0.018902346
-0.099607475 -0.0298001 0.07508376 -0.04128088 -0.10170767 -0.06850425 0.11772715 -0.018076919
0.025012853 0.08203053 0.11373076 0.03403315 -0.05058054 0.084501155 0.11279459 -0.1083944

feature_extractor.2.bias f4 [64]
00000000: ac77 bfbd 872b b0bb 1503 9e3c 8dc2 c13d
00000010: 75a9 b53c d297 bd3d e7ea 80bd c310 033e
00000020: 9222 ddbd 54f1 113d b860 453d dcb8 a8bd
00000030: a48a 51bd 1efe f03d 10eb c13c 2a1f a63d
00000040: fc07 d5bd 9665 f13d d0da ff3d 1e49 ae3d
00000050: 9ca5 893d 72bf 25bd 795b 34bd d287 33bd
00000060: ce39 d3bd f6de 75bc 986c 283d 4c69 5fbd
00000070: 427a ed3d b67b 843d 0aa8 9d3d 04a2 2d3d
00000080: e15f ba3d 95a3 d2bc ea0b f9bb 204c 5dbc
00000090: 6ce0 f1bc b188 013d 8680 3a3b 5ec7 e33d
000000a0: 7e16 973d d11e 633d bf5b 6bbd 244c b3bb
000000b0: 7ec5 ab3c ecba 41bd 4f3d d93d a60c e8bd
000000c0: 828d 91bd 8e5a 003d 8e6f 7ebd 7895 8e3c
000000d0: a023 b6bb c44c 543d 2321 893c 953f c53d
000000e0: 5311 f73d 4fb6 f1bc deb3 d43d 032a ce3d
000000f0: 8670 a13d 21b3 373d 6815 d6bd 6b82 b53d
-0.093489975 -0.0053762826 0.019288579 0.09460936 0.02217553 0.09257473 -0.06294804 0.12799363
-0.107976094 0.03563054 0.04818794 -0.08238384 -0.05115761 0.11767219 0.023671657 0.08111413
-0.104019135 0.11786954 0.12492907 0.0851004 0.067210406 -0.04046578 -0.044032548 -0.0438307
-0.1031376 -0.015006771 0.041119188 -0.05454378 0.115955845 0.064689085 0.076980665 0.04239084
0.09100319 -0.025712768 -0.007600297 -0.013506919 -0.029525958 0.0316245 0.0028457954 0.11122011
0.07377337 0.05544931 -0.057460543 -0.005471723 0.020968195 -0.047297403 0.10607397 -0.113305375
-0.071070686 0.03133636 -0.062118106 0.017405257 -0.005558446 0.051831022 0.016739434 0.09631268
0.12063851 -0.029505877 0.103858694 0.10066607 0.0788279 0.044848565 -0.10453302 0.08862766

actor.0.weight f4 [64, 64]
00000000: b394 823d 887b d83d 4b32 1abd 4184 04be
00000010: 4c18 a73d 7406 a5bd ff38 86bd 6265 1c3c
00000020: b339 b13c 8c82 92bd af14 993d 46e0 a4bc
00000030: c0e1 96bb b5ed 413d aae6 a3bd b017 573d
00000040: 40fc 8c3b b023 30bc ea10 313d 0104 80bc
00000050: 1f66 a8bc a164 2f3c 2063 39bd c75e d13d
00000060: 8081 913d bd67 8fbd 3063 95bc 22b3 903d
00000070: 44ea 65bd 2257 103d e89a d6bc 58a4 cbbd
00000080: f796 093d cc91 5c3d 4524 d6bd 9466 6c3d
00000090: cf89 f83d d48e 2dbd 676d 83bc 8168 bfbc
000000a0: f5d3 70bd 28a3 e0bd bc7b c8bc 2abc cfbc
000000b0: 1d07 f9bd 6363 b73d a464 27bc 1028 23bd
000000c0: b009 02bd d825 a3bd d36f fc3c 6b1d d4bd
000000d0: 1a33 a13d e259 8bbd 31a6 6dbc 0258 253d
000000e0: cf23 c6bd bb82 1ebd e710 66bd a658 dd3d
000000f0: 0fe8 9fbd 9c06 823c 1e65 f83d 7492 a53d
00000100: 604d 493d fe82 70bd 5e16 d73c 6188 73bd
00000110: 4475 ae3d e1b6 b7bd 45d6 ac3d a095 993d
00000120: 89c1 49bd de1c 823d cfd9 743d 0708 acbd
00000130: 2238 973d b022 42bb 6871 d5bd 486d 64bd
00000140: 024d d23d 60af 9fbb 1611 d73d dc25 f13c
00000150: 597b a5bc a587 c4bd 7a00 833c d2fb e6bd
00000160: d883 233d 44cc ef3d cc51 753d 94e4 f03d
00000170: 1c21 7b3d 459f a2bd 0ad1 66bd 9ff7 003d
00000180: 5965 dbbd abf4 a2bd 098e 92bc 02f7 babd
00000190: 54f1 7bbd 9884 a83c 4687 4cbc a706 9a3d
000001a0: 5b25 a43b b005 cabb b91b 7b3d 5854 bdbd
000001b0: a3c8 813a 41c3 9fbd 1b18 3bbd 6f81 c33d
000001c0: f69a 7e3d 3c20 e83b 1d81 95bb 8643 0a3d
000001d0: 42a6 c7bd 84b6 25bd 3dc7 02bc 36ce 00bd
000001e0: 4d48 13ba 0b63 f1bd da16 f9bd d65e 813d
000001f0: 7413 373c eda8 1ebd 0c46 c63d 2dd2 8a3d
00000200: 1781 75bd b40c c8bd 7ca6 3d3d 21de aebd
00000210: 0c14 e8bd ae3e dbbd 8c5b bc3d 3efd 463d
00000220: eec8 cabd f0ef 7cbc 43b2 203c 89a5 c03c
00000230: 00c4 06bc f188 76bd 0016 5c3d c08a 19bb
00000240: 685f 9bbd a07d cf3c 21e2 173d 5ce8 5bbd
00000250: 51f4 e93d ea30 b2bd ebbe c83d ba39 c53d
00000260: 9b36 02bd 8ae5 5a3d 60ea 923b 66cf f6bd
00000270: 603c 1e3c f3a9 b23d f869 fabd e691 d43d
00000280: 38e1 da3c 06ed f2bd 083f 8f3c 246f 29bd
00000290: b1d6 a4bc 9fba 24bc a0d1 ddbd 2ea1 eebd
000002a0: fad6 21bd 4b30 fb3d 1231 0ebd 42ef abbd
000002b0: 68d0 de3c 2163 9abd 9c0d acbd 7bd8 9bbd
000002c0: d892 ba3d 24b5 d03d 1082 c23d e1c6 c7bd
000002d0: 2052 ecbd 8aa6 b2bd 12e3 5dbc af40 3d3c
000002e0: 0e3b 923d 46e0 f83d b433 0e3d a330 f53d
000002f0: e0f1 1b3c d052 f73d cc1a d1bd 6eb4 bcbd
00000300: 04b3 44bd 6800 c23d ccd5 a9bd 68d4 123d
00000310: 36ff b2bd f469 8d3d 203f 06bc e850 da3c
00000320: 32c1 d53d b6d8 b23d 70ae f7bc 8ce6 4ebd
00000330: ac58 55bd faf5 943d c2af aabd 0854 81bc
00000340: 88f5 c2bc f898 d6bc ec61 ebbd 4c97 8fbd
00000350: 2030 df3b 4cf1 a4bd 58f8 b4bc c0c8 383c
00000360: 1e16 b8bd c013 83bb 0034 01b9 8073 933a
00000370: a63e 973d 0093 76bb b056 10bc 3841 873d
00000380: fec2 fbbd 5043 7cbd b6d9 c7bd 96c8 bf3d
00000390: 2042 d0bb 28b0 ab3d 40a6 193b b8ca 90bc
000003a0: 3660 f33d e249 b63d 4089 213d b83f c03d
000003b0: f60b e7bd fa9b f83d ea1d f2bd 78df c33d
000003c0: 50fe 25bd 106d ae3c 0051 863b ecd2 1bbd
000003d0: c0ce 1fbc 685a 983c bc65 8ebd cabf b3bd
000003e0: 1670 fb3d 7074 753c e05a fbbb 2c66 b4bd
000003f0: c847 893c e001 abbc f472 703d 6257 e83d
0.063760184 0.10570437 -0.03764562 -0.12941076 0.08158931 -0.080578715 -0.0655384 0.009545656
0.021633958 -0.07153806 0.07474648 -0.020126473 -0.004604548 0.047345836 -0.0800298 0.052512825
0.0043025315 -0.010750696 0.04322902 -0.01562691 -0.020556508 0.010705144 -0.04526055 0.102231555
0.07104778 -0.070022084 -0.018235773 0.07065417 -0.056131616 0.035239346 -0.026196912 -0.099434555
0.033591237 0.05384998 -0.104561366 0.057715014 0.1213566 -0.04237254 -0.016043378 -0.023365261
-0.058795888 -0.109686196 -0.024473064 -0.025358278 -0.1215956 0.089545034 -0.010216866 -0.03983313
-0.03174752 -0.079662025 0.03081504 -0.103571735 0.07871075 -0.06804253 -0.014504955 0.040367134
-0.09674799 -0.038698893 -0.056168463 0.10807924 -0.078079335 0.015872292 0.121286616 0.08084574
0.049146056 -0.058718674 0.026255783 -0.059456233 0.085184604 -0.08970428 0.08439306 0.07499242
-0.049256835 0.06353162 0.05977803 -0.083999686 0.07383753 -0.0029622726 -0.10422021 -0.05576828
0.10268594 -0.0048732013 0.10501306 0.029436998 -0.020200418 -0.09596185 0.015991438 -0.112785
0.039920658 0.117088825 0.05989246 0.11762348 0.061310872 -0.079405345 -0.0563517 0.03148615
-0.1071269 -0.07956823 -0.017889993 -0.09129144 -0.061509445 0.020571038 -0.012483424 0.075208
0.005009336 -0.006165229 0.061305735 -0.09244603 0.0009901713 -0.078009136 -0.045677286 0.09546172
0.0621595 0.0070839208 -0.0045625106 0.0337558 -0.09748508 -0.040457264 -0.007982072 -0.031446658
-0.00056183786 -0.11786469 -0.12162562 0.06316917 0.011174072 -0.03873532 0.09681329 0.06778369
-0.059937563 -0.09768048 0.04630135 -0.085384615 -0.11331949 -0.107053146 0.09197149 0.048581354
-0.099016055 -0.015438065 0.009808126 0.023516433 -0.008225441 -0.06018919 0.05373192 -0.0023428649
-0.07586557 0.025328457 0.037080888 -0.053688392 0.11423553 -0.08700736 0.0980204 0.09630151
-0.031790357 0.05344156 0.004483506 -0.12051277 0.009657949 0.087238215 -0.12227243 0.103793904
0.02671872 -0.11861615 0.01748611 -0.041365758 -0.020121904 -0.01005426 -0.108309984 -0.11651836
-0.03951166 0.122650705 -0.034714766 -0.08395244 0.027198985 -0.075384386 -0.08401033 -0.0760965
0.091100395 0.101908 0.09497464 -0.0975473 -0.115391016 -0.08723171 -0.013542907 0.011551066
0.0714017 0.12152152 0.034717277 0.11972167 0.009518117 0.12076342 -0.10210189 -0.09214102
-0.048022285 0.09472734 -0.08292732 0.035847098 -0.08740084 0.069049746 -0.008193761 0.026649907
0.1043724 0.087327406 -0.030234545 -0.050512835 -0.052086517 0.07273479 -0.083343044 -0.01578714
-0.023798719 -0.026195988 -0.114932865 -0.070112795 0.006811157 -0.08053836 -0.022091076 0.011278331
-0.089885935 -0.004000157 -0.0001232177 0.0011249632 0.07384996 -0.003762424 -0.00880973 0.06604236
-0.12293051 -0.06158763 -0.09758322 0.093644306 -0.006355539 0.083832085 0.002344504 -0.017674789
0.11883585 0.08900811 0.039437532 0.093871534 -0.11281578 0.12139125 -0.11822112 0.09564108
-0.040525734 0.02129224 0.0040990114 -0.038042948 -0.009753883 0.018597797 -0.06952998 -0.08776815
0.12277238 0.014981374 -0.0076707453 -0.0880855 0.01675786 -0.020874918 0.058703378 0.11344792

actor.0.bias f4 [64]
00000000: 051d b53b fce7 c33c 4579 30bc 448d 47bd
00000010: c010 833d abac fb3d 7a16 03bd 9721 cc3d
00000020: d601 f73d c2ab 93bd 9835 e5bd 41a7 a33d
00000030: 2f06 1d3c 4058 9ebc 1e53 bcbc 65f8 c5bd
00000040: 1d50 493d 41ed 673d b3ef 5ebc 7053 01bc
00000050: c506 ff3a 93a0 0abd 26a4 103d 9a60 cb3d
00000060: a899 a1bd 8058 f53d c54f d03d 5c44 20bd
00000070: 9626 8b3d 96c8 59bd 5886 83bc 0d6c d73d
00000080: 8a74 91bb f2bc 22bd e6f9 dd3d abae 833d
00000090: 1ef5 b9bd b12f d43d 3036 e4bd f293 c0bd
000000a0: 9952 babd 7ccc 67bd 2a9c dbbd 7d1f ce3d
000000b0: e03a 543d 84c8 27bd a070 94bc ec2b e6bd
000000c0: 776f b43d ce8a 793b af6b 9b3d 5e71 4f3c
000000d0: 289d 0a3d c04c 7c3c b2f0 ecbd 40d9 46bc
000000e0: 581e 453d 8078 0f3d 3647 f93d fa06 0e3d
000000f0: bc1f 1cbd dddb c1bd 14cd 9bbd e69c 443c
0.005527141 0.02391433 -0.0107711 -0.048718706 0.06399679 0.12288793 -0.032003857 0.09967344
0.12060897 -0.072104946 -0.11191863 0.079908855 0.009583994 -0.01932919 -0.022988852 -0.09666518
0.049148668 0.056622747 -0.013606953 -0.007893428 0.0019456974 -0.03384454 0.035312794 0.09930535
-0.07890636 0.11979771 0.10171465 -0.039127693 0.06794469 -0.05316981 -0.016055271 0.10518656
-0.0044389414 -0.039730974 0.1083868 0.064298 -0.090799555 0.10360659 -0.11143148 -0.09403218
-0.090977855 -0.056591496 -0.10723145 0.100646 0.05181396 -0.04096271 -0.01812011 -0.11238846
0.08810323 0.0038077119 0.075888984 0.012661306 0.033841282 0.015399158 -0.115693465 -0.012136757
0.04812464 0.035027027 0.121717855 0.034674622 -0.0381162 -0.09465764 -0.07607475 0.012000298

actor.2.weight f4 [4, 64]
00000000: 36ae b83c 6362 a9bd d779 6b3d e089 c53b
00000010: b1e4 bb3c 263e 73bd b631 14bd db3f 97bd
00000020: 72a6 32bd 5a00 9e3d fee9 b5bd 7ca1 013d
00000030: 3b6f 023e 66c9 a53d 4c66 b8bd 444f d33c
00000040: 4642 8d3d 1f0e 38bd a409 d7bc e843 e33c
00000050: 5ebd 7bbc 7536 c7bd e869 ddbd 808f b2bb
00000060: b8cc 853d 41c2 583d e131 843d d0c7 84bd
00000070: 507a a3bc 9f4e 34bd 0abe 86bd b9b9 1b3b
00000080: f177 913b 338d fdbc e146 73bd 340d f3bd
00000090: f272 e9bb 4180 edbc 7cc8 77bd 200a 793c
000000a0: 19e3 b7bb 9228 d93d 479c 8a3d f95f 81bc
000000b0: 2bb9 693d 8c10 c03d 4029 20bd eb73 ba3d
000000c0: 6e83 a53d f5cd cd3d 48ac 88bc 42a4 c8bd
000000d0: 7aa4 f4bd fef2 cb3d 7a31 ae3d c220 bb3d
000000e0: a2b3 b9bd 47d8 5f3d 8408 4bbb 2d59 e33d
000000f0: d4c9 d2bd 0f85 b33c b4d5 81bb 62f4 7c3d
00000100: 58f8 b03d f4bb 4dbd b495 f2bd 22b0 943d
00000110: 41ac 9bbd fe56 01be 475a b2bc 69cb 293d
00000120: 764e 853c 0ea5 b9bd a813 cebd 6308 5abd
00000130: 4210 e03d 1035 46bc 8caf c1bd 20ff 8abd
00000140: 9afd babd 1328 c53d 254d 9ebd 9850 8dbc
00000150: 13a4 a43d 110a 89bd 2898 53bd ec80 babd
00000160: 0095 dfbd 6de3 eabd 53ed c43d 2138 d33b
00000170: c784 cabd e172 743b 423c 933d 44ba 253d
00000180: 1821 9bbd 7e53 5b3d b9b4 e73d dceb 3ebc
00000190: 03ab dfbd f21e abbb c000 a83c 00ac 2e39
000001a0: bab3 c93b d8a9 c9bc 6ad8 b93d 56bb 01be
000001b0: 6505 b63d 2a4f 5f3d a279 913d 2208 71bd
000001c0: 59e5 833d 394f f5bd 0c8e d3bd 841b e3bd
000001d0: 38a8 f43d 466e ff3d c6e0 b83d aa7f 8ebd
000001e0: 7269 c1bd 528d 56bc f4a0 b2bd 8fec eebc
000001f0: 7cce 0f3d 9c88 293c 6aec a2bd 6ecd a23d
00000200: c8a8 df3d e4dc cd3a 1689 7239 b85e 623d
00000210: c18b ecbd f8a7 9b3d cca4 af3d f492 b03d
00000220: fdb3 d8bd d464 2cbd 70a2 123c 458d c3bc
00000230: 95dc 8e3c 6e51 c93d f2b9 94bd 8b0a 863d
00000240: 1cc1 803d d9bc ec3d 3b63 bdbc 20cd 033d
00000250: 5bc1 49bd 3637 dcbd 595d 8d3d dc46 c33d
00000260: d4a7 a9bd 052e 77bd 6bca 1fbd 5820 babd
00000270: 0cf5 d23d a008 5c3d 3772 60bd 289f 5c3d
00000280: 4a5e 80bd f9df b0bd 5ae3 b03b 4470 cdbd
00000290: 5854 48bd e364 00bc fe21 cbbd 0cb0 1ebd
000002a0: 88b6 e93d 8442 433d 4be2 c03d 7281 99bc
000002b0: 4615 7fbd 8537 3fbd 38cc cabc c99a a63d
000002c0: de52 3f3d 2d0f 723b 885f e63d 9b16 8f3c
000002d0: 5812 bfbc 5e41 96bd 9bab 4cbd 8824 ccbd
000002e0: 4416 4e3d b068 8bbc a99d fb3c b3ba fabd
000002f0: a023 f7bb 13a7 5739 10f0 5cbd 562e d43d
00000300: 4dd9 373d 16f9 14bd 6c7f 91bd 00cf 2a3a
00000310: 93c0 94bd 8de8 e23d a99c d83d d899 b83d
00000320: b865 f7bc 0e62 d83d b806 bb3d 5ec0 ca3d
00000330: 20b8 adbd 6c9b 27bd 1cad b23d 5c6d e23d
00000340: ca87 a5bd dcc8 f83c e5c3 923d 94a2 bd3d
00000350: 65d1 efbd 2329 3e3d 4bf7 9bbc 909e d83c
00000360: 003a 623b b4ba 0a3d fbba d5bc aaaa dbbc
00000370: cee7 d83d e270 cd3d 203b 9bbd 346e 743d
00000380: 7ba3 213d 15d4 963c 4300 793d 69d1 1bbc
00000390: 5b6d 5e3d b55d f6bc e0cf d93b 8c28 9d3d
000003a0: 26a9 993d b4c8 f8bd 1001 f9bc 2b98 e33c
000003b0: d1fa e3bd 3ec4 223d a093 1abd 507d 83bd
000003c0: 9278 d7bc b7e9 e2bd bc2f b5bc 2ea4 e33a
000003d0: ec33 23bd 7cca ecbd 28d3 d1bc 80e2 bfbb
000003e0: bab9 dbbd ec1c e1bc ea70 043d 0821 6cbd
000003f0: 98fd f83c b915 60bd 7186 d3bc 3373 f83d
0.022544008 -0.08270719 0.057489242 0.006028399 0.022936197 -0.05938544 -0.03618022 -0.07385226
-0.043615766 0.07714911 -0.08882521 0.031648144 0.12737744 0.08095054 -0.090038866 0.025794633
0.06897406 -0.044935342 -0.026249714 0.027742341 -0.015364973 -0.09727184 -0.10811216 -0.0054492354
0.06533188 0.05291963 0.06454826 -0.06483424 -0.019955784 -0.04402029 -0.06579216 0.0023761822
0.004439347 -0.030951118 -0.059393767 -0.11867753 -0.0071242983 -0.02899182 -0.06049393 0.015200168
-0.005611789 0.10603441 0.06768089 -0.015792834 0.057061356 0.09378156 -0.03910184 0.09104141
0.08081709 0.10049049 -0.016683713 -0.09796955 -0.11945434 0.099584565 0.08505531 0.091371074
-0.09067465 0.054649618 -0.0030980418 0.11100993 -0.10292402 0.021914033 -0.003962243 0.0617565
0.08641118 -0.050228074 -0.1184496 0.07260157 -0.07601214 -0.12630841 -0.021771563 0.041453753
0.016272765 -0.09064685 -0.10062343 -0.053230654 0.10940601 -0.012097612 -0.09457311 -0.067869425
-0.09130402 0.09626784 -0.07729558 -0.017250344 0.08039107 -0.06691373 -0.05165878 -0.09106621
-0.10917091 -0.11469159 0.096155785 0.0064459 -0.098886065 0.0037299918 0.07189228 0.04046084
-0.075746715 0.05354642 0.11313767 -0.011652913 -0.1092129 -0.005222195 0.02050817 0.00016658008
0.0061554583 -0.02461712 0.09074481 -0.12669119 0.08887748 0.054518856 0.07103278 -0.058845647
0.06440229 -0.11978001 -0.10329828 -0.110892326 0.11946148 0.12472205 0.09027247 -0.06957944
-0.0944394 -0.013095217 -0.087221056 -0.029165534 0.03510903 0.010347512 -0.07955249 0.07949339
0.10920864 0.0015706089 0.00023129987 0.055266112 -0.115500934 0.07600397 0.085763544 0.08621779
-0.10581205 -0.042088345 0.008949861 -0.023871073 0.017439166 0.098299846 -0.07262029 0.0654498
0.06286833 0.11559457 -0.023118606 0.032178044 -0.049256664 -0.10752718 0.0690257 0.09535
-0.08283964 -0.060346622 -0.0390114 -0.090882 0.10300645 0.053719163 -0.054796424 0.05386272
-0.06267984 -0.086364694 0.005398196 -0.100311786 -0.04890856 -0.007836553 -0.09918593 -0.03874211
0.11411768 0.047670856 0.09418162 -0.018738482 -0.062276147 -0.046683807 -0.024755582 0.08134992
0.046709888 0.0036935315 0.1124869 0.017466834 -0.023324177 -0.073366866 -0.049968343 -0.09967905
0.050314203 -0.017017692 0.030714827 -0.12242641 -0.0075420886 0.00020566238 -0.05393988 0.103604004
0.04488497 -0.03637036 -0.07104382 0.0006515831 -0.07263293 0.11079512 0.105767556 0.09013718
-0.03019987 0.105655774 0.09132141 0.098999724 -0.08482385 -0.040919706 0.08724424 0.11056015
-0.0808254 0.030369215 0.0716627 0.09259525 -0.11709861 0.04642595 -0.019038817 0.026442796
0.0034519434 0.03386946 -0.026090136 -0.026814777 0.10591088 0.10031296 -0.075796366 0.05967541
0.039462548 0.018411675 0.060791265 -0.0095103765 0.05430351 -0.03007398 0.006647095 0.07673749
0.07502966 -0.12147656 -0.030396014 0.02778252 -0.11131824 0.039737932 -0.037738442 -0.06420386
-0.02630261 -0.11079734 -0.022117488 0.0017367655 -0.03984444 -0.11562058 -0.025613382 -0.0058558583
-0.10728784 -0.027479611 0.032334246 -0.05764869 0.03039436 -0.054708216 -0.025820943 0.121313475

actor.2.bias f4 [4]
00000000: 6921 633d be20 84bc 9477 683d 2215 38bd
0.055451784 -0.016128894 0.056754664 -0.04494203

critic.0.weight f4 [64, 64]
00000000: d71e 68bd 835b ebbd c8a4 0abd 924d f23c
00000010: 8c0f eabd 0f6c 403d 3c02 b33d 5022 c2bc
00000020: 54b3 dbbd b08c 653d 2464 ba3d 4cd8 70bb
00000030: 70a4 21bd 4945 633d 0a5a 9abd 8e1d d53d
00000040: 401b b03d a025 8a3d 210e 86bc 5061 4a3c
00000050: 07af fb3b 6c4e f2bc 4766 06be a49a c1bd
00000060: 81a5 eb3d 8d08 df3d c6cd dd3d b0e7 65bc
00000070: 461d df3d be23 313c 8ee5 f93d 4794 dbbb
00000080: aca9 9e3d a8eb 8c3b 0cd5 003d c0a5 cfbb
00000090: 22eb 97bd 8c16 41bd 7938 b9bd 768f efbd
000000a0: 6b02 7a3d ceb4 acbd dff1 893d 5980 c13d
000000b0: 6a43 c23d c40a 123d 6cf5 93bd cd53 4fbc
000000c0: 1b36 803c da14 06bd 4f24 cebd f505 54bd
000000d0: c872 1fbd 8394 a43d f64a f93d fb41 d9bc
000000e0: bcec 8cbd d5ad d53c 89e7 e4bd ab9e 183d
000000f0: fccb e43d 009d d3bd 8073 a93b 46a0 033d
00000100: c419 2c3d ea08 2dbd aaa1 793a 2428 003d
00000110: cba7 8a3d 95ba 9abc 691e 04bd dbe7 c8bd
00000120: a9a2 57bd 88fb 16bd ebca 8bbd 849a 9e3d
00000130: 2072 053c 907a f93d 9e21 ccbd fcb2 f43d
00000140: 1cff 28bd 7098 623c bcc7 ccbd 0c90 a6bd
00000150: f890 e3bd 61e9 3b3d 6146 e73d 945f e53d
00000160: 0a1c a8bd 35bf fdbd 4829 0a3d f2d1 913d
00000170: 14ec c0bd dcd6 c5bd d9ec 9fbd a9f5 d6bd
00000180: faee 8f3d c2d3 78bd 2a67 06bd c49c bebd
00000190: 4a33 e53d b714 023e 8898 cdbd 7fdb 813d
000001a0: bac7 88bd f369 963d 0c69 8bbd b10b a13d
000001b0: 85bf 863d 82fa be3c 06a8 b03c 8301 193c
000001c0: fb62 e53d 7778 87bc fcc5 9e3d 4bf2 173d
000001d0: 846e 073d cce9 57bd 52fb babd 976c e8bc
000001e0: f92c 02be a42d 9fbd 8a24 413d bcf5 a83d
000001f0: 9898 023d 2c13 393d ee0f 93bd 4a24 dfbd
00000200: 2083 223d 9860 4abd 945b 073d 005f d5bd
00000210: 6451 2abd 3075 743c ce69 bdbd 007a bdbc
00000220: e8d9 cfbc c831 bcbd b8ee 963d 289d ce3c
00000230: f29c d1bd 9067 61bd 92f5 c8bd f254 99bd
00000240: 588d 493d be83 bd3d e0e5 b63b 7c44 9abd
00000250: f883 e63c f687 e9bd fc97 e9bd 9488 6f3d
00000260: a08e cd3d 08fd 08bd a8f5 cc3d 9893 aabd
00000270: a81c f03c 549b c2bd d469 1ebd 3e02 f6bd
00000280: e847 40bd 20d5 8e3d 20aa d3bb 2c2e 3c3d
00000290: 407e 2cbd 786c 4f3d dc9e 583d 2c2c 333d
000002a0: f07c b4bc d871 eabd 243b b33d f638 e6bd
000002b0: c06f 88bc 7aa6 d43d c8e6 e43d f2ae b3bd
000002c0: 50b2 a23d a46f f83d 56ca e83d a2e5 dcbd
000002d0: 308a 6e3c 8208 b3bd 040d b03d 00e9 61ba
000002e0: e6a7 c6bd ea47 883d e4fb fdbd 3611 ec3d
000002f0: a8a2 a13c 461d dfbd fc5d a43d fe10 b3bd
00000300: 500d 763d 144a 833d 8065 a8ba 708c bf3c
00000310: ec97 10bd 58e3 d33d 9c8f 54bd 1cb9 24bd
00000320: 20a2 693d e0dd ed3b 5803 efbc 38f9 e03c
00000330: 4810 e13c d03b 133d f06d 24bc b0e3 fb3c
00000340: 0856 d7bd 0892 8dbd 3401 1a3d b072 bdbd
00000350: 70cd 6cbc 20a7 f8bd 100a d0bd 10bf fbbd
00000360: 1495 59bd b0f3 a63d 08a0 96bc 8610 cebd
00000370: 2064 48bd 9c6a fbbd 449a e03d 6eb0 d1bd
00000380: 8a89 f3bd d096 31bc 004d fc3a 988e e03d
00000390: 482a d3bc c8a1 973c 5470 8d3d 28b0 89bd
000003a0: dc8c 813d 4a5b 883d de27 9cbd e0b0 9a3c
000003b0: a6e2 f33d ac8f 8a3d f65f cbbd 0867 0f3d
000003c0: 4050 f8bb 2cf0 15bd f888 1ebd 3086 39bd
000003d0: 405c 7e3b c4ad 843d 040b 95bd 1074 f4bd
000003e0: 460c ec3d 8cd9 513d 7099 4f3c 7087 eabc
000003f0: a648 e4bd bc44 11bd 3ce4 b7bd 90ce 89bd
-0.056670036 -0.11492064 -0.033848554 0.029578004 -0.114287466 0.046978053 0.087406605 -0.023698002
-0.107275635 0.056042373 0.091011316 -0.0036750017 -0.03946346 0.055485997 -0.07536705 0.10406028
0.085989475 0.06745458 -0.016364159 0.012352303 0.007680777 -0.02957841 -0.13124953 -0.094533235
0.11506177 0.10890303 0.10830264 -0.014032289 0.10894255 0.010811744 0.12201987 -0.0067010256
0.07747206 0.0043005534 0.031453177 -0.0063368976 -0.07417895 -0.047140643 -0.090439744 -0.11697285
0.061037462 -0.08432923 0.067355864 0.094483085 0.094855145 0.0356548 -0.07224545 -0.012654257
0.0156508 -0.03273473 -0.10065519 -0.051763494 -0.038927823 0.08036139 0.12172501 -0.02652072
-0.06881091 0.026083866 -0.11176974 0.037260693 0.111717194 -0.1033268 0.0051712394 0.03213527
0.04201676 -0.04224483 0.0009522686 0.03128828 0.06770285 -0.018887797 -0.032255564 -0.09809848
-0.05264536 -0.036860973 -0.06825813 0.07744315 0.008144885 0.1218158 -0.099673495 0.11948201
-0.041258916 0.013830289 -0.09999034 -0.081329435 -0.11111635 0.045876864 0.112927206 0.11199871
-0.08208473 -0.123899855 0.033730775 0.07120122 -0.09420028 -0.09660122 -0.07808847 -0.10496075
0.07028003 -0.060748823 -0.03281323 -0.093072444 0.11191423 0.12703215 -0.10038859 0.06340694
-0.0667872 0.07344427 -0.068071455 0.07863558 0.06579498 0.02331281 0.021564495 0.009338739
0.1120052 -0.016536934 0.07752606 0.037096303 0.03306438 -0.0527132 -0.09129967 -0.028372092
-0.12712468 -0.07772377 0.047153987 0.08249995 0.031883806 0.0451843 -0.07180773 -0.108955935
0.03967583 -0.049408525 0.03304632 -0.104185104 -0.041581526 0.014920518 -0.09248696 -0.023129463
-0.02537246 -0.091891825 0.07369751 0.025221422 -0.10235013 -0.055030406 -0.09812464 -0.07486905
0.04920706 0.092536435 0.0055816025 -0.075325936 0.0281391 -0.114028856 -0.11405942 0.05847986
0.10036969 -0.033444434 0.10007793 -0.083289325 0.02931054 -0.09502283 -0.038675144 -0.120121464
-0.046943575 0.06974244 -0.0064594895 0.04594247 -0.04211259 0.050640553 0.052885875 0.043743297
-0.022032231 -0.11447495 0.087515146 -0.11241333 -0.016654849 0.103833154 0.111768305 -0.087736025
0.07944167 0.12130669 0.113667175 -0.107859865 0.014559314 -0.08741857 0.085962325 -0.00086177886
-0.09699993 0.066543415 -0.1240156 0.1152672 0.01973088 -0.10894255 0.080257386 -0.087434754
0.06007129 0.06410614 -0.0012847632 0.023382396 -0.035301134 0.10346097 -0.05189477 -0.040215597
0.05703938 0.0072591156 -0.0291764 0.027462587 0.027473584 0.035945714 -0.010035977 0.030748218
-0.10514456 -0.06912619 0.037598804 -0.092503905 -0.014453277 -0.121412516 -0.10158169 -0.12292302
-0.053120688 0.081519485 -0.018386856 -0.10061745 -0.04892361 -0.122761935 0.10966924 -0.102387294
-0.11891468 -0.010839179 0.0019249022 0.109646976 -0.025776997 0.01850976 0.069061905 -0.06723052
0.06325695 0.06658037 -0.076247916 0.018883169 0.11908464 0.067656845 -0.099304125 0.035010368
-0.007577926 -0.036606 -0.038704842 -0.045293987 0.003881231 0.06478456 -0.07277492 -0.119362
0.115257785 0.05123286 0.01267086 -0.028629035 -0.11146669 -0.03546594 -0.08979079 -0.06728852

critic.0.bias f4 [64]
00000000: 1c21 813c 28a1 a03c 00c4 3cbc 425d a2bd
00000010: f224 a43d 307b bdbd d8a8 b33d ebb7 7e3d
00000020: 288a fbbc b0ce c1bd e85b 86bd 802d 2b3d
00000030: 6b6e f03d 1a4c c1bc f86a e6bd dbf8 c9bd
00000040: b15c 99bc e65c cbbd ba38 fa3d 1e2d 43bc
00000050: 6007 9bbd 0fe9 023e 9678 bd3c a11f d53d
00000060: 8115 aa3c 2cec c33d ece9 eabd 8813 cfbb
00000070: 104a 8dbd 011c f5bd a244 c4bc 2112 45bd
00000080: b1df 3a3d dfac f13d 7dd3 713d dfa2 ba3d
00000090: 595d c5bd a769 76bd 41e3 013d 5d8e fe3b
000000a0: 83f4 013e 5443 1b3c 1bc1 b73d f27b 2d3d
000000b0: aea3 f13d fccd 883d b90a 71ba f8c1 debd
000000c0: 70e1 05bd 2f28 ee3c 6d16 213c b3d2 87bd
000000d0: b688 d53d ea8e dabd 519c d5bd 8d33 bfbc
000000e0: c716 c43d 3cb1 da3d 8ac5 573d a2c2 1bbc
000000f0: 0f68 2d3d c784 debd 7f60 793d a222 dbbd
0.015762858 0.019608095 -0.011521339 -0.07927944 0.08014859 -0.09252012 0.08772439 0.062187117
-0.030705526 -0.09463251 -0.065604985 0.04179144 0.117398106 -0.023595858 -0.112508714 -0.098619185
-0.018720957 -0.09929828 0.12217851 -0.011912612 -0.07569766 0.12784217 0.023128789 0.10406423
0.020762207 0.095665306 -0.11470398 -0.006319467 -0.06898892 -0.11968232 -0.023958508 -0.048112992
0.045623485 0.11800551 0.05903958 0.091130964 -0.09636945 -0.06015935 0.031710867 0.007768436
0.1269093 0.0094765015 0.08972379 0.04235453 0.117987975 0.066799134 -0.0009195018 -0.1087684
-0.032685697 0.029071895 0.009832007 -0.066319846 0.10426466 -0.1067179 -0.104302056 -0.023340011
0.09574657 0.10678336 0.052678622 -0.009506853 0.042335566 -0.10865169 0.06088304 -0.10699965

critic.2.weight f4 [1, 64]
00000000: 7b4b 123d 7521 3cbd 22ac ba3d 701b a83c
00000010: 25f5 ab3b 8445 823d f475 06bd 1fcc d53d
00000020: ece2 183d 8b9e 39bd 03b0 1abd 683d 7ebd
00000030: 212c cfbd b71e 6cbd 089a 67bd 4319 7b3d
00000040: 33d8 eabd 997f d4bd 87b7 2ebd 08c3 2b3d
00000050: fa86 c43d 7867 edbd 63b4 45bb 8f01 f7bd
00000060: a719 33bd 6d64 3a3d 83dc cebd 95e6 fbbd
00000070: 686a 603d c06f e2bc 3d8d 1ebd 7af4 ffbb
00000080: 15ed 8abd e825 57bc 2643 e23a daa7 083d
00000090: 1cee 87bc 6f5c abbd 6689 99bd 2b98 49bd
000000a0: 43be 52bd 259d b33d 92dd 9c3d c615 423b
000000b0: d7b6 6c3b e4b5 ba3d 433c 3a3d a869 34bd
000000c0: 4c5d 2abd 6c69 263d f283 2dbd 09cf 18bc
000000d0: da7e 4f3d ecfb cdbd 816f cdbc 0171 c43d
000000e0: c6e8 403d d062 243d 1f6d 843c 8cbd 7abd
000000f0: 55ae 5d3d 8115 abbd 9ee0 99bd 48f8 bc3d
0.035716515 -0.045930345 0.09114863 0.020520896 0.0052477294 0.06360915 -0.032827333 0.10439324
0.037325785 -0.045317214 -0.037765514 -0.06207028 -0.10115839 -0.05764648 -0.05654338 0.06130339
-0.11467018 -0.103759 -0.042655494 0.041934043 0.09596057 -0.11592001 -0.0030167333 -0.12060844
-0.043725636 0.04550593 -0.10100653 -0.122998394 0.054788977 -0.027641177 -0.038708914 -0.0078111263
-0.06783501 -0.013131596 0.0017262443 0.0333632 -0.016593032 -0.0836724 -0.0749691 -0.049217384
-0.05145098 0.08770207 0.07659449 0.0029615029 0.0036119723 0.09116724 0.045467626 -0.044046074
-0.04159288 0.040627882 -0.04236216 -0.009326705 0.050658084 -0.10057816 -0.025077583 0.09591866
0.04709699 0.040133297 0.016165314 -0.061215922 0.054121334 -0.08353711 -0.075135455 0.092270434

exp_avg f4 [64, 2]
00000000: 5ab3 00ba 8715 cab8 1479 27bb 3c3a f4b9
00000010: d156 873b 0b7d 543a 72e6 383b e7e6 9b39
00000020: f97f 27bb 9750 41ba 2a71 2e3b b9de 073a
00000030: 0000 0000 0000 0000 1d35 c9b7 3b2e 41b9
00000040: bb06 733c 3e70 0c3a 0000 0000 0000 0000
00000050: 0000 0000 0000 0000 0000 0000 0000 0000
00000060: 0967 5ab7 3c1c 96b9 db32 8bbb 49d3 57ba
00000070: c261 d7b7 2971 c3b8 5c69 80bb baec d3ba
00000080: 8aaa 2dbc 9f8f 87ba 0000 0000 0000 0000
00000090: 3d3b b83b a4b7 4aba 6de6 a83a 99a7 bc39
000000a0: e835 c63b 49d5 3e3a c248 d3b8 6338 f2b9
000000b0: e5cc 823b 40a1 aa3a 96ed bc39 f059 9bba
000000c0: 0000 0000 0000 0000 4f34 6fb9 2c7a 78ba
000000d0: 0000 0000 0000 0000 5536 62bb b557 0f3a
000000e0: 63f6 7c3b bfc8 2e3a d538 193b c5b0 293a
000000f0: d246 d83a 6896 fd38 cf17 c03b 251b 9b3a
00000100: 75d8 233c 9f85 6b3a 0fc3 813a 0000 0000
00000110: 0df3 d53b 6654 803a 2b14 923b f2a9 4438
00000120: 0000 0000 0000 0000 4b00 83bb 34c8 5cba
00000130: be9c 5038 a5fe 5fb6 8ee1 723b 3de6 c039
00000140: 0000 0000 0000 0000 6e87 a4ba ecf9 893a
00000150: 8e0b bc3b a969 f43a 2581 08bc efb4 f9ba
00000160: 0bb9 5cbb 995a 0aba 162a eb3b a512 a23a
00000170: 2834 9d3b 8429 2b3a 82f4 013c 211f a73a
00000180: 2ef3 f4ba 57bb 86b9 b9a9 873b a60d 22b9
00000190: 0000 0000 0000 0000 0000 0000 0000 0000
000001a0: f4de 9938 d2ae d239 7abf e03a d9ec 523a
000001b0: 594c bc3b e77a d139 893e 13bb 6527 d7ba
000001c0: 05ac 483a 7092 05ba bdca d5ba 62bb 76b9
000001d0: dc74 2a39 61dd a3b9 0ce6 00b7 09b0 b139
000001e0: 10e6 0b3a 04e2 aa38 2753 b4ba 2ee6 c239
000001f0: 5f39 cfb8 b544 8538 0000 0000 0000 0000
-0.0004909538 -9.6361204e-05 -0.0025554346 -0.00046582695 0.0041302224 0.0008105791 0.0028213528 0.0002973594
-0.0025558455 -0.00073743745 0.0026617744 0.00051830296 0.0 0.0 -2.39858e-05 -0.00018423136
0.014833148 0.00053573016 0.0 0.0 0.0 0.0 0.0 0.0
-1.3017802e-05 -0.00028631266 -0.004248006 -0.0008233083 -2.567552e-05 -9.319402e-05 -0.00391881 -0.0016168572
-0.010599742 -0.0010342485 0.0 0.0 0.005622296 -0.0007733053 0.0012886055 0.00035983024
0.0060489066 0.0007279707 -0.00010074816 -0.00046199848 0.0039917105 0.0013018027 0.0003603517 -0.0011852365
0.0 0.0 -0.00022812303 -0.0009478654 0.0 0.0 -0.0034517248 0.00054680865
0.0038599006 0.0006667487 0.0023379822 0.0006473179 0.0016500598 0.000120919954 0.005862213 0.0011833651
0.010000338 0.00089844497 0.0009900051 0.0 0.006529218 0.0009790778 0.0044579706 4.6888315e-05
0.0 0.0 -0.0039978377 -0.00084221666 4.9737042e-05 -3.3377812e-06 0.003706071 0.00036792635
0.0 0.0 -0.0012552568 0.0010526753 0.005738682 0.0018647212 -0.008331572 -0.0019051115
-0.003367963 -0.00052777823 0.007176648 0.0012365176 0.0047974773 0.00065293186 0.00793183 0.0012750366
-0.0018688196 -0.0002569805 0.0041401056 -0.00015454608 0.0 0.0 0.0 0.0
7.337137e-05 0.00040184573 0.0017146908 0.00080461573 0.005746406 0.00039955156 -0.0022467694 -0.0016414939
0.00076550274 -0.0005095368 -0.0016311031 -0.00023530194 0.00016255997 -0.00031254723 -7.6829565e-06 0.00033891227
0.0005336711 8.1483304e-05 -0.0013757691 0.0003717406 -9.8812154e-05 6.354732e-05 0.0 0.0

exp_avg_sq f4 [64, 2]
00000000: 9327 e433 a276 7132 6a3f 5d34 70ce b931
00000010: e7af d234 1f39 fa32 ea57 8235 d180 1532
00000020: 9732 1635 5f77 a232 8c3d 9e34 1549 2832
00000030: 0000 0000 0000 0000 1eca f52f 0f92 8632
00000040: a399 ed36 30db 6c36 0000 0000 0000 0000
00000050: 0000 0000 0000 0000 0000 0000 0000 0000
00000060: 35c9 1c2f e4f6 0833 d65a 0635 964a c932
00000070: a656 a92f 4aba 8431 480d ea34 512b 8b33
00000080: 310b 9736 7792 fe35 0000 0000 0000 0000
00000090: c008 c535 b1b1 b035 d406 ec34 dd6c 6333
000000a0: 6000 cc35 44b7 6c32 8228 6530 ae15 7a33
000000b0: 2276 6435 0670 9933 e5bf 8833 b396 fe33
000000c0: 0000 0000 0000 0000 f135 d731 1c7b 5d33
000000d0: 0000 0000 0000 0000 1cff 2135 de13 9f35
000000e0: b74e 9b35 5017 0134 8844 ca34 d0f9 bb32
000000f0: bd56 ad33 05d0 6633 c759 7f35 d983 e033
00000100: d214 8936 5f85 af35 97ca ec33 0000 0000
00000110: 390c cf35 51f3 0d34 a8c4 6d35 bd56 0235
00000120: 0000 0000 0000 0000 af19 1235 e909 2534
00000130: 65ef d532 ed3e 4334 2ccb 3935 65e9 6633
00000140: 0000 0000 0000 0000 418c e834 f7d6 5035
00000150: 9cee 4f35 63f6 2b34 b809 0236 c6d4 bf33
00000160: eb09 b934 c37e 0b32 cb09 1436 93ab 7b35
00000170: 8806 5535 bb9b 6632 f8fe cc35 2d8e 7634
00000180: 7c92 8f34 193d 7831 0bd7 1f35 87cf 7335
00000190: 0000 0000 0000 0000 0000 0000 0000 0000
000001a0: 6b49 ce31 42a3 be33 2384 be34 09b5 4a33
000001b0: 5cf4 9d35 bdfb 1135 68bb 5234 bd9e c634
000001c0: 5fd3 9334 837a cd34 3d9a 7635 dddc a831
000001d0: e5cd 8333 83d7 2a32 a389 dd2f 145d 9833
000001e0: 587a 5c33 8121 b630 6a6f 9834 3c95 7435
000001f0: ff79 7733 848c 9032 0000 0000 0000 0000
1.0624276e-07 1.405502e-08 2.0605299e-07 5.407678e-09 3.9243534e-07 2.9129806e-08 9.711341e-07 8.702231e-09
5.595297e-07 1.8913566e-08 2.9474575e-07 9.795504e-09 0.0 0.0 4.4708853e-10 1.5666073e-08
7.081036e-06 3.5294324e-06 0.0 0.0 0.0 0.0 0.0 0.0
1.42596e-10 3.1889513e-08 5.0051074e-07 2.3433397e-08 3.0802488e-10 3.8628842e-09 4.359556e-07 6.480571e-08
4.5014535e-06 1.8967102e-06 0.0 0.0 1.468019e-06 1.3164737e-06 4.3963394e-07 5.2951567e-08
1.5199294e-06 1.3778678e-08 8.336728e-10 5.822738e-08 8.5108525e-07 7.1449946e-08 6.367899e-08 1.1855209e-07
0.0 0.0 6.263456e-09 5.156754e-08 0.0 0.0 6.0348407e-07 1.1852205e-06
1.1571309e-06 1.2022542e-07 3.7675295e-07 2.1883267e-08 8.071718e-08 5.374024e-08 9.5125546e-07 1.0454796e-07
4.085342e-06 1.3077332e-06 1.1026457e-07 0.0 1.5426259e-06 1.3220166e-07 8.857555e-07 4.8554995e-07
0.0 0.0 5.4426613e-07 1.5370428e-07 2.4905328e-08 1.8183682e-07 6.9213525e-07 5.376332e-08
0.0 0.0 4.3315416e-07 7.7798853e-07 7.746073e-07 1.6015251e-07 1.9377167e-06 8.932834e-08
3.4466152e-07 8.119687e-09 2.2059419e-06 9.375446e-07 7.935819e-07 1.3423171e-08 1.527339e-06 2.2962259e-07
2.6742407e-07 3.612348e-09 5.9545044e-07 9.0826546e-07 0.0 0.0 0.0 0.0
6.0037357e-09 8.877261e-08 3.54864e-07 4.719644e-08 1.176853e-06 5.4383037e-07 1.9625952e-07 3.699587e-07
2.7534676e-07 3.8273365e-07 9.186659e-07 4.9145528e-09 6.137615e-08 9.944304e-09 4.0297463e-10 7.0949824e-08
5.1334013e-08 1.3251765e-09 2.839327e-07 9.111425e-07 5.7620124e-08 1.6827705e-08 0.0 0.0

exp_avg f4 [64]
00000000: f66b 85b9 6c95 09ba 732a 5e3a 3925 1c3a
00000010: 23de 17ba 0161 0e3a 0000 0000 3362 e5b7
00000020: edb2 e23a 0000 0000 a03c aa36 4d43 a437
00000030: 8764 1cb9 1658 50ba c25b 15b9 8948 42ba
00000040: c580 bdba 0000 0000 79eb c539 6f15 3a39
00000050: 9b78 973a 3778 64b9 9aac 423a 42b2 7ab9
00000060: 0000 0000 9abf 68b9 0000 0000 c93a fdb8
00000070: 50ba 343a b4f7 fa39 3e5a e138 bb3a 863a
00000080: 0b44 a53a 775a 5439 a72f 993a bde1 043a
00000090: 0000 0000 ef5f 47ba 955e 2938 bb06 1c3a
000000a0: 0000 0000 30b8 6039 57fb 883a fea4 e0ba
000000b0: fc68 38ba 3f8c 893a ca23 7d3a d9e1 b43a
000000c0: d4ab cdb9 4a21 c539 0000 0000 0000 0000
000000d0: c129 d938 3776 8439 5aca 3f3a 29b5 5aba
000000e0: 9129 4bb9 46d0 a9b9 23cb ab35 2f8f 0c39
000000f0: 631e b238 4949 9739 966b 9f38 0000 0000
-0.00025448174 -0.0005248401 0.00084749534 0.00059564743 -0.0005793294 0.0005431325 0.0 -2.7344655e-05
0.0017295756 0.0 5.0734525e-06 1.9581663e-05 -0.00014914769 -0.0007947696 -0.0001424393 -0.0007411321
-0.0014457932 0.0 0.0003775021 0.00017746327 0.0011556329 -0.00021788558 0.00074262323 -0.00023908264
0.0 -0.00022196621 0.0 -0.0001207493 0.0006894218 0.0004786827 0.00010745645 0.0010240892
0.0012608779 0.00020251596 0.0011687175 0.0005069038 0.0 -0.0007605543 4.0380826e-05 0.00059519307
0.0 0.0002143092 0.0010450882 -0.0017139015 -0.0007034687 0.0010494067 0.0009656517 0.0013800218
-0.0003922867 0.0003759957 0.0 0.0 0.000103551436 0.0002526508 0.00073162245 -0.0008343035
-0.00019375073 -0.00032389368 1.2799613e-06 0.0001340478 8.4933614e-05 0.00028855566 7.60175e-05 0.0

exp_avg_sq f4 [64]
00000000: 4e40 8432 24ac 1932 a4c6 b232 46b6 3333
00000010: 2489 e332 d9c5 7b32 0000 0000 c5c5 9130
00000020: 2cc1 5535 0000 0000 94a8 1f2f c934 ed2f
00000030: 6232 3832 e933 e032 b631 0632 c59d 9532
00000040: 8a4b fa34 0000 0000 ccf4 6b34 807c 0633
00000050: 809e 8733 ae3a 8632 468f 1633 dc3d 8032
00000060: 0000 0000 0358 aa31 0000 0000 3178 8c34
00000070: 1a91 a333 2813 9532 cd42 3a32 6d7f 8233
00000080: 5c32 ec34 79a1 9831 6d67 d833 d058 bb33
00000090: 0000 0000 61cb 1c33 8a43 9532 fbc7 3433
000000a0: 0000 0000 5530 4834 8bd0 3133 9832 b533
000000b0: db3f 8632 d9e3 7a34 ee68 1b33 f99d a533
000000c0: 247f 4332 1e1f 2534 0000 0000 0000 0000
000000d0: 14b3 f631 0601 9a32 aa78 4434 3771 1333
000000e0: 68ba 5c33 7275 1c33 c002 0432 539f 7532
000000f0: 05fd 0a31 9eb8 6634 eb25 d131 0000 0000
1.5396065e-08 8.944912e-09 2.0812259e-08 4.1842462e-08 2.6488642e-08 1.4655108e-08 0.0 1.0606348e-09
7.9629785e-07 0.0 1.4520857e-10 4.3147555e-10 1.0721665e-08 2.6100638e-08 7.8111295e-09 1.7417628e-08
4.662109e-07 0.0 2.1975137e-07 3.131254e-08 6.3152584e-08 1.5626338e-08 3.5054903e-08 1.4929292e-08
0.0 4.957657e-09 0.0 2.6164483e-07 7.616673e-08 1.7354594e-08 1.0841814e-08 6.076775e-08
4.3995067e-07 4.4421395e-09 1.0077097e-07 8.724021e-08 0.0 3.6506552e-08 1.7376596e-08 4.2091397e-08
0.0 1.8644035e-07 4.1400693e-08 8.437672e-08 1.5628691e-08 2.3365955e-07 3.6184183e-08 7.712146e-08
1.1379402e-08 1.5378143e-07 0.0 0.0 7.179901e-09 1.7928425e-08 1.829782e-07 3.4329073e-08
5.1392277e-08 3.6428396e-08 7.6840365e-09 1.4297103e-08 2.0225468e-09 2.1487583e-07 6.0870113e-09 0.0
