models/episodes_5000/team_goal_bottom_right/PPOAgent/model.pt (torch, 168423 bytes, 33 tensors)

feature_extractor.0.weight f4 [64, 2]
0.045493998 0.48948294 -0.056281213 0.042647015 0.23265862 0.34248278 -0.21848482 0.62844074
-0.039768506 0.010569806 0.06963998 0.2746372 -0.15645842 0.58088297 0.2699263 0.28841215
-0.38288382 -0.23209274 0.14731713 -0.5337193 -0.50682807 0.7080808 0.24362539 -0.5215026
-0.22358142 -0.0006698265 0.3714506 -0.16200612 0.35313576 0.4260802 -0.39003754 -0.12437206
-0.34777495 -0.28908294 -0.13381644 -0.38948494 -0.11734705 -0.37428078 -0.12993655 -0.08093948
-0.4118896 0.3625836 -0.92251164 0.43563467 -0.21079923 -0.6593318 -0.16467175 0.4905704
-0.605743 0.5104943 0.3708627 -0.28401664 -0.28904966 -0.06647937 0.5758037 -0.32422748
0.58292335 -0.25409862 0.24196328 -0.41097724 -0.48458388 0.23265643 0.5342723 -0.48354194
0.11095351 -0.4752408 -0.47639158 0.6386341 0.4109839 -0.30007684 -0.65971977 0.26065677
0.34304172 -0.43479118 -0.38359743 0.13124636 -0.008976407 -0.082391754 -0.06397119 -0.13713372
-0.364758 0.054125488 -0.38330144 0.08644645 -0.14884035 -0.17421189 0.85218805 -0.6001242
0.35144758 -0.5173485 -0.19987668 0.2076663 -0.50355476 -0.19608577 -0.22559462 -0.68674266
0.2106521 -0.2726334 0.091340944 0.24483195 0.5018346 -0.11849654 0.25101373 -0.33370486
0.21913701 -0.30323595 0.4226794 -0.47748503 -0.1138031 0.049941827 -0.49047607 -0.11019466
-0.10050472 0.5582738 0.31351793 -1.0137751 0.06823652 0.33673108 -0.4396769 0.7239609
0.0039027531 0.43186322 -0.7894675 -0.018145923 -0.57704467 0.5606942 0.2650595 0.22911108
00000000: ea57 3a3d 829d fa3e 2187 66bd a3ae 2e3d
00000010: 103e 6e3e e759 af3e 7cba 5fbe 7ee1 203f
00000020: 4de4 22bd fb2c 2d3c 689f 8e3d 3f9d 8c3e
00000030: a336 20be bfb4 143f c833 8a3e c2aa 933e
00000040: 5909 c4be b8a9 6dbe 4dda 163e d4a1 08bf
00000050: 7cbf 01bf c944 353f ef78 793e 3281 05bf
00000060: 87f2 64be 4c97 2fba c62e be3e efe4 25be
00000070: 36ce b43e 2f27 da3e 00b3 c7be c7b6 febd
00000080: 8f0f b2be ae02 94be 2d07 09be 926a c7be
00000090: a653 f0bd bba1 bfbe 160e 05be 99c3 a5bd
000000a0: 32e3 d2be 8fa4 b93e b929 6cbf 820b df3e
000000b0: c1db 57be f8c9 28bf b69f 28be 0b2c fb3e
000000c0: f911 1bbf c1af 023f b7e1 bd3e a16a 91be
000000d0: 51fe 93be 5626 88bd df67 133f 2501 a6be
000000e0: 773a 153f 3719 82be 39c5 773e 9c6b d2be
000000f0: 611b f8be 7d3d 6e3e 12c6 083f cf92 f7be
00000100: 983b e33d c352 f3be 99e9 f3be 867d 233f
00000110: 7b6c d23e aca3 99be 65e3 28bf ce74 853e
00000120: 2aa3 af3e f39c debe e266 c4be 7265 063e
00000130: c811 13bc 02bd a8bd 5403 83bd c86c 0cbe
00000140: 90c1 babe b0b2 5d3d 1640 c4be d60a b13d
00000150: 9b69 18be 9a64 32be ff28 5a3f bda1 19bf
00000160: f0f0 b33e f470 04bf 79ac 4cbe 79a6 543e
00000170: f7e8 00bf b5ca 48be 4702 67be 5ece 2fbf
00000180: 2fb5 573e 9b96 8bbe f610 bb3d 3ab5 7a3e
00000190: 3b78 003f 50ae f2bd df84 803e 5ddb aabe
000001a0: 7465 603e be41 9bbe 6f69 d83e eb78 f4be
000001b0: 9a11 e9bd cd8f 4c3d ae1f fbbe bdad e1bd
000001c0: 6bd5 cdbd 08eb 0e3f 6c85 a03e 62c3 81bf
000001d0: 97bf 8b3d 0468 ac3e 551d e1be 8055 393f
000001e0: 55c5 7f3b 2d1d dd3e 8b1a 4abf c2a6 94bc
000001f0: 33b9 13bf a889 0f3f e1b5 873e 189c 6a3e

feature_extractor.0.bias f4 [64]
0.91377693 0.32205915 -0.5940944 -0.7744598 0.22061148 -0.83312225 -0.37766698 -0.14367165
0.8862836 0.8391269 -0.55830246 0.79426837 0.32699242 0.82606727 -1.0101323 -0.12019421
-0.69260204 0.9380202 1.1971548 -0.61861956 -0.80768085 -0.33541015 -0.3902365 0.67260027
0.23308948 -0.2825065 0.99274844 -0.76780677 0.05457005 0.68640727 0.71588004 0.16680712
1.0418785 -0.3974756 -0.4650227 0.014499553 0.6494726 0.72786343 0.5431873 0.7180428
0.88239527 0.8250007 0.8232963 -0.7229155 -0.35585576 0.37124938 -0.43337014 -0.69235915
0.40139312 -0.92027825 -0.45060417 0.31091174 0.7869587 0.021858327 0.6336117 0.73934036
-0.60849214 0.5412397 0.41075382 -0.7800982 0.8618348 0.47814777 0.6261903 0.7716843
00000000: 49ed 693f f0e4 a43e 9216 18bf ff42 46bf
00000010: fae7 613e 8047 55bf 915d c1be a91e 13be
00000020: 7be3 623f 05d1 563f e9ec 0ebf 2c55 4b3f
00000030: 8d6b a73e 2579 533f 044c 81bf 6228 f6bd
00000040: 5e4e 31bf 1822 703f 5e3c 993f da5d 1ebf
00000050: 2cc4 4ebf e1ba abbe 14cd c7be 882f 2c3f
00000060: 02af 6e3e b1a4 90be c324 7e3f fc8e 44bf
00000070: d884 5f3d 63b8 2f3f ea43 373f 7ccf 2a3e
00000080: 465c 853f ec81 cbbe 7517 eebe 888f 6d3c
00000090: d643 263f 4255 3a3f 530e 0b3f a7d1 373f
000000a0: a8e4 613f 3f33 533f 8cc3 523f fd10 39bf
000000b0: ba32 b6be 6614 be3e b1e2 ddbe 733e 31bf
000000c0: 6683 cd3e 5b97 6bbf 97b5 e6be d32f 9f3e
000000d0: 2076 493f 3c10 b33c 6034 223f 6945 3d3f
000000e0: 24c6 1bbf af8e 0a3f 534e d23e 84b4 47bf
000000f0: 35a1 5c3f c9cf f43e 024e 203f 1a8d 453f

feature_extractor.2.weight f4 [64, 64]
-0.1047439 -0.06506329 -0.09910202 0.10659416 0.09649269 0.05416682 -0.08583847 -0.0046134964
0.124852896 -0.040954776 -0.03655462 0.005880077 0.044811875 0.07825886 -0.048663057 0.046195045
-0.10276219 -0.10474327 -0.104209594 -0.07410523 -0.04662569 -0.12180805 0.11487478 0.006358602
0.029678449 -0.08590824 0.0038432537 0.052229393 0.004645257 0.07737061 -0.0496372 0.082674935
-0.04861249 -0.121653065 0.07590708 -0.080583245 0.078088604 -0.07902183 -0.068612255 -0.10181766
0.09565677 0.031024113 -0.13942857 0.0986361 0.023356184 0.0989739 -0.12174545 0.03173299
-0.12819687 -0.09028731 -0.09194191 0.0246887 -0.11834268 -0.025827572 0.07990958 -0.09910458
-0.070348315 -0.10256035 -0.12046934 0.10216272 0.02976573 -0.083524585 0.11614387 -0.10484849
0.23486078 0.0980508 -0.019770902 -1.2709987 0.010489849 -0.04517321 0.03094681 -0.03529152
-0.090775385 0.17682074 -1.3927125 -1.2031131 0.16300581 0.046869118 -0.1519164 0.07799822
0.08244945 -0.24900664 -0.10494209 -0.09080616 0.043228254 0.06147574 -0.024853945 0.097566344
-0.31644183 -0.62598747 -1.116712 -0.9777743 0.12251267 0.20061664 -0.9846039 0.07839171
-1.2022648 -1.0926716 -1.2279488 -0.018627523 0.18169701 -0.82405156 0.16745111 -0.49457705
-1.0619 -0.9024204 -0.8375081 -1.2836788 -0.03387297 0.1779395 0.085090205 0.059483618
0.17986001 -0.16318244 -0.04248748 -0.9323152 0.3875001 -0.34874824 0.17997687 -0.08507092
0.017849833 -1.0148234 0.003672979 -1.3806229 0.24793808 -0.15003027 0.3233111 0.20961575
-0.03236959 -0.11373587 0.05298884 0.14648706 -0.14908351 0.1821955 0.1066064 -0.050081745
0.39507967 -0.16946277 0.14370215 0.15351297 -0.051579375 0.022895256 0.21179993 0.042094618
-0.029025376 0.18538335 0.31290334 -0.11436829 0.014617552 0.20656024 0.11424017 -0.015444571
0.11070461 -0.106136404 -0.037287712 -0.22907414 0.05186089 -0.064460695 -0.06703747 0.047321558
-0.048348285 -0.030324154 0.13483776 0.365004 -0.15543959 -0.043698188 -0.20110928 0.28657448
-0.018166123 0.107748486 0.1354874 0.08800441 -0.008904354 0.08901906 0.060534045 -0.04762432
-0.0060570077 0.21822414 0.17690155 -0.042316876 -0.10525402 0.042768642 -0.020759277 0.42725915
0.0725187 0.108818814 0.035521016 0.06441479 0.10086981 0.46489492 -0.12838805 -0.049978763
-0.11492267 0.045573995 -0.07204515 0.013852522 0.0052216146 0.05134876 0.10853781 0.053496018
0.003517568 -0.04159309 -0.01732169 0.035837185 -0.091807455 -0.019294547 -0.07462218 0.019807592
0.0062414706 -0.014587037 -0.027029775 0.07228398 -0.11861284 0.036468267 0.124709845 -0.105011925
-0.0701755 0.03945566 0.060111865 0.10639685 5.9459708e-05 -0.043722138 0.039648652 -0.03428689
-0.09849693 0.101991564 -0.13029681 -0.03235063 0.054694083 0.09381664 -0.123888254 -0.04139164
-0.118151665 0.06440687 -0.059020765 0.066049226 0.10432539 -0.08812778 -0.056031406 0.025681704
-0.017901525 -0.09382978 0.024241686 0.003184207 -0.101823084 -0.12869278 0.049908176 0.10143764
-0.09568854 0.03527969 0.019368837 0.057219625 -0.070746936 -0.022701547 0.004960358 0.015096603
00000000: f883 d6bd e73f 85bd 00f6 cabd 0a4e da3d
00000010: f69d c53d 07de 5d3d 14cc afbd d02c 97bb
00000020: e0b2 ff3d 32c0 27bd 4cba 15bd a9ad c03b
00000030: a88c 373d 2e46 a03d ea52 47bd 0437 3d3d
00000040: fc74 d2bd a483 d6bd d76b d5bd 7cc4 97bd
00000050: 94fa 3ebd 8076 f9bd 7843 eb3d d25b d03b
00000060: 3820 f33c a9f0 afbd 19df 7b3b 7dee 553d
00000070: 3d37 983b 7b74 9e3d 6050 4bbd 7a51 a93d
00000080: e41d 47bd 3e25 f9bd 2c75 9b3d d408 a5bd
00000090: ebec 9f3d 32d6 a1bd 9584 8cbd c785 d0bd
000000a0: b2e7 c33d 4826 fe3c 5dc6 0ebe b901 ca3d
000000b0: 7855 bf3c d4b2 ca3d ae55 f9bd 74fa 013d
000000c0: 0a46 03be 8ee8 b8bd 0a4c bcbd f53f ca3c
000000d0: a65d f2bd 5894 d3bc a2a7 a33d 58f7 cabd
000000e0: c712 90bd 290b d2bd a1b8 f6bd b03a d13d
000000f0: 43d7 f33c f00e abbd d6dc ed3d ceba d6bd
00000100: 587f 703e dcce c83d 96f6 a1bc 16b0 a2bf
00000110: 9edd 2b3c 8b07 39bd 2a84 fd3c d78d 10bd
00000120: 72e8 b9bd 7f10 353e 6744 b2bf 9cff 99bf
00000130: ffea 263e d5f9 3f3d f98f 1bbe 88bd 9f3d
00000140: 42db a83d 99fb 7ebe e1eb d6bd 94f8 b9bd
00000150: 1c10 313d fccd 7b3d 809a cbbc ddd0 c73d
00000160: aa04 a2be b740 20bf 6bf0 8ebf 6b4f 7abf
00000170: ece7 fa3d 736e 4d3e 000f 7cbf d58b a03d
00000180: d0e3 99bf aadc 8bbf 6d2d 9dbf bf98 98bc
00000190: c80e 3a3e 0bf5 52bf 4e78 2b3e 3439 fdbe
000001a0: 57ec 87bf 0605 67bf ee66 56bf 964f a4bf
000001b0: 62be 0abd c635 363e c643 ae3d 18a5 733d
000001c0: 392d 383e 4c19 27be 5a07 2ebd 35ac 6ebf
000001d0: 6a66 c63e 218f b2be db4b 383e aa39 aebd
000001e0: d039 923c bce5 81bf 5db6 703b 40b8 b0bf
000001f0: 7be3 7d3e 89a1 19be 0889 a53e 83a5 563e
00000200: fa95 04bd 5aee e8bd d30a 593d b400 163e
00000210: 59a9 18be 7591 3a3e 7554 da3d 8422 4dbd
00000220: e247 ca3e a687 2dbe a826 133e 8132 1d3e
00000230: e544 53bd d58e bb3c 15e2 583e 686b 2c3d
00000240: a0c6 edbc 22d5 3d3e de34 a03e ec39 eabd
00000250: 757e 6f3c 8784 533e c0f6 e93d 3a0b 7dbc
00000260: 19b9 e23d 0b5e d9bd 00bb 18bd 6992 6abe
00000270: 166c 543d f803 84bd f14a 89bd 40d4 413d
00000280: da08 46bd 5c6a f8bc e912 0a3e cee1 ba3e
00000290: 8e2b 1fbe dffc 32bd 97ef 4dbe e4b9 923e
000002a0: 1fd1 94bc 3dab dc3d 36bd 0a3e a83b b43d
000002b0: 91e3 11bc a04f b63d 8cf2 773d b811 43bd
000002c0: dd79 c6bb 2676 5f3e ae25 353e 7654 2dbd
000002d0: 6b8f d7bd 2c2e 2f3d 5c0f aabc b6c1 da3e
000002e0: af84 943d 66dc de3d 7c7e 113d e7eb 833d
000002f0: d594 ce3d b506 ee3e 2878 03be 88b6 4cbd
00000300: 945c ebbd ccab 3a3d 688c 93bd b0f5 623c
00000310: 141a ab3b 1453 523d 1249 de3d a41e 5b3d
00000320: 0087 663b 845d 2abd 38e6 8dbc 03ca 123d
00000330: 8c05 bcbd 990f 9ebc 83d3 98bd 8843 a23c
00000340: 4085 cc3b 78fe 6ebc 8c6d ddbc a009 943d
00000350: 4aeb f2bd c05f 153d e067 ff3d 7e10 d7bd
00000360: 2cb8 8fbd 429c 213d dc37 763d 97e6 d93d
00000370: 6064 7938 fc15 33bd a066 223d 6970 0cbd
00000380: c2b8 c9bd f4e0 d03d 876c 05be 1882 04bd
00000390: e706 603d f022 c03d 20b9 fdbd 488a 29bd
000003a0: 80f9 f1bd c0e7 833d c2bf 71bd d144 873d
000003b0: 8da8 d53d 567c b4bd 3081 65bd 7062 d23c
000003c0: 38a6 92bc d429 c0bd 8096 c63c 21ae 503b
000003d0: 9f88 d0bd 0ac8 03be 846c 4c3d 8abe cf3d
000003e0: 5af8 c3bd 7081 103d 65ab 9e3c 205f 6a3d
000003f0: c5e3 90bd 98f8 b9bc 808a a23b be57 773c

feature_extractor.2.bias f4 [64]
-0.088023946 0.42572564 -0.13902204 -0.020061055 0.458294 -0.081913024 0.081929296 -0.13894723
-0.112495035 -0.0696741 -0.092507556 0.07717998 -0.20234834 0.17322154 -0.11902547 -0.23475097
0.21967259 -0.043015055 -0.15415426 0.25636038 -0.10175151 0.20043953 0.033618506 0.123728566
0.1425543 0.3612826 -0.065765716 0.027080504 -0.101736926 0.06986817 0.11651296 -0.11110331
-0.13226473 -0.14320911 0.19844897 -0.08215017 0.25864592 0.085213415 -0.018945416 0.061805557
-0.0011366773 0.015358535 -0.07646921 -0.07982228 -0.05794535 -0.046298236 0.029302644 0.07782827
0.30381736 0.3095216 0.09832237 -0.10524908 0.10692305 0.104777224 -0.054874215 -0.13202333
0.02261914 0.37372765 0.03416856 0.039581813 -0.45717296 0.20088772 0.0023284212 -0.118587986
00000000: e645 b4bd b6f8 d93e cb5b 0ebe 1557 a4bc
00000010: 83a5 ea3e 04c2 a7bd 8cca a73d 2f48 0ebe
00000020: cc63 e6bd 4bb1 8ebd 9a74 bdbd 8a10 9e3d
00000030: 6734 4fbe fd60 313e a0c3 f3bd 8f62 70be
00000040: daf1 603e 8e30 30bd 9dda 1dbe ab41 833e
00000050: 1863 d0bd 0540 4d3e 8fb3 093d 6765 fd3d
00000060: c1f9 113e 08fa b83e 2db0 86bd efd7 dd3c
00000070: 735b d0bd 0b17 8f3d 599e ee3d 228a e3bd
00000080: 6870 07be 69a5 12be 3536 4b3e 593e a8bd
00000090: 3d6d 843e 5f84 ae3d 6b33 9bbc d327 7d3d
000000a0: 90fc 94ba 5da2 7b3c e49b 9cbd dd79 a3bd
000000b0: 1a58 6dbd 38a3 3dbd 190c f03c 6e64 9f3d
000000c0: f38d 9b3e 9d79 9e3e 3d5d c93d d48c d7bd
000000d0: 79fa da3d 7195 d63d c9c3 60bd 2031 07be
000000e0: c64b b93c 3b59 bf3e 55f4 0b3d 8a20 223d
000000f0: 9312 eabe 83b5 4d3e 6d98 183b 42de f2bd

actor.0.weight f4 [64, 64]
0.091877155 -0.19653784 0.16084509 -0.047393903 -0.6937585 0.07156898 0.19298449 0.12428423
-0.059923694 0.2666559 0.02526913 0.042491585 0.13922878 -0.11942385 0.16949882 0.002533476
-0.04851717 -0.08815379 0.23714544 -0.04218932 0.014781076 -0.223623 0.06368003 -0.027222034
0.05752957 -0.033751294 0.21409304 -0.011351297 0.017126758 0.18638639 0.025352495 0.03282392
0.052665226 0.09749221 -0.1241072 -0.22544457 0.2306067 -0.08803499 0.15834965 0.14992578
0.02973344 0.11383677 0.17963782 0.25815973 -0.11354036 -0.1111971 0.050545502 -0.091289826
0.066908084 -0.18774241 -0.04455527 -0.028544066 0.041900463 0.12756489 0.110396706 -0.069576666
-0.118028045 -0.08366257 -0.036878612 0.049760025 0.16425902 -0.46738884 0.015983196 0.07774559
0.06115862 0.034376863 -0.07623002 0.1067913 0.30902442 0.09187029 -0.012170089 -0.1430925
-0.057583243 -0.06376232 -0.19345096 -0.017851636 -0.18213983 -0.17296804 -0.14041685 -0.03926358
0.056184076 0.097252965 -0.27846506 -0.10198347 0.112471014 0.04971757 -0.22451665 -0.054166842
0.045395475 -0.09487025 -0.39004824 0.11942981 -0.072560236 -0.19123028 -0.13399847 0.11758831
0.099894844 0.038738113 -0.013423517 -0.022915931 -0.30859032 -0.06616999 0.012683923 -0.029910216
0.023446105 0.051950548 -0.07994743 0.0527187 -0.18065956 0.083168834 -0.082441315 0.106120735
-0.14289553 0.12138836 0.07621101 0.1367324 -0.09304941 0.13376796 0.11359094 0.054983683
0.029040596 -0.100465745 -0.040307444 0.121033326 -0.45782557 0.07585684 -0.09672957 -0.018720731
-0.016174648 0.0014860501 0.09817501 0.09120752 0.44860676 0.10804322 0.018133003 -0.10837254
-0.061736867 -0.19239776 0.020106448 -0.047033295 -0.0032505724 -0.18684474 -0.014999348 0.012714767
0.21090159 -0.01487831 -0.033307027 0.06398914 -0.021266043 0.0025838735 -0.0041698883 0.05202469
0.19380093 0.067968614 -0.18215072 0.1522323 -0.007200761 0.027937679 -0.00846767 -0.021630332
-0.06106701 0.20390882 0.21726997 0.011318898 -0.3589497 -0.09947605 0.025186114 -0.20049404
0.0610044 0.19650437 0.019679496 -0.1390001 0.02758133 -0.07622516 0.0958986 0.05529846
-0.052317716 -0.09749699 0.1336411 0.17036594 0.025677456 0.1729574 0.14886752 -0.11736726
0.08973058 0.028083961 -0.05069736 0.12626219 -0.11066804 0.34356776 0.08076474 -0.033533856
0.058822628 0.028388347 -0.056528684 0.015655816 -0.15157895 0.11678607 -0.2503444 -0.1539748
0.107818335 -0.13019893 0.069931716 0.041459277 0.0033356105 -0.6589487 0.05148563 -0.18244672
-0.060328726 -0.35546416 0.2535099 -0.28225145 0.055968612 0.03723662 0.0486503 -0.17176922
0.0015627142 -0.5707984 0.059132904 0.016654585 -0.101535335 -0.05260537 -0.19531737 0.04043594
0.073151946 -0.059274107 -0.48676115 -0.27833718 0.06997968 -0.08408451 -0.13197246 -0.19022061
0.06892402 -0.23269431 0.012504796 -0.17031817 -0.058726344 0.10410166 0.03693317 -0.051493287
-0.2732782 -0.5088606 0.022758953 -0.2531838 -0.3922563 -0.40434158 -0.11099733 0.10212441
-0.043484956 -0.099974066 -0.02955163 -0.39191812 0.12722428 0.004722617 0.009730697 0.06761652
00000000: 172a bc3d 3741 49be 93b4 243e 1c20 42bd
00000010: 289a 31bf c292 923d ba9d 453e bb88 fe3d
00000020: 8c72 75bd 1f87 883e 3501 cf3c a80b 2e3d
00000030: fd91 0e3e 7e94 f4bd 1991 2d3e ad08 263b
00000040: f1b9 46bd f989 b4bd 41d6 723e b5ce 2cbd
00000050: 542c 723c 6dfd 64be ad6a 823d be00 dfbc
00000060: 20a4 6b3d cc3e 0abd 353b 5b3e cafa 39bc
00000070: 6a4d 8c3c 13dc 3e3e 09b0 cf3c 6072 063d
00000080: 7eb7 573d ffa9 c73d ea2b febd f1da 66be
00000090: 2a24 6c3e b04b b4bd 6926 223e 2586 193e
000000a0: 8b93 f33c 4123 e93d faf2 373e 832d 843e
000000b0: d987 e8bd 4ebb e3bd cd08 4f3d 29f6 babd
000000c0: 1b07 893d 8c3f 40be 967f 36bd 3fd5 e9bc
000000d0: d29f 2b3d 5fa0 023e ab17 e23d 367e 8ebd
000000e0: b0b8 f1bd 4857 abbd 070e 17bd 2bd1 4b3d
000000f0: 8433 283e 974d efbe 31ef 823c 1439 9f3d
00000100: 7681 7a3d c1ce 0c3d 7c1e 9cbd 66b5 da3d
00000110: 7338 9e3e 7e26 bc3d 0e65 47bc d786 12be
00000120: 68dc 6bbd d295 82bd 0218 46be 983d 92bc
00000130: dd82 3abe 891e 31be 6fc9 0fbe d9d2 20bd
00000140: 4621 663d 902c c73d f992 8ebe b6dc d0bd
00000150: 3457 e63d a7a4 4b3d b1e7 65be 0dde 5dbd
00000160: 9bf0 393d 554b c2bd 67b4 c7be 9e97 f43d
00000170: 769a 94bd dfd1 43be e536 09be 24d2 f03d
00000180: ab95 cc3d dbab 1e3d 50ee 5bbc 31ba bbbc
00000190: 8dff 9dbe 2284 87bd 3bd0 4f3c 4506 f5bc
000001a0: 0c12 c03c 19ca 543d 7abb a3bd 90ef 573d
000001b0: d2fe 38be 6c54 aa3d fed6 a8bd d455 d93d
000001c0: 3553 12be 769a f83d 8514 9c3d 9403 0c3e
000001d0: b090 bebd 78fa 083e 5ea2 e83d 9236 613d
000001e0: 8be6 ed3c fcc0 cdbd 6b19 25bd 52e0 f73d
000001f0: 1d68 eabe d55a 9b3d 271a c6bd 385c 99bc
00000200: b280 84bc 91c7 c23a fb0f c93d 02cb ba3d
00000210: c9af e53e c445 dd3d aa8b 943c 6cf2 ddbd
00000220: ccdf 7cbd eb03 45be 47b6 a43c fca5 40bd
00000230: 8e07 55bb 3a54 3fbe d3bf 75bc 9951 503c
00000240: 96f6 573e 28c4 73bc f36c 08bd bd0c 833d
00000250: 2036 aebc 3456 293b 8fa3 88bb d717 553d
00000260: c073 463e 2133 8b3d b885 3abe c9e2 1b3e
00000270: 5df4 ebbb 8fdd e43c fbbb 0abc 1832 b1bc
00000280: 6721 7abd 79cd 503e 057c 5e3e e672 393c
00000290: 41c8 b7be 19ba cbbd 1c53 ce3c 4f4e 4dbe
000002a0: c0df 793d 7138 493e e536 a13c 0b56 0ebe
000002b0: 3ef2 e13c f01b 9cbd 7c66 c43d a380 623d
000002c0: 1a4b 56bd 80ac c7bd 36d9 083e 6974 2e3e
000002d0: 8759 d23c bf1b 313e ba70 183e 3f5e f0bd
000002e0: abc4 b73d 5610 e63c 09a8 4fbd e04a 013e
000002f0: eda5 e2bd 1de8 af3e fc67 a53d cc5a 09bd
00000300: ffef 703d ae8e e83c 9f8a 67bd a040 803c
00000310: 8337 1bbe 892d ef3d 242d 80be 92ab 1dbe
00000320: dccf dc3d de52 05be 5c38 8f3d 34d1 293d
00000330: 429a 5a3b ddb0 28bf 99e2 523d 50d3 3abe
00000340: 411b 77bd 66ff b5be 0dcc 813e 4383 90be
00000350: 583f 653d 6d85 183d 8945 473d 45e4 2fbe
00000360: fdd3 cc3a d81f 12bf 5835 723d 326f 883c
00000370: c2f1 cfbd ba78 57bd 4701 48be 28a0 253d
00000380: b0d0 953d 68c9 72bd c238 f9be 3682 8ebe
00000390: 8251 8f3d 8034 acbd ca23 07be 31c9 42be
000003a0: 0928 8d3d 6b47 6ebe eae0 4c3c e367 2ebe
000003b0: 098b 70bd 4033 d53d 3c47 173d a0ea 52bd
000003c0: 1feb 8bbe b044 02bf fc70 ba3c 4fa1 81be
000003d0: d1d5 c8be dc05 cfbe 9152 e3bd 9a26 d13d
000003e0: 481d 32bd 34bf ccbd 4316 f2bc 7ea9 c8be
000003f0: 1547 023e 2fc0 9a3b 806d 1f3c 887a 8a3d

actor.0.bias f4 [64]
-0.21305393 0.11402572 0.056659654 -0.1737416 0.09678705 0.23085365 -0.025141235 0.09592965
-0.13978866 0.07533673 -0.081231065 0.29210007 0.10178899 0.1429781 -0.064761065 -0.10736662
-0.21209335 -0.08827808 -0.0029345837 0.0013413727 -0.06046425 -0.037149258 -0.07749609 -0.10801819
0.040824022 -0.061585445 0.27192554 -0.121178396 -0.12403324 0.21409647 -0.31324998 0.03411395
0.05820879 0.056869533 0.04312128 0.081160784 0.29082933 -0.26376846 0.21619277 -0.07980158
-0.09997048 -0.07275233 -0.10716318 -0.11529176 0.333252 0.02270804 -0.006041207 0.13204037
0.07799559 0.023376986 -0.0072731557 -0.12170277 -0.24879123 -0.0054347645 -0.11619074 0.08415214
0.28017315 0.08027302 -0.11383468 0.2686462 -0.07123135 0.22184132 -0.16563277 -0.031559303
00000000: cf2a 5abe 5186 e93d f413 683d 51e9 31be
00000010: 4a38 c63d e664 6c3e fef4 cdbc c476 c43d
00000020: c224 0fbe 254a 9a3d 795c a6bd 248e 953e
00000030: bf76 d03d da68 123e 73a1 84bd 08e3 dbbd
00000040: 002f 59be 23cb b4bd 2552 40bb 00d1 af3a
00000050: 5da9 77bd d229 18bd 45b6 9ebd a438 ddbd
00000060: 1737 273d 0541 7cbd d339 8b3e 612c f8bd
00000070: 2405 febd 1b3c 5b3e 4d62 a0be 12bb 0b3d
00000080: 576c 6e3d 07f0 683d f09f 303d a037 a63d
00000090: 95e7 943e a90c 87be a361 5d3e 036f a3bd
000000a0: 53bd ccbd 2cff 94bd 5f78 dbbd 161e ecbd
000000b0: 02a0 aa3e 3606 ba3c 51f5 c5bb 9735 073e
000000c0: 27bc 9f3d 1881 bf3c a753 eebb 4d3f f9bd
000000d0: 21c3 7ebe 1c16 b2bb 69f5 edbd f557 ac3d
000000e0: db72 8f3e 2e66 a43d 2822 e9bd ff8b 893e
000000f0: bee1 91bd 5f2a 633e a39b 29be 5444 01bd

actor.2.weight f4 [4, 64]
-0.32444006 -0.15027429 -0.1665275 -0.11760273 -0.04599688 0.028956307 0.0075421548 0.20748371
-0.0055308645 0.24314603 -0.11440835 -0.15342978 0.13959897 -0.0019948992 0.34163132 -0.07863588
-0.24631567 0.11288994 0.12800592 0.15946515 -0.10660479 0.051254526 -0.39391044 -0.03499365
0.1846827 -0.25464955 -0.17844008 -0.24113216 -0.41218242 -0.04569924 -0.036467444 0.29942417
-0.025585335 0.056669597 0.07650695 -0.08982849 -0.07183718 0.01634322 -0.18588543 0.09605573
-0.24615145 0.1561237 -0.08478057 0.0032300255 -0.2460121 -0.017227668 -0.007928453 0.2299677
0.11949669 0.0054610483 -0.24011756 0.12682615 0.045741644 -0.2324351 0.12555653 0.26210532
0.11911074 0.07171423 0.43848017 -0.22692053 0.110200234 -0.005088292 -0.062347468 -0.36287856
0.15757357 -0.10839466 -0.12944263 0.3374837 0.085045606 0.25742018 0.09305081 -0.3179422
0.57332504 -0.06503781 0.049274754 -0.30655953 -0.21388304 0.092459336 0.30364645 0.43368304
0.17730199 -0.12773445 -0.07163532 -0.45166427 0.09566019 -0.09512743 0.08557576 -0.012493178
0.033521965 0.16097473 0.13822171 0.18659489 0.5094211 -0.280135 0.5502236 0.2939516
-0.014050219 -0.05499913 0.047764707 -0.100207895 0.18624514 0.6091973 -0.11526203 -0.098853186
0.1198808 -0.31687015 -0.020722402 0.34264588 -0.091695905 -0.059934072 0.06638752 -0.20116545
0.28159615 -0.37596416 -0.11224488 0.45725092 0.48244876 -0.05445421 0.48287824 -0.23927432
-0.28239655 0.13557966 -0.07341404 0.1616037 -0.0059223203 -0.3965331 0.18177018 -0.071116015
-0.64437634 0.15151624 0.088183485 0.4997147 -0.02422456 0.32111713 0.058817945 -0.22492458
0.09483681 0.5544851 -0.21371992 0.084058985 0.13964128 0.43782103 -0.5280796 -0.2857929
-0.20426807 0.08653383 -0.28824022 -0.25622797 -0.12783132 0.06085018 -0.05118716 -0.102638066
0.034040205 -0.5865644 0.4555708 -0.4013438 0.36852393 0.13567336 -0.50043035 0.03529864
-0.08425126 -0.062372055 -0.07600553 0.114197806 0.33893904 0.07077756 0.06786794 -0.026355112
-0.24637963 -0.3479072 0.087988295 -0.076274775 0.1660755 0.06350368 -0.5229241 -0.17761043
0.29907897 -0.14913106 -0.070154116 0.4741777 0.27265608 -0.2723784 0.02539707 -0.07411715
-0.11362878 -0.11529105 -0.4085931 0.31691474 -0.09200565 0.2672924 -0.35248372 0.0012147505
-0.055547338 0.28242898 0.1696581 -0.4678941 -0.004501116 -0.6882221 -0.085317954 0.3639749
-0.70921457 0.11297684 0.23196179 0.27085444 -0.0030433722 -0.37197182 -0.07872992 -0.25130123
-0.2795345 0.04459522 0.1929251 0.589174 -0.027392587 0.044590145 0.15385321 -0.058320686
0.0011815162 0.045703657 -0.40848234 0.18897061 -0.30091414 0.32705447 -0.38097596 -0.33533588
0.089330755 -0.10908589 -0.03173634 -0.09303812 -0.6159372 -0.423546 0.11768016 0.17618786
0.12326103 0.34831554 -0.06826025 -0.29755735 0.16668966 -0.109242745 0.1639791 0.13381878
-0.8469454 0.4136962 0.15947446 -0.43132174 -0.39125684 0.27470174 -0.44095466 0.14303188
0.21566908 -0.008848723 0.21775675 -0.27903107 0.017041404 0.16925563 0.060934126 0.26826185
00000000: 021d a6be 81e1 19be 2f86 2abe b3d9 f0bd
00000010: 3967 3cbd c735 ed3c 2e24 f73b 9c76 543e
00000020: 413c b5bb 46fb 783e ed4e eabd b21c 1dbe
00000030: 08f3 0e3e dbbc 02bb 4dea ae3e d90b a1bd
00000040: 2d3a 7cbe d732 e73d fc13 033e d54a 233e
00000050: 9d53 dabd 44f0 513d a1ae c9be 8055 0fbd
00000060: 761d 3d3e 6d61 82be ffb8 36be 59eb 76be
00000070: 9309 d3be 202f 3bbd e35e 15bd 204e 993e
00000080: 5698 d1bc 611e 683d adaf 9c3d 00f8 b7bd
00000090: 5f1f 93bd 37e2 853c c058 3ebe deb8 c43d
000000a0: 200f 7cbe e4de 1f3e 6fa1 adbd d6ae 533b
000000b0: 99ea 7bbe 0a21 8dbc 58e6 01bc a77c 6b3e
000000c0: aeba f43d 98f2 b23b 61e1 75be b7de 013e
000000d0: 975b 3b3d 7803 6ebe e491 003e ab32 863e
000000e0: 55f0 f33d e9de 923d 7980 e03e db5d 68be
000000f0: a9b0 e13d b0bb a6bb 0f60 7fbd 38cb b9be
00000100: f75a 213e 05fe ddbd 9c8c 04be aaca ac3e
00000110: 642c ae3d 94cc 833e 6c91 be3d 52c9 a2be
00000120: 6ec5 123f 8b32 85bd 53d4 493d 5ff5 9cbe
00000130: 2804 5bbe 525b bd3d 8c77 9b3e b40b de3e
00000140: a78e 353e d2cc 02be 8ab5 92bd 8a40 e7be
00000150: 7de9 c33d 2cd2 c2bd 5842 af3d 30b0 4cbc
00000160: 544e 093d 8fd6 243e fe89 0d3e bb12 3f3e
00000170: 6c69 023f db6d 8fbe 74db 0c3f d380 963e
00000180: e432 66bc c546 61bd eda4 433d cc39 cdbd
00000190: 0cb7 3e3e 5bf4 1b3f 800e ecbd 8a73 cabd
000001a0: 1184 f53d ce3c a2be 07c2 a9bc 486f af3e
000001b0: 10cb bbbd 6e7d 75bd 2ef6 873d 51fe 4dbe
000001c0: 5f2d 903e 607e c0be a5e0 e5bd cb1c ea3e
000001d0: 8603 f73e 610b 5fbd d13b f73e 5404 75be
000001e0: 4896 90be 65d5 0a3e 1a5a 96bd 717b 253e
000001f0: 0610 c2bb 6306 cbbe f621 3a3e 46a5 91bd
00000200: d9f5 24bf 1327 1b3e 8b99 b43d 9bda ff3e
00000210: 9672 c6bc 7769 a43e 16eb 703d a152 66be
00000220: cd39 c23d bcf2 0d3f 65d9 5abe 1e27 ac3d
00000230: 20fe 0e3e 142a e03e 3a30 07bf 7253 92be
00000240: a62b 51be a638 b13d 3994 93be 5030 83be
00000250: 37e6 02be 0a3e 793d a1a9 51bd e833 d2bd
00000260: be6d 0b3d 1629 16bf 9340 e93e ef7c cdbe
00000270: 2baf bc3e f5ed 0a3e 341c 00bf 4f95 103d
00000280: ed8b acbd d779 7fbd caa8 9bbd 8ae0 e93d
00000290: 6b89 ad3e d3f3 903d 59fe 8a3d ade6 d7bc
000002a0: f14a 7cbe e420 b2be 3533 b43d f335 9cbd
000002b0: b20f 2a3e 380e 823d 5bde 05bf 82df 35be
000002c0: e120 993e d0b5 18be f6ac 8fbd 6bc7 f23e
000002d0: 9499 8b3e 2f75 8bbe 840d d03c bbca 97bd
000002e0: 35b6 e8bd b71d ecbd 1d33 d1be a642 a23e
000002f0: 756d bcbd 8dda 883e bf78 b4be 4338 9f3a
00000300: 9b85 63bd 889a 903e daba 2d3e d18f efbe
00000310: 197e 93bb 532f 30bf 2ebb aebd eb5a ba3e
00000320: 168f 35bf 6760 e73d 6487 6d3e 6fad 8a3e
00000330: 5073 47bb 1773 bebe 273d a1bd 8eaa 80be
00000340: 251f 8fbe 7aa9 363d 288e 453e 1bd4 163f
00000350: 6b66 e0bc 28a4 363d b28b 1d3e ace1 6ebd
00000360: 1bdd 9a3a c233 3b3d 9924 d1be 8381 413e
00000370: 6b11 9abe af73 a73e 480f c3be 25b1 abbe
00000380: 0bf3 b63d 6c68 dfbd f7fd 01bd c58a bebd
00000390: 0fae 1dbf 05db d8be 4c02 f13d 976a 343e
000003a0: 4770 fc3d 6a56 b23e 08cc 8bbd 7059 98be
000003b0: b2b0 2a3e a9ba dfbd 23ea 273e ca07 093e
000003c0: 6ad1 58bf fdcf d33e 464d 233e 34d6 dcbe
000003d0: d152 c8be b5a5 8c3e cfc4 e1be f376 123e
000003e0: 5bd8 5c3e 3cfa 10bc a0fb 5e3e 29dd 8ebe
000003f0: 6a9a 8b3c 5951 2d3e 1096 793d 9e59 893e

actor.2.bias f4 [4]
-0.21136862 -0.23962945 0.21188201 0.1475648
00000000: 0471 58be 6c61 75be 99f7 583e 3a1b 173e

critic.0.weight f4 [64, 64]
-0.027938172 0.759016 -0.06428467 0.0488829 -0.15276618 -0.6653969 0.15455875 -0.774692
0.109809995 -0.16399364 -0.114227965 0.10603206 -1.100151 -0.016229913 -0.20817672 -0.15198554
0.074839205 0.0077407835 -0.13336226 -0.16458707 -0.056806326 0.10487198 0.34090048 0.024578994
-0.06105392 0.051108144 -0.83797985 -0.026077485 -0.045376986 0.040470183 -0.63713676 -0.085199386
-0.00874148 -0.97482723 -0.023251312 0.14476828 -0.49621037 -0.02383028 0.22594684 -0.42206824
-0.032204285 0.070213325 -0.3895737 -0.04870952 -0.061283957 0.07045284 -0.05849398 0.0916407
0.114709616 0.37118107 -0.53485703 -0.09243915 0.1552152 0.09439904 0.17249101 -0.07507239
0.028337281 -0.26756847 -0.10649307 0.13370459 -0.6659586 -0.1682648 -0.10723968 0.048583746
-0.014268754 -0.4692536 0.063001834 -0.07282388 0.09903072 0.1101719 0.019828748 0.0011607932
0.040376127 0.14547397 0.2077512 0.10731977 0.02079889 -0.110942945 0.11887963 0.1464452
-0.0141704595 -0.0006706776 -0.0700664 -0.06385888 -0.08683938 0.02767412 0.105570205 -0.0054649943
0.13811159 0.10523238 -0.013328749 -0.08479376 -0.045240372 0.027153118 0.15175763 -0.020481259
-0.0785039 0.10717081 0.066258766 0.24242397 0.07383979 0.065958835 0.14211436 0.1979482
-0.09645199 0.17210853 -0.03939532 0.25741115 0.04917298 -0.10469282 0.020310717 -0.11146545
0.06404421 0.20697512 -0.03789337 0.012060348 0.04094529 0.00078601995 -0.028120995 -0.094287366
-0.02007378 0.25214446 0.09995014 0.13112608 -0.22915243 -0.18316957 0.11546899 -0.040746912
0.04343855 -0.7009727 0.08032786 0.048568934 0.10381443 0.089995146 -0.037086643 0.18743023
0.08852069 -0.047796015 0.2214245 0.07760608 -0.05155582 -0.0050902227 -0.03341576 0.15500389
0.028039236 0.052449215 -0.1571061 -0.11536229 -0.09891812 0.024586432 0.1844771 0.07340022
0.023881814 0.16046275 -0.31400746 -0.09791485 0.11155634 0.09544061 0.19210361 -0.075560406
-0.04068855 0.14625832 -0.07492302 0.15056261 -0.0069829863 0.084354445 0.15642947 0.2205118
-0.07204822 0.16574255 -0.024778076 0.032026887 0.11682027 -0.05404681 0.04707239 -0.05846288
0.22820574 0.2416688 -0.04659393 -0.18024202 0.098178826 0.061879754 -0.03229004 0.028397951
0.070742026 0.13983214 -0.10538896 0.08196806 -0.20025407 -0.21350868 0.090204544 -0.08754054
-0.056527786 -0.5593508 0.03827914 0.04967949 0.06892807 -0.12414829 0.12554106 0.12148901
0.044760376 0.015489532 0.13897686 0.11667314 0.17398208 -0.065943845 -0.010515651 0.21495157
0.1486235 -0.13442715 -0.20584913 -0.040460046 0.0594747 0.008338009 0.18708009 0.13331391
0.032375142 -0.00562569 0.008337649 -0.05006478 0.046147484 0.15409406 0.2236908 0.11634387
-0.003947858 0.030695856 -0.032934688 0.026637372 0.0063048024 -0.053238384 0.16467857 0.21719529
0.09559264 0.17483309 -0.048477195 0.23218353 -0.06570704 0.061038196 0.15718704 0.039171014
0.17817983 0.007349189 0.08321495 0.07313404 -0.041072402 0.038022228 0.091533646 0.08258939
0.090459675 0.19313669 -0.041403845 -0.054437216 -0.15164621 -0.10192299 -0.08890354 0.1219008
00000000: 98de e4bc df4e 423f aea7 83bd 7039 483d
00000010: bd6e 1cbe 7457 2abf a644 1e3e 3752 46bf
00000020: 10e4 e03d f3ed 27be 5af0 e9bd 5627 d93d
00000030: bfd1 8cbf 98f4 84bc 472c 55be 19a2 1bbe
00000040: 4c45 993d 66a6 fd3b 1e90 08be 8389 28be
00000050: c0ad 68bd 1fc7 d63d 828a ae3e e359 c93c
00000060: ad13 7abd c656 513d d985 56bf 73a0 d5bc
00000070: 38dd 39bd 10c4 253d 651b 23bf 047d aebd
00000080: 6d38 0fbc 478e 79bf 8979 bebc 233e 143e
00000090: 490f febe b837 c3bc 9c5e 673e 5419 d8be
000000a0: a4e8 03bd 01cc 8f3d 3476 c7be a283 47bd
000000b0: e304 7bbd 9449 903d 6297 6fbd 1fae bb3d
000000c0: e0ec ea3d 720b be3e 64ec 08bf bd50 bdbd
000000d0: bcf0 1e3e 4954 c13d 7ca1 303e 8ebf 99bd
000000e0: 9623 e83c bcfe 88be 0a19 dabd dbe9 083e
000000f0: 437c 2abf 9c4d 2cbe 7aa0 dbbd c0ff 463d
00000100: 7ec7 69bc 0242 f0be 1b07 813d b024 95bd
00000110: 9ed0 ca3d cea1 e13d e66f a23c c225 983a
00000120: 7061 253d 21f7 143e bbbc 543e 78ca db3d
00000130: 6f62 aa3c 0e36 e3bd 2a77 f33d bbf5 153e
00000140: 372b 68bc 69d0 2fba f97e 8fbd 72c8 82bd
00000150: d8d8 b1bd d6b4 e23c 3135 d83d b213 b3bb
00000160: 206d 0d3e 1384 d73d d360 5abc 5aa8 adbd
00000170: f84d 39bd 3770 de3c 5a66 1b3e 50c8 a7bc
00000180: a7c6 a0bd 5f7c db3d adb2 873d fd3d 783e
00000190: 5139 973d 6d15 873d 6d86 113e efb2 4a3e
000001a0: 9f88 c5bd 383d 303e fd5c 21bd 65cb 833e
000001b0: 9b69 493d 3069 d6bd a962 a63c ff47 e4bd
000001c0: 9c29 833d 49f1 533e 1436 1bbd c498 453c
000001d0: 40b6 273d e80c 4e3a 005e e6bc bc19 c1bd
000001e0: c571 a4bc 1419 813e a9b2 cc3d ea45 063e
000001f0: efa6 6abe ce90 3bbe 017b ec3d 3ce6 26bd
00000200: 9fec 313d f272 33bf ef82 a43d 38f0 463d
00000210: a99c d43d 604f b83d 2ae8 17bd b6ed 3f3e
00000220: 564a b53d c1c5 43bd 1bbd 623e f0ef 9e3d
00000230: 322c 53bd e2cb a6bb f7de 08bd 57b9 1e3e
00000240: 8ab2 e53c fdd4 563d 6ce0 20be 1043 ecbd
00000250: 9595 cabd 7c69 c93c 91e7 3c3e db52 963d
00000260: cba3 c33c 5950 243e 96c5 a0be 9587 c8bd
00000270: a677 e43d 5e76 c33d cfb6 443e 6abf 9abd
00000280: 09a9 26bd bec4 153e 3e71 99bd 162d 1a3e
00000290: 89d1 e4bb 06c2 ac3d 0c2f 203e d8cd 613e
000002a0: 048e 93bd 6ab8 293e 64fb cabc a02e 033d
000002b0: 773f ef3d 3060 5dbd face 403d c676 6fbd
000002c0: c4ae 693e 0778 773e 47d9 3ebd 5d91 38be
000002d0: fb11 c93d a075 7d3d 9042 04bd d2a2 e83c
000002e0: 32e1 903d 2830 0f3e 2bd6 d7bd dfde a73d
000002f0: 670f 4dbe 05a2 5abe 29bd b83d 7448 b3bd
00000300: ae89 67bd 9d31 0fbf 96ca 1c3d b97c 4b3d
00000310: 292a 8d3d 7541 febd d68d 003e 3bcf f83d
00000320: a856 373d cec7 7d3c f34f 0e3e 54f2 ee3d
00000330: 5c28 323e 910d 87bd d649 2cbc 441c 5c3e
00000340: c230 183e 45a7 09be 1dca 52be 6fb9 25bd
00000350: be9b 733d 259c 083c ec91 3f3e 7183 083e
00000360: cc9b 043d b557 b8bb a29a 083c ba10 4dbd
00000370: 2505 3d3d d5ca 1d3e 330f 653e b245 ee3d
00000380: 085d 81bb e075 fb3c 86e6 06bd 9e36 da3c
00000390: 8498 ce3b 7e10 5abd 80a1 283e 7168 5e3e
000003a0: 13c6 c33d 7207 333e 0690 46bd 85c1 6d3e
000003b0: 6a91 86bd 3003 7a3d a4f5 203e c971 203d
000003c0: c674 363e 77d1 f03b 9a6c aa3d 4dc7 953d
000003d0: 893b 28bd 32bd 1b3d fe75 bb3d a024 a93d
000003e0: ec42 b93d a0c5 453e 1497 29bd 8ff9 5ebd
000003f0: 2549 1bbe 00bd d0bd 0f13 b6bd 20a7 f93d

critic.0.bias f4 [64]
0.29951003 0.21979539 0.05860699 0.0078051877 0.29106787 0.1569809 0.15823759 0.104717836
0.17531843 -0.2695557 0.20718673 0.21817558 -0.097935796 -0.085368715 0.03283725 0.30975777
-0.16201942 -0.29467607 0.17976312 0.24108666 0.08142552 0.08330779 0.20982245 0.022260018
0.0135237025 0.043197896 0.1139048 0.022280294 -0.0043940227 0.1366647 0.004755379 -0.2185367
0.20411706 0.33852988 0.07087675 0.1952686 -0.12720561 0.055998303 0.077663 -0.2325381
-0.08842588 -0.2573919 -0.13821068 -0.12922937 0.027864516 -0.09866897 0.12496993 0.12797745
0.14536065 -0.18968403 0.2002639 0.062432773 0.18389104 -0.12487776 0.10089846 0.5112138
0.07003051 0.13138829 0.0734804 0.05122756 0.22811738 0.21337989 0.074533544 -0.056531277
00000000: 6159 993e 0b12 613e e20d 703d a9c2 ff3b
00000010: d906 953e 9abf 203e 0909 223e 4e76 d63d
00000020: ad86 333e 3403 8abe c228 543e 6b69 5f3e
00000030: 9092 c8bd cbd5 aebd 5a80 063d 9298 9e3e
00000040: 6be8 25be c8df 96be d313 383e 6cdf 763e
00000050: 6cc2 a63d 469d aa3d b2db 563e a45a b63c
00000060: 8592 5d3c 47f0 303d eb46 e93d 2a85 b63c
00000070: bcfb 8fbb d5f1 0b3e 03d3 9b3b 16c8 5fbe
00000080: 1004 513e ca53 ad3e d427 913d 7ef4 473e
00000090: 3042 02be 7a5e 653d c70d 9f3d 781e 6ebe
000000a0: a118 b5bd dfc8 83be 1a87 0dbe b454 04be
000000b0: 2044 e43c f512 cabd 3cf0 ff3d 850c 033e
000000c0: 6cd9 143e 883c 42be fb11 4d3e 82b9 7f3d
000000d0: ef4d 3c3e e9bf ffbd daa3 ce3d e8de 023f
000000e0: 286c 8f3d a78a 063e e47c 963d fdd3 513d
000000f0: 9a97 693e 4280 5a3e 0ba5 983d 578d 67bd

critic.2.weight f4 [1, 64]
-0.6540379 0.14070356 0.13038394 0.19154859 0.16279313 -0.33511543 0.028663842 0.16376226
-0.2979391 -0.53946155 0.067850836 0.094804294 0.1227635 -0.1446386 0.09174842 -0.62708855
-0.3800167 -0.15654899 -0.41781947 0.20745893 0.06640342 -0.025838718 0.16095594 0.19481654
-0.000784538 -0.32733548 -0.37548766 0.1366613 0.16435298 0.07827717 0.22405453 -0.27602312
0.059200797 0.2842839 0.12042964 -0.42300916 -0.028623862 0.11924549 0.06558875 -0.22340257
-0.10950093 -0.110934004 -0.09593903 -0.18534893 0.097292006 0.065099485 -0.06223306 0.22845256
-0.18058842 -0.29521617 0.19791779 0.17253055 0.11830358 -0.061601568 0.123824626 -0.6234989
-0.02197493 0.18067485 -0.031763446 0.09546341 0.1334231 0.17889151 -0.0070132497 -0.096123666
00000000: 076f 27bf 9814 103e 5e83 053e 5025 443e
00000010: 3eb3 263e 4094 abbe 6fd0 ea3c 4bb1 273e
00000020: 798b 98be 271a 0abf 61f5 8a3d c128 c23d
00000030: 6e6b fb3d 241c 14be 98e6 bb3d e088 20bf
00000040: 8d91 c2be 614e 20be 6fec d5be 1d70 543e
00000050: 84fe 873d b8ab d3bc a2d1 243e fd7d 473e
00000060: 74a9 4dba 8498 a7be eb3f c0be f1f0 0b3e
00000070: 264c 283e c84f a03d 8d6e 653e e752 8dbe
00000080: 897c 723d a98d 913e d1a3 f63d a894 d8be
00000090: 977c eabc fb36 f43d 6553 863d a5c3 64be
000000a0: 0642 e0bd 5e31 e3bd af7b c4bd 1ccc 3dbe
000000b0: 0841 c73d e152 853d 18e8 7ebd 78ef 693e
000000c0: 2cec 38be 9326 97be f6aa 4a3e d9ab 303e
000000d0: 2649 f23d ed51 7cbd c497 fd3d a09d 1fbf
000000e0: c504 b4bc d402 393e 631a 02bd 5282 c33d
000000f0: 11a0 083e 562f 373e 67cf e5bb 7cdc c4bd

exp_avg f4 [64, 2]
0.001492031 0.0009941778 0.002987527 0.0021098542 0.0013450058 0.00083388435 0.0027064143 0.0019953395
0.0019114638 0.0016967506 -0.00026224327 -0.0013473906 0.0017252725 0.0005605675 0.0021169342 0.0014411071
2.0890418e-05 -8.681912e-06 -0.00020455012 -0.00021093796 0.006023097 0.005928791 0.00013701672 -0.00012276122
-7.468089e-07 0.00011019107 0.003645663 0.0026439573 1.0894224e-05 0.00020734771 0.0 0.0
0.0 0.0 -0.00060916744 8.69033e-06 -0.0010935777 -0.00010017996 0.0 0.0
-0.00051129726 -0.0020709594 -8.982703e-06 -0.0013603498 0.0 0.0 0.0008230348 0.00057691225
-0.0006386919 -0.000701566 0.00054775533 0.0012334374 -5.9345257e-05 0.000871429 -0.00318687 -0.0011716174
0.001671329 0.0009400018 -0.0005384158 -0.0010358515 0.00017907856 0.00083773665 -0.0009909269 -0.0008740807
-0.00023129863 -0.00042605927 0.004259266 0.004156922 0.000100018486 0.00041346485 -1.1552648e-05 -0.0012159977
-0.0011117118 -0.0015104548 9.2890215e-05 0.0007074972 0.0052186 0.004297406 0.004174801 0.0034406183
0.0002691742 0.0013150858 0.00025576566 0.0010577223 0.00073229684 0.00083442574 0.0066575045 0.0068009337
-0.0013726198 0.00019589925 -0.00050615735 -0.00030894484 0.0 0.0 0.0 0.0
0.0005489909 -0.00022971845 0.00043636622 -0.0004634998 -0.0007999538 -0.0005396628 0.0036888656 0.0029697518
-0.0013797978 -0.0017947102 0.000267349 0.00012757654 0.0019614294 0.0015126291 1.6079535e-05 -0.0007300983
0.0016392943 0.0003360065 -0.0003458563 1.4611904e-05 0.0023715491 0.0017129047 0.0047545177 0.0042714006
0.0038515346 0.0027816622 -6e-45 -0.0007757802 -0.0021076354 -0.0018090657 0.003422698 0.0026464225
00000000: 4190 c33a 124f 823a 63ca 433b 7b45 0a3b
00000010: e84a b03a 0899 5a3a 195e 313b 3ec4 023b
00000020: 158a fa3a 8165 de3a b27d 89b9 ed9a b0ba
00000030: 8a22 e23a 0cf3 123a 43bc 0a3b 88e3 bc3a
00000040: d53d af37 87a8 11b7 817c 56b9 3a2f 5db9
00000050: 665d c53b 4e46 c23b 25ac 0f39 77b9 00b9
00000060: 5178 48b5 6116 e738 13ec 6e3b 3e46 2d3b
00000070: 56c6 3637 7a6b 5939 0000 0000 0000 0000
00000080: 0000 0000 0000 0000 89b0 1fba afcc 1137
00000090: 6156 8fba b517 d2b8 0000 0000 0000 0000
000000a0: 9408 06ba efb8 07bb 6ab4 16b7 c44d b2ba
000000b0: 0000 0000 0000 0000 eec0 573a ed3b 173a
000000c0: e36d 27ba 4ce9 37ba 3d97 0f3a 4bab a13a
000000d0: 7ce9 78b8 9c70 643a ceda 50bb f590 99ba
000000e0: 7f10 db3a 746a 763a 7924 0dba 69c5 87ba
000000f0: 09c7 3b39 8e9b 5b3a fde1 81ba 9022 65ba
00000100: c188 72b9 b560 dfb9 5091 8b3b ca36 883b
00000110: 04c1 d138 50c6 d839 3fd2 41b7 1d62 9fba
00000120: dcb6 91ba 74fa c5ba 0ece c238 5577 393a
00000130: ca00 ab3b 41d1 8c3b c5cc 883b ff7b 613b
00000140: f31f 8d39 f55e ac3a 4918 8639 45a3 8a3a
00000150: 9cf7 3f3a 5dbd 5a3a 3227 da3b 5eda de3b
00000160: 7ae9 b3ba 4e6a 4d39 a5af 04ba e0f9 a1b9
00000170: 0000 0000 0000 0000 0000 0000 0000 0000
00000180: 28ea 0f3a 94e0 70b9 15c8 e439 e401 f3b9
00000190: feb3 51ba 2878 0dba e5c0 713b 2ba0 423b
000001a0: 55da b4ba 7b3c ebba fa2a 8c39 11c6 0539
000001b0: 538b 003b 6943 c63a 8ae2 8637 1164 3fba
000001c0: 97dd d63a 072a b039 0c54 b5b9 a625 7537
000001d0: fe6b 1b3b 8b83 e03a c9cb 9b3b 1bf7 8b3b
000001e0: 076a 7c3b 8c4c 363b 0400 0080 ba5d 4bba
000001f0: 4120 0abb 2c1e edba 584f 603b 9a6f 2d3b

exp_avg_sq f4 [64, 2]
0.0003605402 0.0003711451 0.0004828492 0.00050826976 0.000115255054 0.000113755166 0.006780059 0.007080867
0.00012897982 0.0002339297 0.00046493585 0.0005889222 0.0002215284 0.0001508585 0.00014197858 0.00019403195
7.565759e-06 1.6835422e-05 0.00015482467 2.039225e-05 0.008984107 0.009067181 0.00019814722 0.0001131202
1.1057157e-06 2.9301606e-05 0.0006066002 0.0004901842 0.0005668286 0.0003968704 0.0 0.0
0.0 0.0 0.000117644464 4.159702e-06 0.00044466046 2.8256185e-05 0.0 0.0
0.0001055974 0.002056277 7.453771e-05 0.0021121583 0.0 0.0 0.0002619013 0.00022985938
6.694186e-05 0.00038968396 0.000373544 0.00020740692 0.0002501629 0.002166899 0.0024326593 0.0014041362
0.0002270543 0.0001468099 0.00039523895 0.00031149763 7.6655146e-05 0.00048462083 9.63831e-05 8.18595e-05
0.00045315945 9.5604264e-05 0.005021301 0.0050470494 0.00073893 0.00025165323 6.037819e-05 0.0016089061
0.0005291875 0.0003877732 7.270081e-05 0.0004551592 0.0013890285 0.0017466972 0.0038376001 0.0036978512
0.00016147147 0.0012975928 0.0001241194 0.0008719742 0.00029816641 0.0006208521 0.0049520964 0.0043533924
0.0023727855 0.00017930295 0.0003241079 0.00038950937 0.0 0.0 0.0 0.0
0.00026557746 0.00020767468 0.00052810035 0.0005732693 0.0003264218 0.00023928081 0.0009212887 0.0008445663
0.0010610919 0.00092793774 1.9157378e-05 4.6810856e-06 0.0008770979 0.0008281688 5.4480006e-06 0.0002767754
0.00027425896 0.0002206904 8.039881e-05 5.3677686e-06 0.00029304405 0.00027420433 0.008635483 0.0088456
0.00074118795 0.00094326405 3.5545374e-17 0.00024514878 0.0009886876 0.0010598644 0.00046899935 0.00064376945
00000000: e306 bd39 4196 c239 ec26 fd39 683d 053a
00000010: 16b5 f138 d78f ee38 422b de3b 9e06 e83b
00000020: c23e 0739 074b 7539 a2c2 f339 e661 1a3a
00000030: 144a 6839 c52f 1e39 16e0 1439 0e75 4b39
00000040: 60dd fd36 cb39 8d37 6e58 2239 0610 ab37
00000050: 1332 133c 838e 143c bdc5 4f39 f23a ed38
00000060: 1a68 9435 b8cc f537 4004 1f3a b47f 003a
00000070: 3997 143a 0b13 d039 0000 0000 0000 0000
00000080: 0000 0000 0000 0000 e4b7 f638 9193 8b36
00000090: 5121 e939 b207 ed37 0000 0000 0000 0000
000000a0: 2c74 dd38 9ac2 063b 2151 9c38 236c 0a3b
000000b0: 0000 0000 0000 0000 cc4f 8939 6806 7139
000000c0: 2363 8c38 7f4e cc39 3ad8 c339 5f7b 5939
000000d0: 4c28 8339 8802 0e3b 406d 1f3b fe0a b83a
000000e0: 6d15 6e39 fcf0 1939 1338 cf39 8150 a339
000000f0: ebc1 a038 b514 fe39 4821 ca38 fcab ab38
00000100: 0896 ed39 267f c838 ba89 a43b b861 a53b
00000110: c1b4 413a 53f0 8339 963e 7d38 eee1 d23a
00000120: 2cb9 0a3a 0a4e cb39 f376 9838 6fa2 ee39
00000130: 1010 b63a 6ff1 e43a 3f80 7b3b a657 723b
00000140: ab50 2939 fd13 aa3a 0c26 0239 3395 643a
00000150: 3853 9c39 aec0 223a 3245 a23b e7a6 8e3b
00000160: bc80 1b3b 4503 3c39 07ed a939 1037 cc39
00000170: 0000 0000 0000 0000 0000 0000 0000 0000
00000180: 343d 8b39 3fc3 5939 3770 0a3a 7447 163a
00000190: 9823 ab39 74e7 7a39 a382 713a e365 5d3a
000001a0: 5614 8b3a d940 733a 28b4 a037 3812 9d36
000001b0: 0bed 653a 7819 593a f8cd b636 2a1c 9139
000001c0: 6aca 8f39 2169 6739 c89b a838 c81c b436
000001d0: b5a3 9939 15c3 8f39 d77b 0d3c 23ed 103c
000001e0: 484c 423a 6145 773a 92ec 2324 5087 8039
000001f0: da96 813a 26eb 8a3a 07e4 f539 a3c2 283a

exp_avg f4 [64]
0.00030128632 0.00060011743 0.00023177367 0.0008727258 0.00046334538 -0.00020917287 0.00028584522 0.000398732
1.4965307e-05 -1.8523726e-05 0.0018122424 1.3423945e-05 2.585291e-05 0.0008114303 -1.1420088e-05 0.0
0.0 -0.00013350791 -0.00023252223 0.0 -0.0004257043 -0.00035816166 0.0 0.00014841076
-7.862541e-05 0.0002754424 0.00021438052 -0.0005480958 0.00025526507 -0.00025543116 0.00016289721 -0.00028200637
-2.151493e-05 0.0013139489 -1.1311906e-05 -0.00031084925 -0.00037699257 0.00015284163 0.001243808 0.001328414
0.0002602761 0.00020316575 0.00037296876 0.0019786013 -0.00029906473 -0.00019422772 0.0 0.0
-1.2181326e-05 6.0060407e-05 -0.00022395547 0.0010574296 -0.00047044788 4.7154823e-05 0.00041774253 -0.00017216704
0.00023954801 -6.918333e-05 0.00048262603 0.0014479634 0.00073850487 -0.00021309624 -0.0005328531 0.0007070994
00000000: f7f5 9d39 3351 1d3a 4508 7339 a3c7 643a
00000010: 2aed f239 6a55 5bb9 7fdd 9539 e70c d139
00000020: 8113 7b37 6663 9bb7 c488 ed3a 6837 6137
00000030: b4de d837 2ab6 543a e898 3fb7 0000 0000
00000040: 0000 0000 42fe 0bb9 36d1 73b9 0000 0000
00000050: 1031 dfb9 a5c7 bbb9 0000 0000 b69e 1b39
00000060: b2e3 a4b8 4169 9039 55cb 6039 16ae 0fba
00000070: 19d5 8539 64eb 85b9 63cf 2a39 41da 93b9
00000080: f67a b4b7 cf38 ac3a 44c8 3db7 7bf9 a2b9
00000090: 16a7 c5b9 1d44 2039 4507 a33a 2d1e ae3a
000000a0: ab75 8839 e408 5539 058b c339 6cab 013b
000000b0: cacb 9cb9 9ba9 4bb9 0000 0000 0000 0000
000000c0: 665e 4cb7 5fe9 7b38 97d5 6ab9 7399 8a3a
000000d0: 72a6 f6b9 1bc8 4538 7404 db39 bd87 34b9
000000e0: 2e2f 7b39 8416 91b8 f808 fd39 97c9 bd3a
000000f0: 3998 413a 9672 5fb9 2baf 0bba a35c 393a

exp_avg_sq f4 [64]
2.9182522e-05 3.329735e-05 9.393338e-06 0.0007372615 1.51503855e-05 4.0844923e-05 1.1978765e-05 1.3648782e-05
8.024555e-06 8.651472e-06 0.0009969608 2.3143388e-05 1.8015438e-06 4.002959e-05 4.396386e-05 0.0
0.0 1.4918573e-05 3.8179933e-05 0.0 9.355012e-05 0.00010179565 0.0 1.9270501e-05
1.8467457e-05 2.0447074e-05 0.00013224088 0.00014546496 1.6179529e-05 3.7449638e-05 3.3841538e-05 9.766369e-06
3.338287e-05 0.00055540726 3.2210082e-05 7.815737e-05 4.681579e-05 3.0474273e-05 0.000115446164 0.00042174163
7.895574e-05 5.5418303e-05 7.4983356e-05 0.0004892818 0.00012575118 3.457603e-05 0.0 0.0
2.4681944e-05 4.0435567e-05 2.8722661e-05 0.00010056823 0.00010928823 1.1873592e-06 5.9815786e-05 2.1790971e-05
1.7585353e-05 6.5286695e-06 1.8237195e-05 0.00096227316 5.7190835e-05 1.7543498e-05 0.00010877425 3.5942932e-05
00000000: fdcc f437 c2a8 0b38 1498 1d37 c844 413a
00000010: 692e 7e37 e750 2b38 67f8 4837 13fd 6437
00000020: 34a1 0637 ca25 1137 74ac 823a 0c24 c237
00000030: 93cc f135 72e5 2738 d665 3838 0000 0000
00000040: 0000 0000 c84a 7a37 6423 2038 0000 0000
00000050: 5730 c438 207b d538 0000 0000 16a7 a137
00000060: 90ea 9a37 c285 ab37 24aa 0a39 f487 1839
00000070: 46b9 8737 3e13 1d38 13f1 0d38 3cda 2337
00000080: 9504 0c38 c098 113a 5019 0738 6be8 a338
00000090: 125c 4438 01a3 ff37 b01b f238 341d dd39
000000a0: 0a95 a538 f370 6838 6240 9d38 2543 003a
000000b0: 13dc 0339 bb05 1138 0000 0000 0000 0000
000000c0: 120c cf37 5c99 2938 72f1 f037 28e8 d238
000000d0: ac31 e538 5a5d 9f35 b6e2 7a38 c1cb b637
000000e0: 4284 9337 d810 db36 14fc 9837 0f41 7c3a
000000f0: 31e0 6f38 602a 9337 bb1d e438 6ec1 1638
