models/episodes_3000/team_goal_top_right/PPOAgent/model.pt (torch, 168423 bytes, 33 tensors)

feature_extractor.0.weight f4 [64, 2]
-0.022512559 0.030633075 -0.008609956 -0.025038008 0.7415855 0.3953301 -0.081459574 -0.1335938
-0.14226323 -0.7324814 0.026987975 -0.101330884 -0.12772572 -0.32172906 -0.36739674 -0.32068685
0.07764787 -0.17944668 -0.039568305 -0.6554188 -0.12730354 -0.25864276 0.09879423 -0.14209893
0.4037064 -0.13755693 -0.09722174 0.02880971 -0.016381454 -0.063521825 -0.33800727 0.41324973
-0.12746546 0.17889732 -0.11839909 -0.4848951 -0.099388644 0.45810735 0.04884174 0.5592531
-0.21063511 -0.5132306 0.32611117 -0.035173263 0.54276836 -0.28045586 -0.7092707 0.59921396
-0.31828263 0.04271257 -0.52653515 -0.40138155 0.2715911 -0.869469 -0.66306216 -0.31928438
0.24609183 0.24871667 -0.27496743 0.12162139 0.14252736 0.36609474 -0.6648863 0.5136822
-0.5154493 -0.4678521 -0.6133049 -0.11132769 0.19846797 0.46868175 0.12827913 0.53245187
0.46228707 0.19950864 -0.5421566 -0.09731859 0.04583686 -0.10770788 0.29963997 0.4917746
-0.5340782 0.10824505 -0.6033626 -0.10743775 0.28160003 -0.17006433 -0.239254 -0.13714567
0.43998146 -0.2438499 -0.52703404 0.37983078 -0.5289488 -0.63150954 -0.39839393 -0.4028491
-0.09227235 -0.22149795 -0.74167657 0.164777 0.16055445 -0.09023411 0.6538168 -0.04633821
0.5904972 -0.48325863 -0.15528922 -0.18018663 -0.12257458 -0.653781 -0.5225952 0.40802452
-0.4576581 0.28450525 0.055482764 0.043535102 -0.57280463 -0.2321757 0.58699894 -0.41670716
0.46000376 0.42808345 -0.041167185 -0.24279678 -0.1628749 0.06922179 0.13028872 -0.49980932
00000000: 426c b8bc 37f2 fa3c c610 0dbc 821c cdbc
00000010: 8cd8 3d3f b568 ca3e 47d4 a6bd d0cc 08be
00000020: 74ad 11be e783 3bbf e315 dd3c 9186 cfbd
00000030: 88ca 02be acb9 a4be 6d1b bcbe 1131 a4be
00000040: d905 9f3d dfc0 37be 6012 22bd 87c9 27bf
00000050: dc5b 02be d36c 84be a154 ca3d 6282 11be
00000060: 9bb2 ce3e b9db 0cbe 311c c7bd 5702 ec3c
00000070: 6632 86bc bb17 82bd 4a0f adbe 7895 d33e
00000080: 4e86 02be dc30 373e 397b f2bd 2c44 f8be
00000090: 468c cbbd 0c8d ea3e 470e 483d 362b 0f3f
000000a0: bbb0 57be 1563 03bf 0bf8 a63e d711 10bd
000000b0: def2 0a3f e997 8fbe c492 35bf 1666 193f
000000c0: f1f5 a2be 60f3 2e3d 02cb 06bf e281 cdbe
000000d0: fd0d 8b3e 8595 5ebf 71be 29bf 3e79 a3be
000000e0: 7fff 7b3e 95af 7e3e 88c8 8cbe a314 f93d
000000f0: b1f2 113e c570 bb3e fd35 2abf ad80 033f
00000100: 7cf4 03bf 4f8a efbe 8d01 1dbf c6ff e3bd
00000110: 303b 4b3e 0ef7 ef3e 9b5b 033e c44e 083f
00000120: e4b0 ec3e fe4b 4c3e c6ca 0abf f84e c7bd
00000130: 6ebf 3b3d f395 dcbd 696a 993e e1c9 fb3e
00000140: 59b9 08bf 95af dd3d f975 1abf 5308 dcbd
00000150: e12d 903e 5825 2ebe 00ff 74be ea6f 0cbe
00000160: 4045 e13e cab3 79be b4eb 06bf 2e79 c23e
00000170: 3069 07bf 9caa 21bf 4afa cbbe 3d42 cebe
00000180: 49f9 bcbd 5cd0 62be 84de 3dbf 4dbb 283e
00000190: 6368 243e a9cc b8bd 8a60 273f 23cd 3dbd
000001a0: d32a 173f ad6d f7be 2304 1fbe d882 38be
000001b0: 6208 fbbd 315e 27bf cdc8 05bf 97e8 d03e
000001c0: 2a52 eabe acaa 913e e541 633d dd51 323d
000001d0: 53a3 12bf 77bf 6dbe 9045 163f a45a d5be
000001e0: 9d85 eb3e c12d db3e ec9e 28bd b89f 78be
000001f0: aec8 26be 27c4 8d3d 686a 053e 02e7 ffbe

feature_extractor.0.bias f4 [64]
0.90063995 0.26229984 -0.5895377 -0.1826002 0.7001871 -0.24509741 -0.0007905026 0.62903345
0.5663637 -0.34731716 0.2389966 0.30322248 0.69732195 0.5671697 0.5467874 0.3137416
0.5559294 -0.62143487 0.47875318 0.8599719 -0.6560196 -0.08957469 0.53670657 -0.04656541
-0.2620002 -0.33579996 -0.46640396 -0.42303163 0.5252693 0.24791425 -0.15584669 -0.6630088
0.18101297 -0.0045398055 0.55362654 -0.5020976 0.6124447 -0.03881025 0.8655878 0.37883976
-0.6704937 0.710949 -0.044422466 -0.040141754 -0.24548589 -0.18500859 -0.45101756 -0.103153735
-0.20499198 0.16661766 -0.055644084 0.1226688 0.39671677 -0.6861238 -0.5345388 -0.40317908
-0.34830967 0.511935 -0.6957304 0.267641 -0.8125792 -0.621813 0.8887092 0.7839412
00000000: 5790 663f 2a4c 863e f1eb 16bf 8cfb 3abe
00000010: 763f 333f d1fa 7abe bb39 4fba 5608 213f
00000020: 36fd 103f 8ed3 b1be 86bb 743e fa3f 9b3e
00000030: b183 323f 0932 113f 42fa 0b3f bda2 a03e
00000040: 6451 0e3f 5b16 1fbf 231f f53e 1e27 5c3f
00000050: e7f0 27bf ef72 b7bd 9a65 093f 5fbb 3ebd
00000060: e424 86be f9ed abbe 80cc eebe 9a97 d8be
00000070: 0d78 063f 3cdd 7d3e 4696 1fbe f2ba 29bf
00000080: 775b 393e a6c2 94bb 78ba 0d3f 7889 00bf
00000090: 2dc9 1c3f 7ff7 1ebd 2997 5d3f 49f7 c13e
000000a0: 7aa5 2bbf c100 363f 55f4 35bd ae6b 24bd
000000b0: a760 7bbe e472 3dbe c6eb e6be 4442 d3bd
000000c0: 6be9 51be d29d 2a3e 0deb 63bd c839 fb3d
000000d0: 761e cb3e cfa5 2fbf 89d7 08bf 7d6d cebe
000000e0: a555 b2be 2c0e 033f 631b 32bf 3e08 893e
000000f0: 3105 50bf 232f 1fbf 7282 633f 5fb0 483f

feature_extractor.2.weight f4 [64, 64]
0.2364584 0.2701993 -0.15147267 0.103486046 -0.067564055 0.10974468 -0.0069085024 -0.04343492
0.13835993 0.09621294 -0.0110969925 0.17730168 -0.03798808 0.3734617 0.19196697 0.11553045
0.10348202 -0.0918314 0.1035851 0.17211384 -0.107861936 0.086970486 0.022097198 -0.051676624
0.047003787 0.08864632 0.17534526 0.012983069 0.12860233 0.09298085 -0.079026826 -0.0975844
0.059187073 0.097231984 -0.0086433375 -0.04621497 0.027374845 -0.02489537 0.1673809 -0.010445712
-0.019125676 0.017637726 -0.0063252854 0.10766439 -0.14546877 -0.08987049 -0.0010355711 -0.07510707
-0.03460194 -0.09531859 -0.07196573 -0.10834287 -0.065495834 -0.107999995 0.049663827 0.030749727
-0.061941896 0.11087381 0.067892835 -0.009438141 -0.08111342 0.009584829 0.3226478 0.26419908
0.119903594 -0.077251986 0.09374501 0.05728458 -0.12376307 -0.069936484 0.044661447 0.03400165
0.058084562 0.0527346 0.07068865 0.072195694 -0.07645294 0.12254432 0.0841824 -0.09294671
-0.0040507764 -0.104135066 -0.088079765 -0.0065910816 -0.123232916 -0.017607749 -0.040353224 -0.056505173
0.023164913 -0.09510331 0.11314921 -0.056591928 -0.12252502 0.010994166 0.0045320094 0.018366382
-0.015777305 0.100702286 0.020359501 -0.0052811205 0.048623353 -0.0021890104 -0.10959791 0.09814413
-0.1059933 0.032347485 0.056373954 0.072867095 -0.044984773 -0.029762805 0.08253361 0.08399966
5.2511692e-05 -0.10774773 -0.033761054 -0.072282225 0.087644204 -0.116873056 -0.06310286 0.100009665
-0.013704777 -0.10645521 -0.044023007 -0.09271668 -0.11401744 0.10794972 0.06171246 -0.08948161
-0.07467292 -0.10490982 -0.07515081 0.11566214 -0.0046711066 -0.12459417 0.016710369 0.11912425
0.015950056 0.060277715 0.0069725704 -0.06997526 -0.1167156 0.07120685 0.04884447 0.07373943
0.15110604 0.023813054 -0.025627522 -0.059925497 -0.07480867 -0.12887971 -0.10793758 -0.07556499
-0.0035859426 0.046729922 -0.07652773 0.03675984 0.022979854 0.018562956 0.052175365 -0.104245216
0.14440668 -0.04919444 0.09341962 0.013544094 -0.063196264 -0.037367433 -0.089426816 -0.1270589
0.049957402 0.105410345 -0.17537297 0.07848121 0.0046117133 -0.037703026 -0.08402543 -0.12422043
-0.08392914 0.13865575 0.0022129565 -0.008608733 0.031139899 0.002462536 0.114081144 0.08079433
-0.0064740987 -0.12553951 0.015445322 -0.13873306 -0.07060071 0.12432402 0.10009257 -0.017527567
0.017100006 0.036926374 -0.09750283 0.117949575 -0.10123679 -0.11124022 -0.09274422 -0.08608465
-0.04683362 0.06960747 0.042991847 -0.07632388 -0.027314693 0.04407096 0.06906997 0.10027921
-0.043337107 -0.10744208 -0.09854731 0.07026103 0.064416006 0.0887339 -0.06951156 -0.07730478
0.087735176 -0.0971535 0.05216694 0.05399649 -0.010349289 0.01469399 0.09140472 0.09948945
-0.08361131 -0.05971831 0.039992243 -0.05754246 -0.046091735 -0.034588754 0.021042481 -0.11714123
-0.07187365 0.097034425 0.07542099 -0.01806137 0.08838983 -0.108517125 -0.050208047 0.08318637
0.08147767 -0.046313867 0.06075126 -0.0066283494 0.114523426 0.03573571 0.056351468 0.08817367
-0.017451823 -0.023623183 0.047425076 -0.09640348 0.09769517 -0.12063292 -0.046485588 0.062471136
00000000: 2722 723e 9057 8a3e a71b 1bbe 7ef0 d33d
00000010: 065f 8abd d2c1 e03d b860 e2bb d1e8 31bd
00000020: 3aae 0d3e 4a0b c53d 29d0 35bc 928e 353e
00000030: 6499 1bbd 5f36 bf3e fd92 443e 3b9b ec3d
00000040: 62ee d33d 1a12 bcbd 6d24 d43d 9c3e 303e
00000050: b8e6 dcbd 951d b23d 2f05 b53c deaa 53bd
00000060: 0b87 403d 348c b53d b58d 333e f0b6 543c
00000070: 54b0 033e be6c be3d d1d8 a1bd 54da c7bd
00000080: 256e 723d 9021 c73d c99c 0dbc e94b 3dbd
00000090: 3641 e03c 60f1 cbbc e665 2b3e 7e24 2bbc
000000a0: 73ad 9cbc fe7c 903c 5744 cfbb 267f dc3d
000000b0: c4f5 14be 050e b8bd 00bc 87ba bcd1 99bd
000000c0: c4ba 0dbd 6536 c3bd c562 93bd dee2 ddbd
000000d0: ae22 86bd 1a2f ddbd 4c6c 4b3d dae6 fb3c
000000e0: c9b6 7dbd cf11 e33d 660b 8b3d 6fa2 1abc
000000f0: cb1e a6bd b009 1d3c 1832 a53e 1a45 873e
00000100: 0490 f53d 4a36 9ebd 62fd bf3d 3ca3 6a3d
00000110: 7e77 fdbd dc3a 8fbd ecee 363d 5045 0b3d
00000120: 14ea 6d3d 3c00 583d 36c5 903d 56db 933d
00000130: 5c93 9cbd 84f8 fa3d d267 ac3d d85a bebd
00000140: 60bc 84bb c444 d5bd 2a63 b4bd 00fa d7bb
00000150: 8a61 fcbd 203e 90bc 6c49 25bd f871 67bd
00000160: 58c4 bd3c 86c5 c2bd c6ba e73d f0cc 67bd
00000170: 66ee fabd e020 343c 4081 943b 1875 963c
00000180: 683f 81bc 003d ce3d f8c8 a63c 400d adbb
00000190: 4829 473d 8075 0fbb de74 e0bd caff c83d
000001a0: 0413 d9bd cc7e 043d 60e8 663d 583b 953d
000001b0: f441 38bd 20d1 f3bc 6207 a93d 0408 ac3d
000001c0: 0040 5c38 d8aa dcbd 0849 0abd b408 94bd
000001d0: ce7e b33d 245b efbd 123c 81bd ded1 cc3d
000001e0: 008a 60bc 3005 dabd 7851 34bd 3ee2 bdbd
000001f0: fa81 e9bd be14 dd3d 34c6 7c3d 2242 b7bd
00000200: 1eee 98bd f6da d6bd abe8 99bd 46e0 ec3d
00000210: 1510 99bb 3a2b ffbd 2fe4 883c 6af7 f33d
00000220: b1a9 823c c4e5 763d 297a e43b 304f 8fbd
00000230: 9708 efbd e6d4 913d 2411 483d b304 973d
00000240: 8bbb 1a3e 9813 c33c cff0 d1bc 7074 75bd
00000250: 4a35 99bd 0bf9 03be 610e ddbd d1c1 9abd
00000260: 2202 6bbb e067 3f3d 92ba 9cbd 7c91 163d
00000270: 3f40 bc3c 5711 983c d6b5 553d 847e d5bd
00000280: 58df 133e 1c80 49bd c952 bf3d 0ce8 5d3c
00000290: 0b6d 81bd 980e 19bd 6825 b7bd ba1b 02be
000002a0: 22a0 4c3d 61e1 d73d f994 33be c2ba a03d
000002b0: db1d 973b 7d6e 1abd 8615 acbd 4867 febd
000002c0: 0ae3 abbd c6fb 0d3e 4007 113b a50b 0dbc
000002d0: 1a19 ff3c 8062 213b 60a3 e93d 7f77 a53d
000002e0: ad24 d4bb 6e8d 00be 600e 7d3c 0a10 0ebe
000002f0: 1b97 90bd 989d fe3d 55fd cc3d f995 8fbc
00000300: 5015 8c3c 1c40 173d 90af c7bd 8c8f f13d
00000310: 3c55 cfbd ead1 e3bd aef0 bdbd 264d b0bd
00000320: 9cd4 3fbd 5c8e 8e3d 3818 303d b24f 9cbd
00000330: 10c3 dfbc c083 343d 8e74 8d3d 305f cd3d
00000340: 4082 31bd 980a dcbd 2cd3 c9bd 04e5 8f3d
00000350: 8aec 833d 1eba b53d 145c 8ebd f851 9ebd
00000360: 80ae b33d 6af8 c6bd 00ad 553d 6c2b 5d3d
00000370: 1090 29bc 10bf 703c 6632 bb3d 20c1 cb3d
00000380: 683c abbd 309b 74bd e8ce 233d a4b1 6bbd
00000390: b0ca 3cbd f0ac 0dbd 4861 ac3c bee7 efbd
000003a0: 7e32 93bd fcb9 c63d 5276 9a3d 70f5 93bc
000003b0: ba05 b53d 3a3e debd f4a6 4dbd 9e5d aa3d
000003c0: c4dd a63d 9cb3 3dbd 50d6 783d a032 d9bb
000003d0: 428b ea3d 9c5f 123d ccd0 663d 6694 b43d
000003e0: 20f7 8ebc 6885 c1bc cc40 423d 306f c5bd
000003f0: 6814 c83d 640e f7bd ac67 3ebd bce1 7f3d

feature_extractor.2.bias f4 [64]
0.25706908 0.057491854 -0.100686766 -0.03511843 0.08327333 0.1955986 0.22005361 0.25044262
0.21866299 0.16240682 0.09837676 0.16313468 0.16270363 0.07291666 0.22409584 0.18916622
-0.0100363195 -0.10335151 0.2352971 0.016744696 -0.11285881 0.17428504 0.014793487 0.1707135
0.07541834 0.15324256 -0.047672346 -0.07572444 0.1590126 -0.07180605 -0.010876876 -0.061812595
0.24471092 0.22078443 0.037873726 0.05697155 0.053897534 0.24852623 0.086751595 0.20340921
0.11451108 0.15391605 -0.1007832 0.07628739 0.08868531 -0.1259422 0.055416662 0.20374237
-0.07001705 0.1858321 0.18247136 0.039617125 0.008960241 -0.08852238 -0.24231018 0.110840246
0.048547145 -0.028460592 0.24734099 -0.09672701 0.16951776 0.08936314 -0.07458593 0.19502515
00000000: 8f9e 833e 947c 6b3d dd34 cebd 58d8 0fbd
00000010: 358b aa3d 004b 483e bc55 613e 043a 803e
00000020: 31e9 5f3e f94d 263e c179 c93d c70c 273e
00000030: c89b 263e 5455 953d 6179 653e cab4 413e
00000040: 606f 24bc f5a9 d3bd b9f1 703e 2c2c 893c
00000050: 8522 e7bd c777 323e 6260 723c 85cf 2e3e
00000060: ee74 9a3d 9eeb 1c3e 1444 43bd 6a15 9bbd
00000070: 33d4 223e 0d0f 93bd ed34 32bc 342f 7dbd
00000080: 8095 7a3e 5015 623e 7b21 1b3d 005b 693d
00000090: a9c3 5c3d a97d 7e3e d2aa b13d 814a 503e
000000a0: c984 ea3d 2b9c 1d3e 6c67 cebd 903c 9c3d
000000b0: a5a0 b53d fef6 00be 95fc 623d d7a1 503e
000000c0: 1965 8fbd c54a 3e3e c6d9 3a3e 9145 223d
000000d0: facd 123c 394b b5bd 2920 78be 3600 e33d
000000e0: 5fd9 463d 3026 e9bc f546 7d3e d018 c6bd
000000f0: 1096 2d3e 0604 b73d 82c0 98bd acb4 473e

actor.0.weight f4 [64, 64]
-0.02209428 0.111925066 -0.08144133 -0.104207024 -0.05507411 -0.046075016 -0.018810332 -0.062836945
-0.07040739 0.001221478 -0.10821819 -0.093030214 -0.034946203 0.00679335 -0.029150099 -0.036884174
-0.028995246 0.09681855 0.0752016 0.037998036 0.10709573 0.09811184 -0.04011582 -0.04369855
0.088259 0.016651616 -0.045865014 0.10090925 -0.06586805 -0.0956105 -0.02324088 0.10278012
-0.0040473193 0.022241011 -0.024440795 -0.01566416 0.05141765 -0.022715613 -0.11681521 -0.027965829
-0.045859978 -0.10445739 -0.07110353 -0.0060614645 -0.018260583 -0.08132905 0.082298994 -0.05246906
-0.0922416 0.022819191 0.037781894 0.045674264 -0.062496126 -0.008026287 -0.05504547 0.112022445
-0.00088457763 0.032027945 -0.0912554 0.097803384 0.073188186 0.058836296 -0.0006696433 -0.08647409
0.06834453 0.06758019 0.022161558 -0.107500926 0.07095311 -0.008263001 -0.12560214 -0.11388087
0.09106463 -0.053280488 0.06590001 -0.06982468 -0.10359744 -0.065279424 -0.06215542 -0.05639731
-0.021343037 -0.10703376 -0.04558051 0.05856713 0.06210637 -0.08443323 0.04355353 0.0034401945
-0.07273256 -0.095913365 -0.06850287 -0.11129871 0.03984327 -0.108855955 0.006874353 0.045485467
-0.08213632 -0.052360166 -0.0676783 -0.052579157 0.069853425 0.008459574 0.07834458 -0.0450831
-0.07266748 0.0047962167 -0.1209196 -0.0010296702 -0.047326665 -0.06308605 -0.097795755 -0.028175164
0.11635701 -0.008180548 -0.10406442 0.07605854 0.0526364 0.0028711164 -0.014352326 0.092448786
-0.1225195 -0.013788 0.035830237 0.11775619 -0.011691663 -0.018507779 -0.0901598 -0.11346099
-0.019813249 -0.097108275 0.0074953525 -0.0969412 -0.099024415 0.030063426 0.0061926045 -0.10541564
-0.021822074 -0.008755542 0.10089501 0.004680138 -0.0369307 0.0072293854 -0.040875405 -0.07093099
-0.033242807 0.023988247 0.11836721 -0.013745358 0.08555554 0.10096659 -0.1230302 0.008830747
-0.103013374 0.00043195122 -0.0677885 0.059779316 -0.09580948 -0.06156294 0.061441313 -0.008738771
0.002521344 -0.022317825 -0.05413193 -0.10228755 -0.060711686 0.015977249 -0.05072537 -0.037675496
0.058658544 0.0044143647 0.0716726 0.10540137 -0.023407169 0.04485202 -0.052235506 -0.0058265664
-0.041770853 0.11415015 0.038120497 -0.014547596 -0.094964035 -0.05504727 -0.06825948 0.06275839
-0.033791773 0.099566296 0.022540452 -0.08850622 0.0818242 -0.018814623 -0.04200515 0.09813568
0.032666136 0.116264865 0.06794041 -0.10660985 -0.089115545 0.031124938 0.05566129 -0.023803256
0.06755119 0.10015521 0.090809986 0.09179004 -0.021628147 0.042055797 -0.020396521 0.112294696
0.019405127 -0.10073483 0.11520003 -0.07035157 0.054349706 -0.113510706 -0.039292444 -0.061890773
-0.0893893 0.12836687 0.050217286 -0.08453274 -0.05361719 -0.0073858732 0.001086254 -0.0068780035
-0.0615275 -0.052135378 0.07814241 -0.04109717 -0.09080775 0.09720154 -0.116304465 0.059822522
0.020602284 0.029452207 -0.110994056 0.016782895 0.056301497 -0.027658403 -0.087119676 0.11217886
-0.1105319 -0.06882616 -0.018230932 -0.07841916 0.081636354 0.0317789 -0.022334049 -0.105891995
-0.050212085 0.07220369 0.06414373 -0.05645752 -0.04770431 0.00906539 -0.002020046 -0.095849186
00000000: 10ff b4bc f838 e53d b6ca a6bd 7e6a d5bd
00000010: 6495 61bd 28b9 3cbd 2018 9abc a8b0 80bd
00000020: c031 90bd 001a a03a 80a1 ddbd a086 bebd
00000030: c023 0fbd c09a de3b 30cc eebc dc13 17bd
00000040: 7087 edbc ce48 c63d 4c03 9a3d d4a3 1b3d
00000050: 0255 db3d dcee c83d 7c50 24bd 40fd 32bd
00000060: 22c1 b43d f868 883c f4dc 3bbd 82a9 ce3d
00000070: d4e5 86bd 70cf c3bd a863 bebc 627e d23d
00000080: 609f 84bb c832 b63c 1038 c8bc 2052 80bc
00000090: 509b 523d 1816 babc d03c efbd 9818 e5bc
000000a0: acd7 3bbd c2ed d5bd ba9e 91bd 409f c6bb
000000b0: 3897 95bc d88f a6bd 608c a83d cce9 56bd
000000c0: 2ae9 bcbd 50ef ba3c 30c1 1a3d f014 3b3d
000000d0: f0fb 7fbd b080 03bc 5c77 61bd 066c e53d
000000e0: 00e3 67ba bc2f 033d 1ce4 babd 244d c83d
000000f0: b0e3 953d 54fe 703d 008b 2fba 5419 b1bd
00000100: 38f8 8b3d 7c67 8a3d 288c b53c 7229 dcbd
00000110: dd4f 913d 8a61 07bc d99d 00be 603a e9bd
00000120: 1880 ba3d a43c 5abd 96f6 863d 3e00 8fbd
00000130: e52a d4bd 38b1 85bd af96 7ebd de00 67bd
00000140: 98d7 aebc 8434 dbbd a1b2 3abd 16e4 6f3d
00000150: 4063 7e3d 54eb acbd 3065 323d e374 613b
00000160: cff4 94bd 3a6e c4bd 3c4b 8cbd 94f0 e3bd
00000170: b232 233d dfef debd 4142 e13b f84e 3a3d
00000180: 1637 a8bd 9d77 56bd ec9a 8abd 3e5d 57bd
00000190: 500f 8f3d 069a 0a3c 2073 a03d 0fa9 38bd
000001a0: b0d2 94bd 9529 9d3b b2a4 f7bd 00f6 86ba
000001b0: 9bd9 41bd 4233 81bd 2449 c8bd 9acf e6bc
000001c0: 964c ee3d b507 06bc ba1f d5bd 94c4 9b3d
000001d0: 4499 573d 5729 3c3b 0526 6bbc ca55 bd3d
000001e0: 81eb fabd 10e7 61bc bac2 123d 282a f13d
000001f0: 648e 3fbc a09d 97bc b4a5 b8bd 3c5e e8bd
00000200: 654f a2bc b4e0 c6bd 939b f53b 1c89 c6bd
00000210: 50cd cabd 9347 f63c 55eb ca3b 28e4 d7bd
00000220: 35c4 b2bc 6873 0fbc 0ba2 ce3d d85b 993b
00000230: a544 17bd 7be4 ec3b f86c 27bd 4444 91bd
00000240: 9c29 08bd 0083 c43c 826a f23d 3634 61bc
00000250: be37 af3d 92c7 ce3d 42f7 fbbd d6ae 103c
00000260: adf8 d2bd 8377 e239 b2d4 8abd 28db 743d
00000270: c337 c4bd 6c29 7cbd e3a9 7b3d 102d 0fbc
00000280: 223d 253b dfd3 b6bc 71b9 5dbd 237c d1bd
00000290: d1ac 78bd b8e2 823c 68c5 4fbd 9f51 1abd
000002a0: f143 703d 60a6 903b 16c9 923d acdc d73d
000002b0: 64c0 bfbc c0b6 373d e6f4 55bd c8ec bebb
000002c0: ea17 2bbd 8ec7 e93d 3d24 1c3d 0a59 6ebc
000002d0: 817c c2bd 3f79 61bd a0cb 8bbd 7987 803d
000002e0: 3e69 0abd 6ae9 cb3d c1a6 b83c c042 b5bd
000002f0: 7293 a73d 2021 9abc 980d 2cbd 5cfb c83d
00000300: edcc 053d 461c ee3d 5724 8b3d 4456 dabd
00000310: 3682 b6bd baf9 fe3c 18fd 633d 0cff c2bc
00000320: 4758 8a3d 2d1e cd3d 96fa b93d 6bfc bb3d
00000330: 832d b1bc b342 2c3d 9b16 a7bc c3fa e53d
00000340: 80f7 9e3c 104e cebd feed eb3d 7c14 90bd
00000350: cc9d 5e3d 4d78 e8bd 1df1 20bd 2e81 7dbd
00000360: bd11 b7bd 9b72 033e a4b0 4d3d 801f adbd
00000370: b39d 5bbd 3205 f2bb a360 8e3a e060 e1bb
00000380: 4304 7cbd e88b 55bd 2109 a03d 8255 28bd
00000390: 6af9 b9bd 9a11 c73d 0931 eebd 7608 753d
000003a0: 1fc6 a83c c145 f13c da50 e3bd 487c 893c
000003b0: 669c 663d e093 e2bc cd6b b2bd 08be e53d
000003c0: 8c5e e2bd bbf4 8cbd 0959 95bc 399a a0bd
000003d0: f630 a73d 982a 023d e5f5 b6bc e7dd d8bd
000003e0: 30ab 4dbd 87df 933d ca5d 833d 0040 67bd
000003f0: 9865 43bd 0087 143c c062 04bb 944c c4bd

actor.0.bias f4 [64]
-0.09564324 -0.06544017 -0.0643361 0.06377824 0.080815926 0.11075291 0.020160481 -0.014339393
0.067480326 -0.039068833 -0.043653697 0.19485082 -0.024641745 0.16941611 -0.12934761 0.14703642
0.055698406 -0.038209762 -0.10953646 -0.07099889 0.021257332 0.0077546206 -0.011173928 0.028476948
-0.05270444 -0.113531366 -0.0029147987 0.06625479 0.064234264 0.02888187 0.05758951 0.0897621
0.16362908 0.1942832 -0.010794889 -0.008180708 0.093302555 0.03910461 -0.105416775 -0.041759267
0.019503564 0.050432194 0.009978111 -0.03197955 -0.08341731 0.0572225 -0.02137687 0.11058693
0.050562337 -0.052801717 -0.026469013 -0.09112656 0.087791786 -0.12873274 0.049510416 0.003063351
0.064713314 -0.002064513 0.028999526 0.061550442 -0.07605915 0.09928 0.067723915 0.05728943
00000000: 9ae0 c3bd 7f05 86bd a5c2 83bd 2a9e 823d
00000010: d282 a53d 6cd2 e23d 9827 a53c c6ef 6abc
00000020: 2033 8a3d a406 20bd 38ce 32bd f986 473e
00000030: 7cdd c9bc 6b7b 2d3e b373 04be b790 163e
00000040: 0324 643d d781 1cbd a754 e0bd de67 91bd
00000050: db23 ae3c 791a fe3b da12 37bc 7d48 e93c
00000060: 9ce0 57bd 2283 e8bd 3506 3fbb 97b0 873d
00000070: 418d 833d ac99 ec3c fae2 6b3d 31d5 b73d
00000080: 628e 273e 2df2 463e 0cdd 30bc 6008 06bc
00000090: 6915 bf3d 282c 203d c0e4 d7bd c40b 2bbd
000000a0: f0c5 9f3c fd91 4e3d 3b7b 233c fdfc 02bd
000000b0: b2d6 aabd 2462 6a3d 8c1e afbc 667b e23d
000000c0: 741a 4f3d 9d46 58bd 8bd5 d8bc 90a0 babd
000000d0: 2ecc b33d 84d2 03be 6fcb 4a3d 80c2 483b
000000e0: 6a88 843d c84c 07bb 6a90 ed3c 511c 7c3d
000000f0: e6c4 9bbd 5053 cb3d d6b2 8a3d 52a8 6a3d

actor.2.weight f4 [4, 64]
0.02347362 0.009320762 -0.113101244 -0.041890528 0.12961668 -0.18803489 0.135274 0.05106743
-0.07779439 -0.014014872 -0.044801056 -0.09855025 -0.09419923 -0.06317332 -0.027185377 0.031023975
-0.007241778 0.01831864 0.22139686 0.0037935078 0.20538963 0.18262252 -0.063045286 -0.017086867
0.31573182 0.21301322 -0.17205158 -0.16845937 -0.04722403 -0.013509953 -0.04578984 0.058452535
-0.043171737 0.089329004 -0.24440199 0.043974087 -0.10331333 0.044161234 -0.015213117 0.11914001
-0.06919375 -0.069479495 -0.062731504 0.023393627 -0.08762543 -0.00065162487 0.07038724 -0.078977406
0.11916742 -0.031425804 -0.04588111 -0.09384507 -0.07677574 0.1580119 0.1314199 -0.09353334
-0.0071603525 0.019667597 0.1577299 0.18653895 0.065372646 -0.083092056 0.22750343 -0.029096533
-0.071654886 0.11599452 0.01035014 0.0853937 -0.14449765 0.12114265 -0.056136936 -0.079755895
0.039929673 0.091954395 0.050231025 -0.048798893 -0.013205586 0.08995937 -0.06874028 -0.026453732
0.0008432416 0.061185773 -0.05613229 0.1086463 0.0055271927 -0.08247228 -0.012126303 -0.09066279
0.057798866 -0.103151016 0.049398188 0.16754892 0.043548387 -0.08921514 0.011880861 -0.13317414
0.03842556 -0.087679714 0.06724221 -0.106406346 -0.030250348 -0.08260129 0.10105522 -0.015301591
0.014531568 0.101084165 0.026180558 0.11990271 0.052903667 -0.029698443 0.07412482 0.08464106
0.057754487 0.14632416 0.09038179 0.11928667 -0.10358979 -0.10670884 -0.053814832 -0.100868806
0.114482805 0.101047404 0.023564024 -0.06614487 0.034241173 -0.028343145 0.43938112 -0.03397155
0.060236275 -0.054042704 -0.017423673 0.11181237 0.108887605 0.15012008 0.025003424 -0.15614443
-0.048910335 0.020013098 -0.103792384 -0.12638631 -0.087374434 0.03542745 0.05536451 -0.021371182
0.08744357 0.08983358 0.114347406 -0.004179105 -0.061053388 0.07671359 -0.038099665 -0.10885417
0.017934505 -0.07859144 0.21255702 0.15484188 0.10614099 -0.014095409 0.11227524 -0.10611306
0.13192384 0.07866907 0.0059730024 -0.013081238 0.032355946 -0.15359923 -0.08538529 -0.021461593
0.09185667 -0.032296613 -0.069552004 -0.05656518 -0.023183186 0.11734797 0.001607655 -0.002152965
0.121437386 0.049469072 -0.072311215 0.11992539 -0.10569349 -0.06741463 -0.03488527 0.07725096
-0.10177916 0.10156109 -0.08904815 -0.1404283 -0.106360264 -0.04718134 0.12183744 0.06845113
0.030347288 0.09075094 -0.08237761 -0.03259767 0.0120433085 0.23540024 0.06785695 -0.083035074
-0.033686087 0.14219686 0.0048856884 0.076023385 0.04000033 0.2217292 -0.093302436 0.092001595
0.0015399584 0.2049787 -0.13645002 -0.056868613 -0.012165281 -0.059660077 0.11718981 0.004082529
-0.22061336 -0.058058117 0.25792786 0.305407 -0.0623292 -0.10667356 -0.047351513 0.09621421
0.27741656 0.17297648 0.35555843 0.10405785 -0.046940573 -0.065362245 0.064805344 0.026511863
-0.060023606 0.26588383 0.043572694 -0.016392658 -0.10991115 0.2196733 0.065160364 0.14929262
0.018600583 0.21661407 0.04930133 -0.01685274 0.11559584 -0.06150862 -0.038600206 0.051044688
0.17744908 -0.008211161 0.16129085 0.029149242 -0.20067607 -0.022243628 -0.23908393 -0.10986872
00000000: c04b c03c 1cb6 183c a0a1 e7bd 6795 2bbd
00000010: 3cba 043e 388c 40be 4485 0a3e 152c 513d
00000020: aa52 9fbd a29e 65bc 5081 37bd b7d4 c9bd
00000030: 87eb c0bd 0361 81bd deb3 debc fe25 fe3c
00000040: 704c edbb f910 963c dcb5 623e 809c 783b
00000050: a951 523e 6601 3b3e e31d 81bd c2f9 8bbc
00000060: 9aa7 a13e 2320 5a3e 4a2e 30be 9d80 2cbe
00000070: fc6d 41bd da58 5dbc 218e 3bbd ed6b 6f3d
00000080: d9d4 30bd 20f2 b63d 8444 7abe 2c1e 343d
00000090: f095 d3bd 69e2 343d 7040 79bc adff f33d
000000a0: 74b5 8dbd 444b 8ebd 6079 80bd fea3 bf3c
000000b0: f674 b3bd ced1 2aba 2f27 903d e8be a1bd
000000c0: 0c0e f43d 58b8 00bd d5ed 3bbd d831 c0bd
000000d0: 993c 9dbd dfcd 213e f092 063e 688e bfbd
000000e0: 64a1 eabb f11d a13c f283 213e 1104 3f3e
000000f0: 18e2 853d 2b2c aabd a9f6 683e da5b eebc
00000100: ccbf 92bd 898e ed3d a293 293c e4e2 ae3d
00000110: 31f7 13be a319 f83d d8ef 65bd 0f57 a3bd
00000120: 4c8d 233d 9652 bc3d 0cbf 4d3d 59e1 47bd
00000130: 3e5c 58bc 9e3c b83d b4c7 8cbd 7fb5 d8bc
00000140: fc0c 5d3a ef9d 7a3d f9ea 65bd f481 de3d
00000150: 741d b53b 3ae7 a8bd 67ad 46bc 6aad b9bd
00000160: 81be 6c3d d740 d3bd c155 4a3d f291 2b3e
00000170: cb5f 323d 6db6 b6bd f1a7 423c cd5e 08be
00000180: 1f64 1d3d 6c91 b3bd 49b6 893d 92eb d9bd
00000190: 94cf f7bc dd2a a9bd 0af6 ce3d 86b3 7abc
000001a0: d015 6e3c 3705 cf3d 9c78 d63c 8d8f f53d
000001b0: 84b1 583d 264a f3bc c1ce 973d 4b58 ad3d
000001c0: f88f 6c3d 00d6 153e 171a b93d 924c f43d
000001d0: e226 d4bd 2a8a dabd f16c 5cbd 4e94 cebd
000001e0: f675 ea3d f1f1 ce3d 5709 c13c f676 87bd
000001f0: 7940 0c3d e22f e8bc 90f6 e03e c125 0bbd
00000200: 50ba 763d e25b 5dbd 17bc 8ebc e2fd e43d
00000210: 7700 df3d 14b9 193e fbd3 cc3c 53e4 1fbe
00000220: 3456 48bd 82f2 a33c 1a91 d4bd 6a6b 01be
00000230: 5ef1 b2bd 601c 113d e5c5 623d 9e12 afbc
00000240: 9d15 b33d abfa b73d f92e ea3d e0f0 88bb
00000250: 1e13 7abd 041c 9d3d 650e 1cbd efee debd
00000260: 62eb 923c 8df4 a0bd 8ca8 593e df8e 1e3e
00000270: 7360 d93d 6ef0 66bc 90f0 e53d ce51 d9bd
00000280: 0b17 073e 401d a13d 2db9 c33b b052 56bc
00000290: ab87 043d 1e49 1dbe 7cde aebd 39d0 afbc
000002a0: 5a1f bc3d 7449 04bd 4871 8ebd e4b0 67bd
000002b0: aaea bdbc 2254 f03d f3b7 d23a c218 0dbb
000002c0: 2ab4 f83d 15a0 4a3d e717 94bd 719b f53d
000002d0: d475 d8bd ae10 8abd dbe3 0ebd c035 9e3d
000002e0: 9871 d0bd 43ff cf3d e05e b6bd 70cc 0fbe
000002f0: 69d3 d9bd 3941 41bd e885 f93d 1b30 8c3d
00000300: e09a f83c a1db b93d 98b5 a8bd 2285 05bd
00000310: 4c51 453c c30c 713e 96f8 8a3d 4b0e aabd
00000320: 6cfa 09bd 0e9c 113e 2018 a03b 26b2 9b3d
00000330: 63d7 233d fb0c 633e 5915 bfbd 556b bc3d
00000340: 6ed8 c93a f0e5 513e 8eb9 0bbe 10ef 68bd
00000350: e350 47bc 205e 74bd 3601 f03d bcc6 853b
00000360: 78e8 61be 59ce 6dbd 1f0f 843e 4e5e 9c3e
00000370: e74c 7fbd ab77 dabd a9f3 41bd f50b c53d
00000380: 8b09 8e3e bf20 313e c10b b63e 481c d53d
00000390: c244 40bd a4dc 85bd aab8 843d 682f d93c
000003a0: 50db 75bd ed21 883e 4879 323d e549 86bc
000003b0: 1919 e1bd 0af2 603e cc72 853d 2ae0 183e
000003c0: 4060 983c 14d0 5d3e 31f0 493d c20e 8abc
000003d0: 83bd ec3d 76f0 7bbd 401b 1ebd 3c14 513d
000003e0: 36b5 353e 1b88 06bc 6e29 253e 64ca ee3c
000003f0: 077e 4dbe 4538 b6bc 6bd2 74be da02 e1bd

actor.2.bias f4 [4]
0.020077093 0.15294543 0.025124054 0.068436176
00000000: b778 a43c ba9d 1c3e f6d0 cd3c 4428 8c3d

critic.0.weight f4 [64, 64]
0.123978026 0.123229235 -0.09698233 -0.042519405 0.10116543 0.07913638 -0.055510804 -0.09749011
0.080303274 -0.029234791 -0.098225296 0.09149182 0.04654607 -0.13075164 0.01958855 0.027706154
0.11649698 -0.09143001 -0.0066514243 -0.115078904 -0.11258517 0.0059937765 -0.006756936 -0.12585661
-0.05469058 0.038484335 -0.0352986 0.076797456 -0.123963475 0.038279843 -0.11660705 0.1109803
0.050966248 -0.018967224 0.013082386 -0.004663457 -0.10903391 -0.07275217 0.056635797 -0.050338108
0.04843369 0.025786715 0.10266064 -0.08452505 0.00031308815 0.10443543 -0.07116991 0.11184259
0.012007811 -0.020129012 -0.0088796485 -0.06546286 -0.06319998 -0.012041938 0.044900242 0.036496747
0.05359856 -0.09797804 0.022817764 -0.1155888 -0.04374823 0.12006505 0.0989501 -0.015035841
-0.11485933 -0.040462673 -0.043787792 0.023407876 -0.066169545 -0.06479892 0.052385807 -0.03888306
-0.0004707873 -0.11705758 -0.08700131 0.0930689 -0.03505896 -0.010035172 0.10445066 -0.013255045
0.083513185 -0.002204433 -0.104037 -0.050135523 -0.04458177 -0.0276746 0.08794598 -0.060218707
-0.09764472 0.032475635 0.0073441714 -0.111502185 0.045823038 -0.015681446 -0.07591435 0.013841927
0.055395752 -0.09479757 -0.11482932 -0.07171385 0.026584521 -0.056724325 0.070136026 0.03565538
-0.11314137 0.0025484264 0.016137943 -0.009512708 -0.07629877 0.0014881194 -0.093057156 0.051715195
0.05692464 0.045147493 -0.105242446 -0.045057684 -0.08984257 0.003793478 0.025821164 0.021370977
0.079090044 -0.060605124 0.014882892 -0.02472487 -0.08126317 0.11708714 -0.10594784 0.090863496
-0.095023505 0.123893544 0.059408464 -0.04542452 -0.0945036 -0.06839719 -0.0053122337 -0.054148633
-0.05699213 -0.043332133 -0.071828805 -0.037406716 0.06094392 0.074824736 -0.056736104 -0.05793144
-0.057420105 0.068753526 -0.041650888 0.11313014 0.10528992 -0.09389459 0.110887684 0.04696006
-0.11516972 -0.09199459 0.054636195 0.11097999 -0.0355954 -0.054953057 -0.14636959 -0.100482985
0.06557027 0.06548112 -0.053532187 0.07219163 0.0025754238 -0.13538913 -0.10317284 0.10360717
0.0033870547 0.046630263 0.1093653 0.08916406 0.06996834 -0.12170466 -0.09761929 0.11203878
-0.10184973 0.082498975 0.04058881 -0.12868068 0.011697014 -0.07998494 -0.030090965 0.067941695
-0.010111649 0.0063024787 -0.1132314 0.08436075 -0.08928514 0.122344375 0.06218539 0.07573823
0.06369202 0.07484634 0.04013113 -0.005171418 0.08513299 0.11896169 0.17079116 0.04440256
0.09275152 0.02014584 0.050016608 0.073203824 0.014434595 0.016662734 0.21945763 -0.07851253
-0.004789278 0.07781205 0.09672831 -0.079169594 0.08800215 -0.010467106 0.11350063 -0.0719955
0.14796808 0.14140593 -0.114676535 0.11214258 0.07259447 0.058459725 0.019517625 0.011360407
-0.03030639 0.13415821 0.10826634 0.14950599 -0.058647186 0.086635895 -0.002097518 0.065598644
0.025469454 0.19764142 0.1166403 -0.07124714 0.10503033 -0.05394124 0.1462151 0.13004903
0.0031087417 -0.043311074 0.014079813 0.11515369 -0.10236882 -0.067442834 0.004915448 0.029192518
0.13260578 0.079663835 0.11122769 0.0663677 0.0610926 0.061070427 0.066856176 0.03183989
00000000: 31e8 fd3d 9c5f fc3d ac9e c6bd d428 2ebd
00000010: d22f cf3d 4112 a23d 4c5f 63bd e5a8 c7bd
00000020: 0b76 a43d cd7d efbc 582a c9bd 1060 bb3d
00000030: 18a7 3e3d c2e3 05be 2b78 a03c 04f8 e23c
00000040: f895 ee3d a83f bbbd 31f4 d9bb 7dae ebbd
00000050: 0e93 e6bd 7167 c43b 4a69 ddbb 8ee0 00be
00000060: 3b03 60bd c0a1 1d3d 4495 10bd fc47 9d3d
00000070: 90e0 fdbd 53cb 1c3d adcf eebd a449 e33d
00000080: fcc1 503d 2761 9bbc 8157 563c eacf 98bb
00000090: 2c4d dfbd 17ff 94bd f0fa 673d 552f 4ebd
000000a0: 6862 463d a93e d33c be3f d23d 781b adbd
000000b0: fb25 a439 3ee2 d53d 88c1 91bd ba0d e53d
000000c0: 69bc 443c 99e5 a4bc f27b 11bc 6411 86bd
000000d0: fe6e 81bd 8c4b 45bc 51e9 373d 9d7d 153d
000000e0: 2a8a 5b3d b6a8 c8bd 52ec ba3c d2b9 ecbd
000000f0: 5831 33bd aae4 f53d 5aa6 ca3d e358 76bc
00000100: 5e3b ebbd 30bc 25bd d45a 33bd e0c1 bf3c
00000110: e683 87bd 4cb5 84bd 8092 563d d843 1fbd
00000120: 00d4 f6b9 e2bb efbd be2d b2bd e89a be3d
00000130: fc99 0fbd 906a 24bc 3aea d53d b02b 59bc
00000140: f608 ab3d 4078 10bb 5a11 d5bd e85a 4dbd
00000150: 609b 36bd d8b5 e2bc 061d b43d e4a7 76bd
00000160: f4f9 c7bd 2c05 053d 60a7 f03b 425b e4bd
00000170: f0b0 3b3d 6076 80bc fc78 9bbd 40c9 623c
00000180: a8e6 623d 3a25 c2bd a22b ebbd b6de 92bd
00000190: c8c7 d93c c457 68bd 7aa3 8f3d 600b 123d
000001a0: aab6 e7bd 8003 273b b833 843c 30db 1bbc
000001b0: 8842 9cbd 000d c33a c094 bebd 50d3 533d
000001c0: d029 693d 94ec 383d 5a89 d7bd 688e 38bd
000001d0: 62ff b7bd 009c 783b e886 d33c 3012 af3c
000001e0: f6f9 a13d 143d 78bd 60d7 733c d08b cabc
000001f0: 4e6d a6bd 62cb ef3d 2efb d8bd a416 ba3d
00000200: af9b c2bd e6bb fd3d 4a56 733d 100f 3abd
00000210: 1a8b c1bd d313 8cbd 3f12 aebb f5ca 5dbd
00000220: 9470 69bd 097d 31bd fb1a 93bd c937 19bd
00000230: 55a0 793d b63d 993d 1e64 68bd 8549 6dbd
00000240: 5831 6bbd a6ce 8c3d 1f9a 2abd c6b0 e73d
00000250: 3ea2 d73d cf4b c0bd 1519 e33d 3159 403d
00000260: 1ade ebbd a967 bcbd 34ca 5f3d 7a49 e33d
00000270: 7bcc 11bd 7516 61bd e9e1 15be 06ca cdbd
00000280: b549 863d f71a 863d 9144 5bbd 35d9 933d
00000290: 71c8 283b 73a3 0abe 484c d3bd ff2f d43d
000002a0: 59f9 5d3b 60ff 3e3d eafa df3d a69b b63d
000002b0: 904b 8f3d 4b40 f9bd 9fec c7bd 9674 e53d
000002c0: 9796 d0bd 39f5 a83d 7440 263d dec4 03be
000002d0: d5a4 3f3c 25cf a3bd 5481 f6bc 0425 8b3d
000002e0: 54ab 25bc 0685 ce3b dde5 e7bd 54c5 ac3d
000002f0: 21db b6bd b08f fa3d 1cb6 7e3d a51c 9b3d
00000300: f670 823d 0a49 993d 8a60 243d 0075 a9bb
00000310: 345a ae3d 30a2 f33d e1e3 2e3e 75df 353d
00000320: 82f4 bd3d e308 a53c 37de 4c3d e3eb 953d
00000330: 147f 6c3c 4980 883c 80b9 603e 2dcb a0bd
00000340: 60ef 9cbb ed5b 9f3d 7e19 c63d ab23 a2bd
00000350: 793a b43d 397e 2bbc 0573 e83d 6072 93bd
00000360: f284 173e b7cc 103e 88db eabd 02ab e53d
00000370: 69ac 943d 7773 6f3d 6de3 9f3c 0021 3a3c
00000380: 1b45 f8bc c560 093e beba dd3d 1918 193e
00000390: 0838 70bd 296e b13d 8376 09bb 9558 863d
000003a0: 51a5 d03c 8362 4a3e 1ce1 ee3d 05ea 91bd
000003b0: 241a d73d 7df1 5cbd 69b9 153e 932b 053e
000003c0: 08bc 4b3b f466 31bd 04af 663c b3d5 eb3d
000003d0: bea6 d1bd 781f 8abd c411 a13b 2625 ef3c
000003e0: cfc9 073e cb26 a33d 58cb e33d caeb 873d
000003f0: 3c3c 7a3d fc24 7a3d e4eb 883d 8b6a 023d

critic.0.bias f4 [64]
-0.003704027 0.1031996 0.05802999 0.10286669 0.057385206 -0.063451685 0.021155706 0.08210856
-0.010798639 0.13512349 -0.03878713 0.03291354 0.108336866 0.20799255 -0.016512325 0.0889196
-0.06438314 -0.0631216 0.20376113 0.06302433 -0.05725121 0.086352915 0.034469478 0.020627944
-0.12662466 0.110186964 0.03477589 -0.06837388 -0.03560941 0.08240667 0.08253024 0.13986903
0.06284732 0.10461443 -0.12316802 -0.08130892 0.03772486 0.05653561 0.06753832 -0.12833665
0.23673396 -0.11449857 -0.1113791 -0.028906256 -0.027645078 0.07091022 0.10699923 -0.050729685
0.10158446 -0.1776032 0.0612704 0.03027538 -0.11786527 0.0040007397 0.16415137 0.049626723
0.07180828 -0.07935331 0.029741727 0.08634953 0.09051827 0.10539694 0.13138035 -0.06659248
00000000: 43bf 72bb 505a d33d dbb0 6d3d c5ab d23d
00000010: c00c 6b3d f5f2 81bd bb4e ad3c 8828 a83d
00000020: c6ec 30bc d05d 0a3e 41df 1ebd 59d0 063d
00000030: b8df dd3d 00fc 543e db44 87bc 7b1b b63d
00000040: 4fdb 83bd e645 81bd c2a6 503e e612 813d
00000050: 3f80 6abd ccd9 b03d de2f 0d3d effb a83c
00000060: e5a9 01be b4a9 e13d 2a71 0e3d 9b07 8cbd
00000070: 2cdb 11bd d4c4 a83d 9d05 a93d d439 0f3e
00000080: 19b6 803d 1740 d63d 843f fcbd 4b85 a6bd
00000090: 6285 1a3d e291 673d 8851 8a3d af6a 03be
000000a0: 636a 723e 3a7e eabd ba1a e4bd d0cc ecbc
000000b0: ee77 e2bc 6139 913d 6a22 db3d eec9 4fbd
000000c0: 830b d03d 9ddd 35be acf6 7a3d 1304 f83c
000000d0: 5963 f1bd a318 833b 4c17 283e 6445 4b3d
000000e0: 3810 933d fd83 a2bd eca4 f33c 06d8 b03d
000000f0: a561 b93d 5ada d73d 9288 063e a361 88bd

critic.2.weight f4 [1, 64]
0.034400064 0.022811756 -0.02424539 0.15978156 0.06260373 0.06274504 -0.028770551 0.08173601
-0.025759226 0.10291979 0.03000449 -0.08043527 -0.036155198 0.18396905 0.13977984 0.11669243
-0.0153487 -0.19400078 0.0748005 0.11019036 -0.050426602 0.111341774 0.14809497 0.0018139809
0.00040157 0.083162524 0.09102035 -0.061162718 0.102105886 0.14642596 0.13470508 0.12442385
-0.00016250848 -0.0098319305 0.0028665871 -0.16320778 0.07542059 0.14932193 0.09917237 0.093943305
0.11483486 0.08162374 0.122896686 0.059815064 3.6396366e-05 -0.030540766 0.013469156 -0.076460935
-0.0035468375 -0.18389143 -0.042053647 -0.053572007 -0.022078883 -0.035206735 0.110364385 0.077523276
0.10936478 -0.09154818 0.16945666 -0.018589454 0.025295239 -0.062111024 0.11796839 -0.04533673
00000000: 15e7 0c3d b8df ba3c 459e c6bc c79d 233e
00000010: 6236 803d 7980 803d 38b0 ebbc 3665 a73d
00000020: 0305 d3bc 9cc7 d23d facb f53c 3fbb a4bd
00000030: 7917 14bd 6262 3c3e 7222 0f3e 71fc ee3d
00000040: 1d79 7bbc 24a8 46be 0131 993d 7cab e13d
00000050: 208c 4ebd 2807 e43d 35a6 173e 19c3 ed3a
00000060: d089 d239 1d51 aa3d e168 ba3d c285 7abd
00000070: e41c d13d b0f0 153e 21f0 093e eed1 fe3d
00000080: 0a67 2ab9 1b16 21bc 5add 3b3b f11f 27be
00000090: 1c76 9a3d d9e7 183e e21a cb3d 5965 c03d
000000a0: 8a2e eb3d 592a a73d 42b1 fb3d a400 753d
000000b0: 4da8 1838 a130 fabc bcad 5c3c 8d97 9cbd
000000c0: 0f72 68bb 094e 3cbe 7240 2cbd 526e 5bbd
000000d0: c6de b4bc f034 10bd b906 e23d 86c4 9e3d
000000e0: a4fa df3d 9d7d bbbd 0c86 2d3e e948 98bc
000000f0: f637 cf3c 2168 7ebd 6999 f13d 02b3 39bd

exp_avg f4 [64, 2]
-0.004568594 -0.0024412088 -0.004353525 -0.0016836324 0.0043453737 0.0027509127 0.0 0.0
-4.7526377e-05 6e-45 0.0 0.0 6e-45 0.0 -1.1001958e-05 8.938775e-08
-0.0005870115 0.0017828917 0.0 0.0 -1.6231605e-05 6e-45 -0.0006894198 0.0005448254
0.000102515034 0.00068535225 -0.008289528 -0.0044742986 -0.0057927337 -0.0024877884 -5.266298e-06 -0.00056609773
-0.0053230016 -0.0025464387 0.0 0.0 -0.0012490638 -0.001059642 -0.0006735479 -4.6255867e-05
0.0 0.0 0.0017402908 0.0011564606 0.00081563613 0.0013487396 -0.0022791065 -0.0031975366
0.0 6e-45 0.0 0.0 -0.0033242828 -0.00067289197 0.0 0.0
0.0001780907 0.00061738474 0.00023651426 0.00035798323 0.0014869659 0.00081949215 -0.00011340705 -0.00014139335
0.0 0.0 0.0 0.0 -0.00037993334 -0.00018039512 0.002903494 0.0014377782
0.00038597846 0.00034157402 0.0 0.0 -0.0035961976 -0.0014849544 0.00066756003 0.0003434781
0.0 6e-45 -8.038389e-06 -2.2059001e-05 0.0019623004 0.0019794775 0.0 0.0
0.004036063 0.004112383 -5.3326694e-05 -7.75316e-05 0.0 0.0 0.0 0.0
0.0 0.0 3.900911e-05 0.00016251513 0.004459948 0.0043890267 0.0019307969 0.0015291184
-0.00028886241 -0.00012643074 0.0 0.0 0.0 0.0 -6.5108106e-05 -4.847777e-05
-1.3793077e-06 -5.1621996e-06 -0.0020391354 -0.00080972037 0.0 0.0 0.0015925609 0.002089961
0.004621334 0.002538374 0.0 0.0 -0.008543448 -0.0042600124 -0.0075529697 -0.0025555664
00000000: 25b4 95bb b0fc 1fbb 04a8 8ebb 54ad dcba
00000010: a363 8e3b a848 343b 0000 0000 0000 0000
00000020: 0f57 47b8 0400 0000 0000 0000 0000 0000
00000030: 0400 0000 0000 0000 0d95 38b7 6ff5 bf33
00000040: ade1 19ba ebaf e93a 0000 0000 0000 0000
00000050: 1b29 88b7 0400 0000 2eba 34ba 9dd2 0e3a
00000060: 57fd d638 36a9 333a cdd0 07bc 239d 92bb
00000070: f9d0 bdbb 2a0a 23bb 28b5 b0b6 2d66 14ba
00000080: 936c aebb 27e2 26bb 0000 0000 0000 0000
00000090: a0b7 a3ba afe3 8aba 0991 30ba dc02 42b8
000000a0: 0000 0000 0000 0000 781a e43a 6194 973a
000000b0: 6ad0 553a 31c8 b03a 105d 15bb c38d 51bb
000000c0: 0000 0000 0400 0000 0000 0000 0000 0000
000000d0: 36dc 59bb 0465 30ba 0000 0000 0000 0000
000000e0: dcbd 3a39 fdd7 213a d000 7839 b2af bb39
000000f0: 4ce6 c23a 30d3 563a f2d4 edb8 fd42 14b9
00000100: 0000 0000 0000 0000 0000 0000 0000 0000
00000110: ca31 c7b9 7228 3db9 8c48 3e3b d573 bc3a
00000120: 275d ca39 4a15 b339 0000 0000 0000 0000
00000130: 2fae 6bbb cda2 c2ba 32ff 2e3a da14 b439
00000140: 0000 0000 0400 0000 9edc 06b7 580b b9b7
00000150: f099 003b 1fba 013b 0000 0000 0000 0000
00000160: f340 843b 2bc1 863b 1aab 5fb8 7698 a2b8
00000170: 0000 0000 0000 0000 0000 0000 0000 0000
00000180: 0000 0000 0000 0000 b79d 2338 d368 2a39
00000190: c124 923b d3d1 8f3b cb12 fd3a b36c c83a
000001a0: 7572 97b9 7e92 04b9 0000 0000 0000 0000
000001b0: 0000 0000 0000 0000 a68a 88b8 9c54 4bb8
000001c0: a720 b9b5 f536 adb6 04a3 05bb 6a43 54ba
000001d0: 0000 0000 0000 0000 7abd d03a baf7 083b
000001e0: 8f6e 973b d95a 263b 0000 0000 0000 0000
000001f0: d1f9 0bbc 9397 8bbb e77e f7bb 4a7b 27bb

exp_avg_sq f4 [64, 2]
0.0045623914 0.0027769713 0.0057151043 0.003122471 0.0027842126 0.0018988071 0.0 0.0
4.7784984e-06 3.323592e-17 0.0 0.0 7.102513e-30 0.0 1.4017195e-08 6.556924e-09
0.0015064575 0.00048598705 0.0 0.0 3.9809915e-08 2.8694857e-22 0.00070287945 0.00025017932
0.00011815742 4.0424882e-05 0.012976318 0.007952013 0.009493347 0.005569579 0.0004958411 0.00058580725
0.004348423 0.0027053417 0.0 0.0 0.00023845727 0.00021766935 0.0007028576 0.00036138634
0.0 0.0 0.00037953712 0.00022482807 0.00015735146 5.0250987e-05 0.00012149544 0.00024476438
0.0 3.0883623e-28 0.0 0.0 0.0049201376 0.0001727412 0.0 0.0
0.0002322853 8.064748e-05 7.85639e-06 4.5835655e-05 0.0003340218 0.00016691374 6.456731e-06 3.35781e-05
0.0 0.0 0.0 0.0 0.00010667749 6.299565e-05 0.0016370362 0.0009589114
0.00011090024 3.751596e-05 0.0 0.0 0.003930712 0.0023458498 0.00016983895 5.325802e-05
0.0 2.0549492e-28 1.0844423e-08 3.7655175e-07 0.0002362762 0.00019588726 0.0 0.0
0.0012824303 0.0010711662 4.9283983e-07 1.8051356e-06 0.0 0.0 0.0 0.0
0.0 0.0 6.798998e-07 2.3744129e-05 0.0015912361 0.0011323747 0.00036596437 0.00019713072
4.6953253e-05 3.214538e-05 0.0 0.0 0.0 0.0 1.3847188e-06 5.8534824e-06
7.946663e-06 6.4280764e-05 0.0016872128 0.000905385 0.0 0.0 0.00019391396 0.00012099182
0.0037343118 0.002340532 0.0 0.0 0.010927012 0.0069717476 0.007393506 0.0005042778
00000000: 1d80 953b d9fd 353b c545 bb3b 5fa2 4c3b
00000010: 5677 363b 65e1 f83a 0000 0000 0000 0000
00000020: fd56 a036 0c46 1924 0000 0000 0000 0000
00000030: 5b0e 100f 0000 0000 47d0 7032 504b e131
00000040: 5374 c53a 14cc fe39 0000 0000 0000 0000
00000050: 77fb 2a33 2473 ad1b 7141 383a 802a 8339
00000060: 48cb f738 e38d 2938 9f9a 543c 2949 023c
00000070: fc89 1b3c 0481 b63b 55fb 013a dc90 193a
00000080: 377d 8e3b 1a4c 313b 0000 0000 0000 0000
00000090: 630a 7a39 2c3e 6439 fa3f 383a 7478 bd39
000000a0: 0000 0000 0000 0000 9cfc c639 d3bf 6b39
000000b0: b6fe 2439 96c4 5238 5ecb fe38 b853 8039
000000c0: 0000 0000 8bbf c311 0000 0000 0000 0000
000000d0: 1b39 a13b dd21 3539 0000 0000 0000 0000
000000e0: 9c91 7339 4921 a938 f0ce 0337 a93f 4038
000000f0: a61f af39 9105 2f39 e6a6 d836 36d6 0c38
00000100: 0000 0000 0000 0000 0000 0000 0000 0000
00000110: 0bb8 df38 881c 8438 d291 d63a 745f 7b3a
00000120: 1d93 e838 755a 1d38 0000 0000 0000 0000
00000130: 34cd 803b d4bc 193b cc16 3239 5d61 5f38
00000140: 0000 0000 753f 8211 474e 3a32 e128 ca34
00000150: e9c0 7739 1667 4d39 0000 0000 0000 0000
00000160: 3817 a83a 6066 8c3a b24b 0435 fd47 f235
00000170: 0000 0000 0000 0000 0000 0000 0000 0000
00000180: 0000 0000 0000 0000 5c82 3635 212e c737
00000190: 0691 d03a 316c 943a e8de bf39 e0b4 4e39
000001a0: acef 4438 d7d3 0638 0000 0000 0000 0000
000001b0: 0000 0000 0000 0000 93da b935 0869 c436
000001c0: a852 0537 79ce 8638 7825 dd3a 5c57 6d3a
000001d0: 0000 0000 0000 0000 6255 4b39 fdbc fd38
000001e0: 5bbb 743b 9c63 193b 0000 0000 0000 0000
000001f0: 3607 333c 4273 e43b 3945 f23b 8331 043a

exp_avg f4 [64]
-0.0011686905 -0.001156986 0.0009906703 0.0 -1.5593823e-05 0.0 6e-45 -1.7400362e-05
-0.00015911544 0.0 -2.6139547e-05 -0.00015834565 -4.918066e-06 -0.0020419427 -0.0015064776 3.621243e-05
-0.0011986801 0.0 -0.00031400524 -0.00025002102 0.0 0.00036036342 0.00016889586 -0.00050226017
6e-45 0.0 -0.0006751352 0.0 -2.9715962e-05 3.430236e-05 0.0003328092 -1.2812872e-06
4.4808496e-07 0.0 -0.00012787391 0.0006663485 2.589754e-05 0.0 -0.000940155 8.1629776e-05
6e-45 -1.7583303e-05 0.0004663806 0.0 0.00095351436 -1.0214049e-05 0.0 0.0
0.0 4.5816254e-05 0.0010417876 0.00038310842 -7.445351e-05 0.0 0.0 8.299169e-06
-1.1199322e-06 -0.00059124536 0.0 0.00036456066 0.0010548453 0.0 -0.0019801473 -0.0016957609
00000000: bf2e 99ba 02a6 97ba 61d9 813a 0000 0000
00000010: 7bcf 82b7 0000 0000 0400 0000 fef6 91b7
00000020: 3ad8 26b9 0000 0000 4046 dbb7 9609 26b9
00000030: de05 a5b6 1dd2 05bb 0075 c5ba cde2 1738
00000040: 081d 9dba 0000 0000 12a1 a4b9 4115 83b9
00000050: 0000 0000 29ef bc39 a319 3139 1caa 03ba
00000060: 0400 0000 0000 0000 8efb 30ba 0000 0000
00000070: 8b46 f9b7 e1df 0f38 e57c ae39 b1f8 abb5
00000080: 5490 f034 0000 0000 e415 06b9 e4ad 2e3a
00000090: 8b3e d937 0000 0000 bc74 76ba a730 ab38
000000a0: 0400 0000 db7f 93b7 8b84 f439 0000 0000
000000b0: 44f5 793a 025d 2bb7 0000 0000 0000 0000
000000c0: 0000 0000 d42a 4038 978c 883a f1db c839
000000d0: ec23 9cb8 0000 0000 0000 0000 a93c 0b37
000000e0: 9450 96b5 cefd 1aba 0000 0000 8122 bf39
000000f0: bc42 8a3a 0000 0000 5cc5 01bb 4b44 deba

exp_avg_sq f4 [64]
0.00024268583 0.00030235556 0.00015064423 0.0 2.280266e-07 0.0 3.0223334e-15 3.4320188e-08
7.678495e-05 0.0 7.057745e-08 3.5812533e-05 6.1202722e-06 0.00068876345 0.0005069748 3.2412783e-05
0.00023337732 0.0 1.3273876e-05 3.7434882e-05 0.0 2.0260131e-05 7.959921e-06 7.96529e-06
8.818545e-30 0.0 0.00019505854 0.0 1.2247691e-05 1.7203228e-06 1.7607454e-05 1.0672345e-06
9.759197e-11 0.0 5.6898107e-06 8.726563e-05 6.0641873e-06 0.0 0.00021112304 9.008109e-06
5.7082457e-30 4.711654e-08 1.2702174e-05 0.0 7.0214825e-05 6.371474e-08 0.0 0.0
0.0 7.163117e-07 8.585927e-05 1.9432857e-05 2.6492023e-06 0.0 0.0 2.0163542e-07
2.2283275e-06 8.931864e-05 0.0 1.0214189e-05 0.00020027209 0.0 0.0005836441 0.00032170254
00000000: 7b79 7e39 7a85 9e39 41f6 1d39 0000 0000
00000010: 79d7 7434 0000 0000 36c8 5927 7267 1333
00000020: 9b07 a138 0000 0000 5d90 9733 6a35 1638
00000030: bd5c cd36 228e 343a 81e6 043a f6f2 0738
00000040: bfb6 7439 0000 0000 ddb2 5e37 6603 1d38
00000050: 0000 0000 4df4 a937 9a8b 0537 a9a2 0537
00000060: 81dc 320f 0000 0000 a188 4c39 0000 0000
00000070: 6f7b 4d37 d7e5 e635 b8b3 9337 e63d 8f35
00000080: 659b d62e 0000 0000 1aeb be36 6102 b738
00000090: f97a cb36 0000 0000 e960 5d39 8921 1737
000000a0: d08d e70e 2f5d 4a33 6c1b 5537 0000 0000
000000b0: 4c40 9338 8cd3 8833 0000 0000 0000 0000
000000c0: 0000 0000 9148 4035 580f b438 be03 a337
000000d0: f3c8 3136 0000 0000 0000 0000 1f81 5834
000000e0: 608a 1536 9450 bb38 0000 0000 9c5d 2b37
000000f0: 2100 5239 0000 0000 b1ff 183a 2faa a839

exp_avg f4 [64, 64]
-0.00050787017 -8.2020175e-05 -0.0020407136 0.0 -1.0205829e-05 0.0 6e-45 -5.00811e-06
-0.00025479516 0.0 -1.9707636e-06 -0.00020176618 -0.001053469 -0.00014960721 -0.00015591954 -0.00041788744
-0.00034165737 0.0 -0.00085759227 -0.0015842668 0.0 -0.00062291016 -0.0010244917 -0.00034709933
6e-45 0.0 -2.2745337e-05 0.0 -0.0012887871 -1.7602648e-05 -0.00088501896 -4.788425e-06
-8.7820337e-07 0.0 -0.0015873978 -0.00095742074 -0.0017362632 0.0 -0.00039617572 -0.0017592576
6e-45 -5.2453765e-06 -0.0003147987 0.0 -0.0004332687 6.180935e-07 0.0 0.0
0.0 -7.5339876e-06 -0.00017695207 -0.0014569304 -0.0007492351 0.0 0.0 1.6947081e-06
-1.4121695e-05 -0.00048793698 0.0 -0.0007374132 -0.0013451449 0.0 -0.00025332844 -0.00029091106
0.0 0.0 0.0 0.0 0.0 0.0 0.0 0.0
0.0 0.0 0.0 0.0 0.0 0.0 0.0 0.0
0.0 0.0 0.0 0.0 0.0 0.0 0.0 0.0
0.0 0.0 0.0 0.0 0.0 0.0 0.0 0.0
0.0 0.0 0.0 0.0 0.0 0.0 0.0 0.0
0.0 0.0 0.0 0.0 0.0 0.0 0.0 0.0
0.0 0.0 0.0 0.0 0.0 0.0 0.0 0.0
0.0 0.0 0.0 0.0 0.0 0.0 0.0 0.0
6e-45 6e-45 6e-45 0.0 6e-45 0.0 6e-45 6e-45
6e-45 0.0 6e-45 6e-45 6e-45 6e-45 6e-45 6e-45
6e-45 0.0 6e-45 6e-45 0.0 6e-45 6e-45 6e-45
6e-45 0.0 0.0 0.0 6e-45 6e-45 6e-45 6e-45
6e-45 0.0 6e-45 6e-45 6e-45 0.0 6e-45 6e-45
6e-45 6e-45 -6e-45 0.0 6e-45 6e-45 0.0 0.0
0.0 6e-45 6e-45 6e-45 6e-45 0.0 0.0 6e-45
6e-45 6e-45 0.0 6e-45 6e-45 0.0 6e-45 6e-45
0.0 0.0 0.0 0.0 0.0 0.0 0.0 0.0
0.0 0.0 0.0 0.0 0.0 0.0 0.0 0.0
0.0 0.0 0.0 0.0 0.0 0.0 0.0 0.0
0.0 0.0 0.0 0.0 0.0 0.0 0.0 0.0
0.0 0.0 0.0 0.0 0.0 0.0 0.0 0.0
0.0 0.0 0.0 0.0 0.0 0.0 0.0 0.0
0.0 0.0 0.0 0.0 0.0 0.0 0.0 0.0
0.0 0.0 0.0 0.0 0.0 0.0 0.0 0.0
00000000: 9722 05ba 3f02 acb8 7ebd 05bb 0000 0000
00000010: b439 2bb7 0000 0000 0400 0000 560b a8b6
00000020: 0796 85b9 0000 0000 7641 04b6 3291 53b9
00000030: 8e14 8aba e1df 1cb9 557e 23b9 e717 dbb9
00000040: 7a20 b3b9 0000 0000 0bd0 60ba 2ca7 cfba
00000050: 0000 0000 cb4a 23ba 3d48 86ba e2fa b5b9
00000060: 0400 0000 0000 0000 3dcd beb7 0000 0000
00000070: 85ec a8ba 66a9 93b7 9e00 68ba 42ac a0b6
00000080: adbd 6bb5 0000 0000 3b10 d0ba 6bfb 7aba
00000090: 5393 e3ba 0000 0000 ceb5 cfb9 e496 e6ba
000000a0: 0400 0000 7101 b0b6 910b a5b9 0000 0000
000000b0: 5728 e3b9 10eb 2535 0000 0000 0000 0000
000000c0: 0000 0000 76cc fcb6 368c 39b9 79f6 beba
000000d0: 5168 44ba 0000 0000 0000 0000 ba75 e335
000000e0: 38ec 6cb7 cbd1 ffb9 0000 0000 f64e 41ba
000000f0: 934f b0ba 0000 0000 2bd1 84b9 6c85 98b9
00000100: 0000 0000 0000 0000 0000 0000 0000 0000
00000110: 0000 0000 0000 0000 0000 0000 0000 0000
00000120: 0000 0000 0000 0000 0000 0000 0000 0000
00000130: 0000 0000 0000 0000 0000 0000 0000 0000
00000140: 0000 0000 0000 0000 0000 0000 0000 0000
00000150: 0000 0000 0000 0000 0000 0000 0000 0000
00000160: 0000 0000 0000 0000 0000 0000 0000 0000
00000170: 0000 0000 0000 0000 0000 0000 0000 0000
00000180: 0000 0000 0000 0000 0000 0000 0000 0000
00000190: 0000 0000 0000 0000 0000 0000 0000 0000
000001a0: 0000 0000 0000 0000 0000 0000 0000 0000
000001b0: 0000 0000 0000 0000 0000 0000 0000 0000
000001c0: 0000 0000 0000 0000 0000 0000 0000 0000
000001d0: 0000 0000 0000 0000 0000 0000 0000 0000
000001e0: 0000 0000 0000 0000 0000 0000 0000 0000
000001f0: 0000 0000 0000 0000 0000 0000 0000 0000
00000200: 0400 0000 0400 0000 0400 0000 0000 0000
00000210: 0400 0000 0000 0000 0400 0000 0400 0000
00000220: 0400 0000 0000 0000 0400 0000 0400 0000
00000230: 0400 0000 0400 0000 0400 0000 0400 0000
00000240: 0400 0000 0000 0000 0400 0000 0400 0000
00000250: 0000 0000 0400 0000 0400 0000 0400 0000
00000260: 0400 0000 0000 0000 0000 0000 0000 0000
00000270: 0400 0000 0400 0000 0400 0000 0400 0000
00000280: 0400 0000 0000 0000 0400 0000 0400 0000
00000290: 0400 0000 0000 0000 0400 0000 0400 0000
000002a0: 0400 0000 0400 0000 0400 0080 0000 0000
000002b0: 0400 0000 0400 0000 0000 0000 0000 0000
000002c0: 0000 0000 0400 0000 0400 0000 0400 0000
000002d0: 0400 0000 0000 0000 0000 0000 0400 0000
000002e0: 0400 0000 0400 0000 0000 0000 0400 0000
000002f0: 0400 0000 0000 0000 0400 0000 0400 0000
00000300: 0000 0000 0000 0000 0000 0000 0000 0000
00000310: 0000 0000 0000 0000 0000 0000 0000 0000
00000320: 0000 0000 0000 0000 0000 0000 0000 0000
00000330: 0000 0000 0000 0000 0000 0000 0000 0000
00000340: 0000 0000 0000 0000 0000 0000 0000 0000
00000350: 0000 0000 0000 0000 0000 0000 0000 0000
00000360: 0000 0000 0000 0000 0000 0000 0000 0000
00000370: 0000 0000 0000 0000 0000 0000 0000 0000
00000380: 0000 0000 0000 0000 0000 0000 0000 0000
00000390: 0000 0000 0000 0000 0000 0000 0000 0000
000003a0: 0000 0000 0000 0000 0000 0000 0000 0000
000003b0: 0000 0000 0000 0000 0000 0000 0000 0000
000003c0: 0000 0000 0000 0000 0000 0000 0000 0000
000003d0: 0000 0000 0000 0000 0000 0000 0000 0000
000003e0: 0000 0000 0000 0000 0000 0000 0000 0000
000003f0: 0000 0000 0000 0000 0000 0000 0000 0000
