models/starcraft/Aftershock/episodes_75000/Aftershock_line_500/PPOAgent/model.pt (torch, 173031 bytes, 33 tensors)

feature_extractor.0.weight f4 [64, 4]
0	0x3e9ebc1c	0.3100289
1	0x3e00a072	0.12561205
2	0x3c5ae72b	0.013360779
3	0xbeab5b5e	-0.33468145
4	0x3e4985ad	0.196799
5	0xbf264ef7	-0.6496424
6	0x3eb4df32	0.35326535
7	0x3d5e0268	0.054201514
8	0x3e45bdef	0.19310735
9	0x3d86207c	0.06549165
10	0xbe9382d0	-0.2881074
11	0xbc8aad1c	-0.016928248
12	0xbefc5458	-0.492831
13	0xbbd22400	-0.006412983
14	0x3e9a1142	0.30091292
15	0x3ec22e82	0.37926108
16	0xbe8d32ec	-0.27577913
17	0x3ed0c21f	0.40773103
18	0x3d428863	0.04749335
19	0x3e225a8b	0.15854852
20	0xbee7378d	-0.4515957
21	0x3f0ee59b	0.558191
22	0xbe517a8c	-0.20456904
23	0xbeed85d6	-0.4639117
24	0xbe84fa7b	-0.2597235
25	0xbd09a829	-0.033607636
26	0x3e9eaf7b	0.30993256
27	0xbb26ff6b	-0.002548183
28	0xbf4e5a9f	-0.80607027
29	0xbf051b26	-0.5199455
30	0x3eaedce3	0.34152898
31	0xbd90bb80	-0.07067013
32	0x3ef47022	0.477418
33	0x3ce51500	0.027964115
34	0xbea89dbc	-0.32932842
35	0xbdf78220	-0.12085366
36	0xbea6fc54	-0.32614386
37	0x3e3d6e8c	0.18499202
38	0xbeca804a	-0.39551002
39	0xbd32df80	-0.043670177
40	0x3d8268a0	0.06367612
41	0xbed25758	-0.41082263
42	0xbed27e78	-0.41112113
43	0xbe674768	-0.22585833
44	0xbd4fab70	-0.050700605
45	0xbd60b5d0	-0.05486089
46	0xbea3472c	-0.31890237
47	0xbe1fd1b0	-0.15607333
48	0x3df34660	0.11878657
49	0x3e6b1e34	0.2296074
50	0x3e9dbea0	0.30809498
51	0xbef11068	-0.4708283
52	0x3f5ac10c	0.85450816
53	0x3f2f42b8	0.6846118
54	0xbf1593c5	-0.58428603
55	0xbe3b19b3	-0.18271522
56	0xbeabf16c	-0.33582628
57	0x3ecc76ec	0.3993448
58	0x3d506c8f	0.05088478
59	0x3e9dc130	0.30811453
60	0xbed7056a	-0.41996318
61	0x3def67b3	0.11689701
62	0x3ed60586	0.4180109
63	0x3e4f88f5	0.20267089
64	0xbf0156de	-0.50523174
65	0x3eb87e29	0.36033753
66	0x3e1d71d7	0.15375458
67	0xbdece40d	-0.11566935
68	0xbe396918	-0.18106496
69	0xbe7844f8	-0.2424506
70	0x3eb50f56	0.35363263
71	0x3d96b580	0.07358837
72	0xbe0adf5c	-0.13561767
73	0x3e381ea4	0.17980438
74	0x3e037ae0	0.12839842
75	0xbe99f3ea	-0.30068904
76	0x3d1a7a84	0.037714496
77	0x3e21f595	0.15816338
78	0xbd7907c3	-0.060798418
79	0x3d3fdecd	0.04684334
80	0x3d8589a9	0.06520397
81	0x3e96cc3c	0.29452693
82	0xbc3077fa	-0.010770792
83	0x3cf7f2c6	0.03026713
84	0xbf3aadf7	-0.729217
85	0x3edd0ee3	0.4317542
86	0x3d6f0310	0.05835253
87	0x3e383c85	0.17991836
88	0xbebcfc3f	-0.36911198
89	0xbeb23b9b	-0.348111
90	0x3ee4e138	0.44703078
91	0xbe01ad17	-0.12663685
92	0xbf2432a8	-0.64139795
93	0x3ecd6576	0.4011647
94	0x3d385e28	0.04501167
95	0xbee90826	-0.4551403
96	0xbe79da68	-0.24399722
97	0x3ee9d63e	0.45671266
98	0x3da42560	0.08014941
99	0xbef76636	-0.48320168
100	0x3e8fde41	0.28099254
101	0x3e84aeef	0.25914714
102	0xbf276866	-0.65393674
103	0x3deec0f4	0.11657897
104	0xbc4e73c0	-0.012600839
105	0x3d26d070	0.040726125
106	0xbed9f9f8	-0.42573524
107	0xbe900442	-0.28128248
108	0x3d2dbdc8	0.042417318
109	0x3e1a61ea	0.15076414
110	0xbf315b36	-0.692798
111	0x3e6bc1e3	0.2302318
112	0xbee6c164	-0.4506942
113	0x3c89d440	0.016824841
114	0x3e7a304c	0.24432486
115	0x3c89b760	0.016811073
116	0x3e8e94c6	0.2784788
117	0xbeae7b72	-0.34078556
118	0xbf0408a6	-0.51575696
119	0x3e4fc190	0.20288682
120	0xbe8cd924	-0.27509415
121	0xbd1bab10	-0.038004935
122	0xbeb3c7a2	-0.35113245
123	0xbeb043be	-0.34426683
124	0xbe1ec02d	-0.15502997
125	0xbe8b4bf1	-0.27206376
126	0x3dc50738	0.096205175
127	0xbe981b5a	-0.29708368
128	0xbc19a240	-0.009377062
129	0xbecdfbde	-0.40231222
130	0xbe580d78	-0.21098888
131	0xbeadd43c	-0.33950984
132	0x3ee29626	0.4425518
133	0xbe9396a0	-0.28825855
134	0xbee821ea	-0.45338374
135	0x3c6589c0	0.014009893
136	0x3d2de240	0.042452097
137	0x3e71f268	0.23627627
138	0x3ee74fae	0.45177978
139	0xbee335e4	-0.44377053
140	0xbef47932	-0.47748715
141	0xbe317744	-0.17330652
142	0x3d314cf0	0.043286264
143	0xbefa89ba	-0.48933202
144	0xbeb93d0c	-0.36179388
145	0xbd9bb484	-0.0760279
146	0xbdb75af4	-0.08952895
147	0xbc952985	-0.018208275
148	0x3e918b2a	0.28426486
149	0xbf164a32	-0.58706963
150	0x3e9cbd7e	0.3061332
151	0xbede6d32	-0.43442684
152	0xbf06327a	-0.5242077
153	0x3de62c11	0.11238874
154	0xbd8d58b5	-0.06901685
155	0x3e4b4d04	0.19853598
156	0xbde72648	-0.112865984
157	0xbeb59c48	-0.35470796
158	0x3e4c95fc	0.1997909
159	0xbe5c6774	-0.21523839
160	0x3eb2e6d2	0.34941727
161	0x3e69474e	0.22781107
162	0xbeaff31c	-0.34365165
163	0xbe25200a	-0.16125503
164	0xbe0dbb84	-0.13841063
165	0xbdd2ad60	-0.10286975
166	0x3e098aa8	0.134318
167	0xbe7a2f38	-0.24432075
168	0x3ed19d9c	0.4094056
169	0xbec42590	-0.38309908
170	0xbed3dee6	-0.41380996
171	0x3dc5cb88	0.09657961
172	0x3e328bc8	0.17436135
173	0xbdfd7fbe	-0.123778805
174	0xbcd6f0fb	-0.026237955
175	0xbde77e98	-0.11303443
176	0x3e27bea4	0.16381317
177	0x3e3ff028	0.18743956
178	0xbccb1da0	-0.0247944
179	0xbef1f5d6	-0.4725787
180	0xbe91ad78	-0.2845266
181	0xbe2a8078	-0.1665057
182	0xbe453234	-0.19257432
183	0xbd9e28a0	-0.07722592
184	0x3ed29c2a	0.4113477
185	0xbdb20370	-0.08692062
186	0xbedf0f64	-0.4356643
187	0x3dd24ba0	0.102683306
188	0xbe1bd874	-0.15219289
189	0xbedc39f6	-0.4301297
190	0x3c8d1500	0.017221928
191	0x3db02338	0.086004674
192	0xbdc2a43c	-0.095039815
193	0xbe95d128	-0.29261136
194	0x3d154230	0.036440074
195	0x3d359a89	0.04433683
196	0x3d0cf08c	0.03440909
197	0xbece2c40	-0.40268135
198	0x3ecbc401	0.39797977
199	0x3e74279f	0.23843239
200	0x3f04c07f	0.51856226
201	0x3eb3351e	0.35001463
202	0x3d75d29e	0.060015313
203	0xbecbeb3d	-0.3982791
204	0xbe0ffd89	-0.1406156
205	0x3e3be451	0.18348815
206	0xbe21e900	-0.15811539
207	0x3d860d67	0.06545525
208	0xbe9e5e34	-0.30931246
209	0x3e3e103a	0.18560877
210	0xbdf5cc84	-0.12001899
211	0xbeee6109	-0.46558407
212	0x3efaeb55	0.4900767
213	0x3dda2a2a	0.106525734
214	0xbf1d06bf	-0.6133842
215	0xbdad091b	-0.08449002
216	0x3e7f1f10	0.24914193
217	0xbe907cd6	-0.28220242
218	0x3e102620	0.14077044
219	0xbee01afa	-0.4377058
220	0x3e842e70	0.2581668
221	0xbf0684b9	-0.5254627
222	0xbdf44d2c	-0.11928782
223	0x3ed4aa67	0.41536257
224	0x3edbca5c	0.42927825
225	0xbef7f4ba	-0.484289
226	0x3e80d790	0.2516446
227	0xbe384c21	-0.17997791
228	0xbf6acc4a	-0.9171797
229	0x3f80afc4	1.005364
230	0x3e4b6db1	0.19866063
231	0xbde43e8e	-0.11144744
232	0xbf4a80fa	-0.7910305
233	0x3eb9a86a	0.36261302
234	0xbed9df61	-0.42553237
235	0x3e83d690	0.25749636
236	0xbf0f971c	-0.5608995
237	0x3e888cab	0.2666982
238	0xbeafec3d	-0.34359923
239	0x3e65fed2	0.22460487
240	0xbe8e169c	-0.27751625
241	0xbdc5c1c8	-0.096561015
242	0xbd764860	-0.060127616
243	0xbe6c368c	-0.23067683
244	0x3db69aae	0.089162216
245	0x3e77baec	0.24192399
246	0xbd1a820a	-0.03772167
247	0xbdfbcc86	-0.12294869
248	0xbd1b6a20	-0.037943006
249	0x3eaf0cf0	0.34189558
250	0xbef9156c	-0.48649156
251	0xbd9ff720	-0.07810807
252	0xbef59f0a	-0.479729
253	0x3ed8415a	0.4223736
254	0xbe36f578	-0.17867076
255	0xbbcba300	-0.0062144995

feature_extractor.0.bias f4 [64]
0	0xbe13dba2	-0.14439252
1	0x3c9ac83a	0.018894304
2	0xbc75f5a3	-0.015012178
3	0xbefe7662	-0.49699694
4	0xbece3042	-0.40271193
5	0x3e6c1008	0.2305299
6	0xbe0d7448	-0.13813889
7	0x3f017c71	0.5058051
8	0xbed72e0e	-0.42027324
9	0xbe8dfb82	-0.27730948
10	0xbd507100	-0.050889015
11	0xbeae8b38	-0.3409059
12	0xbe623fe4	-0.22094685
13	0xbf068bdb	-0.5255715
14	0xbf008d51	-0.5021563
15	0xbed6adfe	-0.4192962
16	0xbe04c118	-0.12964284
17	0xbeb75b80	-0.35811996
18	0xbec0dce4	-0.37668526
19	0xbe3b0712	-0.18264416
20	0xbed07076	-0.407108
21	0xbe47c8c2	-0.19510177
22	0x3d6ecc45	0.058300275
23	0x3e9153f2	0.28384358
24	0xbe707c28	-0.23484862
25	0xbd559059	-0.052139614
26	0xbea092b6	-0.31361932
27	0x3e3025a6	0.17201862
28	0xbd46b000	-0.04850769
29	0x3e0be99e	0.13663337
30	0x3ee40340	0.4453373
31	0x3eb83570	0.3597827
32	0x3ee30494	0.4433943
33	0xbeedf458	-0.46475482
34	0xbeabc566	-0.3354904
35	0xbe8c997e	-0.27460855
36	0x3e7f6830	0.24942088
37	0x3db17a5c	0.08665916
38	0xbb7055ae	-0.0036672163
39	0x3d6ef680	0.05834055
40	0xbe074668	-0.13210452
41	0xbee615aa	-0.44938403
42	0xbe90829a	-0.2822464
43	0x3cc8fc59	0.024534391
44	0xbe58cdd0	-0.21172261
45	0xbea506f8	-0.3223188
46	0xbe9e9414	-0.3097235
47	0xbd0c1fb0	-0.034209907
48	0x3dedcca4	0.11611298
49	0xbeb671d7	-0.35633728
50	0xbf025827	-0.5091576
51	0xbcdfbdc2	-0.027312163
52	0x3ee5fa4d	0.44917527
53	0x3cd8a4cf	0.026445774
54	0x3e5baab5	0.21451838
55	0xbdb62e38	-0.08895534
56	0xbe1265e4	-0.1429668
57	0xbe54171c	-0.2071194
58	0x3e3c7b20	0.18406343
59	0x3e1c8853	0.15286379
60	0xbee247de	-0.44195455
61	0xbe6d1b4d	-0.23154946
62	0x3da05d78	0.07830328
63	0xbeb9a2de	-0.3625707

feature_extractor.2.weight f4 [64, 64]
0	0x3dc24efb	0.094877206
1	0xbcb9620d	-0.022629762
2	0x3ddc9004	0.10769656
3	0xbd9a4228	-0.075321496
4	0xbeaf9a25	-0.3429729
5	0xbf1cacf1	-0.6120139
6	0xbd10082f	-0.035164054
7	0xbf4ebc69	-0.8075624
8	0x3d254e28	0.04035774
9	0x3cd52fb0	0.026023716
10	0xbda30a80	-0.07960987
11	0xbbedbba0	-0.0072550327
12	0x3dafc3f8	0.085823
13	0x3f54dbd9	0.8314796
14	0xbea44f61	-0.3209181
15	0xbe135b8a	-0.14390388
16	0xbda4ac53	-0.08040681
17	0xbc5be2c0	-0.013420761
18	0xbd7e2320	-0.062045217
19	0x3af6696b	0.0018799728
20	0x3c153607	0.009107119
21	0xbe8f41d4	-0.2797991
22	0xbdbb6d7a	-0.0915174
23	0xbf00decd	-0.50339967
24	0xbc9b7e60	-0.018981159
25	0xbe417e61	-0.18895866
26	0xbdcf7558	-0.101298034
27	0xbd253049	-0.04032925
28	0xbd88f7e6	-0.06687908
29	0x3e520d3d	0.20512863
30	0x3ddd78c6	0.10814051
31	0x3dca8fbe	0.09890698
32	0x3dc06052	0.09393372
33	0x3da46600	0.080272675
34	0xbd85b1f4	-0.065280825
35	0x3cb17530	0.021662325
36	0xbe4c17ca	-0.1993095
37	0x3e9bf4ab	0.30460104
38	0xbec505a0	-0.38480854
39	0x3c27dd30	0.010245606
40	0xbdcb35ab	-0.09922346
41	0x3d89d25c	0.06729576
42	0x3cf71fe8	0.030166581
43	0x3d2ed3e3	0.04268254
44	0x3db3a606	0.08771901
45	0xbdff1770	-0.12455642
46	0xbbbc8260	-0.0057528466
47	0x3db5060c	0.08839044
48	0x3c905d57	0.017622633
49	0x3d12ebea	0.035869516
50	0xbd854cf2	-0.06508817
51	0xbe19dee0	-0.15026426
52	0xbe8da1dc	-0.2766255
53	0x3d70555e	0.058675162
54	0x3d065478	0.0327954
55	0x3e332719	0.17495383
56	0x3ea17422	0.31533915
57	0x3f5f94dc	0.87336516
58	0xbf51f7f9	-0.82019
59	0xbee27fce	-0.44238132
60	0x3d0c2e60	0.034223914
61	0x3dee1eb8	0.11626953
62	0xbcff43b8	-0.03116022
63	0xbd36c738	-0.044623584
64	0xbb9f40cf	-0.0048600207
65	0x3d9b744c	0.07590541
66	0xbd047867	-0.032341387
67	0xbd07c9ac	-0.033151314
68	0xbd190488	-0.037357837
69	0xbdb2d49b	-0.087319575
70	0x3c0d68f2	0.008630978
71	0xba9aedbe	-0.001182012
72	0xbd7086ec	-0.05872242
73	0xbd669d10	-0.05630213
74	0x3d162a2c	0.036661312
75	0xbd36ece8	-0.044659525
76	0xbdfbdba6	-0.12297754
77	0xbc86c30a	-0.016450424
78	0xbda4c2fb	-0.08045002
79	0x3dbaef1b	0.09127637
80	0x3d28fe84	0.04125835
81	0x3d6a6698	0.057226747
82	0x3dd16cfc	0.10225865
83	0x3d81c37c	0.06336114
84	0x3ad13f15	0.0015964234
85	0xbd7b3d2f	-0.061337646
86	0xbd8e515e	-0.06949113
87	0x3da0fdb8	0.07860893
88	0xbdaef2a6	-0.08542375
89	0xbd91d992	-0.07121576
90	0x3dc9eb34	0.098593146
91	0xbcc81c30	-0.024427503
92	0x3d884e2e	0.066555366
93	0x3dca3486	0.09873299
94	0xbd8ea310	-0.069646955
95	0xbdade666	-0.08491211
96	0x3d3cf9bc	0.046136603
97	0x3bf36c00	0.007428646
98	0x3d6ed46c	0.05830805
99	0xbd8b37f0	-0.067977786
100	0xbdb8f60d	-0.090313055
101	0xbc8777b9	-0.01653658
102	0xbd9ee9ad	-0.07759414
103	0xbd1bc008	-0.038024932
104	0x3db627ce	0.08894311
105	0xbd8a239e	-0.06745075
106	0x3d2f0eb8	0.042738646
107	0x3daaa714	0.08332649
108	0x3d9776b4	0.07395688
109	0x3dde03f2	0.10840596
110	0x3da67580	0.0812788
111	0x3cb03808	0.021511093
112	0x3d58db2d	0.052943397
113	0x3d71246c	0.058872625
114	0x3d87bf74	0.06628314
115	0x3dc0f1f8	0.09421152
116	0xbd35ab94	-0.044353083
117	0x3d717c63	0.058956515
118	0xbdf6ffa6	-0.1206048
119	0x3ce343f7	0.02774237
120	0xbd07ad73	-0.0331244
121	0x3cf873cd	0.030328656
122	0xbcf25c15	-0.029584924
123	0xbda4f168	-0.08053857
124	0xbdf7e750	-0.12104666
125	0x3d80ea60	0.062947035
126	0xbdb284d0	-0.08716738
127	0x3d9dcd0c	0.07705125
128	0xbe7768cb	-0.24161069
129	0xbef297bc	-0.4738139
130	0xbc2dc334	-0.010605622
131	0xbd62dd08	-0.055386573
132	0x3d5e04a3	0.05420364
133	0x3f16d0bb	0.5891225
134	0x3e17bd9b	0.14818422
135	0xbfbd20b3	-1.4775604
136	0xbb89fae0	-0.004210815
137	0x3dfb52c0	0.12271643
138	0x3d816c14	0.063194424
139	0xbdb30498	-0.087411106
140	0xbd5acf00	-0.053420067
141	0xbf91835a	-1.136821
142	0x3dee9ac9	0.11650617
143	0x3d9e498e	0.07728873
144	0xbdf60185	-0.120120086
145	0xbd95c3f8	-0.07312769
146	0xbcf3e3c0	-0.029771686
147	0x3d2e76a8	0.04259363
148	0x3db05f15	0.086118855
149	0x3efd3870	0.4945712
150	0x3db7c402	0.089729324
151	0x3e586d24	0.21135384
152	0xbdb350c6	-0.08755641
153	0xbe528ff4	-0.20562726
154	0x3ddb129e	0.1069691
155	0xba9bf8d3	-0.0011899717
156	0xbdd1b3c2	-0.10239364
157	0xbe659ba5	-0.22422655
158	0xbdbe7882	-0.09300329
159	0x3de44504	0.11145976
160	0xbdec1570	-0.115275264
161	0xbdec12b4	-0.11527005
162	0x3dd0f8a0	0.102036715
163	0x3d103478	0.035206288
164	0x3cdb8826	0.02679832
165	0xbedb35d4	-0.42814505
166	0x3ebf60d5	0.37378564
167	0xbbb1b4e0	-0.0054231733
168	0xbe5966e1	-0.21230651
169	0xbddba6dc	-0.10725185
170	0x3ded57a4	0.11588982
171	0xbe0728ec	-0.13199204
172	0x3d85586a	0.06511004
173	0xbda9c11a	-0.08288784
174	0xbd49b83c	-0.049247965
175	0xbdbf04f6	-0.09327118
176	0xbdd987e8	-0.10621625
177	0xbd60ab00	-0.05485058
178	0x3e6570ff	0.22406386
179	0x3da19c0a	0.0789109
180	0xbd0ea9be	-0.034829848
181	0xbeb0e550	-0.34549952
182	0xbd95ecdc	-0.07320568
183	0xbe90127d	-0.28139105
184	0xbe6d8582	-0.2319546
185	0x402463a0	2.5685806
186	0x3f23a0fd	0.63917524
187	0x3e7df46c	0.24800271
188	0x3da8e55e	0.08246873
189	0x3ba4306d	0.0050106556
190	0xbd2fa2b4	-0.042879775
191	0xbd6699f8	-0.05629918
192	0x3d2e9fc0	0.04263282
193	0xbc5447c0	-0.01295656
194	0x3db0d380	0.086340904
195	0x3d546b28	0.051860005
196	0xbda4af8e	-0.08041297
197	0xbd22e0ec	-0.039765283
198	0xbcc05c70	-0.023481578
199	0xbdaaa03e	-0.08331345
200	0xbd366160	-0.044526458
201	0xbd100bb8	-0.035167426
202	0x3cb5fb10	0.022214442
203	0x3d6953fc	0.05696486
204	0xbdef36c2	-0.11680366
205	0x3d4b29a0	0.049600244
206	0xbccb4328	-0.024812296
207	0xbd98a774	-0.07453814
208	0x3dde4212	0.10852446
209	0xbd4dc578	-0.05023715
210	0x3d8d521c	0.06900427
211	0xbc76f860	-0.015073866
212	0x3ce34028	0.027740553
213	0xbdf82aca	-0.12117536
214	0x3d019144	0.031632677
215	0x3dd20768	0.10255319
216	0x3b5b4880	0.0033459961
217	0xbd9e5d86	-0.07732682
218	0xbcf65340	-0.030068994
219	0xbc946e08	-0.018118873
220	0xbb756240	-0.0037442595
221	0xbdcb3536	-0.099222586
222	0x3d811af4	0.06303969
223	0xbb6b20c0	-0.0035877675
224	0xbd2921bc	-0.041291937
225	0x3d5e8e54	0.054334953
226	0x3dce6e56	0.10079639
227	0x3d93c948	0.07216126
228	0xbd96a450	-0.07355559
229	0x3dd10a9e	0.10207103
230	0xbdc0ab78	-0.09407705
231	0x3dafb140	0.0857873
232	0x3de4fb32	0.11180724
233	0x3cf61fa8	0.030044392
234	0xbdcb6d80	-0.09932995
235	0xbd8ad42e	-0.06778751
236	0x3d1d4eb4	0.038405135
237	0xbdf955fc	-0.12174603
238	0x3c9ac898	0.018894479
239	0xbcd3df58	-0.025863335
240	0x3d2691e4	0.040666476
241	0x3ded3d2e	0.11583935
242	0xbdf1d14c	-0.11807498
243	0x3dcd9a22	0.10039164
244	0xbd6c18f0	-0.05764097
245	0x3d3a95ac	0.045552894
246	0xbc714d30	-0.014727876
247	0x3d897d50	0.067133546
248	0x3d1e03d0	0.038577855
249	0x3da86058	0.08221501
250	0xbdaa8460	-0.0832603
251	0xbcb6b030	-0.02230081
252	0x3ddc6eb8	0.107633054
253	0xbcaf79b8	-0.021420345
254	0x3d0fc394	0.035098627
255	0xbd9f40e0	-0.07776046

feature_extractor.2.bias f4 [64]
0	0xbd17e372	-0.037082143
1	0xbdbc2516	-0.09186761
2	0xbf39480c	-0.7237556
3	0xbdff9e74	-0.124813944
4	0xbe98e8bf	-0.2986507
5	0xbdc4775f	-0.09593081
6	0x3b4ee796	0.0031571141
7	0xb98a931a	-0.0002643101
8	0xbd7d15be	-0.061788313
9	0x3e378c03	0.17924504
10	0xbe9927da	-0.29913217
11	0xbd3ae373	-0.04562707
12	0x3da4b74d	0.08042774
13	0xbd3f8bc8	-0.046764165
14	0x3e290c55	0.1650861
15	0xbeaadf4a	-0.3337348
16	0xbb842d01	-0.004033685
17	0xbeaa034b	-0.33205637
18	0xbda6c93a	-0.0814385
19	0x3e411aff	0.18857954
20	0x3e8cbe9c	0.27489173
21	0x3dd635a6	0.104594514
22	0xbd5a333a	-0.05327151
23	0xbd9927cb	-0.07478293
24	0xbd270e50	-0.040785134
25	0xbd3ee364	-0.046603575
26	0xbdccebea	-0.100059345
27	0xbd33a290	-0.043856204
28	0xbdcbd54b	-0.09952792
29	0x3e381b36	0.1797913
30	0x3e18803c	0.14892668
31	0xbdc11827	-0.09428435
32	0xbd4695da	-0.048482753
33	0x3e5afbfd	0.21385188
34	0xbdd74688	-0.105115
35	0xbee83c28	-0.45358396
36	0xbe82c4ba	-0.25540715
37	0x3e63b94b	0.22238652
38	0xbe112773	-0.14175205
39	0xbde79fd2	-0.1130978
40	0xbda710b0	-0.0815748
41	0xbd829ed6	-0.06377952
42	0xbdefb2a1	-0.11703993
43	0xbd90415e	-0.07043718
44	0xbdb4101e	-0.087921366
45	0xbdfed6f6	-0.12443344
46	0xb9fad057	-0.0004783894
47	0xbd9f03aa	-0.07764371
48	0xbdd3a28a	-0.10333736
49	0xbd9fa372	-0.077948466
50	0xbc1c9d3b	-0.009558971
51	0xbe7d6770	-0.2474649
52	0xbdaab91b	-0.08336087
53	0xbc6d1071	-0.014469252
54	0xbde78dd4	-0.113063484
55	0xbdba0edd	-0.09084866
56	0xbf05b003	-0.522217
57	0xbd6d5f7c	-0.05795239
58	0xbdef1212	-0.116733685
59	0x3d9c489f	0.07631039
60	0xbd6a2ed8	-0.05717358
61	0x3d2b6344	0.041842714
62	0xbd9e1ad6	-0.07719962
63	0xbd3b21d2	-0.04568655

actor.0.weight f4 [64, 64]
0	0x3cba195a	0.022717167
1	0xbd1f4068	-0.038879782
2	0xbe26091b	-0.16214411
3	0x3d8997f6	0.067184374
4	0xbcb37048	-0.021904126
5	0xbdc84730	-0.09779203
6	0xbdc16e44	-0.094448596
7	0x3d9d27b8	0.076735914
8	0xbdd8189f	-0.10551571
9	0x3d46abcd	0.048503686
10	0xbe3a81d8	-0.18213594
11	0xbce64090	-0.028106958
12	0xbe630438	-0.22169578
13	0x3deeac0e	0.116539106
14	0xbc9af8e2	-0.018917505
15	0xbd1f6933	-0.038918685
16	0x3dcf23aa	0.10114224
17	0x3c19dbca	0.009390781
18	0xbdb9b7b6	-0.09068243
19	0xbd98aea2	-0.074551836
20	0xbdbc4ace	-0.09193955
21	0x3d23d24e	0.039995484
22	0xbca16640	-0.019702077
23	0xbdb9ee88	-0.09078699
24	0x3e0abcfd	0.13548656
25	0xbd8ee1fe	-0.06976698
26	0x3daac2f2	0.08337964
27	0xbe1a5372	-0.15070894
28	0xbe16e612	-0.14736202
29	0xbde69f41	-0.11260844
30	0xbd1ed018	-0.038772672
31	0x3de58824	0.112076074
32	0x3c618ee5	0.013766979
33	0xbe05b4cf	-0.13057254
34	0xbd5b7e34	-0.053587154
35	0x3df95654	0.12174669
36	0x3d42546a	0.047443785
37	0x3db9853e	0.09058617
38	0x3e169ff2	0.14709452
39	0x3cf810c8	0.03028144
40	0xbdd26972	-0.10274018
41	0xbdd91f5a	-0.10601683
42	0x3c9a2998	0.018818662
43	0x3cb7eb4c	0.022451065
44	0x3d0f39fc	0.034967408
45	0xbcdcbdc0	-0.026945949
46	0xbde45569	-0.11149103
47	0x3bf4acc0	0.0074668825
48	0x3d13df4a	0.036101617
49	0xbd89fb30	-0.06737363
50	0x3e11711a	0.14203301
51	0xbe2da38d	-0.16956921
52	0x3d538308	0.051638633
53	0x3d46eb86	0.048564456
54	0xbc9bbac9	-0.019009965
55	0x3de77a88	0.11302668
56	0xbdb99963	-0.09062459
57	0x3cb267e5	0.021778056
58	0x3de7b2ee	0.11313425
59	0xbcdbcda0	-0.026831448
60	0xbd89a798	-0.06721419
61	0xbcd960af	-0.02653536
62	0xbdf62b26	-0.12019949
63	0x3dbb0b10	0.091329694
64	0x3f07f7a4	0.53112245
65	0xbc3dd4b8	-0.011586361
66	0x3f1b2983	0.60610217
67	0x3dd99b04	0.1062527
68	0xbedfaead	-0.43687955
69	0xbd83ac4c	-0.064293474
70	0xbe6d90e7	-0.23199807
71	0x3d8be2e3	0.068303846
72	0x3ea253c1	0.31704524
73	0x3ef84143	0.4848729
74	0x3eb91b56	0.36153668
75	0x3d948322	0.07251574
76	0xbf0b2205	-0.54348785
77	0xbc38195f	-0.011236518
78	0xbf39f266	-0.72635496
79	0xbf334525	-0.7002738
80	0x3d980658	0.07423085
81	0xbeee33b0	-0.4652381
82	0x3c99c700	0.018771648
83	0x3fb65141	1.4243547
84	0x3f1efb76	0.6210245
85	0x3f036daf	0.5133924
86	0xbdf84886	-0.12123208
87	0x3c9e2fe7	0.019309951
88	0x3d4a0bdb	0.049327713
89	0xbc252e20	-0.010081798
90	0xbcce01f8	-0.025147423
91	0x3e008df5	0.12554152
92	0x3f124cc0	0.5714836
93	0xbfa090a8	-1.2544146
94	0xbd150a30	-0.03638667
95	0xbe2c1749	-0.16805758
96	0x3c8d2168	0.017227843
97	0x3e18c3f2	0.14918497
98	0xbd943772	-0.07237138
99	0x3fb7b0fb	1.4350885
100	0x3effee8f	0.49986693
101	0xbf1431d3	-0.57888526
102	0x3da2ce25	0.07949475
103	0xbe0147f0	-0.12625098
104	0xbcfe13f8	-0.031015381
105	0xbdf92d1e	-0.121668085
106	0x3d27c66c	0.040960714
107	0x3d8312d2	0.06400074
108	0x3d1def80	0.038558483
109	0x3b285740	0.002568677
110	0x3db0a5a8	0.086253464
111	0xbdf120f6	-0.11773865
112	0x3ea4cfbd	0.32189742
113	0x3d55b4ef	0.052174505
114	0x3fa4ed68	1.2884951
115	0xbeafddfc	-0.34349048
116	0x3d83360e	0.064067945
117	0x3c93218c	0.017960332
118	0x3d2602be	0.04052996
119	0x3d64c620	0.05585301
120	0xbe9640a4	-0.29346192
121	0x3e91dd19	0.28488997
122	0xbc8a4271	-0.016877385
123	0xbfcd054d	-1.6017243
124	0x3d88aa24	0.06673077
125	0x3f12be18	0.5732131
126	0xbd860dce	-0.06545602
127	0x3f555816	0.83337533
128	0xbe30810a	-0.17236724
129	0xbcaf6713	-0.021411454
130	0x3e89d0f1	0.26917222
131	0xbd0440d8	-0.032288402
132	0xbedfd7a6	-0.43719214
133	0xbd714257	-0.058901157
134	0xbeede9c0	-0.464674
135	0xbdcec1af	-0.10095536
136	0x3cb7188c	0.022350572
137	0x3eaaf48c	0.333897
138	0xbf72bdd6	-0.94820917
139	0xbe6160ef	-0.22009633
140	0xbe669b5d	-0.22520204
141	0xbcf62e28	-0.030051306
142	0x3e1b7cb1	0.15184285
143	0xbef90a85	-0.48640838
144	0xbc90fee7	-0.017699672
145	0x3f76e93e	0.9644965
146	0x3da58de4	0.08083704
147	0x3f460554	0.7735188
148	0x3e035752	0.12826279
149	0x3f09dbf4	0.53851247
150	0x3c0cf8d0	0.008604243
151	0x3d17e920	0.03708756
152	0xbd9dd4f7	-0.077066354
153	0x3d1c5d40	0.038174868
154	0x3dc5b57e	0.096537575
155	0xbd7847f6	-0.060615502
156	0x3f1e859b	0.61922616
157	0xbf20c511	-0.628007
158	0xbdd8db25	-0.105886735
159	0xbecf1f42	-0.40453535
160	0xbe833fb7	-0.25634548
161	0x3f3b8399	0.7324768
162	0x3ddba240	0.10724306
163	0x3fd034ae	1.6266077
164	0x3dbfd431	0.09366644
165	0xbe1b59d5	-0.15170987
166	0xbe2d7e05	-0.16942604
167	0xbad344e8	-0.0016118558
168	0x3d8c5fae	0.06854187
169	0x3c715c80	0.014731526
170	0x3ca617ff	0.020275114
171	0xbe4dc427	-0.20094357
172	0x3b24af40	0.0025128871
173	0x3d6ace1c	0.057325467
174	0xbd901f2b	-0.07037195
175	0x3a0a6200	0.00052788854
176	0x3dbd26b9	0.092359014
177	0xbd7882c8	-0.060671598
178	0x3f203143	0.6257517
179	0x3ef326ec	0.47490633
180	0x3cad4ce6	0.021154832
181	0xbe045029	-0.12921204
182	0x3d36f4af	0.044666942
183	0x3d6fcd80	0.05854559
184	0x3f9747db	1.1818804
185	0x3c4818c9	0.0122129405
186	0xbe41ad8e	-0.18913862
187	0xbfbf335d	-1.493755
188	0x3dd530bc	0.10409686
189	0x3fa271ec	1.2691016
190	0x3dcb7cca	0.09935911
191	0x3f3b3295	0.7312406
192	0xbda35c75	-0.07976619
193	0xbd3646ef	-0.04450124
194	0x3d9f4f1e	0.07778762
195	0xbdd9b1aa	-0.1062959
196	0x3da88bd3	0.08229794
197	0x3d6e1403	0.058124553
198	0xbd1197e0	-0.03554523
199	0xbdf261ba	-0.11835046
200	0xbe1a878e	-0.15090773
201	0xbdadc033	-0.08483925
202	0xbdd8452f	-0.10560071
203	0x3c5cb57f	0.013471006
204	0x3d94acea	0.07259543
205	0xbde32a48	-0.11092049
206	0x3d2b5a41	0.04183412
207	0xbe1de421	-0.15419056
208	0xbc8964b8	-0.01677166
209	0xbdf67a7a	-0.12035079
210	0x3db21d2a	0.08696969
211	0x3d23144d	0.039814282
212	0xbb80cea6	-0.0039308844
213	0x3d85ba75	0.065297045
214	0x3db76366	0.089545056
215	0x3d645575	0.05574556
216	0x3d529124	0.051407948
217	0x3dbbe65a	0.091747954
218	0xbd8040ee	-0.06262384
219	0xbde6d6a2	-0.11271407
220	0x3ce2e82c	0.027698599
221	0x3d51cde1	0.051221732
222	0xbe41053f	-0.18849657
223	0xbdf5bdd4	-0.119990975
224	0xbd5f55d0	-0.054525197
225	0xbd8735f6	-0.06602089
226	0x3df8dd14	0.12151542
227	0x3de14f38	0.11001438
228	0x3bb307f6	0.0054635955
229	0x3dad5b63	0.08464696
230	0xbde402fa	-0.1113338
231	0xbd4ab7e8	-0.049491793
232	0x3d97456a	0.073862866
233	0xbd844362	-0.06458165
234	0xbd97f9ea	-0.07420714
235	0x3d692f5b	0.056929927
236	0x3ce841a0	0.028351605
237	0x3dcd5516	0.100259945
238	0xbdecf0f2	-0.11569394
239	0xbd88cb74	-0.066794306
240	0xbde67447	-0.11252647
241	0xbd86f8b9	-0.06590409
242	0x3d1c4c7a	0.03815887
243	0xbd09c206	-0.0336323
244	0x388e0800	6.772578e-05
245	0xbc6a8c33	-0.014315653
246	0xbd9676cb	-0.07346877
247	0x3d10169c	0.035177812
248	0x3b8f5b2f	0.0043748836
249	0xbe05a626	-0.13051662
250	0x3d0d41ad	0.03448646
251	0xbddde2de	-0.10834287
252	0xbd100364	-0.035159484
253	0x3d0ee00a	0.03488163
254	0x3ccaaf10	0.02474168
255	0xbc5d0bbb	-0.013491566

actor.0.bias f4 [64]
0	0xbde97ff4	-0.11401358
1	0xbd7faf28	-0.0624229
2	0xbf251b8a	-0.64495146
3	0xbdc77866	-0.09739761
4	0xbddc739a	-0.10764237
5	0x3ed0b518	0.40763164
6	0xbe32b954	-0.1745351
7	0xbd40d821	-0.047081117
8	0xbcfc0dbc	-0.030768268
9	0xbdf1db32	-0.11809386
10	0xbdca0f6a	-0.09866221
11	0xbe8d9d02	-0.2765885
12	0x3cd6b89d	0.026211077
13	0xbd3cbf99	-0.04608116
14	0xbd4015ba	-0.04689572
15	0xbe0c608b	-0.13708703
16	0x3da48308	0.08032805
17	0x3f24d129	0.64381653
18	0x3ea2d9f5	0.31806913
19	0x3e64853b	0.22316448
20	0x3cada3bc	0.021196239
21	0x3ea1bdda	0.31590158
22	0xbdd726ca	-0.10505445
23	0xbe0a69ad	-0.13516875
24	0x3d4b7f58	0.04968199
25	0xbe504d0a	-0.20341888
26	0xbcf59325	-0.02997739
27	0xbdc5f075	-0.09665004
28	0xbe0c5bd1	-0.137069
29	0xbdf4596f	-0.119311206
30	0xbd0b3e3f	-0.03399491
31	0xbd4e73e1	-0.05040348
32	0xbd8240a2	-0.06359984
33	0xbce6ebdf	-0.028188644
34	0xbc9895df	-0.018626152
35	0x3e447fb7	0.19189344
36	0xbce27b28	-0.027646616
37	0xbe2c6eb8	-0.16839111
38	0xbd40eb0b	-0.047099154
39	0xbe2f3c2c	-0.17112797
40	0xbe5a4d37	-0.21318518
41	0x3cf68bab	0.030095896
42	0xbca428fc	-0.020039074
43	0x3f3fc034	0.74902654
44	0xbe071b70	-0.1319406
45	0x3dbf413a	0.09338613
46	0x3e6132c4	0.21992022
47	0xbd298daf	-0.041394886
48	0xbddfb12b	-0.10922464
49	0x3e0c64ff	0.13710402
50	0xbd6aec23	-0.057354104
51	0xbccd8d58	-0.025091812
52	0x3c8c153b	0.017099967
53	0xbddb9e8d	-0.107236005
54	0x3e570d14	0.21001083
55	0x3ebabd0f	0.36472365
56	0xbcb5c2e4	-0.022187658
57	0xbefb5d83	-0.4909478
58	0xbda399a5	-0.0798829
59	0xbe997726	-0.29973716
60	0xbce21e22	-0.02760226
61	0xbdbae484	-0.09125617
62	0x3bab410f	0.0052262614
63	0xbde593a0	-0.11209798

actor.2.weight f4 [8, 64]
0	0x3ddb5ae2	0.10710694
1	0x3e9d1e90	0.3068738
2	0x3fcdfee3	1.609341
3	0xbb0a4495	-0.0021098007
4	0xbc2a7865	-0.010404681
5	0xbef06946	-0.46955317
6	0x3f915583	1.1354221
7	0xbea71b79	-0.32638147
8	0x3f289370	0.6584997
9	0xbd2634be	-0.040577643
10	0x3e5bd7b7	0.21469007
11	0x3d71604d	0.05892973
12	0xbe99dad1	-0.30049756
13	0x3de97b64	0.11400488
14	0x3f2c7868	0.67371225
15	0xbe9db411	-0.30801442
16	0x3f457232	0.77127373
17	0x3fef83de	1.8712118
18	0xbeb0aeb8	-0.345083
19	0x3eca73fd	0.39541617
20	0x3dcae8e6	0.09907703
21	0x3f2c1532	0.6721984
22	0xbcd7c58f	-0.02633932
23	0x3d9bccec	0.07607445
24	0x3f9609e3	1.1721767
25	0x3f4b9fca	0.79540694
26	0x3d986e60	0.07442927
27	0x3cdceb9f	0.026967822
28	0xbd7ddc89	-0.061977897
29	0xbd81e51c	-0.06342527
30	0xbcf59781	-0.02997947
31	0xbb032b0e	-0.0020014676
32	0xbda534a9	-0.08066685
33	0xbf53af3e	-0.82689273
34	0xbb7bc404	-0.0038416395
35	0xbdba20b2	-0.090882674
36	0xbd57cc86	-0.052685283
37	0x3d25eb29	0.04050747
38	0x3cf0bf00	0.02938795
39	0x3e6abaef	0.22922872
40	0x3e2a19c7	0.16611396
41	0x3fb10ebd	1.3832623
42	0x3c8de49d	0.017320925
43	0x3e9ab38f	0.30215117
44	0x3dbdfaf8	0.09276384
45	0xbf7767ee	-0.9664296
46	0xbe25b1db	-0.16181128
47	0x39af715e	0.00033463066
48	0x3f470fb3	0.7775833
49	0xbea65433	-0.32486114
50	0x3e11e188	0.1424619
51	0x3f1f117e	0.62136066
52	0x3f0e210c	0.55519176
53	0x3e217098	0.15765607
54	0xbefa13b4	-0.48843157
55	0x3f1dc556	0.61629236
56	0x3d08dae1	0.033411864
57	0x3f646490	0.89215946
58	0xbe01d0e3	-0.1267734
59	0x3f2da74d	0.67833406
60	0xbc44c035	-0.012008716
61	0xbd9bc1bc	-0.07605311
62	0x3c7da622	0.015481504
63	0xbbd4a841	-0.006489784
64	0x3e5cdb26	0.21567973
65	0x3e5f6d3d	0.21819015
66	0x3fa9c74a	1.3263943
67	0x3c921511	0.01783231
68	0x3f2843ef	0.6572866
69	0xbfbc49ba	-1.471
70	0x3fc8ba24	1.5681806
71	0x3e0d439b	0.1379532
72	0x3ea30576	0.31840104
73	0x3d984769	0.074354954
74	0x3e436acc	0.19083709
75	0x3fa5cea8	1.2953691
76	0xbf0ccc53	-0.54999274
77	0x3bca3ac9	0.0061715585
78	0x3ee430c7	0.44568464
79	0x3ea0684b	0.3132957
80	0x3f6775b2	0.90413964
81	0x3faad075	1.3344866
82	0x3ee6b954	0.4506327
83	0x3f3ae321	0.7300282
84	0xbe0024bf	-0.12514018
85	0x3f94f332	1.1636717
86	0x3f096e0f	0.5368356
87	0xbd6a0401	-0.057132725
88	0x3f5821ef	0.8442678
89	0x3fa340bb	1.2754129
90	0xbf28a377	-0.6587443
91	0xbc8593bc	-0.016305797
92	0xbca4e9a7	-0.020130945
93	0xbb37862f	-0.0028003564
94	0x3ce2cc1e	0.027685221
95	0xbbce2cf8	-0.006291982
96	0xbbd71793	-0.0065640896
97	0xbee4a79d	-0.4465913
98	0xbe2f5282	-0.17121318
99	0xbf07ad6b	-0.5299899
100	0xbe024bd6	-0.12724242
101	0x3d888274	0.06665507
102	0xbc6fc1da	-0.01463362
103	0x3e905686	0.28191012
104	0x3f3a2270	0.727088
105	0x3f69cbb8	0.91326475
106	0xbccbcf8e	-0.024879243
107	0x3fca5e50	1.5810032
108	0x3e4af3dc	0.19819587
109	0xbedc2104	-0.4299394
110	0x3d455f62	0.048186667
111	0x3dd1157c	0.10209176
112	0x3f1e1e58	0.6176505
113	0x3e8b6162	0.27222735
114	0xbddc9b0d	-0.10771761
115	0xbebbb17a	-0.3665884
116	0xbe1986cf	-0.14992832
117	0x3de0b68a	0.109723166
118	0x3eb1c118	0.3471763
119	0x3f33b1fd	0.70193464
120	0xbe71086a	-0.23538366
121	0xbe0d7d1f	-0.13817261
122	0x3ead8533	0.33890685
123	0x3fb220cf	1.3916262
124	0xbcaec24a	-0.021332879
125	0x3dfe125e	0.12405847
126	0x3eebd3d0	0.46060038
127	0x3e01844f	0.12648128
128	0xbe12c5a9	-0.14333214
129	0xbeccee77	-0.40025684
130	0x3d6afadc	0.057368144
131	0x3d518093	0.05114801
132	0x3dab38c8	0.083604395
133	0xbed2ad7c	-0.41147983
134	0x3f637c7e	0.88861835
135	0xbda5e3e8	-0.0810011
136	0x3f200c2a	0.6251856
137	0x3c883862	0.016628448
138	0xbdffd243	-0.12491276
139	0x3e4d7b90	0.20066667
140	0x3dcc5581	0.09977246
141	0xbe4ea0e9	-0.2017857
142	0x3ee08842	0.43853956
143	0x3f0da7f7	0.5533442
144	0x3f67982b	0.90466565
145	0x3f601128	0.8752618
146	0x3ea54a96	0.32283467
147	0x3f4b245c	0.79352355
148	0x3d2c57be	0.042075865
149	0x3f9157e0	1.1354942
150	0x3de16611	0.11005796
151	0x3c94850a	0.018129844
152	0x3aad93f7	0.001324295
153	0x3f86f36b	1.0543035
154	0xbe0bbd44	-0.13646418
155	0x3c9eb1d9	0.019371914
156	0xba1e59b1	-0.0006040587
157	0x3e04a403	0.1295319
158	0xbd9f36fe	-0.07774161
159	0xbd145e59	-0.03622279
160	0x3d3c6e7c	0.046003804
161	0x3e987d6b	0.29783186
162	0xbca2c3b4	-0.01986871
163	0xbeec25c7	-0.46122572
164	0x3db4e987	0.08833604
165	0x3cb1251c	0.02162414
166	0xbd8fa303	-0.07013514
167	0x3e5b3336	0.21406254
168	0xbf3119ea	-0.69180167
169	0xbd409b89	-0.04702333
170	0xbd3b5a7b	-0.045740586
171	0x3f925f2c	1.1435294
172	0x3ee889e8	0.45417714
173	0x3d9344a9	0.0719083
174	0xbd077bec	-0.033077165
175	0x3d991a8c	0.074757665
176	0x3eaa3fb5	0.3325173
177	0x3f3341be	0.7002219
178	0x3d903818	0.07041949
179	0x3dc76d78	0.097376764
180	0xbe04755c	-0.12935394
181	0xbd3fa47e	-0.04678773
182	0x3f613920	0.8797779
183	0x3f6192be	0.88114536
184	0x3e84a56a	0.2590745
185	0xbac027ca	-0.0014660296
186	0x3def7eed	0.11694131
187	0x3fd25d4b	1.6434721
188	0xbd203048	-0.039108545
189	0xbde53638	-0.11191982
190	0x3d88c184	0.06677535
191	0x3e020b7c	0.12699693
192	0x3e1791f5	0.14801772
193	0xbc996f93	-0.01872996
194	0x3e957007	0.29187033
195	0xbde37983	-0.11107161
196	0xbed1a4d2	-0.4094606
197	0x3f700740	0.9376106
198	0xbea3e9a5	-0.32014194
199	0x3e8edb97	0.2790191
200	0x3e750320	0.23926973
201	0xb9c94b33	-0.00038393735
202	0x3e4d3880	0.20041084
203	0xbe83cf88	-0.2574427
204	0x3f09d87a	0.5384594
205	0xbe40e186	-0.1883603
206	0x3ef77396	0.48330373
207	0x3d3b89fa	0.04578588
208	0x3fb06153	1.3779701
209	0xbd4f2cfd	-0.050580014
210	0x3eedc535	0.4643952
211	0x3f303e31	0.68844897
212	0x3e12f258	0.1435026
213	0x3f96ab4d	1.1771027
214	0x3ef35517	0.47525856
215	0x3d12ba6e	0.035822324
216	0xbf34a0e9	-0.7055803
217	0x3e86a3ca	0.26296836
218	0x3badc1cf	0.005302645
219	0x3d91549b	0.07096215
220	0xbcd5dd12	-0.026106391
221	0x3db56bbe	0.08858441
222	0x3e4e997e	0.2017574
223	0xbd349820	-0.04409039
224	0x3d7bba74	0.061457112
225	0x3f655dac	0.89596057
226	0x3e3cf432	0.18452528
227	0x3f15e3ea	0.58550894
228	0xbcd75bdd	-0.026288921
229	0x3f3ee1af	0.74563116
230	0xbcb742c7	-0.02237071
231	0x3f2648f3	0.6495506
232	0xbe5b0d19	-0.21391715
233	0xbf52f668	-0.82407236
234	0x39bde50e	0.00036219548
235	0x3f38e864	0.722296
236	0x3e164a4a	0.14676777
237	0x3f4acb40	0.79216385
238	0xbd018be7	-0.031627562
239	0x3d943e0c	0.07238397
240	0x3da170e6	0.07882862
241	0x3ebca14c	0.3684181
242	0x3e66ba59	0.22532023
243	0x3f19996f	0.59999746
244	0x3e025267	0.12726746
245	0xbdc00f4e	-0.09377919
246	0x3f390e03	0.72287005
247	0x3c166e48	0.009181567
248	0x3e594694	0.2121833
249	0xbe93417f	-0.28760907
250	0x3ea3104a	0.31848365
251	0x3f59a902	0.8502351
252	0x3d3fcc7a	0.046825863
253	0x3d7bcb94	0.061473444
254	0x3e102413	0.14076261
255	0xbb711c0a	-0.0036790394

actor.2.bias f4 [8]
0	0xbe61988d	-0.2203085
1	0x3ed7596b	0.42060408
2	0x3f0794b1	0.5296126
3	0x3ed97210	0.42469835
4	0x3cf39874	0.029735781
5	0x3f908739	1.1291267
6	0x3ecb8aa8	0.39754224
7	0x3dfc56ba	0.12321229

critic.0.weight f4 [64, 64]
0	0xbd9b199b	-0.07573243
1	0xbc6f0300	-0.014588118
2	0x3fa3a6ae	1.2785242
3	0xbdab23b2	-0.08356418
4	0xbf9e8dba	-1.2387002
5	0x3d82af46	0.06381087
6	0x3e54ac26	0.20768794
7	0xbdb3fc7a	-0.087883905
8	0xbd88b240	-0.066746235
9	0x3f17d5e5	0.5931075
10	0xbf7691cb	-0.9631621
11	0x3dc41ed2	0.09576191
12	0xbf890ca4	-1.0706983
13	0x3d4a16b4	0.049338058
14	0xbf39691e	-0.7242602
15	0xbeec6e28	-0.46177793
16	0x3c27afe9	0.010234811
17	0x3de787f3	0.11305227
18	0xbd407c9c	-0.046993837
19	0x3eebecbb	0.4607905
20	0x3ea04a77	0.31306812
21	0x3e27a22b	0.16370456
22	0x3db8ac17	0.090171985
23	0xbd4b1008	-0.049575835
24	0xbd1d9bf2	-0.0384788
25	0xbd334b64	-0.04377307
26	0x3dd52f92	0.10409464
27	0xbd7652c1	-0.060137514
28	0xbf834faf	-1.0258693
29	0xbf2cab16	-0.67448556
30	0xbee32616	-0.44364995
31	0xbf1f181b	-0.6214616
32	0xbd364aa5	-0.04450478
33	0xbf8cfb9a	-1.1014283
34	0xbcb8e6a8	-0.022570923
35	0x3ebbf512	0.3671041
36	0xbf89deae	-1.0771081
37	0x3ec90455	0.39261118
38	0x3d8fa8f9	0.07014651
39	0x3cf0a870	0.029377192
40	0xbdf980be	-0.12182759
41	0xbd9637ba	-0.07334848
42	0x3cf71ebf	0.030166028
43	0xbdd8ed1f	-0.10592102
44	0xbcc7b028	-0.02437599
45	0x3d3903dc	0.045169696
46	0xbd240562	-0.040044196
47	0x3dc6516a	0.09683497
48	0x3d8d8666	0.069104
49	0x3d91b4fe	0.071146
50	0x3f3d68d1	0.7398806
51	0x3e0bdbc4	0.13658053
52	0x3d036eb8	0.03208801
53	0xbde7732d	-0.11301265
54	0xbd10e316	-0.035372816
55	0x3cc8ba20	0.024502814
56	0x3ea0a6b7	0.31377193
57	0xbd882ba6	-0.0664895
58	0xbd4c02f5	-0.049807508
59	0x3e9dcb0f	0.30818984
60	0xbdc58e5a	-0.09646292
61	0x3f028960	0.5099087
62	0xbdb2109a	-0.08694573
63	0x3edfe3fb	0.43728623
64	0xbccb8931	-0.024845691
65	0x3d25492e	0.040352993
66	0xbdb80bb7	-0.089866094
67	0x3dabd112	0.08389486
68	0x3d9772a2	0.07394911
69	0xbd872256	-0.06598346
70	0xbca72861	-0.020404996
71	0x3d9b365e	0.07578729
72	0x3d885089	0.06655986
73	0xbcaa6d69	-0.020804124
74	0x3d22f841	0.039787535
75	0x3d83f4d8	0.064431846
76	0xbdebb7c2	-0.115096584
77	0x3d977782	0.07395841
78	0x3d86f1fe	0.06589125
79	0x3cd7943e	0.026315805
80	0x3ba1cf80	0.004938066
81	0xbcc007a6	-0.023441147
82	0xbccbe678	-0.02489017
83	0x3c8ce82a	0.017200548
84	0xbe0a0d48	-0.13481629
85	0xbe122b44	-0.14274317
86	0x3d8ee78a	0.06977756
87	0xbb9175c9	-0.00443909
88	0x3da27667	0.0793274
89	0x3dbc8bf2	0.0920638
90	0xbd56ee14	-0.052473143
91	0x3dd22f36	0.10262911
92	0xbd02fd54	-0.031979874
93	0xbbedacb3	-0.0072532534
94	0xbcde18ab	-0.027111372
95	0xbd5747f2	-0.052558847
96	0xbc87fc31	-0.016599746
97	0x3d609d4c	0.05483751
98	0xbdd3aef2	-0.103361025
99	0xbdc3764b	-0.09544047
100	0xbda1e316	-0.07904641
101	0xbd7f37a2	-0.062308915
102	0xbe014a65	-0.12626036
103	0x3c14f9b7	0.00909274
104	0xbc6feda0	-0.014644057
105	0x3d5ceac8	0.053934842
106	0x3e2118fa	0.15732184
107	0xbc734a2a	-0.014849225
108	0x3d809036	0.06277506
109	0x3d37a380	0.04483366
110	0xbe363a38	-0.17795646
111	0x3dae3566	0.08506279
112	0x3dfe9b04	0.12431911
113	0x3db4d190	0.088290334
114	0xbd1eed86	-0.03880074
115	0xbc15e574	-0.009148944
116	0xbb839fa0	-0.0040168315
117	0xbda48257	-0.08032673
118	0xbdb7dc26	-0.08977537
119	0xbd3711b3	-0.044694614
120	0xbd0d7ae9	-0.034541044
121	0xbca76e3b	-0.020438304
122	0x3d5e90d1	0.054337326
123	0xbddd3b6f	-0.10802352
124	0xbd2b633c	-0.041842684
125	0xbe4308d7	-0.19046341
126	0x3df5fb16	0.120107815
127	0x3d231b1e	0.039820783
128	0xbdfda389	-0.123847075
129	0x3db50620	0.08839059
130	0xbdf2585d	-0.1183326
131	0x3deca32a	0.115545586
132	0xbded49ca	-0.1158634
133	0x3cc8cdb8	0.024512157
134	0x3db01adc	0.08598873
135	0xbd841766	-0.064497754
136	0x3d43fa65	0.047846217
137	0xbd3e6058	-0.0464786
138	0x3da992a5	0.08279923
139	0x3d10dc99	0.03536663
140	0xbd8a6e8a	-0.06759365
141	0x3c1206a0	0.008912712
142	0xbbc193ec	-0.0059075262
143	0xbd929b16	-0.071584865
144	0xbc702f40	-0.014659703
145	0x3de45f9e	0.1115105
146	0x3d9e03be	0.077155575
147	0x3af42748	0.0018627429
148	0xbdf97b44	-0.12181714
149	0xbc5a84a8	-0.013337292
150	0xbda25f3c	-0.07928321
151	0x3d9eb8ac	0.07750067
152	0xbdd9a22a	-0.106266335
153	0x3d8c860e	0.068615064
154	0xbdf94d3c	-0.121729344
155	0xbdb73f6c	-0.08947644
156	0xbc8c9152	-0.017159138
157	0xbbd9e460	-0.006649539
158	0xbdac2c01	-0.084068306
159	0xbdeb6882	-0.11494543
160	0x3b4763a7	0.0030424388
161	0x3d8543a8	0.06507045
162	0x3c8a8138	0.01690732
163	0x3c8bfa28	0.017087057
164	0xbd179dd8	-0.037015766
165	0x3db6aa9c	0.0891926
166	0x3d73abbd	0.059489954
167	0xbd962594	-0.07331386
168	0x3da18f52	0.07888664
169	0x3d98b14a	0.0745569
170	0x3a835f80	0.0010022968
171	0x3e181134	0.14850312
172	0xbd5d4c30	-0.054027736
173	0x3d9fc9ca	0.0780216
174	0x3dc96225	0.09833173
175	0x3c5328b0	0.012888119
176	0x3d0ea546	0.034825586
177	0x3de30412	0.11084761
178	0xbd817f3c	-0.06323096
179	0x3d2b63d6	0.041843258
180	0x3d7c3e10	0.061582625
181	0x3cbb16ee	0.022838082
182	0x3d9ec320	0.07752061
183	0x3e036245	0.12830456
184	0x3d9df9ee	0.07713686
185	0x3db2c084	0.08728126
186	0xbdff7b2c	-0.12474665
187	0x3ce5211f	0.027969895
188	0x3d6f1230	0.058366954
189	0xbd9ac152	-0.07556404
190	0x3d16ec10	0.03684622
191	0xbca9259b	-0.020647814
192	0x3d05b87b	0.032646637
193	0xbd9ed2f0	-0.07755077
194	0x3d6e84aa	0.058231987
195	0x3cc33000	0.0238266
196	0xbb163780	-0.0022921264
197	0x3db32ac0	0.08748388
198	0xbcf7d2c0	-0.03025186
199	0x3d18719c	0.03721772
200	0xbdb4b706	-0.088239715
201	0xbd2aba33	-0.04168148
202	0xbde0e7e5	-0.1098173
203	0xbc7183d0	-0.014740899
204	0x3de02ad4	0.10945669
205	0x3b55d5c0	0.0032628626
206	0xbd93fd25	-0.07226018
207	0xbd7b3347	-0.0613282
208	0x3d76db6c	0.06026785
209	0x3ddf35ec	0.10898957
210	0x3d082ebc	0.033247694
211	0x3ca28fa3	0.019843882
212	0xbd3eb3bc	-0.046558127
213	0x3de67325	0.11252431
214	0xbdc16dec	-0.09444794
215	0xbd36acc8	-0.04459837
216	0xbdf0bdfe	-0.11754988
217	0x3d84dd32	0.06487502
218	0xbce3fda8	-0.027830914
219	0x3c940280	0.018067598
220	0x3cf198a0	0.029491723
221	0xbc031990	-0.0080017
222	0xbc32e740	-0.010919392
223	0x3db63298	0.08896369
224	0xbd57843c	-0.052616343
225	0xbde483ba	-0.11157937
226	0xbdb065c6	-0.08613162
227	0xbd509fa0	-0.05093348
228	0xbda135f4	-0.07871619
229	0x3a5f2a18	0.00085130474
230	0xbd99b362	-0.07504918
231	0xbc5edeb0	-0.0136028975
232	0x3dcf0b92	0.10109629
233	0xbd2e5b90	-0.04256779
234	0x3d02f6d0	0.03197366
235	0x3b15cc40	0.0022857338
236	0x3dccf61a	0.10007878
237	0x3d822804	0.063552886
238	0x3d529596	0.051412188
239	0x3ca62510	0.020281345
240	0xbdc68075	-0.0969247
241	0xbcfdef50	-0.030997902
242	0xbde256a2	-0.1105168
243	0xbde192fe	-0.11014365
244	0x3df4648e	0.11933242
245	0x3c673468	0.014111616
246	0xbb5cb240	-0.0033675581
247	0xbd7a6ed4	-0.06114085
248	0x3c553630	0.013013408
249	0x3cdf32e0	0.027245939
250	0xbb38ab80	-0.0028178394
251	0xbddefca8	-0.10888034
252	0x3d803c4e	0.06261502
253	0xbc8f880d	-0.017520929
254	0xbdaedd8a	-0.08538349
255	0xbcfc10dd	-0.03076976

critic.0.bias f4 [64]
0	0x3e6854b3	0.2268856
1	0xbd74b1e3	-0.05973996
2	0xbdf8c933	-0.12147751
3	0xbcdc61ff	-0.026902197
4	0xbcbbad31	-0.022909733
5	0xbda8d8f4	-0.082445055
6	0x3e63ed33	0.22258453
7	0xbecefbcd	-0.40426484
8	0xbdb56b72	-0.08858384
9	0xbe22de18	-0.15905035
10	0xbe9935e6	-0.29923934
11	0xbda4a8c6	-0.080400035
12	0xbe1a4a23	-0.15067343
13	0xbd4d3211	-0.050096575
14	0xbe3a3b63	-0.18186717
15	0xbcb1c839	-0.021701919
16	0xbd8531e6	-0.06503658
17	0x3e832421	0.25613502
18	0xbd9784d1	-0.073983796
19	0xbdbe2111	-0.09283651
20	0xbde50bea	-0.11183913
21	0xbf479dce	-0.77975166
22	0x3e9c6d3c	0.3055209
23	0xbc97bc74	-0.018522479
24	0x3c75efaf	0.015010758
25	0xbdff7dd6	-0.12475173
26	0xbcb73798	-0.022365376
27	0xbd83b45c	-0.06430885
28	0x3c0aba67	0.008467293
29	0xbdc30879	-0.095231004
30	0xbe225c78	-0.15855587
31	0xbb5d88b5	-0.0033803408
32	0xbddf38e9	-0.108995266
33	0xbeea62ac	-0.45778406
34	0xbdd48ed0	-0.10378802
35	0xbdf2dedc	-0.11858913
36	0x3e1a6039	0.15075769
37	0x3a9a4a1e	0.0011771356
38	0xbd894e83	-0.06704428
39	0x3e05f8c1	0.13083173
40	0xbdad1f08	-0.08453184
41	0xbe91d39d	-0.2848176
42	0xbcafafe4	-0.021446176
43	0x3e390919	0.18069877
44	0x3bf5cb6a	0.0075010555
45	0xbc871a6f	-0.016492097
46	0xbcd699ef	-0.026196448
47	0xbc126753	-0.008935767
48	0xbd875c29	-0.06609375
49	0x3d8f71e7	0.07004147
50	0x3f6421a6	0.89113843
51	0xbdbc2d50	-0.0918833
52	0xbd3af58d	-0.04564433
53	0xbccd3897	-0.025051398
54	0xbdf22b07	-0.11824613
55	0x3cf2ec1f	0.029653607
56	0xbe067e14	-0.13134032
57	0x3eae13a6	0.33999366
58	0xbdad44ac	-0.08460364
59	0xbd679955	-0.056542713
60	0xbdef80bb	-0.11694475
61	0xbe667190	-0.22504258
62	0x3cc69b6a	0.02424403
63	0xbdd07096	-0.10177724

critic.2.weight f4 [1, 64]
0	0xbf324a1d	-0.6964434
1	0x39893bd2	0.00026175246
2	0xbd932a79	-0.071858354
3	0x3d8cb2be	0.0687003
4	0x3db2091b	0.08693143
5	0x360f0000	2.130866e-06
6	0xbf206826	-0.6265892
7	0x3f7919bb	0.97304887
8	0x3c09eecb	0.008418749
9	0xbce1ea05	-0.02757741
10	0x3faab74c	1.3337188
11	0xbdd499b7	-0.10380881
12	0xbd8118d9	-0.063035674
13	0xbd58291c	-0.05277358
14	0x3c3030cc	0.010753822
15	0x3eda777f	0.42669293
16	0xbd8883ac	-0.066657394
17	0x403246aa	2.785563
18	0xbb6797c2	-0.0035338257
19	0x3e8f32de	0.27968496
20	0xbd985881	-0.07438756
21	0x3f37689d	0.71644
22	0x4010470b	2.254336
23	0xbd82c945	-0.06386045
24	0xbdf339c7	-0.118762545
25	0xbd0baba4	-0.034099236
26	0x3d85a208	0.06525046
27	0xba48c9e3	-0.0007659478
28	0xbcd23f00	-0.025664806
29	0xbd7fa871	-0.062416498
30	0x3fde1e2f	1.7352961
31	0x3b8ae0bd	0.0042382167
32	0xbde29707	-0.110639624
33	0x4033e8b6	2.8110785
34	0xbd025daf	-0.031827625
35	0xbcd2452c	-0.02566775
36	0x3fbfe068	1.4990358
37	0xbd908d51	-0.07058204
38	0xbdb08d5e	-0.08620714
39	0x4010022e	2.250133
40	0x3b3d0e98	0.002884781
41	0x3f3ad02a	0.72973883
42	0xbd1dba67	-0.038507845
43	0x400471e5	2.0694516
44	0x3f2101ec	0.6289356
45	0xbbd4beaf	-0.006492458
46	0xbbc176a5	-0.005904036
47	0xb818a4bd	-3.639305e-05
48	0xbc83d337	-0.016091926
49	0xbfda347a	-1.7047265
50	0x400be1e6	2.1856627
51	0x3d2dff0e	0.042479567
52	0xbd1ff5ad	-0.039052654
53	0xbd7d20af	-0.061798748
54	0xbccee513	-0.025255715
55	0xbfac413f	-1.3457412
56	0x3d86b629	0.06577713
57	0x3feab798	1.8337278
58	0xbe15391c	-0.14572567
59	0x3c04058e	0.008057965
60	0xbdc8daca	-0.09807356
61	0x3ea122e5	0.31471935
62	0x3fa72f18	1.3061247
63	0x3dbcc9ec	0.09218201

exp_avg f4 [64, 4]
0	0x00000004	6e-45
1	0x00000004	6e-45
2	0x00000004	6e-45
3	0x00000004	6e-45
4	0x00000004	6e-45
5	0x00000004	6e-45
6	0x00000004	6e-45
7	0x00000004	6e-45
8	0x00000004	6e-45
9	0x00000004	6e-45
10	0x00000004	6e-45
11	0x00000004	6e-45
12	0x00000000	0.0
13	0x00000000	0.0
14	0x00000000	0.0
15	0x00000000	0.0
16	0x00000004	6e-45
17	0x00000004	6e-45
18	0x00000004	6e-45
19	0x00000004	6e-45
20	0x00000004	6e-45
21	0x00000004	6e-45
22	0x00000004	6e-45
23	0x00000004	6e-45
24	0x00000004	6e-45
25	0x00000004	6e-45
26	0x00000004	6e-45
27	0x00000004	6e-45
28	0x00000004	6e-45
29	0x00000004	6e-45
30	0x00000004	6e-45
31	0x00000004	6e-45
32	0x00000000	0.0
33	0x00000000	0.0
34	0x00000000	0.0
35	0x00000000	0.0
36	0x00000000	0.0
37	0x00000000	0.0
38	0x00000000	0.0
39	0x00000000	0.0
40	0x00000000	0.0
41	0x00000000	0.0
42	0x00000000	0.0
43	0x00000000	0.0
44	0x00000000	0.0
45	0x00000000	0.0
46	0x00000000	0.0
47	0x00000000	0.0
48	0x00000000	0.0
49	0x00000000	0.0
50	0x00000000	0.0
51	0x00000000	0.0
52	0xbbe6c2fd	-0.0070422874
53	0xbbf174f4	-0.007368678
54	0xbbf4859c	-0.0074622165
55	0xbbf2ba6e	-0.007407478
56	0x00000004	6e-45
57	0x00000004	6e-45
58	0x00000004	6e-45
59	0x00000004	6e-45
60	0x00000004	6e-45
61	0x00000004	6e-45
62	0x00000004	6e-45
63	0x00000004	6e-45
64	0x00000004	6e-45
65	0x00000004	6e-45
66	0x00000004	6e-45
67	0x00000004	6e-45
68	0x00000000	0.0
69	0x00000000	0.0
70	0x00000000	0.0
71	0x00000000	0.0
72	0x00000000	0.0
73	0x00000000	0.0
74	0x00000000	0.0
75	0x00000000	0.0
76	0x00000004	6e-45
77	0x00000004	6e-45
78	0x00000004	6e-45
79	0x00000004	6e-45
80	0x00000004	6e-45
81	0x00000004	6e-45
82	0x00000004	6e-45
83	0x00000004	6e-45
84	0x00000004	6e-45
85	0x00000004	6e-45
86	0x00000004	6e-45
87	0x00000004	6e-45
88	0x00000004	6e-45
89	0x00000004	6e-45
90	0x00000004	6e-45
91	0x00000004	6e-45
92	0x00000004	6e-45
93	0x00000004	6e-45
94	0x00000004	6e-45
95	0x00000004	6e-45
96	0x00000000	0.0
97	0x00000000	0.0
98	0x00000000	0.0
99	0x00000000	0.0
100	0x00000004	6e-45
101	0x00000004	6e-45
102	0x00000004	6e-45
103	0x00000004	6e-45
104	0x00000000	0.0
105	0x00000000	0.0
106	0x00000000	0.0
107	0x00000000	0.0
108	0x00000004	6e-45
109	0x00000004	6e-45
110	0x00000004	6e-45
111	0x00000004	6e-45
112	0x00000000	0.0
113	0x00000000	0.0
114	0x00000000	0.0
115	0x00000000	0.0
116	0x00000004	6e-45
117	0x00000004	6e-45
118	0x00000004	6e-45
119	0x00000004	6e-45
120	0x00000000	0.0
121	0x00000000	0.0
122	0x00000000	0.0
123	0x00000000	0.0
124	0x00000004	6e-45
125	0x00000004	6e-45
126	0x00000004	6e-45
127	0x00000004	6e-45
128	0x00000000	0.0
129	0x00000000	0.0
130	0x00000000	0.0
131	0x00000000	0.0
132	0x00000000	0.0
133	0x00000000	0.0
134	0x00000000	0.0
135	0x00000000	0.0
136	0x00000000	0.0
137	0x00000000	0.0
138	0x00000000	0.0
139	0x00000000	0.0
140	0x00000000	0.0
141	0x00000000	0.0
142	0x00000000	0.0
143	0x00000000	0.0
144	0x00000004	6e-45
145	0x00000004	6e-45
146	0x00000004	6e-45
147	0x00000004	6e-45
148	0x00000004	6e-45
149	0x00000004	6e-45
150	0x00000004	6e-45
151	0x00000004	6e-45
152	0x00000004	6e-45
153	0x00000004	6e-45
154	0x00000004	6e-45
155	0x00000004	6e-45
156	0x00000000	0.0
157	0x00000000	0.0
158	0x00000000	0.0
159	0x00000000	0.0
160	0x00000004	6e-45
161	0x00000004	6e-45
162	0x00000004	6e-45
163	0x00000004	6e-45
164	0x00000000	0.0
165	0x00000000	0.0
166	0x00000000	0.0
167	0x00000000	0.0
168	0x00000000	0.0
169	0x00000000	0.0
170	0x00000000	0.0
171	0x00000000	0.0
172	0x00000004	6e-45
173	0x00000004	6e-45
174	0x00000004	6e-45
175	0x00000004	6e-45
176	0x00000000	0.0
177	0x00000000	0.0
178	0x00000000	0.0
179	0x00000000	0.0
180	0x00000000	0.0
181	0x00000000	0.0
182	0x00000000	0.0
183	0x00000000	0.0
184	0x00000000	0.0
185	0x00000000	0.0
186	0x00000000	0.0
187	0x00000000	0.0
188	0x00000000	0.0
189	0x00000000	0.0
190	0x00000000	0.0
191	0x00000000	0.0
192	0x00000004	6e-45
193	0x00000004	6e-45
194	0x00000004	6e-45
195	0x00000004	6e-45
196	0x00000004	6e-45
197	0x00000004	6e-45
198	0x00000004	6e-45
199	0x00000004	6e-45
200	0x00000004	6e-45
201	0x00000004	6e-45
202	0x00000004	6e-45
203	0x00000004	6e-45
204	0x00000004	6e-45
205	0x00000004	6e-45
206	0x00000004	6e-45
207	0x00000004	6e-45
208	0x00000004	6e-45
209	0x00000004	6e-45
210	0x00000004	6e-45
211	0x00000004	6e-45
212	0x00000004	6e-45
213	0x00000004	6e-45
214	0x00000004	6e-45
215	0x00000004	6e-45
216	0x00000004	6e-45
217	0x00000004	6e-45
218	0x00000004	6e-45
219	0x00000004	6e-45
220	0x80000004	-6e-45
221	0x80000004	-6e-45
222	0x80000004	-6e-45
223	0x80000004	-6e-45
224	0x00000004	6e-45
225	0x00000004	6e-45
226	0x00000004	6e-45
227	0x00000004	6e-45
228	0x3733865f	1.0700517e-05
229	0x374ee84f	1.2332645e-05
230	0x3754e40b	1.268928e-05
231	0x37535453	1.2596213e-05
232	0x00000004	6e-45
233	0x00000004	6e-45
234	0x00000004	6e-45
235	0x00000004	6e-45
236	0x00000004	6e-45
237	0x00000004	6e-45
238	0x00000004	6e-45
239	0x00000004	6e-45
240	0x00000000	0.0
241	0x00000000	0.0
242	0x00000000	0.0
243	0x00000000	0.0
244	0x00000004	6e-45
245	0x00000004	6e-45
246	0x00000004	6e-45
247	0x00000004	6e-45
248	0x00000000	0.0
249	0x00000000	0.0
250	0x00000000	0.0
251	0x00000000	0.0
252	0x00000000	0.0
253	0x00000000	0.0
254	0x00000000	0.0
255	0x00000000	0.0
