models/episodes_3000/team_goal_bottom_right/PPOAgent/model.pt (torch, 168423 bytes, 33 tensors)

feature_extractor.0.weight f4 [64, 2]
0	0xbf0cc309	-0.549851
1	0x3f357b92	0.7089168
2	0xbe673017	-0.22576939
3	0xbcccb667	-0.02498932
4	0xbef46e3c	-0.47740352
5	0x3eb0eed9	0.34557226
6	0xbf34b51b	-0.70588845
7	0xbed00df9	-0.4063566
8	0x3f1f4ced	0.62226754
9	0xbf175bc3	-0.5912439
10	0xbf01ca59	-0.50699383
11	0x3eee790b	0.46576723
12	0xbe1fdc88	-0.1561147
13	0x3f02650b	0.5093543
14	0xbc04aa59	-0.008097255
15	0xbca326da	-0.019915987
16	0xbdb87711	-0.09007085
17	0xbeb8d073	-0.36096534
18	0x3e9b1701	0.30290988
19	0x3e7f3444	0.24922282
20	0xbd1754e6	-0.0369462
21	0x3ee64d24	0.4498073
22	0x3f1d2b15	0.6139386
23	0xbed068e5	-0.40705028
24	0x3f07c677	0.5303721
25	0x3e880830	0.26568747
26	0xbf28931d	-0.6584948
27	0xbd330501	-0.043705944
28	0x3ef67e88	0.4814341
29	0x3ec38d35	0.3819367
30	0x3f26e177	0.6518778
31	0x3eec2622	0.46122843
32	0x3e3593c7	0.17732154
33	0xbdb9fe62	-0.09081723
34	0xbf197e5f	-0.5995845
35	0x3f0ef703	0.5584566
36	0xbe96fbbe	-0.2948894
37	0x3ec84e9d	0.39122477
38	0x3f0c937c	0.54912543
39	0x3ec7fd38	0.39060378
40	0xbf14332d	-0.5789059
41	0x3f279281	0.6545792
42	0xbf17d254	-0.5930531
43	0xbdc4bf08	-0.09606749
44	0xbe9c1470	-0.30484343
45	0x3e8f46d0	0.27983713
46	0xbed8654d	-0.42264786
47	0x3e46ce3b	0.19414608
48	0xbd6c2f5c	-0.057662353
49	0xbf1f7581	-0.6228867
50	0xbf05e004	-0.52294946
51	0x3f1c659a	0.6109253
52	0x3f2daf05	0.67845184
53	0xbde4555f	-0.11149096
54	0xbe888de8	-0.26670766
55	0x3e82dc59	0.25558737
56	0xbe9adf85	-0.30248657
57	0xbf30e22f	-0.6909513
58	0xbf2d619f	-0.6772708
59	0xbf0d987b	-0.5531079
60	0xbeaf5ec4	-0.34251988
61	0x3e734030	0.23754954
62	0xbf146b79	-0.5797649
63	0xbe19014c	-0.14941901
64	0xbe11bc96	-0.14232096
65	0x3e3d86e8	0.18508494
66	0x3df532f2	0.11972608
67	0x3e56bc0b	0.2097017
68	0xbe0395c5	-0.12850101
69	0x3eb093e5	0.34487835
70	0xbf0b5015	-0.5441907
71	0x3f006848	0.5015912
72	0x3dd034fd	0.10166357
73	0x3f01164b	0.5042464
74	0xbf0b6970	-0.5445776
75	0x3f326a53	0.6969349
76	0x3c2b7486	0.010464793
77	0xbec4cc68	-0.384372
78	0x3f284a2d	0.65738183
79	0xbea51f3f	-0.322504
80	0x3efd6eb4	0.49498522
81	0xbeeaca3a	-0.45857412
82	0xbf08a78b	-0.5338065
83	0x3e61534b	0.2200443
84	0xbf2bdaa1	-0.67130476
85	0x3eb36dcb	0.35044703
86	0xbd182334	-0.037142947
87	0xbec9046e	-0.39261192
88	0x3ebe93bd	0.3722209
89	0x3f2f19b5	0.683986
90	0x3f3ab3da	0.7293068
91	0xbe3e24ed	-0.18568774
92	0x3e0519c7	0.12998115
93	0x3d286593	0.041112494
94	0x3ec6a9de	0.38801473
95	0x3f1248e3	0.57142466
96	0xbeeec4e8	-0.46634603
97	0xbf328ea0	-0.6974888
98	0xbee809c9	-0.45319965
99	0x3f2f50e9	0.68482834
100	0x3e826095	0.2546431
101	0xbe77b4e5	-0.241901
102	0xbda505e1	-0.08057762
103	0x3eadb5c2	0.33927733
104	0xbf027071	-0.5095282
105	0xbe2abd95	-0.16673882
106	0x3f0dfda2	0.5546514
107	0xbed06827	-0.40704462
108	0xbe19d594	-0.1502288
109	0x3f1e4843	0.6182901
110	0x3f0e273c	0.55528617
111	0xbe9daee3	-0.3079749
112	0x3ed1fce9	0.41013268
113	0x3eac7a9e	0.336873
114	0xbed21616	-0.41032475
115	0xbd8abf85	-0.06774811
116	0xbe4fae1f	-0.20281266
117	0xbe96ca2a	-0.29451114
118	0x3f3186f4	0.6934655
119	0xbeb0d7b4	-0.34539568
120	0xbec5bbd8	-0.38619876
121	0x3ec3a6fc	0.38213336
122	0xbd5c4b4d	-0.05378275
123	0xbd669f2c	-0.056304142
124	0x3e98f6f4	0.2987591
125	0xbf2b46c4	-0.66904855
126	0x3f21c669	0.63193375
127	0x3eac19df	0.33613488

feature_extractor.0.bias f4 [64]
0	0x3d2574a7	0.04039445
1	0x3eafd093	0.34338817
2	0xbf28f64d	-0.66000825
3	0x3f30a553	0.69002265
4	0x3ef09a62	0.46992785
5	0x3efc5967	0.4928696
6	0x3f1cc72c	0.6124141
7	0x3e35e6f9	0.1776389
8	0xbd535244	-0.051592126
9	0x3ceb5a3f	0.028729556
10	0x3f201259	0.62527996
11	0xbea0c57f	-0.31400678
12	0x3f0385f6	0.51376283
13	0xbf233441	-0.6375161
14	0xbf282123	-0.6567556
15	0xbe79e16d	-0.244024
16	0x3f0b8640	0.54501724
17	0x3f495e98	0.78659964
18	0xbd05191f	-0.03249466
19	0xbeeaa06a	-0.4582551
20	0x3f295858	0.66150427
21	0x3e774942	0.2414904
22	0x3f0e4c1e	0.55584896
23	0x3dc1f3ef	0.09470355
24	0x3f1d0d5d	0.61348516
25	0x3e3f24c6	0.18666372
26	0x3f1600b5	0.5859483
27	0x3f4f2534	0.8091614
28	0xbed1e53e	-0.4099521
29	0xbe0b914f	-0.1362965
30	0xbea65b1d	-0.3249139
31	0xbe414c6a	-0.18876806
32	0x3f5b91d5	0.857694
33	0xbf0d75e9	-0.5525804
34	0x3ecbfe58	0.39842486
35	0xbec06a2a	-0.37580997
36	0x3f404b39	0.7511478
37	0xbf4948c1	-0.7862664
38	0x3f33c291	0.7021876
39	0x3de0d1de	0.10977529
40	0xbf206083	-0.62647265
41	0xbeda2565	-0.42606655
42	0x3e8229a1	0.25422385
43	0x3ec6161b	0.3868874
44	0xbf0c9dca	-0.54928267
45	0xbf0ddc27	-0.5541405
46	0x3ed0c9eb	0.4077905
47	0xbf1faba9	-0.6237131
48	0x3e1fb5d3	0.15596704
49	0x3f3ee79e	0.7457217
50	0xbf288502	-0.65827954
51	0x3d7cd654	0.061727837
52	0xbea46c74	-0.32113993
53	0x3f535fc8	0.82568026
54	0xbf26373b	-0.64928025
55	0x3eee6136	0.4655854
56	0xbcb5b7a6	-0.022182297
57	0xbe9a84e9	-0.30179527
58	0xbdcee1b9	-0.10101647
59	0x3f50e404	0.81597924
60	0x3ec75d3d	0.38938323
61	0xbf1f9a61	-0.6234494
62	0xbe20e793	-0.15713339
63	0xbe3cafad	-0.1842639

feature_extractor.2.weight f4 [64, 64]
0	0xbde8a15d	-0.113589026
1	0x3c94c9e8	0.018162683
2	0xbb81f100	-0.003965497
3	0xbdbc7880	-0.09202671
4	0xbdce371b	-0.10069104
5	0x3d8acc32	0.067772284
6	0x3d6c0137	0.057618346
7	0xbb0026c0	-0.0019554347
8	0x3c96ace0	0.01839298
9	0x3db9d1e4	0.090732366
10	0x3d24933c	0.040179476
11	0xbd8f55c3	-0.069987796
12	0xbd5766b3	-0.052588176
13	0x3c6f2690	0.014596596
14	0x3cdd33a3	0.027002161
15	0x3d1f6d5e	0.03892266
16	0xbd67d2b3	-0.056597423
17	0x3d99d1bf	0.07510709
18	0x3d62be5c	0.055357322
19	0xbdac9818	-0.08427447
20	0xbcf32540	-0.029680848
21	0xbdf828d8	-0.12117165
22	0x3d0873bc	0.033313498
23	0x3d9833c0	0.074317455
24	0x3d71ebf0	0.0590629
25	0xbd751a2e	-0.05983942
26	0x3da1b818	0.07896441
27	0xbd1e5394	-0.038653925
28	0x3d1f6804	0.038917556
29	0xbdfeefd2	-0.12448086
30	0xbc620c10	-0.013796821
31	0xbc1a9860	-0.009435743
32	0xbd72427f	-0.059145447
33	0xbda7bb63	-0.08190038
34	0xbdce5832	-0.10075416
35	0x3d134948	0.03595856
36	0xbde0fbc3	-0.1098552
37	0x3d8d8e44	0.06911901
38	0xbd913598	-0.070903
39	0xbcb84a99	-0.022496508
40	0xbdabd282	-0.083897606
41	0xbba6c820	-0.0050897747
42	0x3cf2acb0	0.02962336
43	0xbdb8bc0e	-0.090202436
44	0x3d9751c5	0.07388643
45	0xbcec2706	-0.028827202
46	0xbd837d4a	-0.06420381
47	0xbdcc6de5	-0.09981898
48	0x3d2e3044	0.0425265
49	0xbdd06885	-0.101761855
50	0xbc24aa60	-0.010050386
51	0x3da1f93d	0.079088666
52	0xbcd4cdc8	-0.02597703
53	0xbdd04937	-0.101702146
54	0xbca0c46b	-0.01962491
55	0xbdd5b754	-0.10435358
56	0x3ccc9e89	0.02497794
57	0xbdf5ca74	-0.120015055
58	0xbd730dc8	-0.059339315
59	0x3dc79a7a	0.09746261
60	0x3dba616e	0.091006145
61	0xbd4d13dc	-0.050067768
62	0xbdce6160	-0.100771666
63	0x3de72989	0.11287219
64	0xbe090241	-0.13379766
65	0x3da8cf72	0.08242692
66	0xbe33f999	-0.17575683
67	0x3cedb0b2	0.029014919
68	0x3db05911	0.08610738
69	0xbd7f98a3	-0.062401425
70	0x3c7f8a9e	0.015597014
71	0x3e75de9f	0.24010704
72	0x3dd5eaae	0.10445152
73	0x3d892117	0.066957645
74	0xbcadc037	-0.02120982
75	0xbdeeb0b4	-0.11654797
76	0xbd6e196b	-0.05812971
77	0x3dedc950	0.11610663
78	0xbdcd6e82	-0.10030843
79	0x3ac9c784	0.0015394543
80	0x3e2c3ebf	0.1682081
81	0x3dcbc04f	0.09948789
82	0xbc987d7e	-0.018614527
83	0x3d351f7d	0.044219483
84	0x3dc3e92a	0.09565957
85	0x3e2b9ed9	0.16759814
86	0x3dc61ae3	0.09673097
87	0xbc9dde43	-0.019271022
88	0x3cd9010b	0.026489755
89	0x3d3a0aae	0.04542034
90	0x3e108681	0.14113809
91	0x3c842e2d	0.0161353
92	0x3d411b50	0.047145188
93	0x3dcfebb0	0.10152376
94	0xbd138354	-0.036013916
95	0xbdc0b56e	-0.09409605
96	0x3e7d44b3	0.24733238
97	0xbe691bde	-0.22764537
98	0x3d17eafb	0.03708933
99	0xbd8a742f	-0.067604415
100	0x3d1e1127	0.038590576
101	0xbe04623c	-0.12928098
102	0x3e35fc21	0.17771961
103	0x3db4fd77	0.08837407
104	0xbe8f8b62	-0.28036028
105	0xbdf8d477	-0.121498995
106	0x3e26383b	0.16232388
107	0x3d225a67	0.039636996
108	0xbe007ad8	-0.12546861
109	0xbca102cf	-0.01965466
110	0x3d36e2eb	0.04465
111	0xbe2831f5	-0.16425307
112	0x3c469381	0.012120129
113	0x3e031064	0.12799221
114	0xbe8abc36	-0.2709672
115	0xbd7c584e	-0.06160765
116	0x3c0e6190	0.008690253
117	0x3b66668f	0.0035156345
118	0xbdfffbc7	-0.124991946
119	0x3e343aaa	0.17600504
120	0xbd86f42a	-0.06589539
121	0xbd9a7422	-0.07541682
122	0x3d407a58	0.046991676
123	0x3e5073a8	0.2035662
124	0x3d90da23	0.07072856
125	0x3da171ce	0.07883035
126	0xbd2cbd4c	-0.042172715
127	0x3dde133e	0.10843514
128	0x3d0e425b	0.03473125
129	0x3e5acf91	0.21368243
130	0xbdc788c3	-0.09742882
131	0x3d941540	0.072306156
132	0x3d8f5ef7	0.07000535
133	0x3d7f19e6	0.062280558
134	0x3db7a6e8	0.08967382
135	0x3e49ab52	0.1969426
136	0xbdf9cb0e	-0.12196933
137	0xbb4d3751	-0.0031313489
138	0xbd146524	-0.036229268
139	0x3e0eeb5e	0.13956973
140	0x3c3a4f30	0.011371419
141	0x3cfc67b0	0.03081116
142	0xbdc56c44	-0.09639791
143	0xbdb89790	-0.09013283
144	0x3e6de54c	0.23232001
145	0xbda76461	-0.08173443
146	0xbdd3171f	-0.103071444
147	0x3dc6fd22	0.0971625
148	0xbd9f18fd	-0.07768438
149	0x3e6518d5	0.22372754
150	0x3d5e2365	0.054232974
151	0x3e657627	0.22408353
152	0x3e676c6e	0.22599956
153	0xbe0d0067	-0.13769685
154	0x3e544bad	0.20731993
155	0x3c1d8229	0.009613552
156	0x3db1c3ca	0.08679922
157	0x3dfcda22	0.12346293
158	0x3de3726b	0.11105808
159	0x3db61e32	0.08892478
160	0x3da046bf	0.07825994
161	0x3c85c46f	0.016329018
162	0xbc7f1938	-0.015569977
163	0x3d8819d6	0.06645553
164	0x3e175327	0.14777814
165	0xbe4d4a66	-0.20047912
166	0x3e825d10	0.25461626
167	0x3e234a64	0.15946347
168	0xbe161f71	-0.14660431
169	0xbc18cbfc	-0.009325977
170	0x3d341946	0.043969415
171	0x3ec12398	0.37722468
172	0x3d69b32f	0.05705565
173	0x3b8bb510	0.0042635277
174	0x3dc46849	0.09590203
175	0x3daf2096	0.08551137
176	0x3dee3261	0.11630703
177	0x3baba5c8	0.0052382685
178	0xbe38ca82	-0.18046
179	0xbdf2b721	-0.11851335
180	0xbdfacba0	-0.1224587
181	0x3e4bd553	0.19905595
182	0xbe03e136	-0.1287888
183	0x3ddba055	0.1072394
184	0x3da77991	0.08177484
185	0x3dcbec9e	0.099572405
186	0xbcb0d390	-0.021585256
187	0x3e705e6e	0.23473522
188	0x3d540f9b	0.051772695
189	0x3d9806a2	0.0742314
190	0xbd2a7056	-0.04161104
191	0x3de9e8fa	0.1142139
192	0xbdc7e351	-0.09760154
193	0x3d9d0779	0.07667441
194	0xbe1ec647	-0.15505324
195	0x3e1c6960	0.15274572
196	0x3e8c072a	0.27349216
197	0xbe4953a4	-0.19660813
198	0xbdb27d0f	-0.08715259
199	0x3e6ec17b	0.23315994
200	0xbd95465c	-0.072888106
201	0x3d2f9330	0.04286498
202	0xbc8547b8	-0.01626955
203	0x3ec4eba4	0.3846103
204	0xbd344bab	-0.044017475
205	0xbd514238	-0.05108854
206	0x3d385543	0.045003187
207	0x3d45a6c5	0.048254747
208	0x3cfe3e36	0.031035524
209	0xbe61de90	-0.22057557
210	0xbe919d22	-0.28440195
211	0x3db29a7f	0.08720874
212	0xbd8f0235	-0.06982843
213	0x3e125c8c	0.14293116
214	0xbd99930e	-0.074987516
215	0xbc3dc9cd	-0.011583758
216	0x3e655100	0.2239418
217	0xbe21239f	-0.15736245
218	0x3d80a867	0.0628212
219	0xbd87584c	-0.06608638
220	0x3dfef7e6	0.124496266
221	0x3ded85e6	0.11597805
222	0xbd95055b	-0.07276412
223	0x3ca028c0	0.019550681
224	0x3bbd964e	0.00578574
225	0x3d3284c7	0.043583658
226	0xbda62998	-0.08113402
227	0x3e457f56	0.19286856
228	0xbdc19d36	-0.09453814
229	0xbf01e6d4	-0.5074284
230	0x3e4e82b5	0.20167048
231	0x3dd7310e	0.10507403
232	0xbed744ad	-0.42044583
233	0xbe417b15	-0.18894608
234	0x3d20465b	0.039129596
235	0x3ec4cc6d	0.38437214
236	0xbd111f42	-0.0354302
237	0x3e342532	0.17592314
238	0x3e1e1aa9	0.15439858
239	0x3d98ee0d	0.074672796
240	0x3e5f161c	0.21785778
241	0xbdad4992	-0.08461298
242	0xbeb21ef2	-0.34789234
243	0xbcc73c76	-0.024320822
244	0xbda3b3c4	-0.07993272
245	0x3e4882c0	0.19581127
246	0x3d0c0fdb	0.03419481
247	0x3e2fa8e3	0.17154269
248	0x3b6a2813	0.0035729453
249	0x3d89e022	0.06732203
250	0x3d0e24a8	0.034702927
251	0x3e22c3df	0.15895031
252	0xbe53abba	-0.20670977
253	0xbbfa48a0	-0.007638052
254	0xbe02a694	-0.12758857
255	0x3d1c35e1	0.03813732

feature_extractor.2.bias f4 [64]
0	0x3c8fed1c	0.017569117
1	0x3ea846c2	0.32866484
2	0x3e17a7ea	0.14810148
3	0x3df895d8	0.121379554
4	0x3aab334a	0.001306155
5	0x3dd9ff73	0.10644426
6	0x3e0c866a	0.1372315
7	0x3dbe9747	0.093061976
8	0x3cff7225	0.031182358
9	0x3e03c32a	0.12867418
10	0x3e0e103c	0.1387338
11	0x3dc46b0f	0.09590732
12	0x3e57a6c6	0.21059713
13	0xbdd3a306	-0.10333829
14	0x3ceb21cd	0.02870264
15	0x3d001ea0	0.031279206
16	0xbd2e5e0f	-0.04257017
17	0x3da58e73	0.08083811
18	0x3e4953ca	0.19660869
19	0x3cc9a152	0.024613056
20	0xbe389656	-0.18026099
21	0xbcd76c00	-0.026296616
22	0x3d3f3834	0.04668446
23	0x3d0e4919	0.03473768
24	0x3c502722	0.0127046425
25	0xbe09b5f4	-0.13448316
26	0xbde7f396	-0.11325757
27	0x3e2b02ed	0.16700335
28	0x3ad80bc5	0.0016483
29	0xbe32b385	-0.17451294
30	0x3d907f1e	0.07055496
31	0xbbb4b8a6	-0.005515176
32	0xbdc790ee	-0.0974444
33	0x3deaa0a9	0.11456425
34	0x3dd2a87c	0.10286042
35	0xbd68ba73	-0.056818437
36	0x3da3a398	0.079901874
37	0x3e71c7f3	0.23611431
38	0xbdfdf5fa	-0.12400432
39	0x3db16899	0.086625285
40	0xbcb2bf02	-0.021819595
41	0x3d1fdfae	0.039031677
42	0x3d6ea31c	0.058261022
43	0x3e2bafe6	0.16766319
44	0x3e55c791	0.2087691
45	0x3e6c0f0c	0.23052615
46	0x3c963ba6	0.01833899
47	0xbdbf2020	-0.09332299
48	0x3d752312	0.0598479
49	0x3e108151	0.1411183
50	0xbdcf47e0	-0.10121131
51	0x3e346717	0.1761745
52	0xbda2c87b	-0.07948395
53	0x3d997d2c	0.07494578
54	0x3e934181	0.28760913
55	0xbc82911c	-0.015938334
56	0x3e0ffc47	0.1406108
57	0x3c789508	0.015172251
58	0x3c0656bc	0.00819939
59	0xbd3a6e84	-0.045515552
60	0x3e1a3507	0.15059291
61	0x3d897978	0.067126215
62	0x3de40cd5	0.1113526
63	0x3e187a73	0.1489046

actor.0.weight f4 [64, 64]
0	0xbd0080d0	-0.031372845
1	0x3db80cda	0.08986826
2	0x3d891d3c	0.06695029
3	0xbdba72cb	-0.09103926
4	0x3df0d0a9	0.11758549
5	0x3e205e7c	0.15661043
6	0x3e1982bd	0.14991279
7	0x3d3c0126	0.045899533
8	0x3dba95e1	0.091106184
9	0x3d5ab8f4	0.05339904
10	0x3d400100	0.046875954
11	0x3d01297e	0.03153371
12	0x3e5a3c30	0.21312022
13	0xbd6234b7	-0.055226054
14	0xbd3f83a8	-0.046756417
15	0xbb262780	-0.0025353134
16	0x3d20c21e	0.039247625
17	0x3d6b6ae1	0.057474975
18	0x3db5b649	0.08872659
19	0xbddfd79d	-0.10929797
20	0xbe212fc4	-0.15740877
21	0xbda451de	-0.080234274
22	0x3e33110b	0.1748697
23	0x3da025ff	0.07819747
24	0xbe278ec7	-0.16363059
25	0x3dcb61b5	0.099307455
26	0x3df4ba0e	0.119495496
27	0x3d960ad8	0.07326287
28	0xbca0f2ff	-0.01964712
29	0xbba80fc8	-0.0051288344
30	0x3c64b462	0.013959022
31	0xbd264560	-0.040593505
32	0xbdfc5004	-0.12319949
33	0x3e814e54	0.25255072
34	0xbbcd4c99	-0.0062652347
35	0x3e269bab	0.1627032
36	0x3d8aeb96	0.06783216
37	0x3d508f12	0.050917692
38	0x3dcba834	0.099441916
39	0x3e0d5b2b	0.13804309
40	0x3d05f558	0.03270468
41	0x3c1ef73a	0.009702498
42	0xbd92b83a	-0.07164045
43	0x3e4039de	0.18772075
44	0x3e5f8909	0.21829619
45	0x3de1b8fc	0.11021611
46	0x3cf80e05	0.030280123
47	0x3aa22c80	0.0012372881
48	0x3db5c770	0.0887593
49	0x3e84751d	0.258706
50	0x3d6829d8	0.05668053
51	0x3e730e6c	0.2373597
52	0xbc8336ae	-0.016017284
53	0x3e510448	0.2041179
54	0x3e20ae9d	0.1569161
55	0x3ea4d4b9	0.32193545
56	0x3e2bde44	0.16784006
57	0x3d1ca432	0.038242526
58	0x3cc1a2d7	0.023637218
59	0x3c3c7810	0.0115032345
60	0x3e6f9f5a	0.23400632
61	0xbd42f1b0	-0.047593772
62	0x3e3b5e16	0.1829761
63	0x3de8ad93	0.11361232
64	0x3df99ab6	0.12187712
65	0x3e57a5ed	0.2105939
66	0x3cd59cd0	0.02607575
67	0x3e50210a	0.20325103
68	0x3e5472a8	0.20746863
69	0x3e6b2fd4	0.22967464
70	0xbcc87315	-0.024468938
71	0x3d384328	0.04498592
72	0x3db53296	0.08847539
73	0x3ccb4376	0.024812441
74	0x3cab0429	0.020876007
75	0xbc52417f	-0.012832998
76	0x3d3e4670	0.046453893
77	0x3d8f4b7f	0.069968216
78	0x3c3e5bfa	0.011618609
79	0x3d3dd490	0.046345294
80	0xbdbaed74	-0.09127322
81	0x3ddabf0c	0.106809705
82	0x3de9f99d	0.11424563
83	0x3b5eaa60	0.0033976063
84	0x3d30437d	0.04303311
85	0x3dcf76d3	0.10130086
86	0xbe547d63	-0.20750956
87	0x3ddf45ff	0.109020226
88	0x3d971a32	0.07378043
89	0x3e06c9bc	0.13162893
90	0xbce53da0	-0.027983487
91	0x3e34cfb5	0.17657359
92	0xbdbe0393	-0.092780255
93	0x3d5148dc	0.051094875
94	0x3e02612e	0.12732384
95	0xbd8ae2fb	-0.06781574
96	0xbd53b128	-0.05168262
97	0x3d95d1dc	0.07315418
98	0xbd1e660c	-0.03867154
99	0x3c954fb3	0.01822648
100	0x3d1a1efc	0.037627205
101	0x3d341aed	0.04397099
102	0xbdc2d355	-0.09512965
103	0x3d69e5df	0.057103988
104	0xbddd1cf1	-0.10796536
105	0x3d46966a	0.04848329
106	0x3d836930	0.06416547
107	0xbdee8330	-0.11646116
108	0xbdd709f1	-0.10499943
109	0x3d208328	0.03918758
110	0x3e1f7c75	0.1557482
111	0x3d6daaf0	0.058024347
112	0x3c6ead05	0.014567618
113	0x3c47ff6c	0.012206893
114	0xbcdc98f8	-0.02692841
115	0x3d8d828e	0.06909667
116	0x3c746bc2	0.01491827
117	0xbd1731b7	-0.036912646
118	0x3e2ebb8f	0.17063735
119	0xbe454688	-0.19265187
120	0x3e13213c	0.14368147
121	0x3e176a8d	0.1478674
122	0xbd85bb91	-0.06529916
123	0xbca57288	-0.020196214
124	0xbdd924b1	-0.106027015
125	0x3d489be8	0.04897681
126	0x3d2e43e7	0.042545225
127	0x3e17a954	0.14810687
128	0x3d0c305c	0.034225807
129	0x3d9913ea	0.074745014
130	0x3d8516e1	0.064985044
131	0xbe065d4d	-0.13121529
132	0x3d2274ae	0.039662056
133	0xbd47678c	-0.048682734
134	0x3b871ed7	0.0041235494
135	0xba622a00	-0.00086274743
136	0xbc7881d0	-0.015167668
137	0x3df11760	0.117720366
138	0x3d8c8579	0.068613954
139	0xbd85e5b1	-0.06537951
140	0xbe054036	-0.13012776
141	0x3d2f7f84	0.042846218
142	0xbd40fdfc	-0.04711722
143	0x3dfcd398	0.12345046
144	0xbd31ca60	-0.04340589
145	0x3cd0eada	0.025502611
146	0xbdeb5b59	-0.114920326
147	0xbdd8a834	-0.10578957
148	0xbd591028	-0.052993923
149	0x3d8f4f68	0.069975674
150	0x3d56afd7	0.052413788
151	0xbde8e11d	-0.11371062
152	0xbd84b966	-0.064806744
153	0xbd8802c6	-0.06641154
154	0xbda10ace	-0.07863389
155	0xbdb65f8e	-0.08904944
156	0xbde8cce8	-0.11367208
157	0xbdc4ccc6	-0.0960937
158	0x3d4e417b	0.050355416
159	0x3df0fcdc	0.11766979
160	0xbd5b8fdc	-0.053603992
161	0xbcd23b6d	-0.025663102
162	0xbd96d33a	-0.07364507
163	0xbc25e680	-0.010125756
164	0xbcc4b918	-0.02401404
165	0xbdd1ae8a	-0.10238369
166	0x3deca884	0.11555579
167	0x3dd30dca	0.103053644
168	0x3ddea84a	0.10871942
169	0xbd57dcec	-0.052700922
170	0x3c942ca0	0.018087685
171	0x3dbe40eb	0.09289726
172	0xbd9df341	-0.077124126
173	0xbadc9593	-0.0016829245
174	0x3ca239bf	0.019802926
175	0xbd81386c	-0.0630959
176	0x3dc37e64	0.095455915
177	0x3d83d68b	0.06437405
178	0xbdf75db2	-0.12078418
179	0xbdc013d5	-0.09378783
180	0x3d2cd290	0.042192996
181	0x3d5dc342	0.05414129
182	0xbdafd2f5	-0.08585159
183	0x3d145023	0.036209237
184	0x3d4d6763	0.050147425
185	0xbdf4d7d4	-0.119552284
186	0xbda7b93d	-0.08189628
187	0x3dc19344	0.09451917
188	0x39ac3e95	0.00032853024
189	0xbd83582e	-0.06413303
190	0xbd2f1754	-0.042746857
191	0xbd14cbaa	-0.03632704
192	0x3d083a83	0.033258926
193	0xbd90aba2	-0.07063986
194	0x3da4b684	0.080426246
195	0x3e60ac29	0.21940674
196	0x3e03c3f3	0.12867717
197	0x3e0c083c	0.13675016
198	0x3d904bf7	0.07045739
199	0xbc567e19	-0.013091587
200	0xbdf7488b	-0.12074383
201	0xbd82107b	-0.063508
202	0xbc5472a3	-0.012966785
203	0xbdcdc315	-0.100469746
204	0x3cde1a08	0.027112022
205	0xbcae2c5b	-0.021261385
206	0x3dae003d	0.08496139
207	0xbdb40934	-0.08790818
208	0xbc25719e	-0.010097889
209	0x3e3e5de5	0.18590505
210	0x3cbae71e	0.022815283
211	0x3ddd7b99	0.1081459
212	0x3e05c681	0.13064004
213	0x3d89f074	0.06735316
214	0xbe18c4bf	-0.14918803
215	0xbd187044	-0.03721644
216	0x3e7cf904	0.24704367
217	0xbcd0c135	-0.025482753
218	0x3dfc80ec	0.123292774
219	0x3e09aca9	0.13444771
220	0x3d9184a3	0.071053766
221	0x3dadd611	0.084880956
222	0xbd6e9b61	-0.05825365
223	0xbe0582cf	-0.13038181
224	0x3dce482a	0.10072358
225	0xbe35d2e8	-0.17756236
226	0x3df7cbe0	0.12099433
227	0xbd3a8e1d	-0.045545686
228	0xbdff7c8e	-0.12474929
229	0xbca290c1	-0.019844415
230	0x3d2c271f	0.042029496
231	0x3c55d9ba	0.013052398
232	0x3d9f081f	0.07765221
233	0x3c3ea57a	0.011636132
234	0xbdd04658	-0.10169667
235	0xbdc1c288	-0.09460932
236	0xbe9bdcd0	-0.30441904
237	0xbdeaa049	-0.11456353
238	0x3e1966ed	0.1498067
239	0x3d6c41c4	0.057679906
240	0x3d51bdab	0.051206272
241	0xbe3a9e93	-0.18224554
242	0xbd8d675a	-0.06904478
243	0x3caf4f8d	0.021400237
244	0x3c07f2d4	0.008297641
245	0x3d17597b	0.03695057
246	0x3d7df775	0.06200357
247	0xbe8f32f6	-0.27968568
248	0x380ea78c	3.401148e-05
249	0xbb3490e0	-0.0027552173
250	0x3de0933a	0.10965581
251	0xbd2f2730	-0.04276198
252	0xbe3d88d1	-0.18509223
253	0xbd9ad456	-0.07560031
254	0xbcc77238	-0.024346456
255	0xbdecbad7	-0.11559074

actor.0.bias f4 [64]
0	0x3e139fd4	0.14416438
1	0x3d0c9810	0.034324706
2	0xbdfb7f89	-0.12280185
3	0x3df44dd1	0.11928905
4	0xbd7e1c24	-0.062038556
5	0xbd9c15fa	-0.07621379
6	0x3ce6a046	0.028152596
7	0x3df51403	0.119667076
8	0xbb66aa45	-0.0035196703
9	0xbdd80682	-0.10548116
10	0x3dd52a4e	0.104084596
11	0xbddfea6a	-0.10933383
12	0xbc9fc5fb	-0.019503584
13	0xbdafdb28	-0.085867226
14	0x3e36e41e	0.17860457
15	0x3b934025	0.0044937306
16	0x3ca65ee8	0.020308927
17	0x3cf4b54f	0.02987161
18	0xbc21ec52	-0.009883003
19	0x3dc8c325	0.09802846
20	0xbd9a585b	-0.07536384
21	0xbabb5552	-0.0014292395
22	0xbda3a3b9	-0.07990212
23	0xbc105fe0	-0.008811921
24	0x3e35279c	0.17690891
25	0x3e13c706	0.1443139
26	0x3cd27f64	0.02569551
27	0x3bbdcd43	0.0057922914
28	0x3d178461	0.03699148
29	0xbdbe2e84	-0.09286216
30	0x3cf301d8	0.029663965
31	0xbd588619	-0.05286226
32	0x3d58a586	0.05289223
33	0xbd9371c6	-0.07199435
34	0xbddf0aca	-0.1089073
35	0x3e3ab604	0.18233496
36	0x3cea9a7f	0.028638123
37	0xbd49b9ca	-0.049249448
38	0x3d6c2a31	0.057657424
39	0xbdf7b82e	-0.12095676
40	0xbd96b2ac	-0.07358298
41	0x3ca8ae11	0.020590814
42	0x3d710dc5	0.058851022
43	0xbd88585e	-0.0665748
44	0xbd9f7786	-0.07786469
45	0xbcf8998f	-0.03034666
46	0xbda7461f	-0.081676714
47	0x3d7dbb35	0.061946113
48	0xbde2a115	-0.1106588
49	0x3e1f8e7f	0.15581702
50	0x3cff1c84	0.031141527
51	0xbd017d90	-0.031613886
52	0xbc949eda	-0.018142153
53	0xbddca83d	-0.107742764
54	0x3dd8dc26	0.10588865
55	0xbd4be93a	-0.04978297
56	0x3cfd3dc6	0.030913245
57	0xbd3c7ee6	-0.046019457
58	0xbd40ce54	-0.04707177
59	0xbdeee43d	-0.11664627
60	0x3da8e394	0.08246532
61	0xbc817f94	-0.015807904
62	0x3c25457b	0.010087366
63	0x3d6adc1c	0.05733882

actor.2.weight f4 [4, 64]
0	0x3cae92be	0.021310207
1	0x3bc3e906	0.0059787063
2	0xbdbf5e40	-0.09344149
3	0x3deb3911	0.11485494
4	0x3d4e7f70	0.050414503
5	0xbd0e79a6	-0.03478398
6	0xbaa35cac	-0.0012463531
7	0x3e380143	0.17969231
8	0xbb512d53	-0.0031917884
9	0x3ccead03	0.025228983
10	0x3d044b94	0.03229864
11	0xbd464ff3	-0.04841609
12	0x3d15eb06	0.03660109
13	0xbd793e16	-0.060850225
14	0xbe2849f8	-0.16434467
15	0xbe184370	-0.14869475
16	0xbe0ed534	-0.13948518
17	0x3cef3849	0.029201644
18	0xbe43db94	-0.19126731
19	0xbe18dce2	-0.1492801
20	0x3e0dc88c	0.13846034
21	0x3dcdc835	0.10047952
22	0xbd045538	-0.032307833
23	0x3d1e1032	0.038589664
24	0xbde73e8e	-0.11291228
25	0x3c415fec	0.011802655
26	0xbce87427	-0.028375698
27	0xbd1987c9	-0.03748301
28	0xbdfb4f0a	-0.12270935
29	0x3db8aba0	0.0901711
30	0x3dc8a5d6	0.09797256
31	0xbd311066	-0.04322853
32	0xbe03401e	-0.12817428
33	0xbdb752ae	-0.08951317
34	0xbe033f72	-0.12817171
35	0xbdf8b8ef	-0.12144648
36	0x3d67f901	0.056633953
37	0xbe282e79	-0.16423978
38	0xbe194e16	-0.14971194
39	0x3d697693	0.056997847
40	0x3d712bd4	0.05887969
41	0x3ea5291f	0.32257935
42	0x3c217362	0.00985417
43	0x3da6f600	0.081523895
44	0xbdee2be0	-0.11629462
45	0x3da31dd8	0.079646766
46	0x3dbf2eca	0.09335096
47	0x3c8f9f43	0.017531997
48	0x3d5b624b	0.053560536
49	0xbdb1fefc	-0.086912125
50	0xbdec9058	-0.11550969
51	0xbd9a2936	-0.075273916
52	0xbe45ff96	-0.1933578
53	0xbc95e65b	-0.018298319
54	0xbd8a4ce4	-0.06752947
55	0xbd839811	-0.06425489
56	0x3d25ef4c	0.040511414
57	0xbdc25e6e	-0.09490667
58	0xbc1c7c13	-0.009551066
59	0xbd3f52b6	-0.04670974
60	0x3d9b3ce5	0.07579974
61	0x3cf1648e	0.029466894
62	0xbddcf34e	-0.10788594
63	0x3d16bd43	0.036801588
64	0x3df6d6ba	0.120526746
65	0x3e1a1e69	0.15050663
66	0xbccde7f3	-0.025135016
67	0x3e8bdd73	0.2731739
68	0xbcff7828	-0.031185225
69	0xbd96bb49	-0.073599406
70	0xbd9a10aa	-0.0752271
71	0xbd1bced2	-0.038039036
72	0x3d928be0	0.07155585
73	0x3d5f43cf	0.054508027
74	0xbdaf43da	-0.085578635
75	0xbd9b819c	-0.075930804
76	0x3c839e05	0.01606656
77	0x3cf0b7fb	0.029384604
78	0x3e1035ae	0.14082977
79	0xbbb3651d	-0.0054747
80	0x3ceacff4	0.028663613
81	0x3e285968	0.16440356
82	0x3d5257e5	0.051353354
83	0x3e3e02f4	0.18555814
84	0xbd3f2a9e	-0.046671502
85	0x3df3be4d	0.11901531
86	0xbe41f2cb	-0.18940274
87	0xbe101c8e	-0.14073393
88	0x3e143147	0.14471923
89	0xbd98e5b2	-0.07465686
90	0x3e389e21	0.18029071
91	0x3d90b235	0.0706524
92	0x3dcf1181	0.101107605
93	0x3d328ef4	0.043593362
94	0x3d37119a	0.04469452
95	0xbe21eed6	-0.15813765
96	0x3dc00f73	0.09377947
97	0x3c293602	0.010327818
98	0x3e33fe25	0.17577417
99	0x3dc36a61	0.095417745
100	0xbd81c51d	-0.063364245
101	0x3d7acf76	0.061233006
102	0xbdc660aa	-0.09686406
103	0x3d52a559	0.05142722
104	0x3e5549ab	0.20828883
105	0xbe06a1e2	-0.13147691
106	0xbdb7c7a7	-0.089736275
107	0xbe092746	-0.13393888
108	0x3c48c750	0.012254551
109	0x3d941734	0.07230988
110	0xbdc2c0aa	-0.09509404
111	0x3d9f7d38	0.077875555
112	0x3dadbec2	0.0848365
113	0xbe35fcaf	-0.17772172
114	0x3d96cf47	0.07363754
115	0xbd6767f2	-0.056495614
116	0x3e0a5e56	0.13512549
117	0xbd086b0e	-0.03330522
118	0x3cdd3aa9	0.02700551
119	0xbcbdcc54	-0.02316872
120	0x3dbf9a0e	0.093555555
121	0x3ca030f4	0.019554593
122	0x3dbf14d6	0.09330146
123	0xbd9a7969	-0.075426884
124	0xbd30e9ea	-0.043191828
125	0xbc2ac36d	-0.01042257
126	0x3cd5f7c1	0.026119115
127	0x3e4e4629	0.20143951
128	0xbdd7a0cc	-0.105287164
129	0xbd784394	-0.060611323
130	0x3d60d222	0.0548879
131	0x3e0a594a	0.13510624
132	0xbd054488	-0.03253606
133	0x3ea96cfd	0.33090964
134	0x3d579539	0.052632544
135	0x3e2ae607	0.16689311
136	0xbd63c4a4	-0.055607453
137	0x3d43b559	0.04778037
138	0xbcc06c90	-0.023489267
139	0xbe02e547	-0.12782775
140	0x3d7cd113	0.061722826
141	0x3dc666fd	0.09687612
142	0x3c8ae9ca	0.016957182
143	0xbdc66832	-0.096878424
144	0xbd330df9	-0.043714497
145	0xbdbea8db	-0.093095504
146	0xbe00c01a	-0.12573281
147	0x3d7bce8b	0.06147627
148	0x3de8348c	0.113381475
149	0x3d996034	0.074890524
150	0x3d032d9f	0.03202593
151	0x3d802df5	0.062587656
152	0xbe01f3b8	-0.12690628
153	0xbddbbe1e	-0.10729621
154	0x3de38a69	0.11110384
155	0x3c7a4c1f	0.015276938
156	0xbe140ea3	-0.14458708
157	0x3c8e8da0	0.017401516
158	0x3bbafb41	0.0057062213
159	0xbd87aec4	-0.06625131
160	0x3df1ef6c	0.11813244
161	0x3d011870	0.031517446
162	0x3e11c591	0.14235522
163	0xbd8c27ef	-0.06843554
164	0x3d8d6f2b	0.06905969
165	0x3cb7af6c	0.022422515
166	0xbe0e8c57	-0.13920723
167	0x3dc755c5	0.09733156
168	0xbd48ac05	-0.048992176
169	0x3ecc583e	0.39911073
170	0x3de6bbb2	0.11266269
171	0x3c8cdfc8	0.017196551
172	0x3dd06456	0.101753876
173	0x3d395130	0.045243442
174	0xbd37b422	-0.044849522
175	0xbaa16c0e	-0.0012315528
176	0xbe14ec41	-0.14543249
177	0x3d73f217	0.059557047
178	0x3d8becc2	0.06832267
179	0x3dee1496	0.1162502
180	0x3d9e650e	0.077341184
181	0x39d8052d	0.00041202587
182	0xbc901a00	-0.017590523
183	0x3ebdb40b	0.37051424
184	0x3dd8e8de	0.10591291
185	0xbca70a32	-0.020390604
186	0x3d5f8b65	0.054576296
187	0x3ce63f60	0.028106391
188	0x3dddfa6c	0.1083878
189	0xbe09e1d4	-0.13465053
190	0x3dba9dce	0.0911213
191	0x3dc297bd	0.09501598
192	0x3e361c1a	0.17784157
193	0x3dca3a01	0.098743446
194	0xbde64a49	-0.112446375
195	0xbe203d4b	-0.15648381
196	0xbcd9b0e0	-0.026573598
197	0x3e00b62d	0.12569495
198	0xbdeec14a	-0.11657961
199	0x3c3c18a1	0.011480481
200	0x3d0241e5	0.031801123
201	0x3c72f8a6	0.01482979
202	0x3e0c02b0	0.136729
203	0x3da2b66d	0.07944951
204	0xbdd2fb85	-0.1030188
205	0x3de9a520	0.11408448
206	0x3d2c6fd7	0.042098846
207	0x3d331957	0.043725338
208	0xbd035fe9	-0.03207389
209	0x3d41d055	0.04731782
210	0xbd978f7f	-0.074004166
211	0xbd5df839	-0.0541918
212	0x3e5ce6c7	0.2157241
213	0xbdea679f	-0.114455454
214	0x3e86c382	0.26321036
215	0x3e236de7	0.15959893
216	0x3d75ffa4	0.06005825
217	0x3e041ff5	0.12902816
218	0xbe0e948c	-0.13923854
219	0xbdbc3448	-0.09189659
220	0x3de515ce	0.111857995
221	0x3dc5e43d	0.096626736
222	0xbd46f439	-0.048572753
223	0x3e69e84c	0.2284252
224	0xbd2ad480	-0.041706562
225	0x3dd71b88	0.10503298
226	0xbd9bd722	-0.07609393
227	0x3df04a53	0.11732926
228	0x3e26e48b	0.1629812
229	0xbd9f155d	-0.077677466
230	0x3e3439e2	0.17600206
231	0xbdc5125c	-0.096226424
232	0xbda175fb	-0.07883831
233	0x3d4d03d8	0.050052494
234	0x3da6138a	0.081091955
235	0xbd525410	-0.0513497
236	0x3d9079d0	0.07054484
237	0xbc771d79	-0.01508271
238	0xbddf5c3c	-0.10906264
239	0x3e0190c6	0.12652883
240	0x3dc1de7e	0.09466265
241	0x3e75fccb	0.24022214
242	0xbe0356fb	-0.12826149
243	0x3d1f7ec8	0.038939267
244	0x3e045388	0.1292249
245	0xbde7c235	-0.11316339
246	0xbd11874a	-0.035529412
247	0x3b9c5af7	0.004771586
248	0xbe35ad0a	-0.1774179
249	0x3e3042e9	0.17213024
250	0x3df5f88c	0.12010297
251	0x3df565c6	0.11982302
252	0xbdb68277	-0.08911603
253	0xbdc5e39a	-0.09662552
254	0x3c581357	0.013188205
255	0xbe3cffa3	-0.18456893

actor.2.bias f4 [4]
0	0xbbd25a25	-0.0064194375
1	0xbd7d52af	-0.06184643
2	0xbe19bda5	-0.1501375
3	0xbb31b5fd	-0.002711653

critic.0.weight f4 [64, 64]
0	0x3d110442	0.03540445
1	0x3e448327	0.19190656
2	0x3e23407a	0.15942565
3	0xbca97685	-0.020686397
4	0x3df2f514	0.11863151
5	0x3e1ac4c9	0.1511413
6	0x3d703aa7	0.058649685
7	0x3d9c3f84	0.07629302
8	0xbd8dbe92	-0.06921114
9	0x3e2c3fd3	0.16821222
10	0x3e05b802	0.13058475
11	0x3d7f0c5f	0.062267657
12	0x3dde8782	0.1086569
13	0x3cf8ca45	0.030369887
14	0x3dbad344	0.09122327
15	0xbca13460	-0.019678295
16	0xbe0ce953	-0.13760881
17	0x3e1a150a	0.15047088
18	0x3e3c79d5	0.1840585
19	0xbd6753e0	-0.056476474
20	0xbde58f09	-0.112089224
21	0xbdd80a0a	-0.1054879
22	0x3d7ca54c	0.061681077
23	0xbca10014	-0.019653358
24	0x3cb359aa	0.021893341
25	0x3dbfffd5	0.09374968
26	0xbda0665c	-0.078320235
27	0x3ac13845	0.0014741501
28	0xbd9b05d4	-0.07569471
29	0xbe535367	-0.20637284
30	0x3c95abac	0.018270336
31	0xbd16e0c3	-0.036835443
32	0x3d15e5a4	0.036595955
33	0x3d3bfb00	0.04589367
34	0x3d8f5e75	0.07000438
35	0xbd176e06	-0.03697016
36	0xbb49b4c0	-0.0030777901
37	0x3ddc7a72	0.10765542
38	0xbdd704b9	-0.10498948
39	0xbd86a88e	-0.06575118
40	0x3e0047aa	0.12527338
41	0x3e137497	0.14399944
42	0xbbd1f280	-0.006407082
43	0x3d4ac023	0.049499642
44	0x3dd44da8	0.10366374
45	0x3e03a447	0.12855636
46	0x3e18ed42	0.14934257
47	0xb942b033	-0.00018566921
48	0x3e068e4d	0.13140221
49	0xbcb5a1b7	-0.022171838
50	0xbb9a69a0	-0.0047122985
51	0x3e2ffbf7	0.1718596
52	0xbde9c726	-0.11414938
53	0xbccd8ab0	-0.025090545
54	0x3de34309	0.1109677
55	0xbd6a382c	-0.057182476
56	0x3e2aa850	0.16665769
57	0x3c34f681	0.011045099
58	0x3bca91df	0.00618194
59	0x3b912e40	0.0044305623
60	0x3e209651	0.15682341
61	0xbcbd9430	-0.02314195
62	0xbc9b6250	-0.018967777
63	0x3e535b9c	0.20640415
64	0x3c84d325	0.016213963
65	0xbde1ffd5	-0.11035124
66	0xbdc92ceb	-0.098230205
67	0xbde5b1eb	-0.11215576
68	0x3dace034	0.08441201
69	0xbd6fec96	-0.058575235
70	0xbe121e7e	-0.14269444
71	0x3d36317f	0.044480797
72	0xbcc42bef	-0.02394673
73	0x3cf60c7e	0.030035254
74	0xbdfde995	-0.12398068
75	0x3db583a3	0.08862998
76	0x3bfb4353	0.007667938
77	0x3d5e157f	0.05421972
78	0xbd8feeee	-0.07027994
79	0x3dce3b58	0.10069913
80	0x3cbc9733	0.023021316
81	0x3c1ee0bd	0.0096971365
82	0x3d88ede7	0.06686001
83	0xbde7d34a	-0.11319597
84	0x3dbe10d7	0.09280556
85	0x3dd993f9	0.10623927
86	0xbd54e65c	-0.0519775
87	0xbdca6049	-0.09881646
88	0x3dd5806c	0.10424885
89	0xbd60601d	-0.05477916
90	0x3dfc9a8c	0.12334165
91	0x3d2af52d	0.041737724
92	0xbd662912	-0.05619151
93	0x3da97f1c	0.08276197
94	0x3d9cd3f7	0.076576166
95	0xbdefd350	-0.117102265
96	0xbc840b08	-0.016118541
97	0xbcc83b9b	-0.024442485
98	0x3c947ecd	0.01812687
99	0xbd9b4cff	-0.07583045
100	0xbd66c1b4	-0.056337073
101	0xbc27e934	-0.010248471
102	0xbb110561	-0.002212845
103	0xbe1c1887	-0.15243731
104	0xbda5bd58	-0.08092755
105	0x3c01fb6f	0.007933482
106	0x3dd6bb5c	0.10484955
107	0x3d2cda76	0.042200528
108	0x3dc91d61	0.09820057
109	0x3b51f534	0.0032037022
110	0xbd4612f5	-0.048357923
111	0xbdd6a98e	-0.10481559
112	0x3d21316b	0.03935377
113	0xbd0dc9a9	-0.034616146
114	0xbdd06106	-0.10174756
115	0xbe16478c	-0.1467573
116	0xbda41ed3	-0.08013692
117	0x3d98b129	0.074556656
118	0xbd959708	-0.073041975
119	0x3d053e53	0.03253014
120	0xbc059999	-0.008154296
121	0xbc856c9b	-0.016287139
122	0xbe16acab	-0.14714305
123	0xbdcd38d2	-0.10020603
124	0xbe093edf	-0.1340289
125	0xbdcf044c	-0.101082414
126	0xbe0dff29	-0.13866867
127	0x3db452fb	0.0880489
128	0xbde945ea	-0.11390288
129	0xbddf7a65	-0.10912017
130	0xbe698cf7	-0.2280768
131	0xbdef126c	-0.116734356
132	0xbe05f350	-0.13081098
133	0xbe2baa4a	-0.16764179
134	0xbdb13103	-0.08651926
135	0x3dae50cb	0.08511504
136	0xbd983d1a	-0.07433529
137	0x3c734a26	0.014849221
138	0xbdfac1ce	-0.122439966
139	0xbdac80b3	-0.08422985
140	0xbd820b6c	-0.06349835
141	0x3a99bd7e	0.0011729447
142	0xbda7988c	-0.08183393
143	0xbc92f988	-0.017941251
144	0x3df4ee67	0.11959534
145	0xbd18e45e	-0.037327163
146	0xbd145f28	-0.03622356
147	0x3db33f54	0.08752313
148	0xbda4ccb0	-0.080468535
149	0x3ca1fd69	0.019774156
150	0x3dfd11bc	0.12356898
151	0xbe1cfce4	-0.15330845
152	0xbd74749a	-0.059681512
153	0xbd5eca07	-0.054391887
154	0x3dcf5164	0.10122946
155	0xbd34e716	-0.044165693
156	0xbde4c3f4	-0.111701876
157	0xbd59127b	-0.05299614
158	0xbde1d7b7	-0.110274725
159	0x3d9457fc	0.07243344
160	0xbd95085a	-0.072769836
161	0x3b906513	0.0044065802
162	0x3d32a9b8	0.043618888
163	0x3dddfb34	0.10838929
164	0x3d996a54	0.074909836
165	0xbd6c272d	-0.05765455
166	0xbde4ce5a	-0.11172171
167	0xbe16a9af	-0.14713167
168	0x3b3e4c45	0.002903716
169	0xbe30394a	-0.17209354
170	0xbde42de0	-0.111415625
171	0x3d5a9e00	0.053373337
172	0x3dad6fa8	0.08468562
173	0xbd03d59d	-0.03218614
174	0xbe4350c4	-0.19073778
175	0x3df87634	0.121319205
176	0x3d304d83	0.04304267
177	0xbd9d1607	-0.07670217
178	0xbdbcbc18	-0.092155635
179	0xbc768139	-0.0150454575
180	0xbdee640c	-0.11640176
181	0xbdcfaeb0	-0.10140741
182	0xbe3fb3c8	-0.18720925
183	0x3dd62936	0.10457079
184	0xbde0c53b	-0.10975119
185	0xbd16ac25	-0.036785264
186	0xbcd8ffa6	-0.02648909
187	0xbd1b6364	-0.037936583
188	0x3d5c38f3	0.05376525
189	0x3df7455a	0.12073775
190	0x3e0b76dc	0.1361956
191	0x3d78e8df	0.06076896
192	0xbd31dd54	-0.043423966
193	0x3e4c76ce	0.19967195
194	0x3bb5f86f	0.0055532972
195	0x3d878285	0.066166915
196	0x3e0ad8c9	0.1355926
197	0x3df11668	0.11771852
198	0x3e196e7b	0.14983551
199	0xbda848bf	-0.08217
200	0x3d3ee21f	0.046602365
201	0x3e3812ac	0.17975873
202	0x3e0bad7d	0.136404
203	0xbd90785d	-0.070542075
204	0x3e0bd8a9	0.13656868
205	0xbd445dc6	-0.04794099
206	0xbd28d619	-0.041219804
207	0xbdddfafe	-0.108388886
208	0xbdfecda2	-0.12441565
209	0x3e2b5f53	0.16735582
210	0xbcb70115	-0.022339383
211	0xbaa7550a	-0.0012766432
212	0x3db79cd9	0.08965463
213	0x3c863a9f	0.016385375
214	0xbd37a814	-0.044838026
215	0x3dd47548	0.10373932
216	0x3c469413	0.012120265
217	0x3bb625af	0.0055586915
218	0x3bff9b20	0.0078004748
219	0xbce20554	-0.027590431
220	0x3d0b2603	0.033971798
221	0xbd72a718	-0.059241384
222	0x3d86ad80	0.06576061
223	0xbc342b0f	-0.010996594
224	0xbcda96c8	-0.026683226
225	0x3e883641	0.26603892
226	0x3e11b035	0.14227374
227	0x3d21a5ed	0.03946488
228	0xbcdeba30	-0.02718839
229	0x3dac89fb	0.08424755
230	0xbdae930a	-0.08524139
231	0x3e27cb1e	0.16386077
232	0x3d4f6d2e	0.05064123
233	0x3c476672	0.012170421
234	0xbc558b50	-0.013033703
235	0x3c99b73a	0.018764127
236	0x3d299e0f	0.041410502
237	0x3e9ab0b1	0.3021293
238	0x3e41f7ed	0.18942232
239	0x3d596457	0.053074207
240	0x3db1c5e3	0.08680322
241	0xbc0f3bdb	-0.008742298
242	0x3df2b20a	0.118503645
243	0x3d94a8c3	0.07258751
244	0x3ba0648b	0.004894798
245	0x3e130084	0.14355665
246	0x3e6c6648	0.23085892
247	0xbbf29bd7	-0.0074038315
248	0x3cbd9863	0.023143953
249	0xbd261ac9	-0.040552888
250	0xbdfe8830	-0.124283195
251	0x3de505ba	0.11182733
252	0x3e620222	0.22071126
253	0xbdfe4926	-0.12416296
254	0xbde78190	-0.11304009
255	0x3e22ed9c	0.15910953

critic.0.bias f4 [64]
0	0x3cfb4b1e	0.030675467
1	0x3c81961a	0.015818644
2	0xbd6155a7	-0.055013325
3	0x3e6ba51a	0.230122
4	0x3d349378	0.04408595
5	0xbdf066ff	-0.11738395
6	0x3c717b1c	0.014738824
7	0xbdfbcab6	-0.122945234
8	0x3e6a8abf	0.2290449
9	0xbe0f754e	-0.14009592
10	0xbda0c1cd	-0.078494646
11	0x3e033117	0.12811695
12	0x3d70d69c	0.058798417
13	0x3e6b3f70	0.22973418
14	0xbd14a201	-0.03628731
15	0x3d040efc	0.032240853
16	0xbda8916d	-0.08230863
17	0x3e59dab7	0.2127484
18	0xbde23ccc	-0.11046752
19	0xbe145951	-0.14487197
20	0xbd47b73d	-0.048758734
21	0xbe3d1420	-0.18464708
22	0x3bcb07c0	0.006195992
23	0x3cccbbee	0.024991956
24	0x3e025045	0.12725933
25	0x3afb6cd6	0.0019182216
26	0x3d7d7281	0.061876778
27	0x3d9be729	0.0761245
28	0x3df93fdd	0.12170384
29	0xbd4ccf47	-0.050002363
30	0x3d2ae59c	0.04172288
31	0xbdf7fe92	-0.12109102
32	0x3c9dc6ff	0.019259928
33	0x3d015c7c	0.03158234
34	0x3d6813d6	0.056659542
35	0xbd2e6be8	-0.042583376
36	0x3e86e700	0.26348114
37	0x3db557ae	0.08854614
38	0xbdbf6d9d	-0.09347079
39	0x3e6b8194	0.22998649
40	0xbc185b32	-0.009299086
41	0xbccd11fc	-0.02503299
42	0x3e2b9061	0.16754295
43	0x3cc3b6d0	0.023890883
44	0x3ddd2f35	0.1080002
45	0x3d3b317f	0.0457015
46	0x3e6b8e14	0.23003417
47	0xbb40a2b5	-0.0029393856
48	0x3d07e72d	0.03317945
49	0x3e7d399b	0.24729006
50	0xbe034b10	-0.12821603
51	0xbd5a56cc	-0.053305432
52	0x3e744bfb	0.23857109
53	0x3ce0a718	0.027423427
54	0xbde5890c	-0.1120778
55	0x3d16b8ce	0.036797337
56	0x3dd3717f	0.10324382
57	0x3e09209f	0.1339135
58	0x3dbcae99	0.09212989
59	0x3e11fe1c	0.14257091
60	0x3cd9fe8e	0.026610639
61	0x3dca891b	0.09889432
62	0xbc878d00	-0.016546726
63	0x3c9ee217	0.019394917

critic.2.weight f4 [1, 64]
0	0x3e2aec75	0.16691764
1	0xbbbe4700	-0.0058068037
2	0xbdf25321	-0.11832262
3	0x3daaa406	0.08332066
4	0xbdfdaf72	-0.12386979
5	0x3a36f799	0.0006979644
6	0xbd43b610	-0.04778105
7	0xbdfbaa9a	-0.12288399
8	0x3dac0d02	0.084009185
9	0xbd0e4169	-0.03473035
10	0x3d6d11d5	0.057878334
11	0x3da8f18a	0.08249195
12	0x3cac7f66	0.021056842
13	0x3e058453	0.13038759
14	0xbd627c7c	-0.0552945
15	0xbd863d6a	-0.065546826
16	0x3d8cd1e9	0.06875975
17	0x3df92f90	0.12167275
18	0xbda10ffb	-0.07864376
19	0xbc904c3d	-0.017614478
20	0x3dad4669	0.08460695
21	0xbd843f7e	-0.06457423
22	0xbb25759b	-0.00252471
23	0xbde4bcab	-0.11168798
24	0x3e4eabdc	0.20182747
25	0xbdb700c1	-0.08935691
26	0x3e0950be	0.13409707
27	0x3dcaf20e	0.099094495
28	0x3e20fc94	0.15721351
29	0xbdd066a9	-0.10175831
30	0x3ac73399	0.0015197872
31	0xbe4359e0	-0.19077253
32	0xbd21124f	-0.0393241
33	0xbdfacbfa	-0.12245937
34	0xbd999fc0	-0.07501173
35	0xbd83f374	-0.064429194
36	0x3e403412	0.18769863
37	0xbd863fc0	-0.06555128
38	0xbd1c5d79	-0.03817508
39	0x3e31530f	0.1731684
40	0x3ddd7b7d	0.10814569
41	0xbd171a7f	-0.036890503
42	0x3e13409a	0.14380112
43	0xbd92638a	-0.07147892
44	0xbc34750b	-0.011014233
45	0x3dee0b57	0.11623257
46	0x3d991f32	0.07476653
47	0xbd95ba3f	-0.07310914
48	0xbd2d63a6	-0.04233136
49	0x3d566ce3	0.052349936
50	0xbdc4b0ff	-0.09604072
51	0x3df06862	0.117386594
52	0x3e6e8db8	0.23296249
53	0xbd6a5574	-0.0572104
54	0x3c24c400	0.010056496
55	0xbd14e5d2	-0.036351986
56	0x3bc7e76e	0.0061005866
57	0x3c83397f	0.016018627
58	0x3d311494	0.043232515
59	0x3e15c7f0	0.14627051
60	0x3da4dfd4	0.08050504
61	0xbcdcdd57	-0.026961012
62	0x3cc4f7b5	0.024043897
63	0x3d92f4a9	0.071755715

exp_avg f4 [64, 2]
0	0xb8a97402	-8.080156e-05
1	0xb8e63b36	-0.000109782835
2	0xb8102c8f	-3.4373774e-05
3	0x37f55b83	2.924889e-05
4	0xb6438171	-2.913261e-06
5	0x368fadcc	4.2819647e-06
6	0x2d4a51f8	1.1500571e-11
7	0x33ff748c	1.18955626e-07
8	0xbb40d10e	-0.0029421481
9	0xbaf55187	-0.0018716314
10	0xb98edc4d	-0.00027248487
11	0xb98e1d90	-0.00027106376
12	0xbb15105c	-0.0022745347
13	0xbad271f1	-0.0016055686
14	0xbc034d6a	-0.008014062
15	0xbbb3b870	-0.005484633
16	0x00000000	0.0
17	0x00000000	0.0
18	0x378a2e9f	1.6472592e-05
19	0x388a3a60	6.591226e-05
20	0xbb5e30e4	-0.0033903653
21	0xbb19bbdb	-0.0023457918
22	0x3a79b24d	0.0009525165
23	0x3a6a0cc0	0.00089282915
24	0xbadcaf04	-0.0016836827
25	0xba8cda23	-0.0010746162
26	0x00000000	0.0
27	0x00000000	0.0
28	0x3b51c40a	0.0032007718
29	0x3b144e69	0.0022629744
30	0x3a36202c	0.0006947543
31	0x3a08bd88	0.00052162306
32	0xbbae168d	-0.005312747
33	0xbb6a5b06	-0.003575982
34	0xba71a817	-0.0009218468
35	0xba6bbcd2	-0.0008992675
36	0xb9cbd6b3	-0.0003887914
37	0xb9c19f93	-0.0003693072
38	0x3995be0a	0.00028561085
39	0x399cb46a	0.00029889058
40	0xbac92a3f	-0.0015347673
41	0xbab835bb	-0.0014054099
42	0x00000000	0.0
43	0x37f43157	2.9110042e-05
44	0xbb0499f9	-0.0020233376
45	0xbaec843f	-0.0018044784
46	0x36f14387	7.190221e-06
47	0x378b28ea	1.6589143e-05
48	0xb95b8ea3	-0.00020938604
49	0x00000004	6e-45
50	0xba60ec29	-0.00085801125
51	0xba538b0f	-0.00080697326
52	0xbb6c9c4b	-0.00361039
53	0xbb1b44a3	-0.0023692034
54	0xbb494e02	-0.0030716662
55	0xbb2b0e46	-0.0026101037
56	0x00000000	0.0
57	0x00000000	0.0
58	0x00000000	0.0
59	0x00000000	0.0
60	0xb7334c2b	-1.0686966e-05
61	0xb7c5b6b9	-2.3569317e-05
62	0x00000000	0.0
63	0x00000000	0.0
64	0xbbd74658	-0.006569665
65	0xbb9229ef	-0.0044605653
66	0x3bc54f3e	0.0060214093
67	0x3b89e684	0.004208388
68	0xbaff43b7	-0.0019475137
69	0xbac52378	-0.0015040478
70	0xb7b6f652	-2.1810793e-05
71	0xb82e389e	-4.153756e-05
72	0xbb795f30	-0.003805112
73	0xbb28c600	-0.0025752783
74	0x3c02d8f3	0.007986295
75	0x3c02e5a7	0.007989324
76	0xba30353b	-0.0006721799
77	0xb8b6bd75	-8.7137254e-05
78	0xbadab113	-0.0016684852
79	0xba832c7f	-0.0010007768
80	0x3b8d98b2	0.004321181
81	0x3b223e60	0.0024756417
82	0x36aca6aa	5.1454017e-06
83	0x37f31042	2.8975428e-05
84	0x366def08	3.5454887e-06
85	0x36f6f828	7.3602605e-06
86	0xb999e56e	-0.00029353373
87	0x00000004	6e-45
88	0x3ad33636	0.0016114179
89	0x3a8a8adf	0.0010569951
90	0x3b685643	0.0035451807
91	0x3b217dcd	0.0024641633
92	0xbb158141	-0.0022812637
93	0xbac079e5	-0.0014684765
94	0x3a93f8f7	0.0011289407
95	0x3a4e17bf	0.0007861815
96	0x00000000	0.0
97	0x00000000	0.0
98	0xbb1d25bd	-0.0023978793
99	0xbb018c7d	-0.0019767575
100	0x3b0e0bec	0.0021674586
101	0x3a0f1441	0.0005458035
102	0x39a3ee3b	0.00031267278
103	0x395bbab3	0.00020955018
104	0x00000000	0.0
105	0x00000000	0.0
106	0xbb849da0	-0.0040471107
107	0xbb2f03ae	-0.0026705074
108	0x3b26e12c	0.0025463803
109	0x3b06e85a	0.002058527
110	0xbb2e2f97	-0.0026578659
111	0xbae12d38	-0.0017179614
112	0x39e1942f	0.0004302575
113	0x39b13f9a	0.00033807458
114	0x00000000	0.0
115	0x00000000	0.0
116	0x00000000	0.0
117	0x00000000	0.0
118	0xbb87a9ca	-0.0041401135
119	0xbb33aa79	-0.0027414842
120	0xba2b9172	-0.00065448054
121	0xba3a10c4	-0.0007097835
122	0x00000000	0.0
123	0x00000000	0.0
124	0x3a60a6be	0.00085697684
125	0x3924eb61	0.00015727944
126	0xba0a6d98	-0.0005280613
127	0xb9a1c0f6	-0.0003085208

exp_avg_sq f4 [64, 2]
0	0x3ae75432	0.0017648994
1	0x3ae30ee2	0.0017323161
2	0x35403dd1	7.161553e-07
3	0x3646e357	2.9636628e-06
4	0x35ce0bd3	1.5351637e-06
5	0x38051b72	3.173523e-05
6	0x320f0c65	8.326514e-09
7	0x3093bd79	1.0749509e-09
8	0x3ab95b90	0.0014141668
9	0x3aa83bfe	0.0012835262
10	0x3a988fec	0.0011639572
11	0x3a988d11	0.0011638721
12	0x39b318ce	0.00034160021
13	0x39a40e88	0.00031291344
14	0x3b043aaa	0.0020176568
15	0x3af29072	0.0018506183
16	0x00000000	0.0
17	0x00000000	0.0
18	0x37d1e246	2.5020108e-05
19	0x37d0fc91	2.4913143e-05
20	0x39f17306	0.000460528
21	0x39da765c	0.00041668385
22	0x3bbb39cb	0.0057136766
23	0x3bb098d4	0.0053893123
24	0x38a182ca	7.7014396e-05
25	0x388b2b26	6.6360735e-05
26	0x00000000	0.0
27	0x00000000	0.0
28	0x39e139be	0.00042958366
29	0x39d40adc	0.00040443882
30	0x38f41d60	0.00011640298
31	0x38db087d	0.00010444315
32	0x3a61ae29	0.0008609021
33	0x3a54ef45	0.0008122812
34	0x3ae51816	0.0017478492
35	0x3ad21fe1	0.0016031229
36	0x3a7b683a	0.0009590421
37	0x3a76be8b	0.00094125484
38	0x38c89306	9.5641284e-05
39	0x38bfea58	9.15124e-05
40	0x3ab810c9	0.0014043088
41	0x3aac2eea	0.001313654
42	0x00000000	0.0
43	0x32be9e18	2.2190804e-08
44	0x3a9fa4d2	0.0012179858
45	0x3a96f344	0.0011516591
46	0x3505ba07	4.9817066e-07
47	0x36c97be5	6.00469e-06
48	0x37705e0e	1.4327014e-05
49	0x0fe4c1e5	2.2557221e-29
50	0x3b2b4ab5	0.0026137058
51	0x3b29336e	0.0025818008
52	0x39da687b	0.00041658044
53	0x39c78a8e	0.0003805947
54	0x3aae4ef5	0.0013298678
55	0x3aa42c63	0.0012525435
56	0x00000000	0.0
57	0x00000000	0.0
58	0x00000000	0.0
59	0x00000000	0.0
60	0x35e391a1	1.6955202e-06
61	0x37b57386	2.1630676e-05
62	0x00000000	0.0
63	0x00000000	0.0
64	0x3abf029e	0.0014572924
65	0x3aad3c42	0.0013216811
66	0x3a82105a	0.0009923086
67	0x3a7952a6	0.0009510912
68	0x396ba412	0.00022472467
69	0x395c8104	0.00021028897
70	0x36d9b641	6.488321e-06
71	0x3839b95c	4.4280067e-05
72	0x3a1b624e	0.00059274293
73	0x3a0e701e	0.0005433577
74	0x3ba1874a	0.004929458
75	0x3ba17fff	0.0049285884
76	0x371d8e00	9.390991e-06
77	0x35b7b1c0	1.3686295e-06
78	0x3a4afcd6	0.0007743364
79	0x3a3c98ba	0.0007194389
80	0x397d565c	0.00024160132
81	0x38edb602	0.00011334942
82	0x34c72152	3.7090882e-07
83	0x37eb67f5	2.8062592e-05
84	0x347c50bd	2.3498701e-07
85	0x3609cbf0	2.0533298e-06
86	0x37523445	1.2529145e-05
87	0x2c0e4f6f	2.0223508e-12
88	0x38aece42	8.335385e-05
89	0x38a6b5c0	7.9493504e-05
90	0x3a7d0ed4	0.00096533936
91	0x3a5f4e30	0.0008518426
92	0x390fa4ef	0.00013698985
93	0x38fdd342	0.0001210333
94	0x3829177d	4.0314615e-05
95	0x38198706	3.6603793e-05
96	0x00000000	0.0
97	0x00000000	0.0
98	0x3a3b552a	0.00071461743
99	0x3a329e71	0.0006813771
100	0x38111606	3.4591205e-05
101	0x364a6e64	3.0164601e-06
102	0x39a06c5b	0.0003059831
103	0x3999470f	0.00029235377
104	0x00000000	0.0
105	0x00000000	0.0
106	0x3a1760c1	0.00057746103
107	0x39fd0437	0.0004825906
108	0x39c80501	0.000381507
109	0x39d2ca09	0.0004020485
110	0x3a1fc396	0.0006094513
111	0x3a12107f	0.0005571916
112	0x378fb862	1.7132788e-05
113	0x3786dcef	1.6076925e-05
114	0x00000000	0.0
115	0x00000000	0.0
116	0x00000000	0.0
117	0x00000000	0.0
118	0x3a3095da	0.0006736197
119	0x3a205b73	0.00061171426
120	0x3b02b016	0.0019941381
121	0x3af239db	0.0018480377
122	0x00000000	0.0
123	0x00000000	0.0
124	0x36a64918	4.9556947e-06
125	0x34539a9b	1.9707151e-07
126	0x3845a990	4.7126377e-05
127	0x384263e3	4.634623e-05

exp_avg f4 [64]
0	0xb9c9a3e9	-0.0003845983
1	0x385b951e	5.2352545e-05
2	0xb759f802	-1.2991952e-05
3	0x38e24154	0.00010788688
4	0xb9bf4c2f	-0.0003648712
5	0xb9c4453c	-0.00037435617
6	0xba11b10a	-0.0005557692
7	0xbade2735	-0.001694894
8	0x00000000	0.0
9	0xb826e1f5	-3.9787923e-05
10	0xba418754	-0.0007382531
11	0x39da3f1d	0.00041627223
12	0xb9a84518	-0.00032094936
13	0x00000000	0.0
14	0x3a2b6792	0.00065385655
15	0x392a688f	0.00016251414
16	0xba84c3d2	-0.001012916
17	0xba037f46	-0.00050162186
18	0xb95e47b8	-0.00021198287
19	0x38b85c93	8.791047e-05
20	0xba1d3ed1	-0.0005998435
21	0x38b742db	8.738573e-05
22	0xba325d77	-0.00068040885
23	0xb6834c60	-3.9129955e-06
24	0x38aade38	8.147623e-05
25	0xba227408	-0.00061970996
26	0xba2b91cd	-0.00065448583
27	0xba64e393	-0.0008731421
28	0x00000000	0.0
29	0x00000000	0.0
30	0xb793836d	-1.7584965e-05
31	0x00000000	0.0
32	0xbab9874f	-0.0014154705
33	0x3a9979a3	0.0011709224
34	0xb9f3e2e9	-0.00046517633
35	0xb7f140a7	-2.8759545e-05
36	0xba612462	-0.00085884903
37	0x3ad17925	0.0015981538
38	0xb9286af1	-0.00016061567
39	0xb9123ef4	-0.00013947097
40	0x3a40673e	0.0007339603
41	0xb769bc58	-1.3931734e-05
42	0x380560ec	3.1799937e-05
43	0x37c1c3a8	2.3098502e-05
44	0x399268e4	0.0002792544
45	0x3a495474	0.0007680126
46	0xb9faeead	-0.00047861543
47	0x3969ff0d	0.00022315625
48	0x39132ba1	0.00014035265
49	0xba2a8841	-0.0006505289
50	0x39ba4177	0.0003552546
51	0xb8aedc0c	-8.3379535e-05
52	0x00000000	0.0
53	0xba3db411	-0.000723661
54	0x39ea2d83	0.00044665867
55	0xb9cca524	-0.00039032951
56	0x38bb2f50	8.9256675e-05
57	0x00000000	0.0
58	0x00000000	0.0
59	0xba3e63f9	-0.0007262822
60	0xb9f89603	-0.00047414014
61	0x00000000	0.0
62	0x392266cd	0.0001548782
63	0xb8b5676f	-8.6500186e-05

exp_avg_sq f4 [64]
0	0x38a66f32	7.9362086e-05
1	0x356a484f	8.7277016e-07
2	0x359a2f5d	1.1487679e-06
3	0x33f16e62	1.12425155e-07
4	0x38a6d978	7.9560035e-05
5	0x385c8da0	5.2583986e-05
6	0x37b25ded	2.1262991e-05
7	0x38fb919a	0.00011995733
8	0x00000000	0.0
9	0x35a34232	1.2163712e-06
10	0x37f3a1e5	2.9043245e-05
11	0x39b11e36	0.0003378258
12	0x368af82c	4.1416115e-06
13	0x00000000	0.0
14	0x37d232ba	2.5057572e-05
15	0x370aa048	8.262759e-06
16	0x3848dad0	4.78875e-05
17	0x38f7a380	0.00011808332
18	0x38329bc0	4.258356e-05
19	0x36b8e419	5.5101814e-06
20	0x38c24df0	9.265158e-05
21	0x33a346ac	7.603134e-08
22	0x38a4f743	7.8661855e-05
23	0x348fb0cc	2.6764462e-07
24	0x3772ac89	1.44644955e-05
25	0x38f4b3ea	0.00011668338
26	0x37bb303f	2.2314603e-05
27	0x38ac035f	8.202227e-05
28	0x00000000	0.0
29	0x00000000	0.0
30	0x35508849	7.768436e-07
31	0x00000000	0.0
32	0x38b725ee	8.733185e-05
33	0x385bfd93	5.244983e-05
34	0x37660b59	1.371171e-05
35	0x35e983e9	1.7398244e-06
36	0x381a0a16	3.6725854e-05
37	0x395af5db	0.00020881688
38	0x35e5230b	1.7072028e-06
39	0x383d3153	4.510705e-05
40	0x3709579f	8.186237e-06
41	0x35880506	1.0134252e-06
42	0x33d4a573	9.902114e-08
43	0x3749e58a	1.2033977e-05
44	0x36956309	4.4520752e-06
45	0x387167f9	5.755571e-05
46	0x36fc0d1f	7.5117127e-06
47	0x362ae169	2.546318e-06
48	0x3442de41	1.8148513e-07
49	0x38329257	4.2574797e-05
50	0x359ec97a	1.1830555e-06
51	0x378a925d	1.6519038e-05
52	0x00000000	0.0
53	0x37f516b1	2.9216842e-05
54	0x37a6e747	1.9896439e-05
55	0x38091bca	3.2689226e-05
56	0x35c42ecc	1.4616758e-06
57	0x00000000	0.0
58	0x00000000	0.0
59	0x3814c511	3.5469482e-05
60	0x390c30eb	0.00013369664
61	0x00000000	0.0
62	0x34e318e9	4.230017e-07
63	0x36476756	2.971346e-06
