models/episodes_3000/team_goal_top_left/PPOAgent/model.pt (torch, 168423 bytes, 33 tensors)

feature_extractor.0.weight f4 [64, 2]
00000000: 8783 cf3e b4a7 95bd 1281 c13b 94e8 17bf
00000010: 6727 13bf 5eda ce3e d603 b8be d09c 223f
00000020: 6ece d3be f9b5 3a3e fdf0 f73e c572 0dbf
00000030: 6159 123f 8d5d 03bd 2b89 8fbe ab41 94be
00000040: c76d 99be ebfa 183f 0921 0fbe d12b bebe
00000050: 7544 fdbe 8fe1 3a3f 6100 1e3e 241b 203e
00000060: 2b49 06bf 376c 513e ece1 87be e0d3 2a3f
00000070: 48a8 76bc 0523 4fbe 17bb edbd cbee 7abe
00000080: 9512 393c e40f a6bd 1ceb c13d b6cd 263f
00000090: 5c17 97bd b490 1ebf e952 cf3e 25d4 d63e
000000a0: c28e 093f cc56 9cbe 571e 82be 944d 7dbc
000000b0: db9d d2be 83f6 623d c1cb 8dbe 7300 c73e
000000c0: 3446 053f f889 88be a5dd 28bf 3636 96be
000000d0: 74cc eabe 5b50 623e 2435 5a3c a9a5 da3d
000000e0: 0ada 58be 3599 46bf b08a 96be 207d 233f
000000f0: 2c7a 75bd 593d 53bc 0099 843d 60cd 60be
00000100: 2397 053f 0704 173e 12db 43bc bdf4 0b3f
00000110: 830d 39bf 6ca2 9ebc 5ff8 6ebe 5c82 8e3e
00000120: fbba efbe 053b e93e 49ab 0c3d b576 f33e
00000130: 961c 1d3e ef0b 823e d219 17bf 72a4 c13e
00000140: f3a9 ffbe df9b b23d 5f1b edbe a663 b7bd
00000150: 831c e5be 80e7 38bc c823 103e 0108 303f
00000160: 0eb0 9cbd ca07 183f 4b79 91be 73fe 21bf
00000170: 69c6 2a3f ac3d 19be 56c3 28bf 34cd 573e
00000180: 7936 e5be e05e e5be a647 763e a894 0f3e
00000190: efa1 913d 2f69 123f 22a2 b7bd 2b91 b13e
000001a0: 9516 cabb 2e95 8dbd 15e7 973e d705 d63e
000001b0: 7ec0 8abe 8372 0a3f 26f9 923e 0b10 0bbf
000001c0: fa4e dc3d a91a 023f 44b4 00bf de71 fd3e
000001d0: 80f4 213f f01b 33be 2787 1abf e308 8d3e
000001e0: b346 cd3e c49a 873e aa16 833e b988 f63b
000001f0: a6f5 093f d829 8f3c c720 b23e bf40 c43e
0.40530035 -0.073073775 0.005905279 -0.5933926 -0.57482 0.40400976 -0.35940427 0.63520527
-0.4136843 0.1823348 0.48426047 -0.5525325 0.5716763 -0.03207164 -0.28034338 -0.2895635
-0.29966566 0.5975787 -0.13977446 -0.37142804 -0.4946629 0.73000425 0.15429832 0.15635353
-0.52455395 0.20451437 -0.26539552 0.66729546 -0.01505477 -0.20228203 -0.1160795 -0.24505155
0.011295934 -0.081085 0.09468672 0.6515764 -0.07377502 -0.6193955 0.40492943 0.41958728
0.53733456 -0.3053497 -0.25413772 -0.015460391 -0.4113606 0.055410873 -0.27694514 0.3886753
0.52060246 -0.26667762 -0.659632 -0.29338235 -0.4585911 0.22100966 0.013318334 0.106761284
-0.21176925 -0.77577525 -0.29402685 0.638628 -0.059930965 -0.012893044 0.06474495 -0.21953344
0.5218374 0.1474763 -0.011954086 0.54670316 -0.7228624 -0.019364558 -0.23336934 0.2783383
-0.46822342 0.4555284 0.034343038 0.47551504 0.15342936 0.2539973 -0.59023774 0.37820774
-0.49934348 0.08721136 -0.46309945 -0.08954553 -0.44748315 -0.011285663 0.1407615 0.68762213
-0.07650767 0.59386885 -0.28412852 -0.63278884 0.66709 -0.14964932 -0.6592306 0.21074373
-0.44768122 -0.44798946 0.24050769 0.14021552 0.071109645 0.5719175 -0.08966471 0.34681067
-0.006167243 -0.069132194 0.2966849 0.4180133 -0.27099985 0.5408098 0.2870571 -0.54321355
0.10757251 0.5082193 -0.50275064 0.49500936 0.632637 -0.17491126 -0.60362476 0.27545843
0.40093002 0.26485264 0.2560323 0.007523623 0.53890455 0.017476007 0.34790632 0.38330647

feature_extractor.0.bias f4 [64]
00000000: 3db8 c43d 3eb8 1cbf 00a7 c2be b65b d43e
00000010: b4d0 d9bd e24d e4be 9fec 0b3f 7929 f5bd
00000020: 85a2 a8bd be67 08bf 3e0f 603e 3703 d63e
00000030: e74a fabe 10a0 c33e 81e3 88bd 966a 1fbf
00000040: 9f6d f03e 4d16 8f3e 208c 0c3f 1e4d 40be
00000050: c4d6 823e c578 c4be fb80 b53e b334 10bf
00000060: 36a9 7c3e 785f c0bd d830 adbd 9e70 dc3e
00000070: 77ad 403f b30e c0be 957f d73e f5af 5d3e
00000080: 3309 eb3e 2d6f 32be d7b6 3d3f 3bae f43e
00000090: 6ef9 e2be 11f7 84be 43d8 cdbe 22b0 61be
000000a0: 2d40 e5be 7262 7cbe 696a e43e ab73 14bf
000000b0: 346a d8be e4d9 383f c350 78bd 0478 ed3e
000000c0: f209 80be 3538 a53e 28a5 c7bc 9cd3 22bf
000000d0: 60e1 333f 3f10 15bf bbb3 67be db64 cfbe
000000e0: 47b7 9cbe d321 163f 7ae1 2ebf 405d f43e
000000f0: 207e a0be d604 323f f9f1 c4bb 3b7f 263f
0.09605453 -0.6121863 -0.38018036 0.4147622 -0.1063551 -0.4459067 0.5465793 -0.11970801
-0.08234123 -0.532833 0.21880814 0.41799328 -0.4888527 0.38208055 -0.06684018 -0.6227201
0.46958634 0.27946702 0.54901314 -0.18779418 0.25554478 -0.3837339 0.35449967 -0.5633041
0.24673924 -0.09393209 -0.08456582 0.4305467 0.75264686 -0.37511215 0.42089525 0.21649154
0.45905456 -0.17425223 0.74107116 0.47789177 -0.44330925 -0.25969747 -0.40204057 -0.22039846
-0.44775525 -0.24646929 0.44612435 -0.57988995 -0.42268527 0.72207475 -0.060623895 0.46380627
-0.25007588 0.32269445 -0.024370745 -0.6360414 0.7026577 -0.58227915 -0.22627155 -0.40506634
-0.3060858 0.5864536 -0.683128 0.47727394 -0.31346226 0.6953863 -0.0060102907 0.6503789

feature_extractor.2.weight f4 [64, 64]
00000000: cd2e 7c3d 681e eebd 88b3 2ebd 7ce5 593e
00000010: 1013 37ba 8f13 2a3d fdd3 933d 004b 533c
00000020: 9ab5 153c bedb ed3d dcef 3b3e f788 f5bc
00000030: d98a 3abe 88b5 1a3d f009 f43c 648f 2f3d
00000040: b17f f03c 2708 bd3c 55f7 8abd e79c 973d
00000050: 005e 17be 40f1 0cbc c503 d53d 09a1 84bc
00000060: 0bea 56bd ac62 ccbd 7361 06be 08dd 5a3d
00000070: 7f4c 5bbe 7547 3d3e edc6 733e da74 24ba
00000080: 6d7c 55bd b59f 363c 5fdd 283e 3fd6 573e
00000090: 6600 463d 9f51 3b3d 1f61 253d bccd b5bc
000000a0: d2b5 afbb 5829 0dbd 6598 b43e c58f a53b
000000b0: c3a7 c33c 5dac 643d c7ec 2bbe 5b84 673e
000000c0: f2f4 bd3d 878c 97bd 7d11 0e3e f646 ff3d
000000d0: 1e45 45bc 89bc 993d b856 2f3e dafd 3fbd
000000e0: d6a2 cebd 5d03 213e 5f92 09bc 9e8a c83c
000000f0: 0a2d 4dbd 32d9 523d 740a 10be 1d77 6e3d
00000100: 124b 933d 6ad3 c4bd 5153 0dbc e241 8f3d
00000110: 6aca abba 9ac6 1ebe 3193 13bd 4a46 e03d
00000120: ccb4 16bc 145d 20bd 60b5 743d fc30 a83d
00000130: f269 3bbd 8c07 163d f46c 9d3d 381b 2bbd
00000140: 1504 8b3e 71fc bcba ba99 213e c739 69bd
00000150: 291d 343e 243e c73d f004 29bd e4e7 9f3d
00000160: a84f dc3d 6abd 86bd eaed 8abd 383b fd3d
00000170: 0027 253e 15ca adbd 7650 1c3e d1ef 5e3e
00000180: c247 583d cd32 9e3c 53e2 c7bd 8890 49bd
00000190: 9830 c3bd 506c 983d d1e6 76bd 18fa d8bd
000001a0: eacd adbd b075 773c 7600 3abd 8f2b b23a
000001b0: 2e33 34be 7ec0 7a3d 0dbd da3c a89b a23c
000001c0: 1022 d0bd 17ad 8f3d 8b7e d33d e4b6 e5bd
000001d0: 18cf 813e 160d 833d f6c9 aabd ee3f 4fbe
000001e0: 746d d4bd e5fd e63d 0a1b f0bd 9faf 36bd
000001f0: 9d30 6fbd 5c5d 383e 281f 75bd a5ff 5bbd
00000200: b1c9 c23d 9ed7 e13d eba8 b83d 1f9a 903c
00000210: 2f50 0e3d d4d0 c0bc 995c 1cbc fc33 90bd
00000220: d61f 3cbe 009f 09bd 9730 a13c 9314 39bd
00000230: 1f47 01bd 7576 b9ba 6acf aabd f0bc 5d3c
00000240: d983 053e e7e7 c13d 381d 743e 3112 fc3c
00000250: 810e ac3d 7c15 ec3d 9a28 f3bd fe1c 313e
00000260: 347a 323e 8c4c aebd 952f f23d 5035 c93d
00000270: b0b8 863e 7207 3fbe 0839 163d 26a3 3e3e
00000280: e6e9 f13d 1566 913b 219e 84be 1a24 af3c
00000290: 7c62 b33d f1b1 5f3d ebb2 21be e122 7bbd
000002a0: 9c6f d83d 4eeb 93bd a0a6 47be a82f 2fbe
000002b0: 15a2 afbd d187 973e 57a0 7b3c e933 a93d
000002c0: 2057 243d 2e83 db3d a502 9f3d 18d4 0cbd
000002d0: 913b 213e 676b 5aba 01e6 3cbe 9a7c c4bd
000002e0: aba3 35bc 1838 c03c a896 1bbe c855 8dbd
000002f0: ba71 79bb 6b4e 013e 1969 df3d f18f bf3d
00000300: 9f7b 113c cc54 763d aea1 09be 6b34 423e
00000310: 17e7 f2bd 9854 4a3d e08b 73bd a685 df3d
00000320: 9c73 b13c b8f5 2e3d 6e2c 5a3e a89d ed3c
00000330: d78c 0fbe 28a4 413e 30ba 3cbd 90d5 58bd
00000340: dd15 d03d 6cca 2d3e 983f 2abd 4e20 d13d
00000350: fd41 76bd c0d6 f3bc 13be 873d 25d5 31be
00000360: 86f8 363d c065 c13c bf74 b9bd 7795 493d
00000370: 828d dbbd ea78 b73d c2dc 1a3e e906 b03c
00000380: b3f9 823d cc06 d13c cadb 933e 3a2e 033e
00000390: 17f4 42bd 2037 93bd a083 33bc db85 5a3d
000003a0: fe80 56be f8ee 8e3d 2c91 453e 57f3 ab3d
000003b0: 7c21 87bd 3be4 093e b376 22be e5ea fc3d
000003c0: fcad 903d 7f34 7cbd aaff 013e be23 ef3d
000003d0: c9de 213c f22c 0cbe a635 133e c749 07be
000003e0: caf5 673d fe8a 2a3d 2050 0dbe 9a3d 683e
000003f0: cdf8 213c 976f 3c3e 8104 81bd 231f 0f3e
0.06156807 -0.11626893 -0.042651683 0.21278948 -0.00069837365 0.04152256 0.07218168 0.012896299
0.0091375355 0.11614178 0.18353218 -0.029972536 -0.18217029 0.037770778 0.029789895 0.042861357
0.029357763 0.023075176 -0.06785456 0.074029736 -0.14781952 -0.00860244 0.104011096 -0.016190069
-0.052469295 -0.09979758 -0.13123111 0.053433448 -0.214159 0.1848429 0.23806353 -0.0006273516
-0.052120615 0.011146476 0.16490696 0.21077822 0.048340224 0.045732137 0.040375825 -0.022192828
-0.005362251 -0.034463257 0.35272518 0.005052539 0.023883706 0.05582844 -0.16789542 0.22609083
0.09275235 -0.0739985 0.13873859 0.124647066 -0.012040405 0.07506663 0.17122924 -0.04687295
-0.10089652 0.15723939 -0.008396714 0.02448016 -0.05009178 0.051476665 -0.14066488 0.058219064
0.07192053 -0.096106365 -0.008625821 0.06994988 -0.0013106589 -0.15505448 -0.036029045 0.109509066
-0.009198379 -0.039151266 0.059743285 0.08212468 -0.045755334 0.03662829 0.07686797 -0.041774005
0.27151552 -0.0014418495 0.15781298 -0.056939866 0.17589249 0.09728649 -0.041264474 0.078079015
0.10757381 -0.065790966 -0.0678366 0.12364811 0.16128159 -0.0848581 0.15265068 0.2177117
0.05280281 0.019311333 -0.09759965 -0.0492101 -0.09530753 0.07442534 -0.060278717 -0.105945766
-0.084865406 0.0151037425 -0.045410596 0.0013593304 -0.17597649 0.06121873 0.026701475 0.019849613
-0.10162747 0.07015436 0.103268705 -0.11216524 0.25353312 0.0639898 -0.08339302 -0.20239231
-0.10372439 0.11278895 -0.11723907 -0.04460108 -0.05839597 0.18004364 -0.059844166 -0.0537106
0.09511126 0.11027454 0.090165935 0.017651616 0.034744438 -0.023537077 -0.009543561 -0.07041165
-0.1837152 -0.0335989 0.01967649 -0.045185637 -0.031561967 -0.0014149683 -0.08340342 0.013533816
0.13038577 0.0946806 0.23839271 0.030770393 0.08401204 0.11527535 -0.118729785 0.17296216
0.1742943 -0.08510694 0.11825482 0.09824622 0.2631278 -0.18655184 0.036675483 0.18616924
0.11812191 0.004437218 -0.25901893 0.02137952 0.08759019 0.054613058 -0.15790908 -0.06131256
0.10568163 -0.07222615 -0.19497156 -0.17108023 -0.085758366 0.29595807 0.015358052 0.08261854
0.04012215 0.1071838 0.07764176 -0.034381956 0.15745379 -0.0008332044 -0.18447115 -0.09594078
-0.011086385 0.023464248 -0.1519419 -0.06901127 -0.003806217 0.1262757 0.10908718 0.093536265
0.008879571 0.060139462 -0.13440582 0.18965308 -0.11860483 0.04939708 -0.059459567 0.10914163
0.021661572 0.042714804 0.21306011 0.02900584 -0.1401857 0.18910277 -0.046076 -0.052938044
0.1016042 0.16971749 -0.041564554 0.1021124 -0.060121525 -0.029765487 0.06628051 -0.17366464
0.044670604 0.023608088 -0.09055471 0.049214806 -0.1072035 0.089586094 0.15123275 0.02148767
0.063952826 0.025515936 0.28878623 0.12810603 -0.047596063 -0.07188249 -0.010956675 0.05335031
-0.20947644 0.069791734 0.1929366 0.08396023 -0.065981835 0.1346597 -0.15865593 0.1234949
0.07064435 -0.0615735 0.12695184 0.11676739 0.009879776 -0.1368902 0.14375934 -0.13211738
0.056630887 0.04163646 -0.13800097 0.22679749 0.009885979 0.18401943 -0.06299687 0.13976721

feature_extractor.2.bias f4 [64]
00000000: e931 c83d d345 743e 3a2c fc3d 1198 483e
00000010: 6a3f 0a3e 7b2a fb3c 8570 f63d d408 1dbd
00000020: 8714 833c 8034 063e ccdc d23d 7c84 143d
00000030: f348 f23d f4d9 3cbd f3c5 1f3e 164d 4a3e
00000040: 2950 53bd b60a a63d 86f6 173d 89dc 22bd
00000050: 7f5f e43c 0bb9 073d 1ed4 1a3e 7c2e 1abe
00000060: 00ec 98bb fb8b 943d b94b 6f3e 98c5 54be
00000070: fed1 9e3c 98a8 2dbe cd83 38be b025 273c
00000080: 73be 083e be92 a9bd 7121 0f3e 33dd 7b3e
00000090: 8886 933e 6423 e03d a600 edbb 6033 febc
000000a0: a2c2 6e3e 4683 2b3e 705b 413d 4fce 143e
000000b0: a0ff 853c c1cf 983d a04e 2c3e dd29 993d
000000c0: 5f27 3d3d 1e00 913e ca1f f5bd 404f 20be
000000d0: 507b 2d3e d6e3 143d f44f bf3d b04b 2b3a
000000e0: 2c52 76bd ae24 1a3d be1e 24bc 51c4 2b3d
000000f0: 8d1a 48bc ea48 80bd dba9 653e 9e65 2d3e
0.097751446 0.23854761 0.12313123 0.19589259 0.13500753 0.030659905 0.1203318 -0.038338497
0.016001 0.13105965 0.1029602 0.03625916 0.1183032 -0.046106294 0.15602855 0.19755968
-0.05159012 0.08107512 0.037100337 -0.0397611 0.027877567 0.033135455 0.15119979 -0.15056795
-0.0046668053 0.07253262 0.2336873 -0.20778501 0.019387241 -0.16958845 -0.18019028 0.0102018565
0.133539 -0.08279942 0.139776 0.245961 0.28813577 0.1094425 -0.0072327433 -0.031030357
0.23316434 0.16749296 0.047206342 0.14531825 0.016357243 0.07461501 0.16826868 0.07478688
0.046180125 0.28320402 -0.11968954 -0.15655231 0.16941571 0.036350094 0.09341422 0.00065344106
-0.06013696 0.037632637 -0.010017095 0.04193527 -0.012213361 -0.06263907 0.22428076 0.16933295

actor.0.weight f4 [64, 64]
00000000: 4d1f 193c 885c 723d 9ab1 343d f1fe 64bd
00000010: dfdb 0fbd 5735 45bd f4f4 f23c fe5e 9a3d
00000020: 5211 85bd 9c35 48bd 200b bebb 3b10 bf3d
00000030: 456c 94bd 84ea 57bd 6d96 0fbc 7b18 a93d
00000040: d490 21bc 7e71 643d c0a4 dc3c 9724 9ebd
00000050: 0a81 9fbd 7ece 51bd 4f2e 9b3d 3049 c13d
00000060: 20e6 ebbd 6d8d afbd e4b9 c8bd 1280 93bd
00000070: c0db b43d 938b d43d 766f 66bb 243f 113d
00000080: 52ef 0bbd 4a3b 203d c3f2 953d 59f1 c0bd
00000090: a202 643d b904 5a3d d283 b1bd 4c41 f8bd
000000a0: 3e07 fabd 79b9 f5bc 2739 453d 7680 a13d
000000b0: 7cf6 d73d 5c0f 8c3c 7567 6cbc 8c7f ffbd
000000c0: 1311 823d 75b2 973c 6f78 d3bd fb75 bcbd
000000d0: 94c3 b6bd f139 6e3d 0861 f0bd 5f87 03bd
000000e0: 8018 d33a a016 d83b f281 fbbd 6f61 a33d
000000f0: 78bc 5abd ed1c 2f3c 6bbb f9bd 3076 84bd
00000100: 4adb 8f3d f9d1 cbbd f475 263d c636 ecbd
00000110: dae4 6f3b b38b d33c 44f9 543c c434 c8bd
00000120: c029 61bb fda8 0c3d c04e c43d 42a9 ba3d
00000130: 16ef 9bbc c0b5 6abb e8fd 72bd 87f1 1abd
00000140: cf00 7d3d 2076 853c 70ec 22bd c072 79bd
00000150: d4ea 74bd 985d f6bd fd87 4dbd 4c61 48bd
00000160: b077 0e3d 2b52 dd3d b9f9 e5bd 87d1 0a3e
00000170: a46b 433d c1e9 dcbc 7e20 673d bcfa 66bd
00000180: d0e5 96bd 7834 753d b9b7 b33c fb11 643d
00000190: d98c d7bd 75d4 843b 5626 013d 60aa e8bd
000001a0: 82c6 ea3c 95a6 853d 8b4c d43d a06a e53d
000001b0: acb1 5f3d 30a3 6abd 685a 9abd 7ef7 b83d
000001c0: d024 76bc 7946 45bd d6ad f8bd 3ece bbbd
000001d0: 418e 48bc 92ed a4bd abed 90bd 1383 f2bc
000001e0: 441d 6cbd a0a4 9fbb 9088 24bd da3e 3dbd
000001f0: 677b f73d cd55 e23d adf4 08be 440e 9abd
00000200: 158c 63bd 1d22 573e 4df3 1d3e 42bb 913d
00000210: 34d7 933c ffeb 013e ea95 7b3d 2003 80bd
00000220: e486 39bd 08b0 d03d 325d c6bd 9e8f dfbd
00000230: bfef 0b3e 22a5 dfbd fcd3 41bc 3167 bbbc
00000240: b737 32be ba90 013e 8748 f93c 6fdc 86bd
00000250: 3a01 583c f40f 093e 24f5 603c b8ea 02be
00000260: 8099 0a3d 2259 4c3d 8fdf ce3d 0119 3dbe
00000270: 33d8 40bd ea14 96bd e3d2 3ebe f2d0 af3d
00000280: 748e 33bd 44a8 33bc d111 1d3d ffa0 2c3e
00000290: 3260 1a3e c2ae 1dbe 9dd3 4dbe f0e1 75bd
000002a0: d19a 46bd d731 dabc d623 3d3d bc6a 2d3d
000002b0: 6095 8f3b 4921 c2bb ab1a f73d f337 fb3d
000002c0: 78b2 fa3d 282c 393e 5503 943d 957d ebbc
000002d0: 1910 e73d 46c0 3a3d a5f5 4bbd 274c 503c
000002e0: 2253 fbbd 8145 dc3d 020b c23d 1ebd 853d
000002f0: dccc e63d 42d5 57bd ec9f f83d 5a53 8ebc
00000300: cce8 d73d 5378 0b3e a581 5e3d 5e85 183e
00000310: 1fbc bf3d ea15 013d 7049 283e f0ba a6bd
00000320: 9c85 f93d b52b d73d fcfc ee3d aa78 91bd
00000330: 5684 173d d814 abbd 082e c93d 00a5 c53d
00000340: 4775 fbbc 9ac4 913e 2cd3 b0bc ee66 643d
00000350: 6eda ebbd a736 debd 7791 473e b5e8 703c
00000360: d064 933d 66ee 883d 7056 303e 9b57 98bd
00000370: 74c2 5cbd 4211 11be 9e88 80bd c8d7 92bc
00000380: 4348 cd3d 9a1a c4bd 6aab b93d 09b5 8e3d
00000390: 1260 2f3e ecbc a3be ec24 74bd ec9f 013d
000003a0: 60f3 c43d a9c5 3d3e 93bd dc3d 1081 d03d
000003b0: c075 6c3d 202d 0e3e dcdf 513e bc41 883c
000003c0: 78ec 333d 81a5 4d3e 3f43 b7bd a667 643d
000003d0: d359 87bc 39e3 153e 6ac9 8cbd 08df c63d
000003e0: 2814 8c3d 11fc 95bc 95fe ccbb 7bf0 a73d
000003f0: 51d9 ba3d 9994 4dbd 3fa8 d43d b9bc 523e
0.009345842 0.059170276 0.044114687 -0.055907194 -0.035121795 -0.048146572 0.029657818 0.075376496
-0.06497444 -0.04887925 -0.005799666 0.093292676 -0.07247213 -0.052713886 -0.008763892 0.082566224
-0.00986119 0.055772297 0.026934028 -0.07721823 -0.07788284 -0.051222317 0.07577192 0.094377875
-0.11518502 -0.08571897 -0.09801081 -0.07202162 0.088309765 0.10378184 -0.003516165 0.035460606
-0.03416378 0.039119042 0.07321694 -0.094210334 0.055666573 0.05322716 -0.08667721 -0.121218294
-0.122084126 -0.029995667 0.048150208 0.0788583 0.1054506 0.017097168 -0.014428963 -0.124754995
0.06350913 0.018517712 -0.10325705 -0.092021905 -0.08924022 0.058160726 -0.11737257 -0.03211152
0.0016105324 0.006594494 -0.122806445 0.07977568 -0.053402394 0.010688049 -0.1219395 -0.06467855
0.07024248 -0.099521585 0.040639833 -0.11533885 0.0036604912 0.02582345 0.012998883 -0.09775689
-0.003435716 0.034340847 0.09585333 0.091143146 -0.019034903 -0.0035813898 -0.059324175 -0.037827995
0.06176835 0.016291678 -0.039776266 -0.06090045 -0.059794262 -0.1202957 -0.050178517 -0.048920915
0.03478211 0.10806688 -0.112292714 0.13556491 0.047710076 -0.026966931 0.05642747 -0.056391463
-0.07368052 0.05986449 0.021938192 0.05568121 -0.105249114 0.004053647 0.0315307 -0.113606215
0.028659109 0.065259136 0.10366162 0.11201978 0.0546128 -0.057284534 -0.07536775 0.090315804
-0.015023425 -0.04816291 -0.121425316 -0.09170197 -0.012240947 -0.080531254 -0.070765816 -0.029603517
-0.057645097 -0.0048719198 -0.0401693 -0.046202518 0.12084084 0.110515215 -0.13374586 -0.07522252
-0.055553515 0.21009107 0.15424843 0.07115795 0.018046953 0.12687682 0.061422266 -0.06250596
-0.045294657 0.10189825 -0.09685744 -0.10916065 0.13665675 -0.109201685 -0.011830326 -0.022876354
-0.17404066 0.12652865 0.030430092 -0.06585013 0.013183886 0.13384992 0.013730321 -0.1278485
0.033837795 0.04988969 0.10101234 -0.1846657 -0.047081184 -0.07328208 -0.18635134 0.08584775
-0.043837026 -0.010965411 0.03834707 0.1685829 0.15075758 -0.15398696 -0.20100255 -0.060029924
-0.04848749 -0.026635094 0.046176754 0.042338118 0.0043818206 -0.005924378 0.120656334 0.12266531
0.122410715 0.1808325 0.07227198 -0.028746406 0.11282367 0.045593522 -0.04979481 0.012713469
-0.12271716 0.10755444 0.09474756 0.06530212 0.112695426 -0.052693613 0.12139878 -0.01737373
0.10542449 0.13620119 0.054322857 0.14894626 0.09362053 0.03151504 0.16434264 -0.08141124
0.12183687 0.10506383 0.11669347 -0.07103093 0.03699144 -0.08353585 0.09823233 0.09650612
-0.03069557 0.28470308 -0.02158507 0.055762224 -0.115162715 -0.10850268 0.19489084 0.014703919
0.07196963 0.06686096 0.17220473 -0.074385844 -0.053896382 -0.1416674 -0.06276058 -0.017925158
0.100235485 -0.09575386 0.09065898 0.069681235 0.17126492 -0.31980073 -0.059605524 0.031646654
0.096167326 0.18532433 0.10778346 0.10180867 0.057729483 0.13884401 0.20495552 0.016632907
0.043926686 0.20082666 -0.08948373 0.05576291 -0.016522324 0.1463746 -0.06874354 0.097105086
0.06839782 -0.018308671 -0.0062559345 0.08200165 0.09123481 -0.050190542 0.10383653 0.20579804

actor.0.bias f4 [64]
00000000: 52b4 6fbd a043 93bd b691 203d 81d4 943d
00000010: 3791 083e 5ed5 36bc c94e 5dbd 1897 d73d
00000020: 09fc e8bd 1303 f6bd 1643 55bd ea1e a73d
00000030: 3252 943d 9367 bf3c 2076 94bb 3c6a 32bd
00000040: 1366 06be f532 0d3d 4885 efbd b4a3 48bb
00000050: b465 1bbd 0381 fabd e830 a93d e0f2 e93d
00000060: fa20 d13d 8991 083d c871 d9bd 273d febd
00000070: f4bd 523c 5519 c1bb 723c f8bd 7e36 b0bd
00000080: d63d 09bd ac9b 0bbc c08d 283d f577 f83d
00000090: 9026 ebbc 83be 253e a265 aabc 63c0 bb3d
000000a0: 88a6 173b 51cd 5abd db1c 85bd d033 c53d
000000b0: 667d f83d dd82 753b f736 85bd 0491 483e
000000c0: db38 c3bd b3f6 823d e95d a43d 980c 9d3d
000000d0: 4b2c 9e3d 35c3 a8bc 5c50 e23d 7253 843d
000000e0: 43fa cd3d af8e 9ebd 7068 593d 1ca3 52bd
000000f0: beee 993a d76a 9e3c fa9c babd acc0 f7bd
-0.058521576 -0.07190633 0.03920146 0.072670944 0.13336645 -0.011159269 -0.054030214 0.10526866
-0.11376197 -0.12012305 -0.05206593 0.08160193 0.0724224 0.023364818 -0.004530683 -0.043558344
-0.13124876 0.034472425 -0.11695343 -0.0030615153 -0.03793879 -0.12231638 0.08261281 0.11423278
0.10211368 0.03334192 -0.10617405 -0.12414008 0.012862671 -0.0058929124 -0.12120904 -0.086041436
-0.033506237 -0.008521002 0.04115081 0.12132255 -0.028704911 0.16185956 -0.020800415 0.09167554
0.0023140032 -0.05341846 -0.06499644 0.09629023 0.12133293 0.0037462034 -0.06504624 0.19586569
-0.09532329 0.063947104 0.080257244 0.07668418 0.07723292 -0.020600894 0.110504836 0.064612284
0.10057499 -0.077420585 0.053078115 -0.051425084 0.0011744124 0.019338055 -0.09111972 -0.12097296

actor.2.weight f4 [4, 64]
00000000: e9c8 d5bd df00 b63d 2f7a 003e 34a9 0a3e
00000010: f52e 0c3e a234 303e 7e76 c93d 3ec3 623c
00000020: 32ad a13c fe38 dfbd a5f6 3f3d 1e7d c6bd
00000030: a157 99bc b5b0 20be ea2d bebd 4cfd adbd
00000040: 0391 49bd 0acc 683d 7a97 ae3d 9f8d ef3d
00000050: d027 8bbd 19bf 853d 1d81 583e 833e 203e
00000060: 1d96 573d f5c1 7e3d b3b1 96bd 0cfa 4abc
00000070: 7b88 603e 2136 d1bd 8097 b8bc e26b bcbd
00000080: d9e9 643e 3d50 79bd 2342 37be c65b c33a
00000090: 5440 81bd 674f b53d 8789 ee3c 7873 473e
000000a0: d2f3 113e ae61 b1bd 6d36 e4bd 7acd bcbc
000000b0: 6851 4a3e 2e77 523d 8a3f 2d3d dd0d 1b3d
000000c0: a1ac 2a3e b94d e63c d3f6 9ebd 3f08 20be
000000d0: 07a4 99bc ca34 b53d dac2 b33c 6760 42be
000000e0: ff45 b7bd 78da 153e e02e 543e fc7f eebc
000000f0: 77bd 66bd 1469 be3d 9346 383e 9857 b6bd
00000100: 0bfc cb3d d40b 85bd f028 43bd 463f 52bd
00000110: a3e9 ab3e dbb3 aa3d 9f0b 16bd 3553 203d
00000120: a226 fbbc 93a8 33bc ce5e 29bc 6437 fe3a
00000130: a218 793d 0083 153e d0db 81bd a4cc 793d
00000140: aaa8 f83d 59a5 efbd 00a3 0a3a 6ee5 3b3d
00000150: e9f5 61bd a8a4 a8bd 04de ae3b 24e6 3dbd
00000160: 2c25 a6bd 573c 21be 9921 583d 9c79 66bc
00000170: 472d ed3d e83c dc3d 2616 8ebd a681 f4bd
00000180: 2b04 bbbd 73dd 973e 157d e33d 50fe 38ba
00000190: d068 33bd 5eb4 00be 2257 533c 1edf 5d3d
000001a0: 8105 febd bda1 c63d 61f9 da3d 43b6 17be
000001b0: c259 dd3d 75a4 d23d 5284 583c 0788 e1bd
000001c0: 1739 13bd e92b 833d 0411 993c 1fdb 953e
000001d0: fbe7 bbbd e7fe ff3e 2af2 fcbd dda0 86bd
000001e0: 503f c53e 63f7 9f3d a035 8bbb ec73 95bd
000001f0: 45a1 e23c a5ad 5abc 7de3 523d e616 623d
00000200: dac6 53bd ecb6 6ebd d402 143e 4519 203e
00000210: 2e41 cb3d c745 56be 2e96 6a3d 0562 3b3e
00000220: 2cb3 adbd 3f9c 833d 3db5 9fbd 1e6e 413e
00000230: 9844 dc3c 0633 793e 20de 7bbc ac17 ed3d
00000240: e9f2 bbbc bdd4 38bc 7ce1 023d c801 073e
00000250: 8fa3 ae3c 1b71 d93d 4e38 003b 92b5 14bd
00000260: 28f9 193d cea5 f33d 58de d6bc 0527 f5bd
00000270: b966 48bd 8096 febc cdc8 5d3d 5cc5 e4bd
00000280: 00e1 e5bd be10 053d 5965 043e 8da1 413e
00000290: 007b 3cbb 074d 4c3e 3edc c3bd 6419 0fbe
000002a0: 5a71 0ebe 928a 9bbc 170f 563e 4903 453e
000002b0: 05a4 a3bd 8adb aabc 82b4 a73d 484d 013e
000002c0: 654d 03be 09cb 18bd 6c2e ed3d 630a bf3d
000002d0: dba1 623e b4f2 c6bd 4e8d 9dbd e1b1 3d3e
000002e0: f947 6e3d 5502 60bd dca2 98bd dddc c83d
000002f0: ba92 afbd 1d57 d23d a4ff 3abd 5811 903d
00000300: 4db5 903b 45b1 b8bd 6ce3 21bd 8392 a43c
00000310: 16a0 783e 038f 98bc 447d 70bc 1f02 0dbd
00000320: 9707 c5bd 0f5a 9f3d 1bcc e73d 9394 d03d
00000330: d70b d83d 2828 dc3d ccf4 193d 6ea8 a93d
00000340: 8d58 683c e063 973b 00fd 27bd b60f 11bd
00000350: 97c9 093d 223c 023d 2835 2f3d afb3 b9bc
00000360: 8b9c 16bd c3f2 df3c ca80 dbbd 0e08 2bbd
00000370: 712e 21bd 1892 f73c 0cef 8c3d dc17 f9bd
00000380: 54c9 edbc e0c2 5e3e 0d9f 123d 8126 3ebd
00000390: 3cf3 a0bd 2c47 2cbd 3650 efbc e337 b5bd
000003a0: cf27 75bd 7b3d eabd ea71 7bbc 16a8 2a3d
000003b0: 87f4 e8bd cda8 9d3c 2472 bcbd fa04 a5bd
000003c0: fa0f 7bbd f4bb b93d f452 86bd e76d 833e
000003d0: c342 04be b1fe e53d fc31 e2bd 5f31 3ebc
000003e0: 8779 5d3f ffbf 36bd e065 07be 3ade d83d
000003f0: 0f40 cf3d 29d9 24be 50e9 0fbd d2b2 e1bd
-0.10438711 0.08886885 0.1254661 0.13541108 0.13689788 0.17207578 0.09837054 0.013840495
0.019735906 -0.10899542 0.046866078 -0.09691833 -0.018718543 -0.15692408 -0.09286101 -0.08495578
-0.04921056 0.05683521 0.085249856 0.11696934 -0.06794703 0.065305896 0.21143003 0.15648846
0.052633394 0.06219669 -0.07358112 -0.012388717 0.21927063 -0.102154024 -0.022533178 -0.092002645
0.22354831 -0.060867537 -0.17896323 0.001490467 -0.06311098 0.088530354 0.029118313 0.19477642
0.14253166 -0.08661209 -0.111431934 -0.023047198 0.19757617 0.05138319 0.042296924 0.037855018
0.16667415 0.028113233 -0.07761922 -0.15628146 -0.018754972 0.08847959 0.021943498 -0.18982087
-0.089488976 0.1463412 0.20721006 -0.029113762 -0.05633303 0.09297386 0.17995672 -0.08903426
0.09960183 -0.06496397 -0.047646463 -0.051329874 0.33576688 0.08335086 -0.036632176 0.039141852
-0.03065807 -0.010965484 -0.010337545 0.001939517 0.060814507 0.14600754 -0.06340754 0.060986176
0.12141545 -0.117014594 0.0005288571 0.045873098 -0.05516616 -0.08234531 0.005336525 -0.046362057
-0.08112559 -0.15745674 0.052766416 -0.01406708 0.115809016 0.107538044 -0.06937818 -0.11938791
-0.09131654 0.2966114 0.11107842 -0.00070569385 -0.04380113 -0.12568805 0.012899192 0.05416786
-0.124033935 0.09698818 0.106920965 -0.14815621 0.108081356 0.10285274 0.013215141 -0.11012273
-0.035943117 0.064048596 0.018684871 0.2926874 -0.09175106 0.49999163 -0.12350877 -0.06573651
0.38524866 0.07810857 -0.004248336 -0.07297501 0.02766479 -0.013347064 0.05148648 0.05519762
-0.05170331 -0.058279917 0.14454204 0.1563464 0.099245414 -0.20925055 0.05727213 0.1829911
-0.0848144 0.06426286 -0.0779824 0.18889663 0.026888177 0.2433587 -0.015372783 0.11576781
-0.022942977 -0.0112811895 0.03195332 0.13184273 0.021318225 0.10617276 0.001956481 -0.03630597
0.03759113 0.11896859 -0.026229069 -0.11970333 -0.04892609 -0.031077623 0.054146577 -0.11170456
-0.11224556 0.03248667 0.12929286 0.18909283 -0.0028759837 0.19951259 -0.09563492 -0.1397453
-0.13910428 -0.018986974 0.20904194 0.19239534 -0.079902686 -0.020856638 0.08188726 0.12627137
-0.12822492 -0.037303004 0.1158112 0.09328153 0.22132055 -0.09714261 -0.07692967 0.18524887
0.058174107 -0.054689724 -0.07452938 0.09807751 -0.08572908 0.10270522 -0.045653954 0.07034558
0.004416144 -0.090181865 -0.039523527 0.020089393 0.24279818 -0.01862288 -0.014678303 -0.03442585
-0.09620588 0.07780849 0.11318227 0.10184588 0.10549133 0.10749847 0.037586972 0.082840785
0.014181268 0.0046200603 -0.041012764 -0.035415374 0.033639517 0.03179563 0.042775303 -0.022668688
-0.036770385 0.027337437 -0.10717924 -0.04175573 -0.03935093 0.03022103 0.06881532 -0.12162754
-0.029026665 0.21754026 0.035796214 -0.04642344 -0.07858893 -0.042060062 -0.029213052 -0.0884855
-0.059852418 -0.11437508 -0.015346983 0.041664205 -0.11374765 0.01924553 -0.09201458 -0.0805759
-0.061294533 0.09069052 -0.06558791 0.25669786 -0.12916093 0.11230219 -0.1104469 -0.011608451
0.8651356 -0.044616695 -0.13222456 0.10589261 0.1011964 -0.16098465 -0.035134614 -0.110204354

actor.2.bias f4 [4]
00000000: 286b 113e 9f9d 0cbd 346a 923d ce1f 90bd
0.14201033 -0.034330007 0.07149163 -0.07037316

critic.0.weight f4 [64, 64]
00000000: f5b3 96bd e846 0a3d 6683 d63d af24 73bd
00000010: b37e 0e3d 363b 473e a356 4b3e 7cf7 693d
00000020: 8944 ba3d 1839 303e 70e9 eb3c 35dc 033d
00000030: 8d02 033e 7017 c4bc 7312 063e 685b 913d
00000040: 14b2 3dbd 529c dd3d f1b0 84bd 9cb0 01be
00000050: 3885 b6bd 57c9 153b 2192 4cbd 3bf4 b7bd
00000060: 50cb 1f3c 856c a4bd 17dd 23ba f997 21bc
00000070: 9c09 48bd 3851 a63d 8635 e2bd 282c be3d
00000080: 3578 0b3e 40aa 9d3c 00a7 10bd b99f 273e
00000090: bfe2 f53c f5a8 fbbd 98c3 27bd 8055 8abd
000000a0: 62bf c73d a0b2 253e 3ce2 f43d a47d 05bc
000000b0: 9086 7f3d 59fb 573d e406 9f3d b127 4f3e
000000c0: 4ca2 ddbd 7242 293e 2fd5 58bd 7050 c5bd
000000d0: ada0 e03d 8deb 19bd 7398 a4bd a5b4 a8bc
000000e0: 003d 1bbb f1c6 9f3d 8b66 e63d 2b9e d33c
000000f0: 466f f1bd 0953 1abd 7d14 2a3e 629b 343e
00000100: 0fc7 edbc 1823 febd 0723 013e 3e6c 123d
00000110: ebd2 fdbd 72b3 d03d 00b3 57bb dca9 413d
00000120: 4ec3 a03d 6078 e6bd 729a d73d 2f71 e9bd
00000130: 0a88 c7bc 0e46 83bd 38bf c0bd f58e 9a3d
00000140: a91b b13d 841e 3a3d 9e46 eabd e836 f73d
00000150: e28c ac3d ed32 c43d 4f3f 2abd 02ff bfbd
00000160: 10cd 783c e211 cb3d 7e5c c3bd 7b15 533d
00000170: a087 d9bd 93a8 cbbd b648 bbbd 20f7 2b3c
00000180: a82a d2bd 7612 d9bb d4da 85bd 80c4 ddbd
00000190: d27d 38bd 949b d13c f8ab afbc 70b9 6dbc
000001a0: 600b 023e dd5a bf3d ab00 81bc e520 08bd
000001b0: 145a 9cbd eed9 d5bd 14c6 11bd b24d c33d
000001c0: 38ad e63d 4a07 a5bd 3f52 e53d 65ae c33d
000001d0: 30b6 27bc 8c53 a73d 5ef4 07bd c82d 93bd
000001e0: 4a3f 87bd 245c 8fbd f6f4 e93d fac1 91bd
000001f0: ae91 99bd 65fb 54bd 09c0 3abd 202b a63b
00000200: faf3 ad3d b9b3 ba3c 1ba8 1bbd 6813 333d
00000210: 5eea fa3c 533b 4e3c e247 16bd be04 8abd
00000220: a089 d7bd 243b 05bd 10f1 1f3c bfaa 75bd
00000230: 44ea bfba c0c8 0dbd ed4a a3bc 8c68 fe3c
00000240: 8beb 10bd 47a6 793d a1db e9bc 5654 fbbb
00000250: 4f97 e8bd a2eb 313c 4d6c fd3d c8ca 8abd
00000260: de4e ca3d abc9 fbbc 674e 97bd b4fd 203c
00000270: 1e71 d53c 12ff 8e3c c6a2 b1bd b2ef 83bd
00000280: a546 983d d909 34bd 8573 91bc 7165 14bd
00000290: 5c70 14be 2fbc 873d af39 e0bd 308f 603c
000002a0: 57c0 c13c 76f1 f5bd 7862 c5bd 29c9 b33d
000002b0: 5cfd 4e3d 4e6a 843c eada 653d f75d 02bd
000002c0: a641 553d 5c95 abbd 63f2 873d 08db 7e3d
000002d0: 0096 b0bd 2d5a 09bd 22ff cabd 5880 40bd
000002e0: c0fc 6bbc 09a4 34bc 0e15 a43d 5ecc 273b
000002f0: 6b8b f4bd 51c5 88bd 7f25 bbbd 612f bf3d
00000300: aea8 74bc 1e0d 7bbd f96b a4bc 6694 463d
00000310: de58 953d ff38 86bd f037 a73c 0c4b a73d
00000320: a0aa f23b c544 ffbd b4cf 83bd 6772 41bc
00000330: 8d6d ea3d 00ab 97ba bf6b 09be f924 f33b
00000340: 27f6 e63d 08cc 34bd e06d 633d 5249 813d
00000350: 2cd3 80bd b320 e33c 3db1 f6bd 6643 c5bd
00000360: d028 b3bd 8bd4 28bd ea85 c9bd a39e 7e3d
00000370: eae4 ee3d 74f0 20bd 71e1 e7bd fa5c c73d
00000380: ad6e fbbb 320c b83d a931 6a3d 52c4 c3bd
00000390: 564d 7a3d d898 36bd cbf9 e2bd 00d7 0dbb
000003a0: cded 043c c9b3 d3bd 3eb1 03be 0550 eebd
000003b0: 0c67 30bd 799e 63bd fca7 5a3d ebde 633d
000003c0: de49 13bd 681f efbd d6dc 9a3a 1ad8 62bd
000003d0: e186 ab3d 68e5 8dbd c932 c738 029c 97bd
000003e0: 103e 74bd 41cc a63d 3b39 9bbd 7289 10be
000003f0: 771b c73d f29a 873d bc10 e73c 63a1 0cbe
-0.07358543 0.033759028 0.10474281 -0.059361156 0.0347888 0.19456181 0.19857268 0.057120785
0.09095103 0.1720928 0.028797835 0.032192428 0.12793942 -0.023936957 0.13092975 0.070975125
-0.046312407 0.10820831 -0.064790614 -0.12665027 -0.08912128 0.0022855604 -0.049944047 -0.0898213
0.009753063 -0.08028511 -0.00062509015 -0.009862893 -0.04883729 0.0812096 -0.11045365 0.09285766
0.13620074 0.01924622 -0.035315514 0.16369523 0.030015348 -0.12288085 -0.040958017 -0.06754589
0.097533 0.16181421 0.11957213 -0.008147631 0.06238419 0.05272994 0.07764986 0.20229985
-0.10821971 0.16529253 -0.052937683 -0.09634483 0.109681465 -0.037578154 -0.0803689 -0.02059395
-0.0023687482 0.07801617 0.11250027 0.025832256 -0.11788802 -0.037676845 0.16609378 0.17637399
-0.029025583 -0.12409037 0.12611018 0.03574776 -0.12393745 0.101904765 -0.0032913089 0.04728113
0.078497514 -0.112534285 0.10527505 -0.11398541 -0.02435686 -0.06409846 -0.09411472 0.07546798
0.08647854 0.04543926 -0.114392504 0.120710194 0.08425309 0.09580026 -0.041564282 -0.09374811
0.015185609 0.0991552 -0.09539126 0.051534157 -0.106215715 -0.09944262 -0.09144728 0.010495931
-0.10262042 -0.006624515 -0.06535879 -0.10828495 -0.045041867 0.02558688 -0.021444306 -0.014509544
0.12699652 0.09343503 -0.015747389 -0.033234496 -0.076343685 -0.104419574 -0.035589293 0.095363036
0.112635076 -0.08058031 0.11197328 0.095547475 -0.010236308 0.08170232 -0.03319203 -0.071864665
-0.06603868 -0.06999996 0.11423676 -0.07117076 -0.07498489 -0.05199756 -0.045593295 0.005071059
0.084938005 0.022790777 -0.038002115 0.04371968 0.030629333 0.012587386 -0.036689647 -0.06739186
-0.10524297 -0.032527104 0.009762064 -0.05997729 -0.001464196 -0.03461528 -0.019933188 0.031055711
-0.03538088 0.06094959 -0.02854711 -0.0076699657 -0.11356985 0.010859402 0.12374172 -0.06776959
0.09878324 -0.030735811 -0.07388001 0.009826113 0.026054915 0.017455611 -0.08673625 -0.06442203
0.074353494 -0.043954704 -0.01775528 -0.036229555 -0.14495987 0.0662769 -0.10948502 0.013706014
0.023651285 -0.12008946 -0.09637922 0.08778603 0.05053459 0.016163971 0.056116976 -0.031827893
0.05206456 -0.083780974 0.066380285 0.062220603 -0.0862236 -0.033533264 -0.09911944 -0.0469974
-0.014403522 -0.011025437 0.08011828 0.002560399 -0.11940654 -0.0667826 -0.09138011 0.09335209
-0.0149327945 -0.061291806 -0.020071017 0.048481368 0.07292341 -0.0655384 0.020412415 0.08168611
0.007405594 -0.124642886 -0.064361006 -0.011807061 0.114466764 -0.0011571348 -0.13420008 0.007420179
0.112774186 -0.044139892 0.055524707 0.06312813 -0.06290278 0.027725553 -0.12045524 -0.09631996
-0.08748019 -0.04121832 -0.09839995 0.062163007 0.11664756 -0.039291814 -0.113222964 0.09734531
-0.0076731057 0.08986701 0.057176266 -0.095589295 0.06110891 -0.044579357 -0.110828005 -0.0021643043
0.008113337 -0.10337026 -0.12860581 -0.11636356 -0.043067023 -0.055571053 0.05338286 0.055632513
-0.035959117 -0.11675912 0.0011815082 -0.05538187 0.083753355 -0.069285214 9.498519e-05 -0.07402803
-0.0596295 0.08144427 -0.07579275 -0.14114931 0.097220354 0.0662135 0.028206222 -0.13733439

critic.0.bias f4 [64]
00000000: f320 593e 17ac e5bd 0be4 453d 545c 2abc
00000010: 12af d8bd 93b4 42be ca3a 1dbd 12fb afbd
00000020: 655f b7bd bb34 a0bd a266 40be 8f65 083e
00000030: dd7f 053e a716 593e 38cb e6bb ff89 153e
00000040: e8b5 17be 3313 e3bb 4fb6 53bc 2dca 1abe
00000050: f676 133e a0e7 94bc 971c 713e 3688 aabd
00000060: 9313 db3c b200 fb3c f80a 43bd 977f 6e3d
00000070: 0804 aa3d 0cf3 093d a3dd 503e a7cd 39be
00000080: 3091 a9bd 3995 1f3e 0916 34bd 6c88 c33d
00000090: 0ab9 413e f321 9dbd 4a51 a73b a027 2b3e
000000a0: 451f 523e f99b 16bc 0648 f43c 35f3 29be
000000b0: f415 44bd 85d5 c3bd 0cda 0b3e e4b4 7e3d
000000c0: b8ff 003e c65f 11be bf74 953c c313 b4bd
000000d0: f0f2 56bc 6617 99bd 30d2 043e ac4f b0bd
000000e0: ca70 243d 2b57 663e 3212 e13d 4c67 17bd
000000f0: 8cc3 e0bc 4767 b5bc 764e ed3d 0e22 f13d
0.21203975 -0.11214464 0.04831318 -0.010397989 -0.10580267 -0.19014196 -0.038386144 -0.0859281
-0.08953742 -0.078225575 -0.18789151 0.13319992 0.13037057 0.21200047 -0.0070432685 0.14603423
-0.14815485 -0.006929779 -0.012921884 -0.15116186 0.14400849 -0.018176854 0.23546062 -0.083267614
0.026742732 0.03063998 -0.047617882 0.058227148 0.0830155 0.033679053 0.20397048 -0.18144856
-0.082796454 0.15584268 -0.043966327 0.09547505 0.18918243 -0.07672491 0.005106126 0.16714334
0.20519741 -0.00919246 0.0298195 -0.16596682 -0.0478725 -0.0956221 0.13657397 0.06218423
0.12597549 -0.14196691 0.018244145 -0.08792832 -0.013119444 -0.07475166 0.12970805 -0.08608946
0.040146627 0.2249419 0.109897986 -0.036963746 -0.027436994 -0.022143973 0.11587231 0.117740735

critic.2.weight f4 [1, 64]
00000000: cd54 463e 7582 c5bd 5994 50bc 9f89 7ebd
00000010: c985 3dbd 8f75 d5bd 7b08 433b a87b 08bc
00000020: 94d6 d03d b94b 64bd 53aa d3bd 2a73 f83d
00000030: 5d26 df3d e382 693e 60b1 34bd 4240 d23d
00000040: e6fb aebd 5b01 e2bd 6c92 603d fa32 03be
00000050: ea8c 4e3e a02c 19bd b93a 223e c8ce 55bd
00000060: 1bc5 cdbd bc39 b3bd 400f b3bc 4237 96bd
00000070: 3534 62bd c553 3cbd e618 393e 37da 59bd
00000080: 8c77 d83c cdb3 4e3e da91 97bc c950 383e
00000090: 3b35 ea3d 3578 e7bc ec93 65bd ea03 4f3e
000000a0: ee0c 413e ef16 12be 64d9 513e a92c 77bd
000000b0: a4de 973d 61ea a8bd f291 063e e952 073c
000000c0: cec1 103e 8fff 79bc c4b7 eebd 9d1a b4bd
000000d0: 12a6 f5bd b61f bfbd 4498 ec3d d890 acbc
000000e0: 70fb 4d3e 37f8 313e f8ae 57bd 324c f2bd
000000f0: 899e 6c3d 1efc 1d3e 4501 2d3e 392d 303e
0.19368286 -0.09644023 -0.012730681 -0.062142964 -0.046270166 -0.10422813 0.0029759693 -0.008330263
0.101971775 -0.055736277 -0.10335221 0.12131341 0.10895989 0.22803836 -0.04411447 0.102661625
-0.085441396 -0.11035415 0.05482714 -0.12812415 0.20170942 -0.037396073 0.15842713 -0.052199155
-0.100473605 -0.08751246 -0.021857858 -0.07334758 -0.05522557 -0.045978326 0.18075904 -0.05318662
0.026424192 0.20185776 -0.018502165 0.17999567 0.11435934 -0.028255561 -0.056049272 0.20216337
0.18852589 -0.14266561 0.20493084 -0.060345326 0.07415512 -0.08247829 0.13141611 0.008259513
0.1413643 -0.015258684 -0.11656144 -0.087941386 -0.11994566 -0.0933222 0.1155248 -0.02106516
0.20115447 0.17379843 -0.052657098 -0.11830939 0.05776838 0.15428206 0.16895016 0.17204751

exp_avg f4 [64, 2]
00000000: 8fc0 233b 87cd 443b 0000 0000 0000 0000
00000010: ef7d 0a3a 4f5b c53a 2ebf d6bb c073 ecbb
00000020: 65ed 0239 3041 203a afd7 553a 0cb4 cc39
00000030: ef77 233a 102c b33a 0000 0000 0000 0000
00000040: 6e1b 8dbb 93d0 a3bb 0000 0000 0000 0000
00000050: 52e6 d9bb 4862 01bc 9693 d0ba d353 94ba
00000060: dae9 9db6 32c0 5d39 37cc d7bb 6a06 eabb
00000070: 0000 0000 0000 0000 0000 0000 0000 0000
00000080: 6425 d1ba 88a6 39b9 8d01 1bbb a951 15bb
00000090: 97a7 4a39 0000 0000 bf4d 2a3a 5729 203a
000000a0: f5d4 ad3b e23f dd3b 0000 0000 0000 0000
000000b0: 6ffb d138 1ae3 d7b7 8b98 b639 cc29 763a
000000c0: 2550 123b c1b0 633b 0000 0000 0000 0000
000000d0: 96a2 8139 4e47 5f3a 0fc3 9ebb c4e3 8abb
000000e0: 9a4f 8a38 0400 0000 2b4f fabb 9818 17bc
000000f0: 83d0 82bb c6bd 25bb 5aa0 8db9 d74a cd39
00000100: e0b4 8639 0558 6d3a 8d4c e7ba 90a3 11bb
00000110: 9c85 ec36 adce 85b8 d00d e4bb 5347 dabb
00000120: b242 6d39 7d0d 4d3a 3d93 b8ba 5592 0abb
00000130: 6ecf 05ba 15bb d5ba 9d96 1537 ca2d 9638
00000140: 0400 0000 74cc 9d39 0000 0000 0000 0000
00000150: d59c a323 36b4 82b8 9251 15ba 46a2 8cba
00000160: 484e acba dc6e feba 0d9c 8238 6fe6 b6b8
00000170: 8b96 ab3b a370 b93b e9c8 8bba 5630 d7ba
00000180: 0000 0000 0000 0000 a9ab 133a 8892 9c3a
00000190: 1f10 b5b9 6b27 c3b9 e7c7 f53a 76e0 92b9
000001a0: 69a2 77bb 2e02 1dbb 25ad 163b 4be0 d83a
000001b0: 0405 bbbb 8a67 ddbb ea05 c2b8 6fca a3b7
000001c0: a810 beba 7ae7 04bb faf1 f5bb bfc9 0ebc
000001d0: 7cab 363b 5492 fd3a 5496 70ba 9dbd a8ba
000001e0: 1d7c b23a 4ec2 983a df59 07bb 9b3d 83ba
000001f0: 0d39 243b 146e 413b d1fd 1abb 1c89 fbba
0.00249866 0.003002973 0.0 0.0 0.0005283048 0.0015057119 -0.006553552 -0.007215947
0.00012486202 0.00061132293 0.00081574445 0.00039044057 0.0006235828 0.0013669748 0.0 0.0
-0.0043062484 -0.004999229 0.0 0.0 -0.006649771 -0.007896967 -0.0015913125 -0.0011316485
-4.7061885e-06 0.000211478 -0.0065856236 -0.007141878 0.0 0.0 0.0 0.0
-0.0015956578 -0.00017705013 -0.0023652047 -0.002278427 0.00019326653 0.0 0.00064965704 0.0006109676
0.0053049275 0.006752 0.0 0.0 0.0001001273 -2.573575e-05 0.00034827398 0.00093903835
0.0022325602 0.0034742805 0.0 0.0 0.00024725933 0.00085174 -0.00484503 -0.0042385776
6.59518e-05 6e-45 -0.007638832 -0.009222172 -0.0039921417 -0.0025290116 -0.00027013087 0.00039156407
0.00025693234 0.00090539485 -0.0017646715 -0.0022222735 7.0489023e-06 -6.3804306e-05 -0.0069596544 -0.0066613345
0.00022626927 0.00078221393 -0.0014081966 -0.002114435 -0.0005104457 -0.0016306365 8.9161595e-06 7.161086e-05
6e-45 0.00030097703 0.0 0.0 1.7738916e-17 -6.23245e-05 -0.0005696054 -0.0010729514
-0.0013145888 -0.0019411701 6.22795e-05 -8.721358e-05 0.005236452 0.0056591793 -0.0010664734 -0.0016417603
0.0 0.0 0.00056331843 0.0011945525 -0.0003453502 -0.00037222667 0.0018751592 -0.00028014526
-0.0037786013 -0.0023957598 0.0022991386 0.0016546337 -0.005707385 -0.0067567276 -9.2517424e-05 -1.952538e-05
-0.0014500814 -0.0020279572 -0.0075056525 -0.008715092 0.0027873209 0.0019345977 -0.0009177674 -0.0012873892
0.0013617311 0.0011654587 -0.0020652933 -0.0010012867 0.002505842 0.0029515075 -0.0023649822 -0.0019190642

exp_avg_sq f4 [64, 2]
00000000: 53c1 f539 ead6 ec39 0000 0000 0000 0000
00000010: 42d5 1e36 2875 6b38 12db 873a fa5f 883a
00000020: a52a 7535 85b7 3d38 55ec c437 1970 fc35
00000030: 1c68 cf39 2fbf c639 0000 0000 0000 0000
00000040: 838b 7d3a 3de8 733a 0000 0000 0000 0000
00000050: b092 d73a 73fa d33a 420d 7739 e1d2 8539
00000060: 382e 7333 9c2c 2037 884f 6a3a c57b 6f3a
00000070: 0000 0000 0000 0000 0000 0000 0000 0000
00000080: bea4 cf3a ebf1 d63a 3d07 b638 6084 c238
00000090: c493 4737 0000 0000 1ee0 bd37 7c91 bd37
000000a0: ed45 ee3a 79df e23a 0000 0000 0000 0000
000000b0: 550e 8d38 b1cd c638 6cca 0337 e6d3 0c38
000000c0: f126 4d3a 2c23 3f3a 0000 0000 0000 0000
000000d0: 329d 5535 1b60 fe37 5c15 4f3a 2e6f 6e3a
000000e0: 0525 a335 6785 192a 587f 933b 34b6 8c3b
000000f0: ae04 f83a 3da5 073b 9cbc 9238 005c f637
00000100: 2aea 9e39 7248 9839 1688 6639 2400 5d39
00000110: e4cc 4a39 608d 4d39 e53b 1a3a dcf1 403a
00000120: 385c bc35 30f1 cc37 12aa 8039 2f26 7439
00000130: b885 5f3a b49f 5f3a 7f51 1232 7f45 a234
00000140: 162d e710 e07b 9636 0000 0000 0000 0000
00000150: 0bd8 5d34 cb74 8a36 8d0d 1239 c585 1039
00000160: 719a ff39 acab 093a 23fe 7835 c8de d135
00000170: f1c1 483a 01bb 3f3a 14f6 0b39 1233 5139
00000180: 0000 0000 0000 0000 d60d a739 1b9a a139
00000190: e869 f836 a75d eb36 c79d 9e3b d060 943b
000001a0: 7ac3 033b 0b26 0d3b cb8f a039 ddcd a239
000001b0: 9988 ef3a 3fae e63a 1583 5338 e561 7235
000001c0: 2bc3 a239 e17c a139 b5d6 f23a 50e8 ef3a
000001d0: 73b2 7239 cda3 2d39 7277 e938 33b0 0339
000001e0: 5aa8 4838 4010 5338 d15c 8c3a ac9a 943a
000001f0: 0567 d739 26b0 cf39 ff09 a639 1afa b839
0.0004687408 0.0004517355 0.0 0.0 2.3667967e-06 5.6137476e-05 0.0010364971 0.001040458
9.133167e-07 4.5232027e-05 2.3475071e-05 1.8808088e-06 0.00039559684 0.00037907946 0.0 0.0
0.0009671973 0.00093043206 0.0 0.0 0.0016446915 0.0016172662 0.00023560695 0.00025524854
5.6619882e-08 9.54713e-06 0.00089382427 0.00091355696 0.0 0.0 0.0 0.0
0.0015841944 0.0016399001 8.6797845e-05 9.2752976e-05 1.1895729e-05 0.0 2.2634918e-05 2.2598302e-05
0.0018178798 0.0017309032 0.0 0.0 6.7260735e-05 9.479689e-05 7.8553385e-06 3.3575947e-05
0.0007825932 0.0007291313 0.0 0.0 7.957743e-07 3.0323912e-05 0.0007899606 0.00090955466
1.215522e-06 1.3635413e-13 0.0045012645 0.0042941812 0.0018922293 0.0020697855 6.996954e-05 2.9368326e-05
0.00030310574 0.00029045675 0.00021985205 0.00021076255 0.00019340549 0.0001960299 0.0005883559 0.00073602586
1.4033931e-06 2.4431007e-05 0.00024540775 0.00023283878 0.00085267005 0.00085305725 8.516849e-09 3.0225416e-07
9.11829e-29 4.4847693e-06 0.0 0.0 2.0660825e-07 4.126317e-06 0.00013928693 0.00013782743
0.00048752458 0.00052517164 9.2757017e-07 1.5636551e-06 0.0007658294 0.00073139375 0.00013347744 0.00019950818
0.0 0.0 0.0003186303 0.0003082313 7.403305e-06 7.0144483e-06 0.004840586 0.0045281425
0.0020105527 0.0021537568 0.00030624712 0.00031052428 0.0018274962 0.0017599537 5.04284e-05 9.029448e-07
0.0003104446 0.00030801355 0.0018527122 0.0018303487 0.00023145396 0.00016559586 0.00011132554 0.00012558773
4.7840505e-05 5.0321454e-05 0.0010708814 0.00113376 0.0004108475 0.00039613358 0.00031669435 0.00035281555

exp_avg f4 [64]
00000000: 603c 033b 0000 0000 d9da a839 088c 7fbb
00000010: 1c57 1039 2ae4 6139 c1f2 a83a 0000 0000
00000020: 7668 5bbb 0000 0000 ff21 94bb d365 5537
00000030: cbae 1238 579a 78bb 0000 0000 0000 0000
00000040: e8fd bd3a c20a 74ba 6c3b a238 c999 6d39
00000050: 756b 8d3b 0000 0000 6365 b338 22bf 4739
00000060: 99fe 1c3b 0000 0000 1de3 4039 86e4 90ba
00000070: 2051 3938 23a8 acbb e12a dd39 a3cd 313a
00000080: 482d 803a 7e6a cbba 7714 3637 7ae6 46bb
00000090: c158 1339 dacc c4ba ab90 feba 2ba7 1f37
000000a0: 885b 5c38 0000 0000 fec4 8436 735f 7fba
000000b0: 3b08 efba 14d4 ffb7 70c8 483b e96e 78ba
000000c0: 0000 0000 3087 953a 5497 adb9 8b45 28ba
000000d0: ead8 193a 261b 3f39 1876 95bb 83ed 3eb8
000000e0: be97 d4ba 5614 9fbb 0f55 853a 8542 4fba
000000f0: a416 a939 359e 473a 7a10 f43a 56c0 b7b9
0.0020025 0.0 0.0003220651 -0.0038993377 0.00013765361 0.0002154267 0.0012889729 0.0
-0.0033479012 0.0 -0.004520654 1.2719497e-05 3.49719e-05 -0.003793379 0.0 0.0
0.0014495226 -0.00093094644 7.73583e-05 0.00022659371 0.0043157884 0.0 8.55427e-05 0.00019049321
0.0023955463 0.0 0.00018395153 -0.0011054433 4.418299e-05 -0.005269067 0.00042184352 0.00067826564
0.000977912 -0.0015519408 1.085281e-05 -0.0030349777 0.00014052076 -0.0015014664 -0.0019421777 9.51606e-06
5.2537333e-05 0.0 3.9568395e-06 -0.0009741701 -0.0018236706 -3.0497125e-05 0.0030637048 -0.0009476976
0.0 0.0011408087 -0.0003310988 -0.0006419054 0.00058688095 0.00018225293 -0.004561197 -4.552073e-05
-0.0016219539 -0.004854719 0.0010172444 -0.00079063355 0.0003225106 0.0007614822 0.0018620633 -0.0003504778

exp_avg_sq f4 [64]
00000000: 044e a038 0000 0000 036a 9e36 63bb 3b39
00000010: 1c45 af36 e2c7 ba35 3e23 8138 0000 0000
00000020: 5e9b 2a39 0000 0000 8be6 9239 b946 1838
00000030: e6c4 f134 7dcd 2339 0000 0000 0000 0000
00000040: d9a7 8139 b7f4 7037 4c6e 9635 e945 6e36
00000050: 5ad0 9739 0000 0000 f433 9338 33e1 ea35
00000060: 202f fa38 0000 0000 bd5f 6936 c1dc 0839
00000070: 28ed a834 d180 0c3a f72f 9c39 f2a2 0538
00000080: 438f 4338 64c9 1338 59f6 4b39 ad71 ed38
00000090: 04e5 eb35 7b54 2638 0497 0039 77e3 1733
000000a0: 1551 1734 0000 0000 6b3b 0336 e308 bb37
000000b0: 59d2 a538 2b9a 1f36 6d47 fc38 6af6 1039
000000c0: 0000 0000 a8cb 5338 aca5 c635 e4ec b139
000000d0: aa2e a739 4185 2938 485f 9c39 c7e5 3736
000000e0: c60a 5038 9abc a339 a952 ab37 d1da b538
000000f0: 4f70 f836 9d91 3139 cd47 8e38 2f09 5538
7.643926e-05 0.0 4.7211083e-06 0.00017903517 5.223452e-06 1.3916253e-06 6.157764e-05 0.0
0.00016270342 0.0 0.00028019058 3.630549e-05 4.503301e-07 0.00015621442 0.0 0.0
0.00024729854 1.4362092e-05 1.1207972e-06 3.5505457e-06 0.00028956198 0.0 7.019183e-05 1.74999e-06
0.00011929707 0.0 3.4775433e-06 0.00013052208 3.1464992e-07 0.00053597713 0.00029790375 3.1861426e-05
4.6625046e-05 3.523509e-05 0.0001945136 0.000113222144 1.7575517e-06 3.9656163e-05 0.00012263289 3.5364305e-08
1.4092468e-07 0.0 1.9555107e-06 2.2296275e-05 7.9069934e-05 2.3782584e-06 0.000120296005 0.00013824707
0.0 5.049599e-05 1.4800366e-06 0.00033936568 0.0003188749 4.0416842e-05 0.0002982563 2.7402873e-06
4.9601098e-05 0.00031230302 2.042328e-05 8.67151e-05 7.4040504e-06 0.0001693428 6.7844616e-05 5.079171e-05
