models/episodes_2/team_goal_bottom_right/PPOAgent/model.pt (torch, 168423 bytes, 33 tensors)

feature_extractor.0.weight f4 [64, 2]
0	0xbe37cf8f	-0.17950271
1	0x3e6e6fc6	0.23284826
2	0xbf0881c1	-0.5332299
3	0x3dff960b	0.1247979
4	0x3e6fa7cb	0.23403852
5	0xbda9bfd5	-0.08288542
6	0x3f17b56c	0.592612
7	0xbecd7fa2	-0.4013644
8	0xbec43229	-0.3831952
9	0xbf091222	-0.53543293
10	0x3f2bbd9b	0.6708619
11	0xbef7ce64	-0.4839965
12	0x3e9f553f	0.31119725
13	0xbe0318e6	-0.12802467
14	0xbf309137	-0.6897158
15	0xbd3f6c44	-0.04673411
16	0x3f1b577b	0.6068036
17	0xbef096d9	-0.46990088
18	0xbedad3fe	-0.42739862
19	0xbead49fa	-0.33845502
20	0xbd52adf9	-0.051435445
21	0x3f00c114	0.50294614
22	0x3c280411	0.010254876
23	0x3ea881f3	0.32911643
24	0xbf15b23d	-0.58475095
25	0xbf0cf1c1	-0.5505639
26	0x3f1d61f3	0.61477584
27	0xbe357bef	-0.17723058
28	0xbe9cd9c9	-0.30634907
29	0x3e64e7a7	0.22353993
30	0xbda55458	-0.08072728
31	0xbf12dde8	-0.5736985
32	0x3ddc299e	0.10750125
33	0x3f220d82	0.6330186
34	0x3c8de8d8	0.017322943
35	0x3f067041	0.52515036
36	0x3e0d48b4	0.13797265
37	0xbed812e4	-0.42201912
38	0xbd49fd37	-0.04931375
39	0xbe9408c2	-0.28912932
40	0x3f19ed1f	0.60127443
41	0xbf23aa23	-0.63931483
42	0xbe36ba57	-0.1784452
43	0xbe5c03f9	-0.2148589
44	0xbe82d227	-0.2555096
45	0x3e938b59	0.2881725
46	0xbe3e6583	-0.18593411
47	0xbe866bc8	-0.26254106
48	0x3ecfe8de	0.4060735
49	0xbf2edeb3	-0.6830856
50	0xbeb1449e	-0.34622663
51	0xbbaf3e82	-0.0053480277
52	0x3e92e7ff	0.28692624
53	0xbf278cb8	-0.65449095
54	0xbe073dc4	-0.13207155
55	0x3eb5a4c8	0.3547728
56	0x3ef566d7	0.47930023
57	0x3f20841e	0.62701595
58	0x3eec20ee	0.46118873
59	0x3ecd4b23	0.40096387
60	0x3ed4ed2f	0.41587207
61	0xbe496549	-0.19667543
62	0x3d9e3526	0.07724981
63	0x3f184cbc	0.5949209
64	0xbe6cd8ed	-0.23129626
65	0xbdef57d1	-0.116866715
66	0xbe9a72d2	-0.30165726
67	0x3f27abb3	0.6549637
68	0xbd53874a	-0.051642694
69	0x3e8d95a1	0.2765322
70	0xbf1ab065	-0.60425407
71	0x3edc8622	0.43071085
72	0x3e42da3c	0.19028562
73	0xbf2fb117	-0.6862959
74	0xbeca82a6	-0.39552802
75	0xbf2da7ff	-0.67834467
76	0xbdd66b18	-0.10469645
77	0x3ebb4002	0.36572272
78	0x3ed5217e	0.41627115
79	0x3f20fb78	0.6288371
80	0xbf09e03b	-0.53857774
81	0xbee4753e	-0.446207
82	0xbf2fe702	-0.68711865
83	0x3e66b53e	0.22530076
84	0xbe82704d	-0.25476304
85	0xbf0839f8	-0.53213453
86	0x3ef3a509	0.4758685
87	0xbeaf7555	-0.34269205
88	0x3f1df41c	0.61700606
89	0xbc55e50d	-0.013055098
90	0xbe82e93a	-0.25568563
91	0x3ec8c832	0.39215237
92	0x3e8dd5b0	0.27702093
93	0xbf1b9905	-0.60780364
94	0x3c884ac5	0.016637215
95	0xbd19a63a	-0.03751204
96	0xbf1f76fe	-0.6229094
97	0xbeb6c602	-0.35697943
98	0x3ec22414	0.3791815
99	0xbd08a25c	-0.033357963
100	0xbd09c0f4	-0.03363128
101	0x3f1405c6	0.5782131
102	0xbc4c5900	-0.012472391
103	0x3e8d1914	0.27558196
104	0x3cae5846	0.021282326
105	0x3efb9c4a	0.49142677
106	0xbeae6701	-0.3406296
107	0x3e1beb72	0.15226534
108	0x3e2c94a4	0.16853577
109	0x3e51e8d5	0.20498975
110	0x3ea3ed30	0.32016897
111	0x3ebc3642	0.36760145
112	0x3f1707df	0.58996385
113	0x3ecdca2c	0.40193307
114	0x3f05c6c2	0.52256405
115	0x3f1b236b	0.6060092
116	0xbeaf2139	-0.34205034
117	0x3d81bc7e	0.0633478
118	0xbf34b4d3	-0.70588416
119	0xbeade3fc	-0.33963
120	0x3f267c10	0.65033054
121	0x3f10cde0	0.5656414
122	0xbf015b54	-0.5052998
123	0x3e92752d	0.28605023
124	0xbefb699e	-0.49104017
125	0x3e3af13a	0.18256083
126	0xbe9f35db	-0.31095776
127	0xbeeedd72	-0.46653324

feature_extractor.0.bias f4 [64]
0	0xbf103d40	-0.5634346
1	0x3f06f850	0.52722645
2	0xbf047ec0	-0.51755905
3	0x3ef4b8d8	0.47797275
4	0x3ed0a1f3	0.40748557
5	0xbdc65bda	-0.09685488
6	0x3d9521b3	0.07281818
7	0xbe17afc9	-0.1481315
8	0xbd61b0bc	-0.055100188
9	0x3e4a955b	0.19783537
10	0x3da8c623	0.082409166
11	0x3e35067a	0.17678252
12	0xbe05eb4c	-0.1307804
13	0x3ebfab5f	0.37435433
14	0x3ebe3d4d	0.37156144
15	0x3f0355d1	0.5130282
16	0xbea29707	-0.3175585
17	0xbf057ded	-0.5214527
18	0x3d99fd04	0.07518962
19	0xbe7b8b98	-0.2456497
20	0x3f073215	0.52810794
21	0x3e85aaa2	0.26106745
22	0x3e9ebcf2	0.3100353
23	0xbf1409dd	-0.5782755
24	0x3f13b17e	0.57692707
25	0x3f0b2ef0	0.54368496
26	0x3eec40a8	0.4614308
27	0x3b83be97	0.004020523
28	0x3eeb8b97	0.46004936
29	0xbd8d2c0c	-0.06893167
30	0x3f07ea12	0.5309154
31	0x3eeed7ed	0.46649113
32	0x3de118a6	0.109910294
33	0xbf0c1a45	-0.54727584
34	0xbd976ce4	-0.07393816
35	0xbed70fc3	-0.42004213
36	0x3d644b97	0.05573615
37	0xbec31477	-0.3810155
38	0xbec629bb	-0.38703713
39	0x3edd0cbf	0.43173787
40	0xbe4de0f4	-0.20105344
41	0xbe259fd8	-0.16174257
42	0xbe8f9602	-0.28044134
43	0x3dc6c68d	0.09705839
44	0x3f170296	0.5898832
45	0x3ecc90db	0.39954266
46	0xbee72cd6	-0.45151395
47	0xbe87931f	-0.26479432
48	0xbe949eff	-0.29027554
49	0x3dfb969b	0.12284585
50	0x3f0bec02	0.54656994
51	0x3f284b87	0.65740246
52	0xbf266943	-0.65004367
53	0xbe97327e	-0.2953071
54	0x3f31a531	0.6939269
55	0xbc8bd5cb	-0.017069718
56	0xbe0ab0d5	-0.13544019
57	0x3f1c57e4	0.6107161
58	0xbd98e3eb	-0.07465347
59	0x3f002880	0.500618
60	0x3d8e736a	0.06955607
61	0x3e8b0c1c	0.27157676
62	0xbdf90d7a	-0.121607736
63	0x3f271aae	0.65275085

feature_extractor.2.weight f4 [64, 64]
0	0xbcc28f63	-0.023750013
1	0xbddddee9	-0.10833532
2	0xbca9db95	-0.020734588
3	0x3c6f3676	0.014600387
4	0x3de2fc3a	0.11083265
5	0xbdbac6e6	-0.09119968
6	0x3dbf0513	0.0932714
7	0xbcf3c998	-0.029759213
8	0x3d78e2ce	0.060763173
9	0x3cd2b1f8	0.025719628
10	0x3dfdacf1	0.123865016
11	0xbb83b9a5	-0.0040199333
12	0xbbd76d20	-0.006574288
13	0x3d8da4f3	0.06916227
14	0x3c8ebaab	0.017422995
15	0x3df1c463	0.11805036
16	0x3d1e9ce8	0.038723856
17	0x3da7f380	0.08200741
18	0x3c685ceb	0.01418231
19	0x3d2b64a0	0.04184401
20	0xbd4292cd	-0.04750328
21	0x3bced420	0.0063119084
22	0xbd488e39	-0.04896376
23	0xbdc603ca	-0.096686915
24	0x3de4afed	0.11166368
25	0xbd6d2db3	-0.05790491
26	0x3d067b9e	0.032832734
27	0x3cbe20a1	0.023208918
28	0xbd9a8067	-0.07544022
29	0xbc18f24e	-0.009335114
30	0x3d96fbcb	0.073722444
31	0xbbe29b18	-0.0069154613
32	0x3df1de94	0.118100315
33	0x3c8ca329	0.017167645
34	0xbdee1543	-0.11625149
35	0xbe022f15	-0.12713273
36	0x3d61bfc0	0.055114508
37	0xbd38c06c	-0.045105383
38	0xbdcd0596	-0.10010831
39	0xbcc4ff60	-0.024047554
40	0xbd1809d0	-0.037118733
41	0x3de1a238	0.11017269
42	0x3d8281b6	0.06372397
43	0x3cfb4b13	0.030675447
44	0xbdea3ce6	-0.11437397
45	0x3dda6f30	0.106657386
46	0x3b657bbb	0.0035016376
47	0x3da16f8e	0.078826055
48	0xbd1081f4	-0.035280183
49	0xbde6c302	-0.112676635
50	0x3d3f3f0d	0.04669099
51	0x3deff69e	0.1171696
52	0x3d91746d	0.071022846
53	0x3cfc51eb	0.03080078
54	0xbdb6640e	-0.08905803
55	0xbbba2eff	-0.005681872
56	0xbdc5682d	-0.096390106
57	0x3d81b6dc	0.06333706
58	0xbbf0994f	-0.0073424946
59	0xbd6436ac	-0.0557162
60	0x3dd87e46	0.1057096
61	0x3c40d58d	0.0117696645
62	0xbd2e8472	-0.04260678
63	0x3d8e09c8	0.069354594
64	0x3c82b8b0	0.015957206
65	0xbcd4f3c0	-0.025995135
66	0xbc6b2680	-0.014352441
67	0xbd7cd108	-0.061722785
68	0x3bd2f060	0.0064373463
69	0xbb425400	-0.0029652119
70	0xbcb09868	-0.021557048
71	0x3de5134e	0.11185323
72	0xbd45c264	-0.04828109
73	0xbdbe6812	-0.092971936
74	0x3d62a08c	0.05532889
75	0x3d81b94e	0.06334172
76	0xbb4a3300	-0.0030853152
77	0x3c1d1d90	0.009589568
78	0xbdb3ecfc	-0.087854356
79	0x3b9e57a0	0.004832223
80	0x3bb6ebc0	0.005582303
81	0x3d3bc78c	0.0458446
82	0x3d2d3d4c	0.042294785
83	0xbb01c780	-0.001980275
84	0xbd7fa08c	-0.06240897
85	0xbdcbef62	-0.09957768
86	0xbde1187c	-0.10990998
87	0xbd9f7140	-0.077852726
88	0xbdec3658	-0.11533803
89	0xbd1e27e8	-0.038612276
90	0xbbe53f00	-0.0069960356
91	0xbde875c4	-0.11350587
92	0x3ded2c42	0.11580707
93	0x3d5b395c	0.0535215
94	0xbd8d5546	-0.0690103
95	0x3d4a8998	0.049447626
96	0x3d88251c	0.06647703
97	0xbcdbf8b0	-0.026851982
98	0xbdb9e6fa	-0.090772584
99	0x3da100e4	0.07861498
100	0xbd405d3c	-0.046963915
101	0xbac43d80	-0.0014971942
102	0xbdb440e4	-0.088014394
103	0x3d7c1df4	0.061552003
104	0xbc9766d0	-0.018481642
105	0xbda17836	-0.078842565
106	0x3dd8808e	0.10571395
107	0x3c109cf0	0.008826479
108	0xbdca003a	-0.098633245
109	0xbdf77f94	-0.120848805
110	0x3d700880	0.058601856
111	0x3bfc98c0	0.007708639
112	0xbdf8bc1c	-0.12145254
113	0x3b282340	0.0025655776
114	0xbd4d77a4	-0.050162926
115	0xbda62eb4	-0.08114377
116	0xbdc956de	-0.09831022
117	0xbc1a0c50	-0.00940235
118	0x3c07e4a0	0.008294255
119	0x3deb4fe6	0.11489849
120	0xbd423208	-0.047410995
121	0xbd88b33c	-0.06674811
122	0x3b89ec00	0.0042090416
123	0xbd9ae19c	-0.07562563
124	0xbd7e6430	-0.062107265
125	0x3de8cdc2	0.1136737
126	0xbdb6efea	-0.08932479
127	0x3db217c0	0.08695936
128	0xbdb70a0a	-0.08937462
129	0xbda677d5	-0.08128325
130	0x3d22ee82	0.03977824
131	0xbca0a72c	-0.019610964
132	0xbd52a864	-0.05143012
133	0xbda61739	-0.08109898
134	0xbdf80e90	-0.121121526
135	0x3d7ddb54	0.061976746
136	0xbd550192	-0.05200345
137	0xbcf75210	-0.030190498
138	0x3dee9259	0.11649007
139	0x3c846ceb	0.016165217
140	0x3df12d1e	0.117761835
141	0xbced1b72	-0.028943751
142	0x3cd80792	0.026370797
143	0xbcf78770	-0.030215949
144	0xbdb264aa	-0.087106064
145	0x3dcc3292	0.09970583
146	0xbdb0c3c6	-0.08631091
147	0x3d5bf7dc	0.053703174
148	0x3d8a6c44	0.06758931
149	0x3df041c2	0.11731292
150	0x3d705130	0.058671176
151	0xbdd43eb4	-0.10363522
152	0x3d379276	0.04481741
153	0xbdb590f2	-0.08865537
154	0x3c5afd90	0.013366118
155	0xbda87a2f	-0.0822643
156	0x3d3e8e51	0.046522442
157	0x3dc5ad75	0.09652225
158	0xbdaa54d2	-0.083169594
159	0xb9fdaf22	-0.00048386405
160	0x3d7e4b8c	0.062083766
161	0x3d2752ec	0.040850565
162	0x3dd10f1c	0.1020796
163	0xbd5135f2	-0.051076837
164	0x3ce1edb8	0.027579173
165	0xbdf4c5f8	-0.11951822
166	0xbda941d4	-0.08264509
167	0x3d9cf0f3	0.07663145
168	0x3dea2178	0.11432165
169	0x3da32108	0.079652846
170	0x3b43e7c0	0.0029892772
171	0xbdc2672d	-0.094923355
172	0xbcb18f42	-0.021674756
173	0x3da622e3	0.08112123
174	0x3d7c03bc	0.061527
175	0x3de1d594	0.11027065
176	0xbdd8106a	-0.10550006
177	0x3dc10a61	0.09425808
178	0xbd08d7fd	-0.033409107
179	0xbd88503f	-0.06655931
180	0x3db3b483	0.08774664
181	0xbd9d7966	-0.076891705
182	0xbcb90d44	-0.022589333
183	0xbbd2455f	-0.006416961
184	0xbcac0a1e	-0.021000918
185	0xbda7976d	-0.08183179
186	0x3e03eaa6	0.1288248
187	0xbd244754	-0.040107086
188	0xbcbcc7da	-0.023044515
189	0xbded5ae6	-0.11589603
190	0x3ccaa734	0.024737932
191	0xbdce7aac	-0.100819916
192	0xbdf2f882	-0.11863805
193	0xbda8bf48	-0.08239609
194	0xbdb8f3b9	-0.090308614
195	0xbc9f0ac1	-0.019414308
196	0xbc6ecaa0	-0.014574677
197	0x3d92e5cd	0.07172737
198	0x3daf3e98	0.08556861
199	0x3df5edca	0.12008245
200	0xbca4d2d2	-0.020120058
201	0xbd25d358	-0.040484756
202	0x3d5a676e	0.053321294
203	0x3b417723	0.0029520474
204	0xbcdfb000	-0.027305603
205	0xbda69e98	-0.08135718
206	0x3ca40e61	0.020026388
207	0xbd920caa	-0.07131322
208	0x3cd63957	0.026150389
209	0x3d555b6c	0.05208914
210	0xbbeb1273	-0.00717383
211	0x3d9a8038	0.07543987
212	0x3db41d62	0.08794667
213	0x3c173380	0.009228587
214	0x3c8052d1	0.01566449
215	0xbdb2bdae	-0.08727585
216	0x3da95111	0.08267415
217	0x3d734976	0.05939623
218	0x3d6dba32	0.058038898
219	0x3c284d6a	0.010272363
220	0x3d9e2d19	0.077234454
221	0xbbb15d27	-0.005412716
222	0x3daa8432	0.083259955
223	0x3ddf8bbc	0.10915324
224	0x3d942e88	0.07235438
225	0xbd066fee	-0.03282159
226	0xbdd2a660	-0.1028564
227	0xbcc5ba46	-0.024136674
228	0xbceaff3d	-0.02868616
229	0xbd5e3fd0	-0.054260075
230	0xbd737b4d	-0.05944376
231	0xbd90f0c0	-0.070771694
232	0x3de56d4a	0.11202486
233	0xbd68b56b	-0.05681364
234	0x3db485a4	0.088145524
235	0xbd8be692	-0.06831087
236	0xbdff0aff	-0.12453269
237	0x3c47ea24	0.01220182
238	0xbd6d47b2	-0.057929702
239	0x3ddf1cb0	0.108941436
240	0xbdf8ea1a	-0.12154026
241	0xbdc256a6	-0.09489183
242	0x3d392336	0.045199595
243	0xbdeb782f	-0.114975326
244	0x3ded1720	0.11576676
245	0xbda27666	-0.07932739
246	0x372ec940	1.0418065e-05
247	0xbdcdf6d8	-0.10056847
248	0x3ddfaa27	0.10921126
249	0x3dbfa52f	0.09357678
250	0x3dc60cdd	0.09670422
251	0x3dce5b38	0.10075992
252	0x3da5b5bc	0.08091304
253	0x3df3b875	0.11900417
254	0xbda374f5	-0.07981292
255	0xbc4daef0	-0.012553915

feature_extractor.2.bias f4 [64]
0	0x3da70608	0.08155447
1	0xbb032b80	-0.0020014942
2	0x3decd692	0.115643635
3	0x3da6a62f	0.08137166
4	0x3d80d9bb	0.06291529
5	0xbd9fd604	-0.07804492
6	0x3df94554	0.121714264
7	0xbcc04b98	-0.023473546
8	0xbb011732	-0.0019697663
9	0x3d4da085	0.05020191
10	0xbb83ddc0	-0.0040242374
11	0xbc8d59c8	-0.017254725
12	0x3d9f5f54	0.07781854
13	0x3dcd8158	0.10034436
14	0xbdf1c4ed	-0.11805139
15	0xbda24461	-0.079231985
16	0xbd881ee1	-0.06646515
17	0x3dc56e8c	0.09640226
18	0xbdc448a4	-0.095841676
19	0xbc9f4d6b	-0.019446095
20	0x3db79446	0.08963828
21	0x3dd8eb91	0.10591806
22	0x3c8fe430	0.017564863
23	0xbdb2436a	-0.087042645
24	0x3dfb8346	0.12280898
25	0x3c45b5ce	0.012067271
26	0x3d5a81c4	0.05334641
27	0xbdd98e61	-0.1062286
28	0x3d84e1e4	0.06488398
29	0x3dd5d0bf	0.10440206
30	0x3cf88c84	0.03034044
31	0xbdec8d60	-0.11550403
32	0x3dab2a46	0.083576724
33	0x3cb8cd3e	0.022558805
34	0x3d148ff0	0.036270082
35	0xbd87c84a	-0.06629999
36	0xbdae022e	-0.084965095
37	0xba93838c	-0.0011254414
38	0x3d88275e	0.06648134
39	0x3d9723de	0.07379888
40	0x3de98abd	0.11403415
41	0x3d084a98	0.033274263
42	0xbc201490	-0.0097705275
43	0xbd32793c	-0.04357265
44	0xbcfcfac1	-0.030881288
45	0x3da1960f	0.078899495
46	0xbb843612	-0.004034766
47	0xbd5998d0	-0.05312425
48	0xbd8171cf	-0.063205354
49	0x3db35f52	0.08758415
50	0x3db2aa5f	0.08723902
51	0x3dd598ef	0.104295604
52	0xbdb25788	-0.087081015
53	0xbd41fdf4	-0.04736133
54	0x3c93921f	0.018014012
55	0xbd1168c0	-0.035500288
56	0xbdb8d970	-0.09025848
57	0x3cda35fd	0.026637072
58	0xbdf6c3ad	-0.12049041
59	0x3dab8c0e	0.08376323
60	0xbd15d0bb	-0.036576014
61	0xbd82b2eb	-0.06381782
62	0x3db14134	0.08655015
63	0x3dd837f7	0.105575494

actor.0.weight f4 [64, 64]
0	0xb9ffdb17	-0.00048800625
1	0xbc387ca0	-0.011260182
2	0x3d058b9b	0.03260384
3	0xbb1d605d	-0.0024013736
4	0x3d933e5e	0.0718963
5	0xbd6dd611	-0.058065478
6	0x3d938b2a	0.07204278
7	0xbd8544ae	-0.0650724
8	0xbdf1c21f	-0.11804604
9	0x3da9c5e3	0.08289697
10	0x3dca4b30	0.09877622
11	0x3c70bdb2	0.014693664
12	0x3d38ec4a	0.045147218
13	0xbd04c45c	-0.032413825
14	0x3d42c669	0.0475525
15	0xbd9fdc42	-0.07805683
16	0xbdec4ef5	-0.11538497
17	0xbd90e962	-0.07075764
18	0xbc617e2a	-0.01376299
19	0xbd8f93cf	-0.07010614
20	0x3c70839a	0.014679814
21	0xbd6a0d7d	-0.05714177
22	0x3d84c13a	0.064821675
23	0x3c8d7a50	0.017270237
24	0x3d30539f	0.043048497
25	0x3d179727	0.037009384
26	0x3dedeaa3	0.11617019
27	0xbd332aa5	-0.04374184
28	0x3c34850a	0.011018047
29	0x3df60073	0.120118044
30	0x3d12abdc	0.03580843
31	0x3df3bcbd	0.11901233
32	0x3e00a282	0.12561992
33	0x3d2fde5d	0.04293667
34	0xbd9ff5a0	-0.07810521
35	0x3c5555a3	0.013020906
36	0xbdae634e	-0.085150346
37	0xbd9b9f54	-0.07598749
38	0x3db1c006	0.08679204
39	0xbdfb098e	-0.12257682
40	0x3cc32eb1	0.023825975
41	0x3d88a15c	0.06671402
42	0x3d974036	0.07385294
43	0x3dae84a9	0.08521397
44	0xbd562cf6	-0.05228897
45	0x3d7a62bd	0.06112932
46	0xbdb1966a	-0.08671267
47	0xbcf2442b	-0.02957352
48	0xbc952e17	-0.018210454
49	0xbc3df985	-0.011595135
50	0x3cac83b6	0.021058898
51	0xbde4f2a7	-0.11179095
52	0x3cf9eedd	0.030509407
53	0x3d2dee9c	0.042463884
54	0xbd0d9eb5	-0.034575183
55	0x3d3a1771	0.04543251
56	0x3d8d5a88	0.06902033
57	0x3b69c50f	0.0035670435
58	0x3d9e4436	0.07727854
59	0x3cd18b1a	0.025579024
60	0x3da36dad	0.07979903
61	0x3d8be4dc	0.06830761
62	0xbd26093e	-0.040536158
63	0x3daed07f	0.08535861
64	0xbdf40574	-0.119151026
65	0x3d240de0	0.040052295
66	0x3d862d7e	0.06551646
67	0xbdb1322b	-0.08652147
68	0xbdf59a27	-0.11992293
69	0x3d60bc08	0.05486682
70	0x3de33770	0.11094558
71	0x3d05a28f	0.03262573
72	0x3dc40005	0.09570316
73	0xbd066692	-0.032812662
74	0xbc411070	-0.011783704
75	0x3d6cdaef	0.05782598
76	0xbb850e9b	-0.004060579
77	0x3d931757	0.07182186
78	0xbcefa708	-0.029254451
79	0x3de92ceb	0.113855205
80	0xbd69e060	-0.057098746
81	0x3ad43a80	0.0016191751
82	0x3da58245	0.080814876
83	0xbd868879	-0.06568999
84	0xbd857958	-0.06517285
85	0xbc748120	-0.014923364
86	0x3d80cf22	0.062895074
87	0xbd90ac20	-0.0706408
88	0xbdd5c6e2	-0.104383245
89	0xbd05120a	-0.032487907
90	0xbd48a738	-0.048987597
91	0x3db462fe	0.08807944
92	0x3dacd577	0.08439153
93	0xbdd28e58	-0.10281056
94	0x3d58d347	0.052935865
95	0xbd568ea4	-0.052382126
96	0xbd450ef5	-0.048109967
97	0xbd0bd731	-0.03414077
98	0x3d7d31bc	0.06181501
99	0x3df0965c	0.11747429
100	0x3dc92742	0.09821941
101	0xbdf065a8	-0.117381394
102	0x3d54c63c	0.051946864
103	0xb9029d43	-0.0001245635
104	0x3d00e7fb	0.031471234
105	0x3d2de3ba	0.042453505
106	0xbc98e710	-0.018664867
107	0xbda6cb7c	-0.0814428
108	0x3df33752	0.11875786
109	0x3c13c9e5	0.009020303
110	0xbdc5c7f2	-0.09657277
111	0xbcf07266	-0.029351424
112	0x3d22ac36	0.039715014
113	0xbd3635f8	-0.044485062
114	0xbdfd73e1	-0.12375618
115	0x3caaca48	0.020848408
116	0xbd960104	-0.073244125
117	0x3d422fc8	0.04740885
118	0xbd82cbce	-0.06386529
119	0xbd26272a	-0.040564694
120	0xbd639904	-0.05556585
121	0xbdd5e3cb	-0.10443839
122	0xba2250cf	-0.0006191851
123	0xbdb6b494	-0.08921161
124	0xbddcd16c	-0.107821316
125	0xbddb6494	-0.10712543
126	0xbdefeda2	-0.11715247
127	0x3bbf07d7	0.005829792
128	0xbcfead38	-0.031088457
129	0x3d972e5a	0.07381888
130	0x3cba0740	0.022708535
131	0x3c1c0710	0.009523168
132	0x3d27da9c	0.040979967
133	0x3d002110	0.03128153
134	0x3cfe96a8	0.031077698
135	0xbd73b304	-0.059496894
136	0x3d931370	0.07181442
137	0x39457000	0.00018829107
138	0xbc3648a0	-0.011125714
139	0x3d7541ac	0.059877083
140	0x3cc99ee0	0.02461189
141	0x3ba7d260	0.005121514
142	0xbba64d60	-0.005075142
143	0xbd23add4	-0.039960697
144	0xbd24ecf4	-0.04026504
145	0xbddbfa50	-0.10741103
146	0x3daef2b0	0.08542383
147	0xbda2fb88	-0.07958132
148	0x3af1e780	0.0018455833
149	0x3dae54f2	0.08512296
150	0x3cc8efb8	0.02452837
151	0xbd038850	-0.03211242
152	0x3c49c440	0.012314856
153	0xbc521960	-0.012823433
154	0x3d90d776	0.07072346
155	0xbcb8c590	-0.022555143
156	0x3de1f012	0.11032118
157	0xbaa5b980	-0.0012643784
158	0xbd4b6e50	-0.04966575
159	0xbdfed8aa	-0.12443669
160	0xbc418700	-0.011811972
161	0xbd501f9c	-0.050811395
162	0xbdd3acfa	-0.10335727
163	0xbdfcc446	-0.12342124
164	0x3da64b92	0.08119883
165	0xbce84870	-0.028354853
166	0x3da73056	0.08163516
167	0x3a573600	0.0008209646
168	0x3c92f618	0.017939612
169	0xbdca32ac	-0.09872946
170	0x3d625788	0.055259258
171	0x3d93b65a	0.07212515
172	0xbda4ddda	-0.08050127
173	0xbdd9ed00	-0.10640907
174	0x3de2d47e	0.11075686
175	0xbd3c4848	-0.04596737
176	0x3dfeba54	0.12437883
177	0x3dbb754a	0.091532305
178	0xbc6bed00	-0.014399767
179	0xbdac0a80	-0.0840044
180	0xbdc53408	-0.09629065
181	0xbdf7f4a6	-0.1210721
182	0xbdfb6ecc	-0.12276992
183	0xbd5ed39c	-0.054401025
184	0x3db0193a	0.085985616
185	0x3d98bd06	0.07457928
186	0x3dc40742	0.09571697
187	0x3cf89f28	0.03034933
188	0x3d650b48	0.05591896
189	0xbdc04a30	-0.0938915
190	0xbd9094f8	-0.070596635
191	0xbce46c10	-0.02788356
192	0xbd62cb20	-0.055369496
193	0xbab85a80	-0.0014065057
194	0x3d6972cc	0.056994244
195	0xbc867b98	-0.016416356
196	0xbd5bc078	-0.05365035
197	0xbd1b72f4	-0.037951425
198	0x3d8b6934	0.06807175
199	0xbda76cac	-0.081750244
200	0xbda107b8	-0.078628
201	0x3de1b95a	0.11021681
202	0xbd79fef0	-0.061034143
203	0xbdd32ab4	-0.10310879
204	0x3d0510c8	0.032486707
205	0xbb1ed500	-0.0024235845
206	0x3df03846	0.11729483
207	0xbd49e6bc	-0.04929231
208	0x3dd7c2a0	0.10535169
209	0xbd586560	-0.052831054
210	0x3dda80a8	0.106690705
211	0x3d3753ac	0.04475753
212	0x3b1b6640	0.0023712069
213	0xbd4658f8	-0.04842469
214	0xbd0334f0	-0.032032907
215	0xbd277970	-0.040887296
216	0xbc39c010	-0.011337295
217	0xbcbba2a8	-0.022904709
218	0xbdacb600	-0.08433151
219	0xbd99cb8c	-0.075095266
220	0xbdd469c4	-0.10371736
221	0x3b9ae260	0.004726693
222	0xbd8ce3e0	-0.06879401
223	0xbd2d0e48	-0.042249948
224	0x3d87220a	0.06598289
225	0xbdb97506	-0.090555236
226	0xbda1f4c6	-0.07908015
227	0x3c385110	0.011249796
228	0x3dd7e04e	0.105408296
229	0xbda56f38	-0.08077854
230	0x3d6498b8	0.055809706
231	0x3df7277c	0.12068078
232	0x3dd4d88c	0.103928655
233	0x3db1f068	0.08688432
234	0xbcd0b7e0	-0.025478303
235	0xbdc8780a	-0.09788521
236	0x3b768ac0	0.0037619323
237	0x3cf28f08	0.029609218
238	0x3d22aaa4	0.039713517
239	0x3d65cb88	0.056102306
240	0xbddd6d1c	-0.108118266
241	0xbdeed27c	-0.116612405
242	0x3bb95000	0.0056552887
243	0x3d9970b2	0.07492198
244	0x3c85c0e0	0.016327322
245	0xbc91f8f0	-0.017818898
246	0x3c555f40	0.013023198
247	0xbd96ab96	-0.07356946
248	0x3bbfd3a0	0.005854085
249	0xbbd3a5e0	-0.006458983
250	0xbdaf0f14	-0.08547798
251	0xbde7733a	-0.113012746
252	0xbd966e5e	-0.073452696
253	0xbd0fc6e0	-0.03510177
254	0x3dac83ca	0.08423574
255	0x3d66f2d8	0.056383938

actor.0.bias f4 [64]
0	0x3d72978c	0.059226558
1	0xbd08957b	-0.03334568
2	0xbd3db13c	-0.046311602
3	0x3df3287e	0.11872958
4	0xbde5b03e	-0.11215256
5	0x3d72841a	0.059208013
6	0xbdc01838	-0.09379619
7	0x3de94c73	0.11391535
8	0x3d2b9e24	0.04189886
9	0x3bfaab40	0.007649809
10	0xbc3fb81a	-0.011701608
11	0x3da3b610	0.0799371
12	0xbdc5f1c4	-0.09665254
13	0xbdbc68fa	-0.0919971
14	0x3cecf140	0.02892363
15	0x3c365505	0.011128669
16	0xbdd7236e	-0.105048046
17	0xbdb9f1f1	-0.0907935
18	0xbd98f23e	-0.07468079
19	0xbd674ac4	-0.056467786
20	0xba32dfd4	-0.0006823514
21	0xbddfc95a	-0.10927077
22	0xbdf139d2	-0.117786065
23	0xbdda1d63	-0.10650136
24	0x3d0710df	0.032975074
25	0xbd59111c	-0.052994832
26	0xbd8fff14	-0.07031074
27	0x3da89770	0.082320094
28	0x3d12ffc4	0.03588845
29	0xbdfa4b60	-0.12221408
30	0x3d4e9588	0.050435573
31	0xbdf4f1de	-0.11960195
32	0xbdf7ab8e	-0.12093268
33	0xbdf7f623	-0.12107494
34	0x3de3be2f	0.11120259
35	0xbdf5f760	-0.12010074
36	0xbd4e7990	-0.0504089
37	0x3b4fd600	0.0031713247
38	0x3d19aa48	0.03751591
39	0xbd8d12f2	-0.06888379
40	0xbdb9dfc7	-0.09075885
41	0x3dd83a28	0.105579674
42	0x3da4dbe8	0.08049756
43	0xbdbb5c6c	-0.091484874
44	0xbda358da	-0.079759315
45	0x3cb52046	0.022110116
46	0x3db11389	0.08646304
47	0x3de4b1be	0.11166714
48	0xbd523cba	-0.051327445
49	0xbc38bac4	-0.011274997
50	0x3de612e9	0.112340756
51	0xbddcc840	-0.10780382
52	0xbda3c07f	-0.079957
53	0xbdfc81c1	-0.12329436
54	0x3bcd72b5	0.0062697777
55	0x3d6e4902	0.058175094
56	0x3dcb46ad	0.0992559
57	0x3daafbdf	0.08348822
58	0xbdb1815b	-0.08667251
59	0xbd5bc284	-0.0536523
60	0xbd948fba	-0.07253976
61	0xbd3a5d2a	-0.045499004
62	0x3ddc99ee	0.10771547
63	0xbd3d540d	-0.046222735

actor.2.weight f4 [4, 64]
0	0xbd07e217	-0.0331746
1	0x3d778696	0.060431086
2	0xbd5b1588	-0.05348733
3	0x3ca39d88	0.019972578
4	0x3d19627c	0.037447438
5	0x3de6d3e7	0.11270886
6	0xbd8e1140	-0.06936884
7	0xbd489f3d	-0.048979986
8	0x3b828a71	0.0039837887
9	0x3df99f30	0.12188566
10	0xbdf80323	-0.12109973
11	0xbbc2adbe	-0.005941122
12	0x3cd3efd8	0.025871202
13	0xbc30d150	-0.0107920915
14	0xbdd29f90	-0.102843404
15	0x3cbf01ed	0.023316348
16	0xbd1182f8	-0.035525292
17	0x3d61d18d	0.055131484
18	0x3a6c0900	0.00090040267
19	0x3d83daba	0.06438203
20	0x3cdfedf7	0.02733515
21	0xbd512520	-0.051060796
22	0x3d176b11	0.03696734
23	0x3d06cd46	0.032910608
24	0x3dd60464	0.10450056
25	0x3d69d968	0.0570921
26	0xbdd9f4e0	-0.10642409
27	0xbce10b85	-0.027471313
28	0xbbe8e8c0	-0.007107824
29	0x3d900d9c	0.07033846
30	0x3dc1b7b4	0.09458867
31	0x3dc1534e	0.09439717
32	0x3de2536a	0.11051066
33	0xbdb3565f	-0.08756708
34	0xbdae585c	-0.08512947
35	0xbc6815ea	-0.014165381
36	0xbdbf0b76	-0.09328358
37	0x3d96ba2e	0.0735973
38	0x3d76ba5e	0.060236327
39	0x3cbda51b	0.023150017
40	0xbcc316bb	-0.02381455
41	0x3d18af7e	0.037276737
42	0x3d9e5102	0.07730295
43	0x3d38a250	0.04507667
44	0xbd8f139c	-0.06986162
45	0xbd6d37b4	-0.05791445
46	0xba8dfdf3	-0.0010833129
47	0xbdb53ae0	-0.0884912
48	0x3d723556	0.059132896
49	0x3bd18aeb	0.006394734
50	0xbd52eb54	-0.051493958
51	0xbde3e40e	-0.11127482
52	0x3d079fef	0.03311151
53	0xbd398e8f	-0.04530197
54	0xbd85395d	-0.06505082
55	0xbdddbac9	-0.10826642
56	0x3cbbeca8	0.022939995
57	0xbccf9e47	-0.025344027
58	0xbd3722fb	-0.044711094
59	0xbda2da5c	-0.07951805
60	0x3b9dab76	0.0048116995
61	0xbdcb8c65	-0.099388875
62	0x3db84266	0.089970395
63	0xbbd68b47	-0.006547365
64	0x3e01fbff	0.12693785
65	0x3c90e43b	0.017686954
66	0x3dea551a	0.11442013
67	0x3d7f5bd0	0.06234342
68	0x3b626460	0.0034544691
69	0x3cd2730f	0.02568963
70	0xbdc49e8c	-0.09600553
71	0x3d8b0d80	0.06789684
72	0xbd44e023	-0.048065316
73	0xbd5219c0	-0.05129409
74	0x3d48a9e6	0.048990153
75	0x3db07500	0.08616066
76	0xbd42d484	-0.047565952
77	0xbd4875a4	-0.048940316
78	0xbd2503a8	-0.04028669
79	0xbd14b420	-0.036304593
80	0xbd08bdd4	-0.03338416
81	0x3df80a13	0.121112965
82	0xbc16e040	-0.009208739
83	0xbc6cd560	-0.014455169
84	0x3cb656a9	0.02225812
85	0x3c0df770	0.008664951
86	0x3c09d6c2	0.008413019
87	0x3ddbe63a	0.107372716
88	0x3d04de1d	0.032438386
89	0x3d0cb3a4	0.034351006
90	0x3dbe8aba	0.09303804
91	0xbdd9b8e3	-0.106309675
92	0x3cfafbd8	0.030637667
93	0xbd27d73a	-0.04097674
94	0xbdfa77e0	-0.122298956
95	0xbcd35908	-0.02579929
96	0x3df0b808	0.11753851
97	0xbdddf873	-0.108384036
98	0xbd52ae95	-0.051436026
99	0xbde2e5ee	-0.11079012
100	0x3d073728	0.033011585
101	0xbdcc6102	-0.0997944
102	0x3de8d296	0.11368291
103	0xbc5727f6	-0.013132086
104	0xbd8be544	-0.06830838
105	0x3cae93ee	0.021310773
106	0x3dd9cc52	0.10634674
107	0x3ca05f50	0.019576699
108	0xbd025faf	-0.031829532
109	0x3dedb7e6	0.116073415
110	0xbc83db1e	-0.016095694
111	0x3dc93a4d	0.09825573
112	0xbac6bd66	-0.0015162646
113	0x3db8ab53	0.090170525
114	0xbdf1355b	-0.11777755
115	0xbd4cfd16	-0.05004605
116	0xbded2ddd	-0.11581013
117	0xbdb03efb	-0.086057626
118	0x3cd539cc	0.026028536
119	0xbdd7ccdb	-0.1053712
120	0x3b2a9e29	0.0026034212
121	0x3dfea483	0.12433722
122	0xbccaf16c	-0.024773322
123	0xbc01d040	-0.007923186
124	0x3dd20b29	0.10256035
125	0x3de49520	0.11161256
126	0xbdaeb68d	-0.085309125
127	0x3d9f37bc	0.07774302
128	0x3da08a77	0.0783891
129	0x3d4e9d7d	0.05044316
130	0x3dc1cad0	0.094625115
131	0x3d337810	0.043815672
132	0x3d42f279	0.04759452
133	0x3d9790fc	0.074007004
134	0x3dfb5900	0.12272835
135	0x3d4f478a	0.050605334
136	0xbd0378fe	-0.03209781
137	0xbd8421bc	-0.06451747
138	0xbdb593dd	-0.08866093
139	0x3d5cbd28	0.05389133
140	0x3df7c1ea	0.12097533
141	0xbcf5bdb0	-0.029997677
142	0x3dd4a17e	0.10382365
143	0xbd2f2388	-0.042758495
144	0xbdeb1a5c	-0.11479637
145	0x3b63e69e	0.003477491
146	0x3d99f6ba	0.075177625
147	0x3d0f8b6c	0.035045072
148	0x3d84b220	0.06479287
149	0x3d632958	0.05545935
150	0x3dbbb54d	0.0916544
151	0xbc0ab7cb	-0.008466671
152	0x3de14302	0.10999109
153	0xbd997828	-0.07493621
154	0x3bd7c0ec	0.0065842774
155	0x3dad1ad6	0.08452384
156	0xbdba27c2	-0.090896145
157	0xbd8b0861	-0.067887075
158	0xbc7ce800	-0.0154361725
159	0xbdf2a192	-0.11847223
160	0x3d98c154	0.074587494
161	0x3d92eb36	0.07173769
162	0xbd954543	-0.07288601
163	0xbdd08cd9	-0.101831146
164	0xbdd15132	-0.10220565
165	0x3dedb5e6	0.1160696
166	0xbd81af5f	-0.063322775
167	0xbcbbf953	-0.022946035
168	0xbde23974	-0.110461146
169	0xbdd5108d	-0.104035474
170	0xbdb782f2	-0.08960523
171	0x3dad896e	0.08473478
172	0xbe0391cf	-0.1284859
173	0x3dd896ae	0.10575615
174	0xbdde8939	-0.10866017
175	0xbdfaa5f1	-0.12238682
176	0xbd828459	-0.063728996
177	0xbcc5a33d	-0.02412569
178	0x3daeaf52	0.085295334
179	0xbd9bc18c	-0.076052755
180	0xbc95de22	-0.018294398
181	0xbc7d8f7f	-0.015476107
182	0xbdfe234e	-0.124090776
183	0xbd9ec9ab	-0.07753309
184	0xbdd838ea	-0.105577305
185	0xbd82fd3a	-0.063959554
186	0xbd9218b3	-0.07133617
187	0xbd9e3666	-0.077252194
188	0x3c8967b9	0.016773092
189	0xbd73abc1	-0.05948997
190	0xbd46a527	-0.048497345
191	0x3cedc7a4	0.02902586
192	0xbd9245d2	-0.071422234
193	0x3d58eac5	0.05295827
194	0x3d890bae	0.06691681
195	0xbd2ee070	-0.04269451
196	0x3d1d007c	0.03833054
197	0xbd4f9608	-0.05068019
198	0xbce44198	-0.027863309
199	0x3db9f4a4	0.090798646
200	0xbcd52ff0	-0.026023835
201	0xbdddbfc6	-0.108275935
202	0xbca9c0ea	-0.020721871
203	0x3d11b1b3	0.035569858
204	0x3dee0e54	0.116238266
205	0xbddb774a	-0.10716112
206	0x3daef774	0.08543292
207	0x3e010c9f	0.12602471
208	0xbdd061c6	-0.10174899
209	0xbb842b5e	-0.00403349
210	0xbd0d6694	-0.034521654
211	0xbc8a3430	-0.016870588
212	0xbd746280	-0.05966425
213	0x3da9d73c	0.08293006
214	0x3d646fba	0.055770613
215	0xbd460bc6	-0.04835107
216	0xbd02c47b	-0.03192566
217	0xbdf1f382	-0.118140236
218	0xbd0b0f1b	-0.033949953
219	0x3bd84f30	0.0066012368
220	0x3d51ef30	0.051253498
221	0xbcc7a04d	-0.02436843
222	0x3d2a1e58	0.041532844
223	0x3dc2ba5e	0.09508203
224	0xbd8a76d0	-0.06760943
225	0xbdaf31b6	-0.085544035
226	0xbdef9d34	-0.11699906
227	0xbdd564f2	-0.104196444
228	0xbdb0caf6	-0.08632462
229	0xbd66a330	-0.05630797
230	0xbdad569a	-0.084637836
231	0x3cb78ee0	0.022406995
232	0xbd03edb8	-0.03220913
233	0xbd6df967	-0.058099177
234	0x3d2d0b20	0.042246938
235	0x3d2b82f8	0.04187295
236	0xbd7c22fc	-0.0615568
237	0xbcf4add1	-0.029868038
238	0xbdb625d4	-0.08893934
239	0x3d4f8460	0.050663352
240	0x3c7e2230	0.015511081
241	0x3d2ab41f	0.041675683
242	0xbae14085	-0.0017185366
243	0xbda452d8	-0.08023614
244	0x39830ca3	0.00024995682
245	0x3d09c16c	0.033631727
246	0xbdcb347d	-0.09922121
247	0x3dc427a1	0.09577871
248	0xbdb64f0b	-0.08901795
249	0x3cacc7ff	0.02109146
250	0xb90ba87a	-0.00013318835
251	0xbdcfac00	-0.10140228
252	0xbd97c008	-0.07409674
253	0xbc8b189d	-0.01697951
254	0x3de7498b	0.11293324
255	0x3daf5734	0.085615546

actor.2.bias f4 [4]
0	0x3d8b89f0	0.06813419
1	0x3de31bcc	0.11089286
2	0xbd3171b2	-0.04332132
3	0x3d47d27b	0.048784714

critic.0.weight f4 [64, 64]
0	0xbcece0d3	-0.028915798
1	0x3d8f0670	0.0698365
2	0x3de52f58	0.11190671
3	0xbb77012f	-0.0037689914
4	0xbbba8c8c	-0.005693024
5	0xbdcde032	-0.100525275
6	0x3dde5832	0.10856666
7	0xbd7f7dfc	-0.062376007
8	0x3dae5c48	0.08513695
9	0x3ba93e62	0.0051649073
10	0xbd480b58	-0.048838943
11	0xbc851b20	-0.016248286
12	0x3d431e6a	0.047636427
13	0xbd9c326d	-0.076268055
14	0x3caab4cb	0.020838162
15	0x3d7cffcd	0.061767388
16	0x3ce176e6	0.027522516
17	0xbdaaa5b6	-0.08332388
18	0x3da395cc	0.07987556
19	0xbdb77cb6	-0.089593336
20	0xbd7bf83e	-0.06151604
21	0xbd0e1370	-0.034686506
22	0x3d2059f8	0.0391483
23	0xbde84794	-0.113417774
24	0x3d9f112c	0.07766947
25	0x3d3abb15	0.04558857
26	0xbd46f6ca	-0.0485752
27	0xbdd89881	-0.10575963
28	0xbc5e84c4	-0.0135814585
29	0x3d39c83a	0.045356967
30	0xbde086e6	-0.1096323
31	0x3d4cfdf6	0.050046884
32	0xbc1b101f	-0.009464293
33	0x3d8ce5c9	0.068797655
34	0x3d5c8df0	0.0538463
35	0xbd5f0ef9	-0.05445764
36	0xbddfff80	-0.10937405
37	0xbc682254	-0.014168341
38	0x3de71568	0.1128338
39	0xbdaaeb7b	-0.083456956
40	0xbd8f557f	-0.06998729
41	0xbe00ef0d	-0.1259119
42	0xbbd19680	-0.006396115
43	0x3dea6ce3	0.1144655
44	0x3d2411f8	0.0400562
45	0x3d8724be	0.06598805
46	0x3d0d3003	0.034469616
47	0x3dd7dad4	0.10539785
48	0x3d85cf0e	0.06533633
49	0x3dc5f229	0.09665329
50	0xbd7f2080	-0.062286854
51	0x3d29355d	0.041310657
52	0xbd88594d	-0.06657658
53	0xbdb938ac	-0.090440124
54	0xbbb8dbf4	-0.005641455
55	0x3d7b7cd3	0.06139834
56	0xbd7c2888	-0.06156209
57	0xbd4b5381	-0.049640182
58	0x3d3b4322	0.04571832
59	0xbdc19b42	-0.09453441
60	0xbd8192ee	-0.06326853
61	0x3de5571a	0.11198254
62	0x3db927b4	0.09040776
63	0x3dd114d3	0.1020905
64	0x3d9bd6f1	0.07609356
65	0x3d2c4cd0	0.04206544
66	0xbd33fabc	-0.04394029
67	0x3df33495	0.118752636
68	0xbddd59a4	-0.10808113
69	0xbd13452b	-0.035954636
70	0xbdae590a	-0.085130766
71	0x3d933e31	0.071895964
72	0xbcf341bb	-0.029694429
73	0xbc9e3c6e	-0.019315924
74	0xbdaf7b2e	-0.085684165
75	0xbd86e900	-0.0658741
76	0xb95daa2e	-0.00021139599
77	0x3d9a2269	0.075260945
78	0xbddfc780	-0.109267235
79	0xbd0178e7	-0.031609442
80	0xbdccb666	-0.09995727
81	0x3d955494	0.072915226
82	0x3d425595	0.0474449
83	0xbd6f840d	-0.058475543
84	0x3d473c7a	0.04864166
85	0xbdb975c9	-0.09055669
86	0xbd9b80b4	-0.075929075
87	0xbdee087e	-0.116227135
88	0xbd90530f	-0.07047092
89	0x3cbc2d77	0.022970898
90	0x3cabb607	0.02096082
91	0xbd6616fb	-0.05617426
92	0x3d9f9af7	0.07793229
93	0xbc14c1fb	-0.009079452
94	0x3db20dbd	0.086940266
95	0xbca92c2d	-0.020650947
96	0xbd829b92	-0.06377329
97	0x3e003588	0.1252042
98	0xbc9a1e08	-0.018813148
99	0xbb41fb4a	-0.0029599243
100	0xbd8b0fba	-0.06790109
101	0x3deba8b2	0.115067855
102	0xbd4483b8	-0.04797718
103	0x3dbbcb2f	0.091696136
104	0x3cc1a447	0.023637904
105	0x3dc54770	0.09632766
106	0x3dce39ca	0.10069616
107	0x3d56ab13	0.052409243
108	0xbd8d3349	-0.068945475
109	0x3dcdd788	0.10050875
110	0xbd2bf7e5	-0.041984458
111	0xbc881f77	-0.016616566
112	0x3ddfb842	0.10923816
113	0xbd9ecf04	-0.07754329
114	0x3ca68693	0.020327842
115	0x3ddbb692	0.10728182
116	0xbbdb5aa3	-0.0066941543
117	0x3dd3f8ca	0.10350187
118	0xbd9960a4	-0.07489136
119	0xbd35edf6	-0.04441639
120	0xbddb8682	-0.10719015
121	0xbd39ceaf	-0.045363124
122	0xbd2e156b	-0.042500895
123	0xbddf3052	-0.10897888
124	0x3de28e07	0.11062246
125	0x3d6cd40f	0.057819422
126	0xbdecf49b	-0.11570092
127	0xbd826a7c	-0.063679665
128	0xbd3be3c3	-0.045871507
129	0xbd07f840	-0.033195734
130	0x3c5e8110	0.013580576
131	0xbdf562d5	-0.11981741
132	0x3d165264	0.036699668
133	0xbd975e78	-0.07391065
134	0x3c3f3120	0.011669427
135	0xbc5569a7	-0.013025678
136	0xbbe8c5ba	-0.007103649
137	0x3c384023	0.01124576
138	0x3d432574	0.04764314
139	0x3b9f4040	0.004859954
140	0xbcc404ba	-0.023928035
141	0xbdf38f43	-0.118925594
142	0x3dc905ae	0.098155364
143	0xbdefbf0e	-0.11706363
144	0x3d2205b4	0.03955622
145	0xbd3422d4	-0.043978527
146	0x3d29e344	0.041476503
147	0x3ddce248	0.10785347
148	0x3d7338d4	0.059380367
149	0xbd8430ae	-0.064545974
150	0xbd95cb62	-0.07314183
151	0x3d832426	0.06403379
152	0xbd530ce1	-0.051525954
153	0x3cbbe0bb	0.022934308
154	0x3d99245d	0.07477639
155	0x3deea851	0.116531976
156	0x3d9c129d	0.07620738
157	0xbdd27a4b	-0.10277232
158	0x3dbfdf67	0.093687825
159	0xbdc8a38a	-0.097968176
160	0x3cf7af47	0.030234946
161	0x3db63206	0.0889626
162	0xbd808f34	-0.06277314
163	0x3d850727	0.06495505
164	0x3d97b07a	0.07406707
165	0x3de415e3	0.11136987
166	0x3d4d4f7c	0.05012463
167	0x3c1d2360	0.009590954
168	0xbd8b2085	-0.06793312
169	0xbda78ef7	-0.08181565
170	0x3c5a2be0	0.013316125
171	0xbdfc7a69	-0.123280354
172	0xbd1c00b3	-0.038086604
173	0xbd792a8b	-0.060831588
174	0x3b180d40	0.0023201257
175	0xbd3feeb6	-0.046858512
176	0x3d4d5e96	0.050139032
177	0x3dd5a6f9	0.10432238
178	0xbd466a19	-0.048441026
179	0x3d4f5bfd	0.050624836
180	0x3d37c007	0.044860866
181	0x3cef4d38	0.029211625
182	0x3d03a19c	0.032136545
183	0xbd39aa31	-0.045328323
184	0x3d804e3a	0.062649205
185	0x3d84868f	0.064709775
186	0xbd3e56dc	-0.046469554
187	0x3d94e7cc	0.07270774
188	0x3d4ddcc0	0.05025935
189	0xbd52c7b8	-0.051459998
190	0x3d5e7600	0.054311752
191	0xbd088f25	-0.03333964
192	0xbb8018a8	-0.0039091893
193	0x3c7f96c0	0.015599906
194	0x3c722819	0.014780068
195	0x3d15fdd1	0.03661901
196	0x3dc81b0c	0.09770784
197	0x3df9798c	0.12181386
198	0xbddc5356	-0.107580826
199	0xbdbd4cb1	-0.09243143
200	0xbd6bc204	-0.057558075
201	0xbdee99e5	-0.11650447
202	0xbce49dc0	-0.027907252
203	0x3d9655d4	0.07340589
204	0xbe0298d7	-0.12753616
205	0xbde42011	-0.11138929
206	0x3daddee0	0.08489776
207	0x3debfd1b	0.115228854
208	0xbd88ed23	-0.06685855
209	0x3dbf09b8	0.093280256
210	0xbddc915f	-0.10769915
211	0x3df8c535	0.12146989
212	0xbda3d27d	-0.07999132
213	0xbdc01a6a	-0.09380038
214	0x3d9858f8	0.074388444
215	0x3d84f2c2	0.06491615
216	0xbdc16815	-0.0944368
217	0x3c9402a0	0.018067658
218	0xbe01dfa3	-0.12682967
219	0xbd0a488c	-0.033760592
220	0xbd715da0	-0.05892718
221	0xbd48772f	-0.048941787
222	0xbd661bf7	-0.056179013
223	0xbc082f47	-0.008312053
224	0x3d12d129	0.035844002
225	0xbca03a47	-0.019559039
226	0x3d4db8b4	0.050224975
227	0xbddff82f	-0.10936009
228	0x3df05ee4	0.11736849
229	0xbc9cb7dd	-0.019130642
230	0x3b8d6e00	0.0043160915
231	0x399d4c4d	0.00030002222
232	0x3cd18c1a	0.025579501
233	0x3cee4060	0.02908343
234	0x3dbafe48	0.091305315
235	0x3db49269	0.08816988
236	0xbdd946e8	-0.106092274
237	0xbd938d5f	-0.07204699
238	0xbcc81d37	-0.024427993
239	0x3c831246	0.015999924
240	0x3ba657b5	0.0050763735
241	0x3d106f10	0.035262167
242	0xbdae017d	-0.084963776
243	0xbdd146e1	-0.10218597
244	0xbce9fe20	-0.028563559
245	0xbdb153e0	-0.08658576
246	0xbd9df09b	-0.077119075
247	0xbdbab5f2	-0.091167346
248	0xbd8ea63a	-0.06965299
249	0x3d842602	0.06452562
250	0x3d9cde30	0.076595664
251	0x3dfa845e	0.12232278
252	0x3d78ddc2	0.06075836
253	0x3d601dca	0.05471591
254	0x3c92b7a9	0.017909842
255	0x3dfdd228	0.123936

critic.0.bias f4 [64]
0	0x3dc07038	0.09396404
1	0xbdda0bf5	-0.10646812
2	0x3d9cc938	0.07655567
3	0xbcc65b79	-0.02421354
4	0xbdfd8e2c	-0.12380633
5	0xbda45a62	-0.08025052
6	0x3989079a	0.0002613634
7	0x3d253b33	0.04033966
8	0x3d46aa71	0.04850239
9	0xbcd1b1aa	-0.025597412
10	0xbd344e8f	-0.04402023
11	0x3d2cd33b	0.042193633
12	0x3c8e8e98	0.017401978
13	0x3d097944	0.033562914
14	0x3d7d3aa8	0.061823517
15	0x3d4cf152	0.05003483
16	0x3d3bffdc	0.045898303
17	0xbcff79e0	-0.031186044
18	0xbe0182b8	-0.12647521
19	0x3dc19a0c	0.0945321
20	0x3d2fc3d5	0.04291137
21	0xbdb4f656	-0.08836047
22	0x3ddc7d78	0.10766119
23	0x3d8e258a	0.06940754
24	0xbde7c6b4	-0.113171965
25	0xbd76c337	-0.060244765
26	0xbd8a6a25	-0.06758527
27	0x3de0fc41	0.109856136
28	0xbde845ce	-0.11341439
29	0xbb85ad1e	-0.004079475
30	0x3d9a0835	0.075210966
31	0x3dba6ff6	0.09103386
32	0x3d8b892b	0.06813272
33	0xbd39a87e	-0.045326702
34	0x3dcd4ca9	0.100243874
35	0x3d810d6c	0.06301388
36	0xbae57500	-0.0017506182
37	0x3c0bcecd	0.008533192
38	0x3cde91c8	0.027169123
39	0xbd3f6e70	-0.04673618
40	0xbd029a09	-0.03188518
41	0x3daa97d8	0.08329743
42	0x3c23fbce	0.010008765
43	0x3d8018a1	0.062546976
44	0x3d8ee30b	0.06976899
45	0xbd7f8567	-0.06238308
46	0xbd8073d4	-0.062720925
47	0x3dc6cbf6	0.09706871
48	0x3d8132eb	0.0630854
49	0xbd8de4de	-0.069284186
50	0xbd3ad114	-0.04560955
51	0xbcdc806d	-0.026916707
52	0x3d6d1974	0.057885602
53	0x3d646277	0.055757966
54	0xbde3a0b5	-0.11114637
55	0x3da92710	0.08259404
56	0xbbae28b5	-0.0053149113
57	0x3dcd1ea9	0.100156136
58	0x3ba7aa27	0.0051167193
59	0x3c11b688	0.0088936165
60	0x3bfe3e20	0.0077588707
61	0xbd93677e	-0.07197474
62	0xbe0069ca	-0.12540355
63	0x3da44782	0.080214515

critic.2.weight f4 [1, 64]
0	0xbda8f1af	-0.082492225
1	0x3d463987	0.048394706
2	0xbd24791f	-0.040154573
3	0x3baf1001	0.005342484
4	0xbd6417dc	-0.055686817
5	0x3dd76afa	0.10518451
6	0x3dddcfe3	0.10830667
7	0xbd83f056	-0.06442325
8	0xbdd5f836	-0.10447733
9	0x3d9edbbc	0.07756755
10	0x3c2a6791	0.010400669
11	0x3cf283f0	0.029603928
12	0xbc9d8d60	-0.019232452
13	0xbdd36836	-0.10322611
14	0x3d9fde64	0.078060895
15	0x3d724c2e	0.05915468
16	0x3d12ca10	0.035837233
17	0x3debd6b0	0.11515558
18	0xbdf3e24c	-0.11908397
19	0x3dad9d59	0.08477277
20	0x3d2a223f	0.041536566
21	0x3d79eadc	0.061014995
22	0xbdc57cf4	-0.096429735
23	0x3def4938	0.11683887
24	0xbbb29500	-0.005449891
25	0xbdd3fe46	-0.10351233
26	0xbdb307ad	-0.087416984
27	0x3db3504e	0.08755551
28	0xbda3a716	-0.079908535
29	0x3b14b834	0.0022692801
30	0xbcb15b76	-0.021650057
31	0xbd562208	-0.05227855
32	0xbb086922	-0.0020814617
33	0x3d563e1c	0.052305326
34	0x3daf9649	0.085735865
35	0xbdcb92de	-0.09940122
36	0xbcaeb178	-0.021324858
37	0x3def81a8	0.11694652
38	0xbcc6099d	-0.024174506
39	0xbd01116d	-0.03151076
40	0x3d7c6065	0.061615366
41	0x3c537a1c	0.012907531
42	0x3d77f491	0.06053597
43	0xbd15d320	-0.036578298
44	0xbdaaa675	-0.083325304
45	0xbd98080b	-0.07423409
46	0x3df5b960	0.11998248
47	0xbd8b8b2c	-0.06813654
48	0x3d53d756	0.051719032
49	0xbd3de2f6	-0.046359025
50	0x3de7c83a	0.11317487
51	0xbd4a6b9e	-0.049419038
52	0x3db23c38	0.08702892
53	0x3d251e9c	0.040312394
54	0x3df9f55b	0.12205001
55	0x3dbb7d74	0.09154788
56	0x3dff0a96	0.12453191
57	0xbdaf18f8	-0.08549684
58	0x3d711f8c	0.058867976
59	0x3dc33871	0.0953225
60	0x3d8103fc	0.06299588
61	0x3db1d451	0.08683074
62	0xbdce1f29	-0.10064537
63	0xbda44be2	-0.08022286

exp_avg f4 [64, 2]
0	0xba01102f	-0.0004923371
1	0xba89bed1	-0.0010509138
2	0xb94759e9	-0.00019011613
3	0xba306b40	-0.00067298487
4	0x3ac9358a	0.0015351039
5	0x39d6339d	0.00040855716
6	0xba1389bd	-0.00056281296
7	0xb9318d14	-0.00016932591
8	0x00000000	0.0
9	0x00000000	0.0
10	0x3addbde6	0.0016917556
11	0x39bde13d	0.00036216705
12	0x3b62c5a7	0.0034602673
13	0x3b4726c1	0.003038809
14	0x00000000	0.0
15	0x00000000	0.0
16	0x3bc891fc	0.0061209183
17	0x3b660215	0.0035096456
18	0x00000000	0.0
19	0x00000000	0.0
20	0xb9877700	-0.00025837868
21	0xba98eaba	-0.0011666634
22	0xbb21b3db	-0.0024673853
23	0xba92fef2	-0.0011214896
24	0x00000000	0.0
25	0x00000000	0.0
26	0x3bcaf1c1	0.00619337
27	0x3ba265b2	0.0049559707
28	0x3ae1c64b	0.0017225234
29	0x3b51442c	0.0031931503
30	0xb9c4f265	-0.0003756463
31	0x00000000	0.0
32	0x3ab85f65	0.0014066516
33	0x3ac7108b	0.0015187425
34	0xbae86daa	-0.0017732878
35	0xbb196ba1	-0.00234101
36	0x3ad3641f	0.0016127861
37	0x393a2e86	0.00017755674
38	0x00000000	0.0
39	0x00000000	0.0
40	0x3b00a6cf	0.0019630676
41	0x3a54667b	0.0008102429
42	0x00000000	0.0
43	0x00000000	0.0
44	0xbadb4e65	-0.0016731737
45	0xbb35c245	-0.0027734202
46	0x00000000	0.0
47	0x00000000	0.0
48	0x3b5dd385	0.0033848
49	0x3a548186	0.00081064587
50	0x3730cd52	1.0538222e-05
51	0x38c443ec	9.35866e-05
52	0x3b97d328	0.004633326
53	0x3a784f85	0.00094722986
54	0x39af796b	0.00033469065
55	0x3a4e1401	0.0007861257
56	0xbaee0edb	-0.0018162386
57	0xbb434068	-0.0029793028
58	0xbb66741a	-0.0035164417
59	0xbb4c7265	-0.0031196114
60	0x3bc54354	0.006019989
61	0x3b8b6a32	0.004254603
62	0x3b519f63	0.003198587
63	0x3adcb834	0.0016839565
64	0x00000000	0.0
65	0x00000000	0.0
66	0x3a84c980	0.0010130852
67	0x3ab48e08	0.0013775239
68	0xbba44f7d	-0.0050143586
69	0xbbbd90f1	-0.0057851006
70	0xb98fa8e9	-0.00027400933
71	0xba4d29f5	-0.00078263815
72	0xbb1fbc15	-0.002437358
73	0xb985fed2	-0.00025557593
74	0x00000000	0.0
75	0x00000000	0.0
76	0xbaaafcf3	-0.0013045355
77	0xbb0141b6	-0.0019723005
78	0x3ae89b27	0.0017746434
79	0x3af818ba	0.0018928268
80	0x00000000	0.0
81	0x00000000	0.0
82	0x350d25b4	5.258146e-07
83	0x3865b8e3	5.4770044e-05
84	0x00000000	0.0
85	0x00000000	0.0
86	0x3b1648f5	0.002293167
87	0x3af55022	0.0018715898
88	0x3b45ff05	0.0030211818
89	0x3b582ea7	0.0032986791
90	0xba94fb09	-0.0011366318
91	0xbae28838	-0.0017283028
92	0xbaf7c001	-0.0018901826
93	0xb8bcd221	-9.003678e-05
94	0x00000000	0.0
95	0x00000000	0.0
96	0x00000000	0.0
97	0x00000000	0.0
98	0x38a3a4b1	7.803122e-05
99	0x39c20437	0.00037005704
100	0x3b11505e	0.0022173147
101	0x3aa64b57	0.0012687248
102	0x3b6f47cf	0.0036511307
103	0x3b4b9bbb	0.0031068164
104	0x3ad661b4	0.0016356022
105	0x3ad281ac	0.0016060374
106	0xb7fac433	-2.9893685e-05
107	0xb99bf948	-0.00029749633
108	0xbb105341	-0.002202228
109	0xbb6bf2b6	-0.0036002821
110	0x3b39bfc1	0.0028343054
111	0x3b6afc22	0.003585585
112	0x396ec35b	0.00022770224
113	0xb99594dc	-0.00028530404
114	0x3b8558ad	0.004069409
115	0x3b11b10b	0.002223077
116	0x00000000	0.0
117	0xb9179179	-0.00014454675
118	0x00000000	0.0
119	0x00000000	0.0
120	0x3b53fcc8	0.0032346714
121	0x3b56ef4e	0.0032796445
122	0xb90bd7f9	-0.00013336529
123	0xb9cc3ed6	-0.00038956729
124	0xb6ce9822	-6.156989e-06
125	0xb971b944	-0.00023052568
126	0x00000000	0.0
127	0x00000000	0.0

exp_avg_sq f4 [64, 2]
0	0x31f64d75	7.168348e-09
1	0x33004ebd	2.9873934e-08
2	0x308fb901	1.0457201e-09
3	0x3248bca5	1.1684425e-08
4	0x34a0c069	2.994232e-07
5	0x32ecbf4c	2.7561008e-08
6	0x34d4ed39	3.966068e-07
7	0x3417b827	1.4129965e-07
8	0x00000000	0.0
9	0x00000000	0.0
10	0x3644d2d8	2.9329003e-06
11	0x355fbc9a	8.3348425e-07
12	0x3506adeb	5.0171974e-07
13	0x34ba700a	3.472672e-07
14	0x00000000	0.0
15	0x00000000	0.0
16	0x36018461	1.9299553e-06
17	0x351f1a95	5.92708e-07
18	0x00000000	0.0
19	0x00000000	0.0
20	0x3397602c	7.048979e-08
21	0x338bc2ed	6.508149e-08
22	0x35adc266	1.2946082e-06
23	0x3491835f	2.710394e-07
24	0x00000000	0.0
25	0x00000000	0.0
26	0x367b7811	3.7471802e-06
27	0x35bdb74f	1.4134947e-06
28	0x34079177	1.2625775e-07
29	0x34b14339	3.301773e-07
30	0x324c2e44	1.1884882e-08
31	0x00000000	0.0
32	0x347a6a0d	2.3321645e-07
33	0x33e5bda4	1.0698139e-07
34	0x343ac712	1.7395021e-07
35	0x346968e7	2.1737979e-07
36	0x34bb3c75	3.4875453e-07
37	0x326ba577	1.3716423e-08
38	0x00000000	0.0
39	0x00000000	0.0
40	0x34c5b75e	3.6827527e-07
41	0x33b9b6a4	8.647956e-08
42	0x00000000	0.0
43	0x00000000	0.0
44	0x344347fc	1.8186978e-07
45	0x34a2c549	3.0318395e-07
46	0x00000000	0.0
47	0x00000000	0.0
48	0x35c2f3ac	1.4525044e-06
49	0x344df8be	1.9182605e-07
50	0x2e89c730	6.2654215e-11
51	0x3126cfcd	2.42743e-09
52	0x3610697d	2.1519074e-06
53	0x342cc1ac	1.6089206e-07
54	0x36136349	2.1962499e-06
55	0x355a4e9c	8.132572e-07
56	0x3589eed7	1.0276807e-06
57	0x35321a40	6.6348366e-07
58	0x35786f1f	9.25489e-07
59	0x34f46913	4.5524993e-07
60	0x36e259cd	6.745779e-06
61	0x36095c41	2.046829e-06
62	0x36283062	2.5062113e-06
63	0x35138752	5.4958684e-07
64	0x00000000	0.0
65	0x00000000	0.0
66	0x34093a8d	1.278042e-07
67	0x34105bdb	1.3444462e-07
68	0x361d4124	2.343274e-06
69	0x35bde230	1.4147427e-06
70	0x31235b04	2.3771358e-09
71	0x32965375	1.750025e-08
72	0x34a5e9de	3.0903806e-07
73	0x31ad8698	5.050264e-09
74	0x00000000	0.0
75	0x00000000	0.0
76	0x33f97f32	1.1618103e-07
77	0x340635b7	1.2499264e-07
78	0x349c1a10	2.9076227e-07
79	0x34b5ed4f	3.3886542e-07
80	0x00000000	0.0
81	0x00000000	0.0
82	0x2b92db3a	1.0434772e-12
83	0x2fa31dfb	2.967083e-10
84	0x00000000	0.0
85	0x00000000	0.0
86	0x350f24dc	5.332529e-07
87	0x3421319b	1.501234e-07
88	0x35147089	5.5298057e-07
89	0x34c585a6	3.6791351e-07
90	0x348a84e7	2.5801202e-07
91	0x3473aaac	2.2693229e-07
92	0x34e5c187	4.2795384e-07
93	0x32609e1a	1.3074464e-08
94	0x00000000	0.0
95	0x00000000	0.0
96	0x00000000	0.0
97	0x00000000	0.0
98	0x33c00d24	8.943087e-08
99	0x32e2f89a	2.6422914e-08
100	0x363a77a3	2.7785798e-06
101	0x3521a44c	6.021626e-07
102	0x3638ab6f	2.7517924e-06
103	0x359097cd	1.0773016e-06
104	0x3584d1c9	9.895822e-07
105	0x34f1a4b5	4.5009588e-07
106	0x2eb4921b	8.211406e-11
107	0x31cc8a64	5.9529146e-09
108	0x35e1e8b1	1.6831528e-06
109	0x355a59e0	8.1342114e-07
110	0x348357e3	2.4464597e-07
111	0x34bdaed5	3.53312e-07
112	0x355a0ff1	8.1234526e-07
113	0x3489e8d3	2.568764e-07
114	0x35a1e81e	1.206299e-06
115	0x34df2c55	4.1569243e-07
116	0x00000000	0.0
117	0x3103afef	1.9163016e-09
118	0x00000000	0.0
119	0x00000000	0.0
120	0x35887ded	1.0169439e-06
121	0x34ef8791	4.4615857e-07
122	0x30dd5874	1.6105006e-09
123	0x322c764f	1.0038618e-08
124	0x2cd3c2ce	6.0186084e-12
125	0x311a1f18	2.2427624e-09
126	0x00000000	0.0
127	0x00000000	0.0

exp_avg f4 [64]
0	0xb94dc0b3	-0.0001962211
1	0xb90ec765	-0.00013616456
2	0x39935de7	0.00028107988
3	0xb8cd1200	-9.7785145e-05
4	0x00000000	0.0
5	0x39b50f5a	0.00034534448
6	0x3a59c883	0.00083077716
7	0x00000000	0.0
8	0x3a9fdee2	0.0012197162
9	0x00000000	0.0
10	0xb9114122	-0.00013852541
11	0xb9fc1260	-0.00048078876
12	0x00000000	0.0
13	0x3ac1e4a6	0.0014792874
14	0x3a2ba26a	0.0006547334
15	0xb89beae1	-7.4347256e-05
16	0x39c68edd	0.00037871944
17	0xb9fe771b	-0.00048535396
18	0x39985a8b	0.0002905916
19	0x00000000	0.0
20	0x39c7d99b	0.00038118367
21	0x00000000	0.0
22	0xba109598	-0.0005515455
23	0x00000000	0.0
24	0x3a1e9469	0.00060493365
25	0x379532e4	1.7785882e-05
26	0x3a5ffc9b	0.0008544416
27	0x392f8863	0.00016740109
28	0xba1adda9	-0.0005907664
29	0xba63d3a7	-0.00086909014
30	0x3ab728c3	0.001397394
31	0x3a36da30	0.00069752615
32	0x00000000	0.0
33	0x39a05d65	0.00030587162
34	0xbab5849d	-0.0013848726
35	0xb9246c31	-0.00015680563
36	0xb9f584e4	-0.00046829053
37	0x00000000	0.0
38	0xb9d6532b	-0.00040879226
39	0x39e816b6	0.0004426741
40	0x00000000	0.0
41	0x37819f44	1.5452162e-05
42	0x00000000	0.0
43	0x3a070775	0.00051509525
44	0x3a534d08	0.000806049
45	0xb9b96067	-0.00035357775
46	0xb9bc9c36	-0.0003597454
47	0x00000000	0.0
48	0x00000000	0.0
49	0x37e9415a	2.7806196e-05
50	0x3a04da26	0.0005067907
51	0x3a70587c	0.00091684586
52	0x39d5790e	0.0004071672
53	0xb883b9d2	-6.2811785e-05
54	0xba3b1914	-0.0007137221
55	0x3a4d1f02	0.000782475
56	0x374fc14d	1.2383168e-05
57	0x3a619bb9	0.00086062733
58	0xb809fbfb	-3.289802e-05
59	0x00000000	0.0
60	0x3a5a6844	0.0008331577
61	0xb892d476	-7.0013964e-05
62	0xb880c0b4	-6.1394094e-05
63	0x00000000	0.0

exp_avg_sq f4 [64]
0	0x30927679	1.065657e-09
1	0x300290dc	4.749958e-10
2	0x323ffe84	1.1175533e-08
3	0x32780e4c	1.4438751e-08
4	0x00000000	0.0
5	0x33e13119	1.048631e-07
6	0x32d3500a	2.460003e-08
7	0x00000000	0.0
8	0x339c9d20	7.292897e-08
9	0x00000000	0.0
10	0x3183075d	3.813439e-09
11	0x334a7c7c	4.7145008e-08
12	0x00000000	0.0
13	0x34260b3a	1.5464039e-07
14	0x327b9908	1.4644918e-08
15	0x301831ec	5.536822e-10
16	0x3247eeba	1.1637605e-08
17	0x32151051	8.676651e-09
18	0x326ecbfd	1.3899805e-08
19	0x00000000	0.0
20	0x3274d6f1	1.4251541e-08
21	0x00000000	0.0
22	0x326e7c4e	1.3881687e-08
23	0x00000000	0.0
24	0x335a76ca	5.086512e-08
25	0x2f5e4253	2.0214345e-10
26	0x33ab0baf	7.964933e-08
27	0x33957fc3	6.961593e-08
28	0x3332541f	4.1520362e-08
29	0x332b3bc7	3.9868407e-08
30	0x348af6fe	2.5884214e-07
31	0x33c86b49	9.332741e-08
32	0x00000000	0.0
33	0x31f4c805	7.124074e-09
34	0x33dfbaf0	1.04182504e-07
35	0x303f1a1a	6.952249e-10
36	0x325f30b0	1.2991379e-08
37	0x00000000	0.0
38	0x31e74068	6.730307e-09
39	0x327182a6	1.4057752e-08
40	0x00000000	0.0
41	0x2dce464b	2.3450705e-11
42	0x00000000	0.0
43	0x32b92949	2.1555609e-08
44	0x32e23d1c	2.6337652e-08
45	0x3250aa8e	1.2145973e-08
46	0x3296805d	1.7520671e-08
47	0x00000000	0.0
48	0x00000000	0.0
49	0x3181d681	3.7787804e-09
50	0x33d573c4	9.939643e-08
51	0x33e01560	1.0434701e-07
52	0x3318b99d	3.5559072e-08
53	0x2f994403	2.7878863e-10
54	0x33861d69	6.245211e-08
55	0x3292b982	1.7080996e-08
56	0x33033234	3.0546474e-08
57	0x33483126	4.661083e-08
58	0x2ee65ced	1.0475696e-10
59	0x00000000	0.0
60	0x334e3e18	4.8019587e-08
61	0x2fe929b5	4.2412088e-10
62	0x2f37a8e8	1.670376e-10
63	0x00000000	0.0
