models/episodes_2/team_goal_top_left/PPOAgent/model.pt (torch, 168423 bytes, 33 tensors)

feature_extractor.0.weight f4 [64, 2]
000000 7e 17 c1 bd 02 95 64 3e 63 1d a6 3e d3 e9 14 bd
       -0.09428309 0.22322467 0.32444295 -0.036355805
000010 2c 64 02 bf c4 01 14 3f 0d b3 29 3f 7f 97 1a 3f
       -0.509341 0.57815194 0.66288835 0.60387415
000020 41 22 5f 3e 06 39 6d be e7 8d 1e bf 28 8f 91 be
       0.2179041 -0.23166284 -0.61935276 -0.28429532
000030 f0 d2 a4 3e d6 5f 21 3f 7e a5 51 3e dd 6e 54 bd
       0.32192183 0.6303686 0.20473287 -0.05186354
000040 25 08 2b bf 2d be e7 3e aa d7 f5 be 9e 4f f4 be
       -0.668093 0.4526228 -0.480161 -0.47716993
000050 59 eb b6 be b0 60 50 bd 94 7b a1 be 14 5f 79 3e
       -0.3572643 -0.05087346 -0.31539595 0.24352676
000060 6b c0 b8 be bf e7 07 bf f8 f0 f8 3e d2 c9 03 bf
       -0.36084303 -0.5308799 0.48621345 -0.5147983
000070 d9 cb 9b be b2 b2 eb bd 1b 85 bd 3e ec 9d b5 3e
       -0.3042896 -0.11508693 0.37015614 0.35472047
000080 19 3b 89 bd d6 3d 8b be 3e ff 15 bf 7b f0 7b 3d
       -0.06700725 -0.27195615 -0.58592594 0.061508637
000090 3f 58 02 bf 0d d4 0f 3f 83 56 11 bf e5 7f b2 3e
       -0.509159 0.5618294 -0.5677263 0.348632
0000a0 41 97 0d bf bb 6c bf be 4c a8 9d 3e 9a bd 27 3f
       -0.5530892 -0.37387642 0.30792463 0.65523684
0000b0 69 0b 12 bf 61 0c 1b 3c 71 18 97 be 00 99 10 3f
       -0.5704866 0.009463401 -0.29510835 0.5648346
0000c0 7d 28 14 3f 54 c9 cd 3e 19 c8 17 3f d0 fa 95 3e
       0.5787428 0.40192664 0.592897 0.29292917
0000d0 75 3f e4 bd 10 bd dd be 97 86 18 bf 37 d4 b0 be
       -0.11144916 -0.43308306 -0.5958037 -0.34536907
0000e0 7a 40 8e 3e f5 ed 2f 3f 34 60 e5 3e ce 68 c3 be
       0.27783567 0.6872247 0.4479996 -0.38165897
0000f0 e4 60 43 be 38 49 6b be 11 8e 30 bf 8e 6c 30 bf
       -0.1907993 -0.2297715 -0.68966776 -0.6891564
000100 00 c2 2b bf 42 10 4b be 8b 11 ae be a4 30 ba 3e
       -0.67092896 -0.1983042 -0.3399776 0.36365235
000110 23 30 b8 bd dc dd fc 3e 48 d8 dd bd 64 dc e7 be
       -0.08993556 0.49388015 -0.10832268 -0.45285332
000120 f0 60 76 bd 6c 01 a3 be e7 d5 17 3f c6 15 81 3e
       -0.06015104 -0.31837022 0.59310764 0.25211924
000130 43 c2 f1 3e 28 b1 fc bb 3c 2c 01 3f 8d 22 bd be
       0.47218522 -0.0077115484 0.5045812 -0.36940423
000140 3e 88 f2 3e 82 78 df 3e 0d b4 fa bd bb 74 0e 3f
       0.4736957 0.43646628 -0.12241373 0.55646867
000150 55 87 d3 be 36 30 32 3e 97 8a 58 bd f3 91 57 3e
       -0.41314188 0.17401204 -0.052866545 0.21051769
000160 61 09 fe 3e 39 3b e4 be 64 ab 2d bf 3f 07 b4 3e
       0.4961653 -0.44576433 -0.67839646 0.35161778
000170 9d 0d c6 bd 5b 65 13 3f 6a 69 db be 45 1e b7 3d
       -0.09670565 0.5757653 -0.42853862 0.0894132
000180 22 5f 08 bf cd 96 a0 be d1 26 14 3e e4 4e c8 be
       -0.5327016 -0.31365052 0.14467932 -0.3912269
000190 c0 04 c0 3e fc 9d e3 3e 1d 76 0f bf 03 59 9b 3d
       0.37503624 0.4445647 -0.560396 0.07585337
0001a0 8d a5 5f bd 14 93 31 be 9c 4d bc 3e 12 04 1d 3f
       -0.05460124 -0.17341262 0.3677796 0.61334336
0001b0 ff 87 90 bd 04 f6 ff 3e 2f f5 32 3f ad d4 6f 3b
       -0.07057189 0.49992383 0.6990537 0.003659527
0001c0 db 49 54 3e 24 56 6f bd e8 c1 10 bf 92 35 01 bd
       0.20731299 -0.05843176 -0.5654588 -0.03154523
0001d0 41 5d e9 be 5b d4 a1 bd 38 cf 29 bf c1 7f d3 3e
       -0.4557896 -0.07901832 -0.66331816 0.41308406
0001e0 b3 f8 6e 3c 4d b2 18 3f 70 87 07 3f 4f b1 c5 3e
       0.014585662 0.59647065 0.52941036 0.38611838
0001f0 95 95 bb 3e 4a 34 fc 3d 7b 0c 1b 3f 49 74 1d 3f
       0.3663756 0.12314661 0.6056592 0.6150556

feature_extractor.0.bias f4 [64]
000000 d3 e4 5f be 15 b6 cc 3e 92 c7 2b 3f 99 60 ab 3e
       -0.21864633 0.39982668 0.67101395 0.33472136
000010 53 30 2b bf 9c 8b 39 be aa 76 0e 3e 4c dc b0 bd
       -0.6687061 -0.18119663 0.13912454 -0.08635768
000020 45 05 19 bf da 47 1a bf 75 c5 04 3f 2f 28 16 3f
       -0.59773666 -0.60265887 0.51863796 0.58655065
000030 df e6 01 bf 7d c3 05 be 2c 1a 11 3f 11 1f b9 3c
       -0.50742906 -0.13062854 0.5668056 0.022597821
000040 bd 55 a6 be f0 07 c3 3e f0 83 16 bf 1d f8 7a 3e
       -0.32487288 0.38091993 -0.5879507 0.2450871
000050 2f 12 2f 3f e3 04 82 be 43 b2 49 be 2f af a3 3e
       0.6838712 -0.25394353 -0.19696908 0.31969592
000060 52 a3 10 bf dc eb 07 bf da 7a 65 be 56 64 99 3e
       -0.5649921 -0.5309427 -0.22410145 0.29959363
000070 92 91 11 3e a6 df a1 3e cd 7e 90 3e 91 28 4f 3e
       0.14215687 0.31615943 0.2822174 0.20230319
000080 7f 26 1f 3e e8 d1 d7 3e 13 a8 1c 3f db e2 2c 3f
       0.15542029 0.42152333 0.6119396 0.67533654
000090 5a 53 a7 3e ef 92 c7 be 8f ed 79 be 50 29 15 bf
       0.3268078 -0.3897929 -0.24407028 -0.5826616
0000a0 3a 80 9e 3e 49 56 1d 3f b1 c9 1e bf cb b1 32 bf
       0.30957204 0.61459786 -0.62026507 -0.6980254
0000b0 7d 4e 64 be 31 dc 1f 3f fc b6 db bd 97 59 a7 be
       -0.22295566 0.6244536 -0.10728261 -0.3268554
0000c0 a5 55 d5 be bc ee f9 3d 96 37 c1 bc 3c f1 2b bf
       -0.41666904 0.12203738 -0.023586076 -0.6716497
0000d0 48 6d b3 be b5 ce 9e bc 29 ae e0 3e 21 46 85 be
       -0.35044312 -0.019385675 0.43882874 -0.26030067
0000e0 a0 5f 5b bc dd 84 21 bf 41 34 89 3e b8 a3 a1 be
       -0.013389498 -0.6309336 0.2679768 -0.3157022
0000f0 6c 7e 24 3f ae 5b e1 3a b8 cf c0 be 50 67 78 3e
       0.64255404 0.001719346 -0.37658477 0.2425816

feature_extractor.2.weight f4 [64, 64]
000000 9c ab af bd ba 49 db bd 80 91 ac 3a d0 42 5d 3c
       -0.08577654 -0.107074216 0.0013165921 0.013504699
000010 d0 7c db bd b2 cc c1 bd 5c 7c 7c 3d bc a4 a4 3d
       -0.107171655 -0.09462871 0.061642036 0.08039233
000020 64 fa d0 3d 58 8c 72 bd 40 c9 b6 3c c8 e8 3f bd
       0.10204008 -0.059215873 0.02231276 -0.046852857
000030 30 a1 5d 3c e2 50 b9 3d b0 e0 b9 3d d8 08 84 3c
       0.0135272 0.0904863 0.09076059 0.016117498
000040 54 e3 76 3d 80 da c0 3a 08 49 76 bd f0 cb 22 3c
       0.06027539 0.0014713556 -0.06012824 0.009936318
000050 74 fb 9b bd 30 cf 5b 3c 00 b5 65 3b 40 40 76 bb
       -0.0761632 0.013416097 0.0035050511 -0.0037574917
000060 26 89 e6 bd d8 12 2a bd 90 c2 11 3d 24 1c 2d bd
       -0.11256628 -0.041521877 0.03558594 -0.042263165
000070 c0 8e 70 3c 20 b7 c8 bc 68 85 dd 3c f8 70 73 3d
       0.014682472 -0.024501383 0.027041152 0.059433907
000080 20 60 ae 3b d8 db 83 3d d8 0c bf bd ca 54 f6 3d
       0.0053215176 0.06438416 -0.093286216 0.12027891
000090 14 86 17 bd bc a7 dc bd ba 17 c9 bd 3a c3 8c 3d
       -0.0369931 -0.1077418 -0.098189786 0.06873174
0000a0 a8 bc 91 bd 44 fb 8f bd 00 c7 23 ba ca 29 fc 3d
       -0.071160614 -0.07030347 -0.000624761 0.12312658
0000b0 1c 5a e8 bd 0e 99 bc 3d 88 8c 9d 3c d4 73 c0 bd
       -0.11345312 0.0920888 0.01923205 -0.093970925
0000c0 22 13 c3 bd ee 48 8d 3d d0 7a f6 3c 6a 46 f1 3d
       -0.09525134 0.06898676 0.030087858 0.117810085
0000d0 1c c2 06 bd e0 a9 d0 3d 80 e6 e5 3a 80 57 9a 3c
       -0.03289996 0.10188651 0.0017540008 0.018840551
0000e0 32 9c 83 bd 48 47 71 bd 84 c5 7e bd e8 25 9a 3d
       -0.06426276 -0.05890587 -0.062200084 0.07526761
0000f0 ca 91 d1 bd 8e c9 8d bd b4 82 78 bd cc 08 1b bd
       -0.10232885 -0.06923209 -0.060671523 -0.037850186
000100 73 62 e2 bd 8d a6 47 bd 70 7a 93 bd fb 39 68 3d
       -0.11053934 -0.04874282 -0.072010875 0.05669592
000110 d0 69 ab 3b c0 10 68 bb d3 ce d7 3c 85 5c 32 3d
       0.0052311197 -0.0035410374 0.026343739 0.043545265
000120 16 54 ac bd 74 16 1a bd b5 35 c4 3d 64 fd ab bd
       -0.084144756 -0.03761907 0.09580556 -0.0839794
000130 52 b3 92 bd 8c f1 26 bd cb be bd bd 07 83 84 3c
       -0.07163109 -0.0407577 -0.092649065 0.01617576
000140 20 01 c7 bc 90 bd cc bc 42 64 59 3d 33 81 31 3d
       -0.024292529 -0.024992734 0.05307413 0.043336105
000150 43 b8 87 bb e5 36 97 3d 18 8d f3 bc e4 f2 f6 3c
       -0.0041418388 0.07383517 -0.029730365 0.030145116
000160 ca 43 f6 bd aa 7c 53 bd 10 29 b9 bd 9c b2 08 bd
       -0.120246485 -0.05163256 -0.09041035 -0.03337346
000170 d0 a1 03 bd 08 b3 57 3d 47 7d ba bd fc b3 80 3d
       -0.03213674 0.052660972 -0.09105926 0.06284329
000180 e6 a3 ec bd 9e 86 79 bd 50 40 95 bb ad 82 a1 bd
       -0.11554699 -0.060919397 -0.004554786 -0.078862526
000190 19 ca eb bd 26 46 e6 3d 52 78 09 bd 82 7c b1 3b
       -0.115131564 0.112438485 -0.033562012 0.005416454
0001a0 ae ae 8f bd 93 2f 5b bd 38 39 1d 3d a9 3b 5a 3c
       -0.070157394 -0.053512167 0.038384646 0.013319888
0001b0 c5 5f 75 3c 4a 89 ae 3d d5 8b 95 3d eb 70 12 bd
       0.0149764465 0.085222796 0.073020615 -0.03575222
0001c0 08 1b fc 3c 8b 50 96 bb a9 a7 a7 3d 78 11 bf bc
       0.030774608 -0.004587238 0.081862755 -0.02332376
0001d0 20 3c 90 bb e9 c4 8e 3c 56 69 b3 bd ee a2 4f 3d
       -0.0044016987 0.017427878 -0.087603256 0.05069249
0001e0 11 fc e9 3d a0 0a 21 3d 2e b5 c6 bd 86 6d 0d 3c
       0.11425031 0.039316773 -0.09702526 0.008632069
0001f0 d0 a3 c8 3d 4d 7b 7a bc 42 d4 93 bd 88 c8 60 bd
       0.0979687 -0.015288186 -0.07218219 -0.05487874
000200 14 ba 4e bd ef 04 2f 3d ec e2 d5 bd 4d 59 cf bd
       -0.050470427 0.042729314 -0.104436725 -0.10124455
000210 dd b0 d3 3d a0 3c 7c 3d dc 90 8f 3d 9b 97 cb 3d
       0.10336468 0.061581254 0.070100516 0.09941026
000220 16 82 8e 3d 00 5e db 3c d0 e9 7c 3d d0 98 66 bc
       0.06958406 0.026778221 0.06174642 -0.014074519
000230 c4 9f f3 bd c1 68 52 3d fa 64 ff bd 9d fd ca 3c
       -0.11895707 0.051369432 -0.124704316 0.024779135
000240 de 94 cc 3d 10 c7 46 bc b4 fd a7 bd f6 83 e5 3d
       0.09989332 -0.012132421 -0.08202687 0.1120681
000250 00 0d e8 3b bd e5 cb bd 7c f2 c5 3d 27 9e c6 bd
       0.007081628 -0.099559285 0.09665391 -0.09698134
000260 53 f1 38 3d ec 65 a6 bd aa 5a d8 bd 10 ee df 3d
       0.04515202 -0.08124909 -0.10564168 0.10934079
000270 80 53 92 3d 92 1c cb 3d ac 3d 32 3d 4e 8a f0 3d
       0.071448326 0.09917559 0.043515846 0.117451295
000280 d8 1c de bc 14 87 d0 bd 0e d9 c2 bd e9 de 30 3d
       -0.027113363 -0.10182014 -0.09514056 0.043181334
000290 92 47 70 bc 14 a4 cd 3c d4 87 a2 bd 48 05 ac 3d
       -0.014665501 0.025102653 -0.079360634 0.08399445
0002a0 4f 47 76 bd 25 23 ec 3d 72 1c d1 bd 46 21 80 3d
       -0.0601266 0.11530141 -0.10210504 0.062563464
0002b0 05 4e cf bd 7e c5 be bd a7 85 af 3c b8 b7 bb 3d
       -0.10122303 -0.093150124 0.021426035 0.09165901
0002c0 60 0a 10 bd d8 e4 df bc f7 81 dc 3c 72 38 dd bd
       -0.035166144 -0.0273308 0.02691744 -0.10801782
0002d0 dc d3 f6 3d af 8c 63 bc 9e f8 63 bd 7a 84 9a 3d
       0.12052128 -0.013888522 -0.05565702 0.07544799
0002e0 44 1a 9c bd 88 db ae bc 50 ea 5e 3c cc db 61 bd
       -0.07622197 -0.021344915 0.013605669 -0.055141255
0002f0 8b 98 e2 bd b4 dd 9a 3d 5c 97 2d bd 7f 24 5d bc
       -0.110642515 0.07561818 -0.042380676 -0.013497471
000300 20 70 91 3b 75 79 f6 3d 38 ef ad bc 37 4d 61 bd
       0.004438415 0.12034885 -0.021232232 -0.05500528
000310 d4 0a f6 bd 6c b7 8e bd 18 d7 f6 bd 03 3c 9e 3d
       -0.12013784 -0.06968579 -0.120527446 0.0772629
000320 d4 92 38 bd 6e 30 94 3d 38 fc 75 bd e5 88 fd 3d
       -0.0450619 0.072358 -0.060054988 0.12379626
000330 68 c3 74 3d 26 f1 8d 3d da b1 cc 3d 31 9e ab 3d
       0.059756666 0.06930761 0.0999486 0.08379782
000340 32 eb 9b bd 40 71 0e bd 5a f0 f5 3d 40 75 c4 bb
       -0.07613219 -0.034775972 0.12008734 -0.0059954226
000350 37 93 3a 3c 84 b9 8e bd ca 22 bc 3d 80 1d d7 3d
       0.011387638 -0.06968978 0.09186323 0.105036736
000360 48 7e 7a bd 1e f4 ad bd 30 38 d6 3d fc 1b a5 3d
       -0.061155587 -0.08493827 0.10459936 0.08061978
000370 ff 88 04 3c 36 a8 b8 3d 8d 1b ce 3d da 77 f1 bd
       0.008089303 0.09016459 0.10063849 -0.11790438
000380 60 0f 34 3d 9e bc 14 3c 1e d4 3b bd 63 f8 e9 bd
       0.043959975 0.009078173 -0.045856588 -0.11424329
000390 b4 01 e2 3d 5a fd ad bd 06 85 3f 3c d0 15 0e 3c
       0.11035481 -0.084955886 0.01168943 0.008672193
0003a0 ea b0 d1 bb 14 77 89 bd 84 41 88 bd 3c fb b4 bd
       -0.0063992636 -0.067121655 -0.06653121 -0.08836982
0003b0 3a 78 15 bd 60 fc ad 3b ec 94 7a 3d 2c ae 25 3d
       -0.03649161 0.0053096265 0.06117718 0.040449306
0003c0 68 cf 9f bc e7 6f a6 bd 2b 9d fc 3d 48 62 8b 3d
       -0.019508079 -0.081268124 0.12334665 0.06805855
0003d0 f0 cf 5f 3c 71 9c b7 bc c9 67 93 3d 61 32 0d 3d
       0.013660416 -0.022413464 0.0719753 0.034471873
0003e0 a0 a0 fe 3d 4a 89 e0 bd 7e a5 80 bd 20 d9 a2 3c
       0.124329805 -0.10963686 -0.06281565 0.019878924
0003f0 0a 11 99 bd 80 79 e6 bd c0 23 0d 3d 5e 33 31 bd
       -0.07473953 -0.11253643 0.034457922 -0.04326188

feature_extractor.2.bias f4 [64]
000000 a4 36 e7 bd 09 84 ce 3d be 16 97 bc 80 9d 3c 3d
       -0.11289719 0.100837775 -0.018443462 0.04604864
000010 16 a1 b6 bb 3b a8 76 bb 79 75 19 3d d1 d2 cc bc
       -0.005573402 -0.0037636894 0.037465546 -0.025002869
000020 77 fc 99 3d c7 17 29 3d af d1 3e 3d 7b c6 87 3d
       0.07518857 0.04128244 0.04658669 0.06629654
000030 e3 aa ea 3c a9 e1 35 3c b4 2a a4 bd 74 d3 29 bd
       0.028645938 0.011101165 -0.080159575 -0.041461423
000040 6a 3a d5 bd 7b 13 81 bd ba 7f 89 bd 40 aa 58 3c
       -0.10411532 -0.06302544 -0.06713815 0.0132241845
000050 ee d1 d5 3d 49 15 e8 3c 2b f8 41 3d a2 e3 94 3d
       0.104404315 0.028330462 0.047355812 0.0726998
000060 2b 8f b6 bd 7b 4b e9 bd 8f 4d a0 3d 8c 10 be bd
       -0.08914026 -0.1139135 0.07827293 -0.092805
000070 f6 5f 2e 3c 2b f0 c5 3d 21 4f f0 bc 80 e7 1a bd
       0.010642996 0.09664949 -0.029334607 -0.03781843
000080 3a 47 c2 3d 75 55 c5 3d 8b 75 7d bc 9d 1a e1 3d
       0.09486242 0.0963544 -0.015469919 0.10991404
000090 41 a6 12 3d 98 38 37 3d be d0 ed bd 58 f8 bf bd
       0.035803083 0.044731706 -0.1161208 -0.0937354
0000a0 84 d1 30 bd da 81 60 3d 03 e9 f0 3d be cc a3 3d
       -0.04316856 0.054811336 0.117631935 0.07998036
0000b0 c0 1e 89 3c aa d4 a3 bc 48 c4 5e bd 5f f7 b4 3d
       0.016738296 -0.019998867 -0.054386407 0.08836245
0000c0 b9 63 5c 3d 53 11 02 3d b9 4f 32 3b 26 89 ff bd
       0.05380604 0.031754803 0.0027208163 -0.12477331
0000d0 f7 39 2d 3c b0 07 63 bc 22 d8 ec 3d 2a 6b d7 bd
       0.010572902 -0.013856813 0.115646616 -0.10518487
0000e0 37 2f c5 3c 65 0f 65 3d 63 14 c6 bc c0 97 8d bc
       0.024070365 0.055922884 -0.024179643 -0.017284274
0000f0 1d 6d 4c bd 6a db c6 3c 60 04 49 bd 82 a8 a1 3c
       -0.049908746 0.024274547 -0.049076438 0.019733671

actor.0.weight f4 [64, 64]
000000 d2 de bf bd 16 ca a5 3c 6a 4d 14 bd c6 c9 8e bd
       -0.093686715 0.020237964 -0.03620664 -0.06972079
000010 83 6c ce bd c1 ce b6 bd 5a dc ad 3d 26 6a 8c bd
       -0.10079291 -0.08926154 0.08489294 -0.06856184
000020 6d c3 2d 3d cf c7 90 bd 68 21 e9 bd bd 36 bd bd
       0.0424227 -0.070693605 -0.11383325 -0.09238956
000030 10 a5 64 3d 66 5a 80 3c f8 fb 6f 3d ee 7e bb 3d
       0.05582148 0.015668105 0.058589906 0.09155069
000040 34 a9 bd 3d 7e 55 da 3c 36 fc f1 3d f8 57 a3 3c
       0.092607886 0.026652094 0.118156835 0.019939408
000050 50 7f d4 3c 2c f7 7f 3d a3 e8 a9 3d f0 68 17 bc
       0.025939614 0.06249158 0.08296325 -0.009241328
000060 7b 27 8f 3d b4 a3 e2 3d ec 48 bc bc bb 0e 59 bd
       0.06989952 0.1106638 -0.02298399 -0.052992564
000070 bc 0a e0 3d 94 d8 8b 3d 97 4b 8b bc 9c 05 11 3d
       0.109395474 0.068284184 -0.017003817 0.03540574
000080 18 de f9 3d f8 7d 63 bd 71 7f ee bd fc 30 5e 3b
       0.12200564 -0.055540055 -0.11645401 0.0033903709
000090 2b 6f b6 bd 88 5c e7 bd 46 f3 d5 3d 0a ac 19 3c
       -0.08907922 -0.11296946 0.10446791 0.009379396
0000a0 70 77 a2 bd fc b4 ee bd 49 d8 c6 bd ac 93 01 bd
       -0.07932937 -0.11655614 -0.09709222 -0.03163497
0000b0 1a 79 92 3d 74 47 5c 3d 60 ca 8e bb 2c aa 79 3d
       0.071520045 0.05377908 -0.004357621 0.060953304
0000c0 9a 19 34 3c c0 e5 85 3b e0 1e be bd c6 aa d0 bd
       0.010992432 0.004086226 -0.09283233 -0.101888224
0000d0 cb 45 e6 bd 72 5a fd 3d 1e f8 8f 3d 5a 12 b1 bd
       -0.11243781 0.12370767 0.070297465 -0.086460784
0000e0 6e d8 fe bd 5e 76 93 3d db 20 21 bd da 4a fe 3d
       -0.124436244 0.07200311 -0.039337974 0.124166206
0000f0 77 e1 eb 3c cf b4 94 bc 08 71 cd 3d 15 20 3d 3d
       0.028794033 -0.018152623 0.100313246 0.046173174
000100 6c 0d 4e bd 8a 81 dc 3d f8 b0 6c 3d c4 e9 ce bd
       -0.05030577 0.10766895 0.057785958 -0.10103181
000110 2a 29 dd 3d 24 40 c7 bd 09 90 ba bd a9 a3 72 bd
       0.10798867 -0.09729031 -0.09109504 -0.05923811
000120 63 6e 3a 3c 23 f4 ea bd 6d c2 1e bd 49 04 8c bd
       0.011378857 -0.11472347 -0.038759638 -0.06836755
000130 93 ed 03 bd e6 3b d9 bd 7c 37 c0 bd 08 b1 7c bd
       -0.03220899 -0.10607128 -0.09385583 -0.061692268
000140 1b 3a 82 3d 35 9f 82 bd 32 89 92 bd 06 ea de bd
       0.06358739 -0.063780226 -0.07155074 -0.1088448
000150 ca 1a df 3d 8d 07 46 bd dc e6 ca 3d b6 d5 ee 3c
       0.108937815 -0.048347045 0.09907314 0.02915464
000160 45 08 b0 3d 86 cc 23 bc 33 d7 25 3d c9 3c 50 3b
       0.08595327 -0.009997493 0.040488433 0.0031774512
000170 4e dd 47 3d 1a bb 3a bd c4 87 9c bd 99 7f 1b 3d
       0.048795037 -0.04558859 -0.07643083 0.037963483
000180 d0 92 24 bd 28 87 36 3d 52 86 6c 3d 48 c8 ac 3d
       -0.040179074 0.04456249 0.057745285 0.08436638
000190 86 ff 08 bd ee 3e 80 3d 78 60 a2 3c c5 f8 03 3d
       -0.03344681 0.06262003 0.01982139 0.032219667
0001a0 9a d6 fd bd 63 0c 02 3e ba a6 6b 3c b1 f3 fe 3d
       -0.123944476 0.12700038 0.014383012 0.12448824
0001b0 fc d8 41 bd c2 e7 bb bc ce 04 c0 bd a4 b9 42 3c
       -0.047326073 -0.02293766 -0.093759164 0.0118850805
0001c0 f4 d6 56 bd 57 95 be 3d 9a 98 a9 bc 10 da 47 3d
       -0.05245109 0.09305828 -0.020702649 0.048791945
0001d0 75 8e f2 bd 78 b1 84 3d 56 45 f0 bd e1 34 91 bd
       -0.11843578 0.06479162 -0.11731975 -0.07090164
0001e0 01 2c a1 3d c7 4c b4 bd e9 4c 6c 3c 2c d6 51 3d
       0.07869721 -0.088037066 0.014422634 0.05122964
0001f0 68 c5 09 3c 0a 4f 9c 3c d8 5d a8 bd ef b1 ac 3c
       0.008408882 0.019080658 -0.08221024 0.02108094
000200 40 36 55 bc 53 c7 e0 3d 10 58 26 bd cb de 17 3c
       -0.0130134225 0.10975518 -0.040611327 0.009269427
000210 2e b0 ac bd b2 0f a2 3d b9 c2 e8 3d 94 49 89 3d
       -0.08432041 0.0791315 0.113652654 0.06703487
000220 f0 38 9a 3d dd c3 48 3d a4 a0 e2 3d a8 71 fa bc
       0.07530391 0.049014915 0.11065796 -0.030571774
000230 d0 45 b1 bc 30 7b bc bd 58 4f d2 3c fe 1f c4 bd
       -0.021639735 -0.09203184 0.0256726 -0.095764145
000240 68 94 2e bc 04 b1 ec bd 3c 77 67 3d 9c 9d a1 3d
       -0.0106555 -0.115572006 0.056510195 0.0789139
000250 20 bf 6d 3d e0 32 48 bd a0 a7 22 bd a5 e8 b4 3b
       0.0580436 -0.048876643 -0.03971064 0.0055208975
000260 e2 3a bb bd 0e 97 fc 3d 48 29 9d bd 02 0d 2a bd
       -0.091420904 0.12333499 -0.076738894 -0.04151631
000270 fe 8f 3b bd 00 81 a2 bd ec f6 20 3d 53 61 50 3d
       -0.04579162 -0.07934761 0.039297983 0.050874066
000280 72 9f c9 bd 1c 19 23 bd a0 c5 c7 3c 31 cd 5b 3d
       -0.09844865 -0.039818868 0.024386227 0.053662483
000290 9c 62 45 3d 3e 7b ce bd b0 3b fe 3c 32 b0 9b bc
       0.048189744 -0.100821 0.03103432 -0.019004915
0002a0 00 56 24 3b 69 67 c4 bd 51 00 bb 3d a6 e9 ef bc
       0.0025075674 -0.095900364 0.0913092 -0.029286217
0002b0 b8 05 aa bc 44 fe 55 3d dc 3c 88 3d 7e 6c 84 bd
       -0.02075468 0.05224444 0.06652233 -0.06466006
0002c0 85 5c 68 bd 5b 96 11 3d 0c cd 5e 3d ca 3a 97 bd
       -0.05672886 0.03554378 0.054394767 -0.0738426
0002d0 0d 65 1d 3d 64 4e 32 3d 9e 55 99 bd 1c b7 0a 3d
       0.038426448 0.04353179 -0.07487033 0.033866033
0002e0 f1 24 f3 bd ec 45 e3 3d b5 f6 69 3d a2 af b3 3d
       -0.118722804 0.11097321 0.057120044 0.08773734
0002f0 b4 d3 12 bd e7 48 dd bd 68 bd 86 3c da f1 ad bd
       -0.035846427 -0.10804921 0.016447738 -0.08493395
000300 40 e7 3b bd 0e ef b1 bd f4 da cb bc 15 ab c5 3d
       -0.045874834 -0.08688174 -0.024884678 0.09651772
000310 22 1b cd bd 35 5e 49 bd 68 e9 ee 3d 08 a2 c6 bd
       -0.10014941 -0.04916211 0.116656125 -0.09698874
000320 e0 19 ab bd a7 a1 95 3c 39 b9 83 3d 7d 2d b2 3d
       -0.08354545 0.018265558 0.06431813 0.087000825
000330 7d 68 c8 bd 84 eb 9c 3d 68 dc c0 3d 7c 0d 9e bd
       -0.097855546 0.076621085 0.09417039 -0.07717416
000340 b3 82 54 bc 56 4e 8b bd 58 34 80 bd 68 f2 9a 3d
       -0.012970614 -0.06802051 -0.06259984 0.075657666
000350 7c cf e0 3d 5e 4a f4 3d 0e 56 7e 3d 38 3f c9 3d
       0.109770745 0.11928247 0.062093787 0.09826511
000360 ff eb e1 3a eb b1 ba 3d 90 5c 98 3d e7 9f 9e bd
       0.001723647 0.091159664 0.0743953 -0.07745343
000370 8e d3 5a 3c 9b 6a 1b 3d 87 9d 95 bd 4b 4c 6e 3c
       0.013356103 0.037943464 -0.073054366 0.014544557
000380 08 e9 bb bc fb 47 55 3c 6c 8f 28 3c a8 dc b2 bc
       -0.022938266 0.01301765 0.010288101 -0.021833733
000390 6a 7b b4 bd 20 5a 32 3d 70 da 79 bd 3f af ae bb
       -0.08812602 0.04354298 -0.060999334 -0.0053309496
0003a0 8e 3f c7 bd 5e 3e d7 bd b0 90 14 3d 1a dc 20 3d
       -0.09728919 -0.105099425 0.036270797 0.039272405
0003b0 18 0f a0 3d 0f c9 17 bd 9a 98 fa 3d 8e 6f 40 3d
       0.07815379 -0.03705698 0.12236138 0.046981387
0003c0 10 82 6c 3c 74 60 b4 bd 99 5a 55 3b d8 49 8a 3d
       0.014435306 -0.088074595 0.003255522 0.06752366
0003d0 c8 d8 60 bd 96 c0 99 bd 3d 5c 80 bc 82 69 e3 3d
       -0.05489424 -0.07507436 -0.015668983 0.111041084
0003e0 4b 05 d3 bd e1 51 32 bd e4 3e ea 3d aa 3e ba 3d
       -0.10303744 -0.043535117 0.11437777 0.090939835
0003f0 ef 68 87 3d 8c be 40 bd a8 91 b9 bc 00 14 8b 3d
       0.06611811 -0.04705672 -0.022652462 0.06790924

actor.0.bias f4 [64]
000000 ca 10 93 bd f4 b5 10 3d fb ed c1 3b c4 e0 ce 3d
       -0.07180937 0.035329774 0.005918262 0.101014644
000010 48 83 a4 3d e8 6c 4b 3d a1 a3 1b bc fd 01 8e 3d
       0.080328524 0.049664408 -0.009499461 0.06933973
000020 ae 0b ce bd ba fb 79 3d 06 67 e2 bd 30 9b 85 bd
       -0.100608215 0.06103108 -0.110548064 -0.0652374
000030 30 a5 9d 3d 4f 59 ee 3d 30 d8 6f 3d 6e d4 bc bd
       0.07697523 0.11638128 0.05855578 -0.09220205
000040 e0 d2 53 3d b4 44 26 bd 16 f3 a8 bd 61 67 20 bc
       0.051714778 -0.040592864 -0.0824949 -0.009790272
000050 9f 25 8b 3c 42 45 0e bd 70 bc ee bd b8 f6 a9 bc
       0.016985713 -0.03473402 -0.11657035 -0.020747527
000060 1a 3d fd 3d d3 dc 89 3d 74 d1 a6 bb 50 da ba 3d
       0.1236517 0.06731572 -0.0050908867 0.09123671
000070 91 2f 92 bd a1 66 d3 bd f2 5b fa bd c4 3b bd bc
       -0.07137979 -0.10322309 -0.122245684 -0.023099788
000080 dc b5 93 bd c8 07 81 3c 40 e2 7c 3b 14 85 54 bd
       -0.07212421 0.01575078 0.0038587004 -0.051884726
000090 c3 91 b1 bc fe 7f 9b 3d f1 82 bd 3d 2d 94 99 bd
       -0.02167595 0.07592772 0.09253491 -0.074989654
0000a0 18 45 99 3d 0c 08 c3 3d c0 42 33 bd 80 c3 13 bc
       0.07483882 0.09523019 -0.04376483 -0.009018779
0000b0 83 42 8d bc 8c bb a2 3c 8a 2d ff 3c ea c6 98 3c
       -0.01724363 0.01986482 0.031149644 0.018649537
0000c0 6c 64 b6 bd 1d 45 98 3c 24 8a ec bd bb 32 ba bc
       -0.08905873 0.018587643 -0.11549786 -0.022729268
0000d0 34 a4 9a 3d 4c 0e f7 3d 72 43 c9 3d 2c 12 58 bd
       0.075508505 0.12063274 0.09827317 -0.052751705
0000e0 80 94 fc 3d c0 c2 dd bc 91 3b 83 ba 54 9d 3e bc
       0.123330116 -0.027070403 -0.0010012259 -0.01163419
0000f0 a0 ff 10 3c 29 5b 1b bd 29 e7 dd 3d 28 eb 90 3d
       0.008850008 -0.037928734 0.10835106 0.070761025

actor.2.weight f4 [4, 64]
000000 36 d8 0e 3d 04 3d 4a bc 1f 76 f4 3d c6 34 d4 3d
       0.034874164 -0.012343649 0.11936592 0.10361628
000010 6a 93 96 bd a4 36 25 3d ac 02 c7 bc 95 71 cd bd
       -0.07352336 0.040335312 -0.024293266 -0.1003143
000020 80 91 0a bd 0f f8 89 bd 58 17 de bc 8c 4e 10 3d
       -0.033830166 -0.067367665 -0.02711074 0.035231158
000030 c3 3b 2e bd a8 ab 14 3d 90 0c eb bc ec 0d 99 bd
       -0.042537462 0.036296517 -0.028692514 -0.074733585
000040 ec 03 ef bd 20 8e df 3c 06 d2 8d 3d 32 fd d6 b9
       -0.1167067 0.02728945 0.069248244 -0.00041005906
000050 86 d3 2f 3d b6 8a d2 bc 3c a8 32 bd 4a 6a dd bd
       0.042926334 -0.025700908 -0.043617472 -0.10811289
000060 c4 4b 26 3c 4b 73 c4 3c 68 fb 6f bc 24 82 49 3d
       0.0101499 0.023980757 -0.014647342 0.049196377
000070 a0 7b 1c 3d 47 ae 96 3b f8 02 58 3d e6 f4 ea 3d
       0.038203835 0.004598412 0.052737206 0.11472492
000080 97 04 61 bc 36 fa a0 3d bc 45 9e 3d ca 9c e5 3b
       -0.013734004 0.07860224 0.077281445 0.007007216
000090 a9 3a 88 bd 66 c8 b2 bd da a5 b8 bd 88 30 6f 3d
       -0.066518135 -0.08729629 -0.09016009 0.058395892
0000a0 b4 06 d2 bd c4 20 bc 3d 5c b6 e9 3d 08 47 9d 3d
       -0.10255185 0.09185937 0.114117354 0.07679564
0000b0 60 dc 3d 3c ed 7a c0 3d d5 20 73 bd f0 23 c4 3d
       0.011588186 0.09398446 -0.059357483 0.09577167
0000c0 c0 92 20 3c b3 df 2f bd 68 bf fb bd 6c 26 6b bc
       0.009800613 -0.042937946 -0.12292367 -0.014352422
0000d0 da 5f 8c 3d 6d db e1 bd 0a ff 06 bd 86 05 7b bd
       0.0685422 -0.1102818 -0.032958068 -0.061284564
0000e0 2a d2 31 bd ac de 59 3d 84 c2 2c 3d cc 9b b7 3d
       -0.04341332 0.053190872 0.042177692 0.08965263
0000f0 24 1f 24 3d 6a aa 73 bd 9f 40 77 3c 3f 9a 3b 3d
       0.04006876 -0.05948869 0.01509109 0.045801397
000100 ef 9a d4 bc c6 08 b7 3d 03 d0 b2 bc a6 6e f4 3d
       -0.025952784 0.0893722 -0.021827703 0.11935167
000110 01 04 67 bd c4 2e f3 bd b9 77 e3 3d c9 68 85 bd
       -0.056400303 -0.11874154 0.1110682 -0.06514127
000120 90 24 d4 3d 1a 6a c1 3d 94 15 fc 3d 32 be 8e bd
       0.10358536 0.094440654 0.12308803 -0.069698706
000130 ab ac 3a bd 30 ea 2d 3d 94 f5 d4 bd 00 dc e2 3c
       -0.045574825 0.042459667 -0.10398403 0.027692795
000140 f0 44 5a 3c 80 62 9e bb a0 17 e8 3b e9 68 8f 3d
       0.0133221 -0.0048335195 0.0070828944 0.07002432
000150 5a 38 d6 bd 01 2c ed bd 60 c5 aa bc 9a 6e 96 3d
       -0.10459967 -0.11580659 -0.020846069 0.07345314
000160 6b ad 84 bb 0d c8 60 bd a2 41 d6 3d 8c 5b 88 bd
       -0.0040489933 -0.054878283 0.10461737 -0.06658086
000170 ab b0 84 bd ff 8b dd 3d dc a1 6e bd 8b bc 97 3b
       -0.06479009 0.10817718 -0.05825983 0.0046306304
000180 b2 ce 12 bc 18 17 8d bd 00 bb af ba 22 21 55 3d
       -0.008960413 -0.068891704 -0.0013407171 0.05203355
000190 01 c6 e9 bd b6 72 ef bd dd 31 8e 3c 4b 73 42 bd
       -0.114147194 -0.11691801 0.017357761 -0.047473233
0001a0 3b 00 d2 3d d0 f8 f8 bd aa 14 80 3d 4a 3a db 3d
       0.1025395 -0.12156832 0.06253941 0.10704477
0001b0 20 5a 80 3d d7 8e 2c 3d 02 f8 d7 3d 9a fb 86 bd
       0.0626719 0.04212841 0.105453506 -0.06590958
0001c0 e6 a2 df bd 53 36 d4 3d ab 38 e2 3d d4 e2 e7 3c
       -0.10919742 0.10361924 0.11045965 0.028306402
0001d0 b2 27 b2 bd 92 d7 09 bc 8d 8a 31 bd 54 bd 95 3d
       -0.086989775 -0.008413212 -0.043345023 0.07311502
0001e0 ed 36 94 bd 44 65 75 3d 66 90 2d 3d 86 a1 d5 bd
       -0.07237039 0.059911028 0.042374037 -0.10431199
0001f0 20 27 dc 3c 94 90 15 bd 1a 45 94 3d 89 3c 01 be
       0.026874125 -0.036514834 0.072397426 -0.12620749
000200 9c dd a8 3d 2f 2f cf bd e0 97 fe 3d 89 25 da 3d
       0.08245394 -0.101164214 0.124313116 0.106516905
000210 00 49 00 bd 00 40 4e 37 d6 61 f6 bd bd 22 0b 3b
       -0.03131962 1.2293458e-05 -0.120303795 0.0021230422
000220 5a 37 92 3d 36 c6 f3 bd 08 28 c8 3c d8 eb 0e 3d
       0.07139464 -0.1190304 0.02443315 0.034892887
000230 74 39 87 bd 1c 1f c0 bd 68 9a b2 bd 78 34 83 3d
       -0.06602755 -0.09380934 -0.08720857 0.06406492
000240 f4 7e 0e bd d4 b6 1f 3d f8 f8 67 bd c2 3a be 3c
       -0.03478904 0.038992718 -0.05663392 0.023221377
000250 92 09 9d bc f6 c8 ac 3c f0 60 9b 3c 46 2c f6 bd
       -0.019169603 0.02109192 0.018967122 -0.12020163
000260 25 44 00 bd 63 d1 04 bd a3 39 da 3d d7 b5 ec bc
       -0.031314988 -0.03242625 0.106555246 -0.028895302
000270 fa bf 9a 3d 13 07 fd bd 44 4c 9f 3d eb 75 c1 bd
       0.07556148 -0.12354865 0.077782184 -0.09446319
000280 a5 e0 70 3d dc 0f a9 bd 70 67 b8 3c 3a 26 bd 3d
       0.058807988 -0.08254978 0.02251026 0.09235807
000290 da 0c 73 bd 76 2f ee bd 38 d2 3e bd 41 8d 9b 3d
       -0.059338428 -0.11630146 -0.0465872 0.075953014
0002a0 34 2d eb 3c a4 ec 91 3d e8 03 31 bd 48 24 fd bc
       0.028708078 0.07125214 -0.043216616 -0.03090109
0002b0 07 c7 85 bc ae 7a ed 3d b8 cd 6d 3d 53 d7 c2 bd
       -0.016330255 0.11595665 0.058057517 -0.09513726
0002c0 14 e4 c2 bd c3 86 87 bd 88 3f 47 3c a6 fc a3 3d
       -0.09516159 -0.06617501 0.012161143 0.08007173
0002d0 c2 73 e7 bd c5 0c e0 3d a0 8d 2e 3d c7 64 82 bd
       -0.11301376 0.109399356 0.042615533 -0.06366878
0002e0 88 b6 e4 bc 30 1e 56 3d 65 12 c3 3d a9 36 b8 ba
       -0.027919069 0.052274883 0.09524993 -0.0014054376
0002f0 50 22 4f bd d9 43 f5 bd 86 5e 87 3b 5c 19 0b bd
       -0.050569832 -0.119758315 0.004131141 -0.03395973
000300 0d f8 c8 3d 2c ae c1 bd c4 5f ad 3c 26 68 5c 3d
       0.09812937 -0.09457049 0.021163829 0.05381026
000310 bc e5 b3 bc 00 e8 1f 39 69 57 9b bc d3 49 c9 3d
       -0.021960132 0.00015249848 -0.018962579 0.09828534
000320 f4 e4 8e bd f7 a2 a7 bd e0 c8 8a bc 58 a2 99 3d
       -0.06977263 -0.0818538 -0.016941488 0.07501668
000330 ee 85 a2 3d 26 d5 9e bb 46 d9 df bd 9c 1f 0a bd
       0.07935701 -0.0048471866 -0.109301135 -0.03372155
000340 80 d5 b0 3d 70 6e bc bc 5a 87 ca 3d c3 39 a0 3b
       0.08634472 -0.02300188 0.098890975 0.0048896982
000350 9a ed db bd 44 57 a2 bd a8 f1 05 3d f0 f4 12 3c
       -0.10738678 -0.07926801 0.032701164 0.00896953
000360 35 58 c4 bc 90 76 dd bd 4b 22 eb bd 5c 87 e8 3d
       -0.023967842 -0.108136296 -0.1148115 0.11353943
000370 74 21 56 3c a6 94 a2 bd 74 23 b9 bd c6 bb bf 3d
       0.013069499 -0.07938509 -0.09039965 0.09361987
000380 5f 4d f4 ba 6c 65 5f bd 08 20 d0 3d 5b 65 ab bd
       -0.0018638781 -0.054540083 0.101623595 -0.083689414
000390 f4 69 2a bd 73 f7 8b bc 01 bb 2e 3d d0 d9 0c 3d
       -0.04160495 -0.017085766 0.04265881 0.03438741
0003a0 a0 95 b2 bd 8f b7 a1 3d 38 78 d8 bd 7c d6 33 bd
       -0.08719945 0.07896339 -0.10569805 -0.04390572
0003b0 38 1b 42 3d 0f 1f 89 bc f9 4c 93 bd 5c 12 c3 3d
       0.04738924 -0.016738443 -0.07192416 0.09524986
0003c0 40 aa f4 3d 67 cb 61 3d da 2f 49 3c dc 08 cb bd
       0.11946535 0.05512562 0.012279475 -0.09913799
0003d0 f4 bc 13 3d 9b ad ba bd d6 a1 08 3d 79 9b b6 3d
       0.03606887 -0.09115144 0.033357464 0.08916373
0003e0 ec 0c 14 bd 28 f8 27 bd dc 3f ac bd 82 c9 e0 bd
       -0.036145136 -0.041008145 -0.08410618 -0.109759346
0003f0 e0 fe ba 3c b7 b2 4f bc 39 68 ba 3d 11 5e 4f bc
       0.022826612 -0.012676886 0.0910191 -0.0126567045

actor.2.bias f4 [4]
000000 ea 1a 02 3c 7f fe 42 bc 83 16 ae bc d1 93 57 bd
       0.007940987 -0.011901497 -0.021250969 -0.052631203

critic.0.weight f4 [64, 64]
000000 d0 03 a5 3c 34 ab 7b 3d de 17 d5 bd a4 aa 67 bd
       0.02014342 0.06144257 -0.10404943 -0.05655922
000010 8b f7 87 bd 1c 2b 62 bd 1d 7e 95 bd 26 dd f6 3d
       -0.06639012 -0.055216894 -0.07299445 0.120538995
000020 22 02 8d 3c 50 d3 8b 3d af c3 c7 3a 3a 1c 92 bd
       0.017212931 0.06827414 0.0015240813 -0.0713429
000030 cb f1 ff bb 2c 0d 1c bc 58 71 02 3d 58 6a b4 bc
       -0.0078108064 -0.009524625 0.031846374 -0.022023365
000040 e1 7f bc bd bf 4b 50 3d 32 60 ce 3d ee 43 d5 3d
       -0.092040785 0.050853487 0.100769415 0.10413347
000050 62 fd 89 bd 1b 7a c1 3c 8d 24 98 3b bc 37 d3 bd
       -0.06737782 0.023617795 0.004643029 -0.10313365
000060 d7 4a 8b 3d ca b6 d3 3b c3 b7 f0 3d 1b 6d 93 bd
       0.06801384 0.006460999 0.117538 -0.071985446
000070 84 11 92 bc db 1d e9 3c 73 d2 26 bd 12 c7 98 bd
       -0.017830618 0.028456619 -0.040728044 -0.07459845
000080 46 75 fb 3d 3c cc b0 3d dd 95 04 3c 3c 92 81 3d
       0.122782275 0.086327046 0.008092371 0.0632672
000090 07 b2 e3 3d e4 0c 17 3d 00 53 04 bb cd 33 c9 3b
       0.111179404 0.036877528 -0.0020191073 0.0061402083
0000a0 a0 9f bc bd 12 7e 0b bc 7c f4 dd bd 53 22 44 3d
       -0.092101336 -0.008513944 -0.10837647 0.047884297
0000b0 1c 87 1a bd 35 2b ee 3d ae 63 81 bd bb bf 72 bc
       -0.037726507 0.11629335 -0.063178405 -0.01481622
0000c0 be ca cb bc 06 71 bc bd 19 a4 2c bc ba 64 b0 bd
       -0.024876948 -0.09201245 -0.010537171 -0.08612962
0000d0 09 fe ec bd 50 b4 5d bc 30 04 01 3d 4a 9a c9 3d
       -0.11571891 -0.013531759 0.031498134 0.098438814
0000e0 09 b4 9b bd 86 94 b7 bd e6 f9 b0 3d a0 81 7e bc
       -0.07602698 -0.089638755 0.08641414 -0.015533835
0000f0 56 05 f6 bd 19 28 f3 3b 50 59 a0 bd eb bc da 3d
       -0.120127365 0.0074205515 -0.07829535 0.106805645
000100 dc f8 b6 bd b2 d2 d4 bd 96 7e 5d 3c 57 ca c2 3c
       -0.08934185 -0.103917494 0.01351895 0.023778124
000110 ff fb 13 bd 2b 37 91 3d f2 ff d8 bc 32 3e e7 bd
       -0.036128994 0.070906006 -0.026489232 -0.1129116
000120 a3 d4 e2 bd 59 6f 67 3b c6 e7 42 3c 85 71 c5 3c
       -0.110757135 0.003531417 0.011896079 0.024101982
000130 24 dc 27 bd e6 98 80 bd 56 27 dc bd b2 ac 93 3d
       -0.040981427 -0.06279163 -0.1074969 0.072106734
000140 3f ce 53 bc df 35 09 3d ac b2 c9 3d cc a0 07 bd
       -0.012927591 0.03349864 0.09848532 -0.033112332
000150 32 1c ad 3d 2c 14 b8 bc 76 31 77 3d d7 c8 ea 3c
       0.084526435 -0.022470556 0.060349904 0.028660221
000160 31 2f 02 be 15 43 d7 bb b0 29 84 bb 3f d3 f3 3d
       -0.12713315 -0.006569276 -0.00403329 0.11905526
000170 3b 7d 5c 3d b9 50 90 3c 31 3d a6 bd 04 10 34 bd
       0.053830367 0.017616617 -0.0811714 -0.043960586
000180 f8 6f ee bd 63 03 20 bd fb a8 cd bd 1f 5d fc 3d
       -0.1164245 -0.03906573 -0.10041996 0.12322449
000190 2e 95 3e 3d 84 6f 3c bd 60 e3 ab 3d 35 38 ac 3b
       0.046528988 -0.046004787 0.08392978 0.005255724
0001a0 c4 1e 94 bd e3 17 ee 3c 55 bb e0 3d ae 9d 85 bd
       -0.072324306 0.029064124 0.10973231 -0.06524216
0001b0 00 79 31 3c ea be f8 3d 94 18 0c 3d 8a a8 45 3d
       0.010832071 0.12145789 0.034203127 0.048256435
0001c0 64 9d 6f 3d 47 57 82 3d 4b d5 82 bc 52 b3 8a 3d
       0.05849971 0.06364303 -0.015970847 0.06772484
0001d0 d7 4f 22 3d 98 29 9f 3d 4b d2 b5 bd 14 7e 35 bd
       0.039626922 0.07771605 -0.08878001 -0.04430969
0001e0 f3 28 e2 3d b2 af 40 bd 3f 5f 64 3b e0 9e 90 bc
       0.11042967 -0.047042556 0.003484681 -0.017653883
0001f0 95 ee c3 3d fd 3d c0 3d 7a 2d f7 3d 3e e3 e9 3d
       0.0956699 0.09386823 0.12069221 0.11420296
000200 00 18 31 3c 40 7a ba 3b 08 a1 a1 bc 86 20 ae bd
       0.010808945 0.005690843 -0.019730106 -0.08502297
000210 06 ed 95 bd 78 d3 8c 3c b8 8b d6 3d de c3 83 bd
       -0.07320599 0.01719068 0.10475868 -0.06433843
000220 00 fd bb bd dc f2 98 bd 40 1c 84 bd d2 55 da bd
       -0.09179115 -0.07468197 -0.06450701 -0.106609
000230 9c c6 4d 3d b0 8a 19 3d 80 09 df 3c a8 58 9d 3d
       0.050238237 0.03748578 0.02722621 0.076829255
000240 50 43 45 3d 80 7b 24 3d 84 e1 8b 3d c0 df 7d 3d
       0.048159897 0.04015684 0.06830123 0.061980963
000250 b0 95 99 3c 9a d9 80 bd c6 5d 94 bd ae 50 92 bd
       0.018748134 -0.06291504 -0.07244448 -0.07144295
000260 da 31 8f bd 24 1a 44 3d 28 82 4a 3d d0 79 bc 3c
       -0.0699193 0.047876492 0.049440533 0.023007303
000270 3c 9b 96 bd f0 89 fd bc 92 8b ab bd d0 f0 a1 3d
       -0.07353827 -0.030949563 -0.0837623 0.079072595
000280 0e b6 8f 3d 18 60 d4 bd 70 47 99 3c b8 63 8b bc
       0.07017146 -0.10369891 0.018710822 -0.017015323
000290 58 76 7f 3d 5a 5a ae bd e8 b6 8b bc 78 df e4 bd
       0.06236872 -0.08513327 -0.01705499 -0.11175436
0002a0 c0 05 90 3c 00 e0 66 38 98 16 aa bd c0 a1 a3 3c
       0.017580867 5.504489e-05 -0.08305091 0.01997459
0002b0 94 1f ba bd 40 ce b8 3d a8 df 85 3c 9e c1 fa bd
       -0.09088054 0.09023714 0.016342 -0.12243961
0002c0 e0 0b f4 bd 78 ab b3 bc 40 47 77 bb 34 88 95 3d
       -0.119163275 -0.021932349 -0.0037731677 0.07301369
0002d0 c4 9d 5c bd 70 d1 53 bd 28 d3 94 bc d2 d5 f0 bd
       -0.053861395 -0.051713407 -0.018167093 -0.11759533
0002e0 d0 0a 10 bc a8 bd 6e bd 84 c8 2a 3d 3c 4a 04 3d
       -0.00879164 -0.05828634 0.041695133 0.032297358
0002f0 58 f4 d6 bc 72 1a f3 3d b0 8a 5e 3d d8 15 00 bd
       -0.026239559 0.118702784 0.05433148 -0.03127083
000300 ea a2 f1 bd b0 40 ba 3c a2 4e a8 bd 81 66 cd 3d
       -0.117986515 0.022735924 -0.08218123 0.10029317
000310 f1 bb e8 3d 85 85 43 3d 2b c8 19 3c c9 ac ba 3b
       0.11363972 0.047734756 0.009386103 0.005696867
000320 22 b6 cf 3c ab e5 c8 3d 9e 0a ac 3d ed 41 b3 3c
       0.025355402 0.09809431 0.084004626 0.021882022
000330 f0 1a a3 bc d0 65 4a 3d 08 92 0b 3d d2 d4 db 3d
       -0.019910306 0.049413502 0.034074813 0.10733952
000340 44 60 13 3d 7e bb d1 3c f6 e5 c8 3d 50 29 ef 3c
       0.035980478 0.025602099 0.098094866 0.029194504
000350 ac 5d 87 bd 5a f5 8c 3d 3d 02 0c 3b db 8e fb 3b
       -0.06609663 0.068827346 0.0021363639 0.007676942
000360 26 9a 9b bd 48 b1 1d 3d 6f 00 e9 3d e7 ba cc bc
       -0.07597761 0.038499147 0.11377036 -0.024991466
000370 b6 c4 1d bd e8 58 f5 3d 9c 62 63 bc fa bc ea 3d
       -0.038517676 0.11979848 -0.013878491 0.11461826
000380 4c 3a 00 3d 59 48 ec bd a8 6d d0 bd fd cd e4 bd
       0.031305596 -0.11537237 -0.10177165 -0.11172102
000390 68 ef bc 3d 2a e6 98 3d 44 04 f5 3d 27 28 d2 bc
       0.092253506 0.07465775 0.11963704 -0.025653912
0003a0 3c 0f b7 3d 38 d4 ef bd 8d 8b a9 3d 99 fe a7 bd
       0.089384526 -0.117103994 0.0827857 -0.082028575
0003b0 50 ca 29 bd 1c e7 b1 3d c8 fd ac bc e7 66 98 bd
       -0.041452706 0.08686659 -0.021117106 -0.07441502
0003c0 45 88 65 bd 09 03 f5 3c 3e 00 a2 3d dc b2 7e bd
       -0.05603816 0.029908674 0.079102024 -0.062182292
0003d0 45 9a a9 3c 04 8f 09 bd a1 be a8 3d 63 d1 da 3b
       0.020703444 -0.033583656 0.082394846 0.006677793
0003e0 a7 89 e3 3d d6 00 10 3d 3e da e8 3b 44 03 69 3d
       0.111102395 0.035157047 0.0071060946 0.05688788
0003f0 14 28 03 be 41 31 ad bd c6 29 8b 3d 42 94 61 3d
       -0.12808257 -0.0845666 0.06795077 0.05507303

critic.0.bias f4 [64]
000000 22 9a e3 3c d1 df e3 3d e0 42 74 bd b9 36 85 3d
       0.027783457 0.11126674 -0.05963409 0.06504578
000010 92 04 e7 3d 90 d4 c2 3d 32 5a a5 3c ba de b9 3d
       0.112801686 0.09513199 0.02018461 0.09075685
000020 5f bb a2 3d 9f 82 ce 3d e5 01 9b 3c e0 f3 f3 bd
       0.079458944 0.10083508 0.018921802 -0.1191175
000030 fe d0 bc 3c 8c aa 6b bd e9 48 80 bd 56 1c a3 3c
       0.023048874 -0.057535693 -0.062639065 0.019910973
000040 6f 16 9f 3d ce 82 85 3d a0 d1 f0 3d ee a0 f7 bd
       0.07767951 0.0651909 0.11758733 -0.12091242
000050 9e bd c9 bd 98 59 9a 3d 82 b3 f2 bd 96 92 42 bd
       -0.0985062 0.0753662 -0.11850645 -0.047503076
000060 a8 c1 21 bc ce 18 b8 bd 5f 64 56 bd 90 b1 d6 3d
       -0.009872831 -0.08989106 -0.052341815 0.10483086
000070 41 92 4d 3d a3 6a 26 bd c4 d9 52 bd 10 3b ba 3d
       0.050188307 -0.04062904 -0.05147721 0.090932965
000080 40 c7 57 bd 4e 20 89 bd 38 80 92 3d a9 06 35 3d
       -0.052680254 -0.06695615 0.07153362 0.044195805
000090 a0 f5 c6 3b ff 98 76 3d 64 38 bf 3d b8 f2 bf bc
       0.0060717613 0.060204502 0.093369275 -0.023431167
0000a0 f0 6d b2 3d 50 a8 fe bd 40 cb 9c 3d 15 82 dc 3b
       0.08712375 -0.12434447 0.07655954 0.006729374
0000b0 87 ca 87 3d d0 3b d0 bc f1 9e c8 bd 41 ac 96 3c
       0.06630426 -0.025419146 -0.09795941 0.018392684
0000c0 27 f3 76 3d 12 d2 de 3d f0 0f ce 3d de f3 de 3d
       0.060290482 0.108799115 0.100616336 0.10886358
0000d0 1e 6c d2 3d 6b 50 ae bd 54 c6 15 bd d2 80 65 3d
       0.10274528 -0.08511432 -0.036566094 0.056031056
0000e0 62 f7 6b 3d 90 35 21 3d 3f 5d 9e bc 0e 95 c4 3d
       0.05760897 0.03935772 -0.019331573 0.095987424
0000f0 20 ca 07 bc d9 90 d0 3d fb ce fc bc 21 7e dc 3d
       -0.008287936 0.101838775 -0.030860415 0.10766245

critic.2.weight f4 [1, 64]
000000 21 92 91 bb 8b 07 e0 3d 54 e7 6b 3d d5 d2 25 3d
       -0.0044424688 0.10938939 0.05759366 0.04048427
000010 3f 25 40 3d 4c aa 90 3d 51 9f e8 3d 04 ca fc bd
       0.04691052 0.070637316 0.11358512 -0.12343219
000020 c6 9d fe bd 82 88 a1 bd bf 27 86 bb f7 2c 5b bd
       -0.12432437 -0.07887365 -0.0040940936 -0.05350968
000030 4b 88 fb bc b0 cd a4 3d c3 c8 da 3d 45 87 d7 3d
       -0.030704638 0.08047044 0.106828235 0.105238475
000040 14 84 22 bd 38 4c d7 3d 6c 9c be 3d 62 78 e5 3d
       -0.03967674 0.105125844 0.09307179 0.11204602
000050 85 7b 65 bd b0 25 fe bc 10 cd d3 3d 2c 14 b3 3d
       -0.056026 -0.03102383 0.10341847 0.08744082
000060 65 c2 ea bd c3 c6 23 bd 82 5f f9 3d d6 5c cd 3d
       -0.11462859 -0.039984476 0.1217642 0.10027473
000070 27 ef 21 bd 9c e8 83 3d 40 64 03 bb f4 25 f9 3d
       -0.039534714 0.06440851 -0.0020048767 0.12165442
000080 88 0e 7c bd 3d 93 c1 bd 4b d7 11 bc ba f3 55 3d
       -0.061537296 -0.094519116 -0.0089014275 0.05223439
000090 e2 5b ba bd 9f 74 24 bd b0 ce b2 bd 66 07 85 bd
       -0.090995565 -0.04015028 -0.08730829 -0.06495552
0000a0 09 97 18 3c 8a e0 9e 3d c2 1e a7 bd da 46 a1 bd
       0.009313353 0.07757671 -0.081601635 -0.07874842
0000b0 de 1d 85 bd f8 0a dc 3d 9b 87 ac bc 4d af 5d bd
       -0.06499837 0.107442796 -0.021060755 -0.054122258
0000c0 4d 3f dc 3d 0f b4 35 bd a3 a3 b2 3d 05 48 c3 bd
       0.10754261 -0.04436117 0.087226175 -0.09535221
0000d0 e4 5d 57 bd 06 75 a4 3d 1e b0 dd bd 98 8b 8d bc
       -0.052579775 0.08030133 -0.10824607 -0.017278478
0000e0 e7 a8 6a 3d 42 a3 9f 3c dd 23 ba bd b6 0c f1 bd
       0.057289984 0.019487027 -0.09088872 -0.117700025
0000f0 7b 37 cf 3c 6e a7 ee bd 34 7f bb 3d 16 85 cc 3c
       0.02529501 -0.116530284 0.091551214 0.024965804

exp_avg f4 [64, 2]
000000 fb 69 39 b9 20 79 35 b8 1e 17 2e bb 5d 9d ca b9
       -0.00017682456 -4.326657e-05 -0.0026564072 -0.00038645687
000010 73 9e 62 ba 9b 13 f6 b9 f8 3c 73 ba f2 50 91 38
       -0.00086448266 -0.00046935384 -0.00092787994 6.929216e-05
000020 ba 5d 90 3b ca 69 6b 39 00 00 00 00 00 00 00 00
       0.0044057043 0.00022450756 0.0 0.0
000030 78 47 a0 3b 71 37 43 ba b7 95 b4 3a 6b ff b2 39
       0.0048913322 -0.0007446921 0.0013777529 0.00034141107
000040 57 6e 0c 39 fa f7 9b 39 00 00 00 00 00 00 00 00
       0.00013392545 0.0002974866 0.0 0.0
000050 f1 79 f7 b9 fe 4e a1 38 6e bb 41 ba 4d 9e e8 39
       -0.00047202365 7.691792e-05 -0.0007390295 0.00044368432
000060 00 00 00 00 00 00 00 00 3e 24 63 bb 2c 0f 8d b9
       0.0 0.0 -0.0034659053 -0.0002690492
000070 97 e2 0f 36 bf b6 3d 37 18 21 2f 3b 6b c0 0c 3a
       2.1440553e-06 1.1307827e-05 0.0026722606 0.00053692487
000080 00 00 00 00 00 00 00 00 32 75 ec 37 82 5a d3 b9
       0.0 0.0 2.8187966e-05 -0.0004031249
000090 bb 9d cf 37 8c 98 11 39 4a 39 93 b9 20 45 a1 b8
       2.4749772e-05 0.00013885106 -0.0002808071 -7.689954e-05
0000a0 15 f0 23 39 a9 24 b7 b7 fa 2e 75 3b 44 25 de 38
       0.00015634329 -2.1832371e-05 0.0037412033 0.00010592726
0000b0 00 00 00 00 00 00 00 00 3a 8b 83 3a 56 a4 33 3a
       0.0 0.0 0.0010036 0.0006852796
0000c0 7f 20 12 3c c3 52 29 3a c8 8a 49 bb f6 56 ea 39
       0.0089188805 0.0006459171 -0.0030752886 0.0004469675
0000d0 00 00 00 00 00 00 00 00 00 00 00 00 00 00 00 00
       0.0 0.0 0.0 0.0
0000e0 d4 a0 24 3c 41 48 a0 36 45 d3 89 3b db 85 5a 39
       0.01004811 4.776783e-06 0.0042060935 0.00020839965
0000f0 93 ca 0f b8 c4 27 c0 b9 00 00 00 00 00 00 00 00
       -3.428252e-05 -0.0003665072 0.0 0.0
000100 00 00 00 00 00 00 00 00 c8 a6 04 3a f5 ed a3 39
       0.0 0.0 0.0005060253 0.00031267075
000110 30 f8 a4 bb 28 af e5 b9 35 6e 3e bb 68 32 a2 b8
       -0.005034469 -0.00043808785 -0.0029057388 -7.734151e-05
000120 48 57 65 ba e8 79 69 39 a9 d9 40 3a 45 ae 78 39
       -0.00087486627 0.00022266025 0.00073566526 0.00023716044
000130 f0 7e 87 3b d0 d1 5e 39 6b 8b ec bb ac 40 0e ba
       0.004135005 0.00021249731 -0.0072187684 -0.0005426507
000140 86 4c a0 b9 83 5c f4 b9 64 42 4e bb 94 ac 1d ba
       -0.00030574593 -0.00046608233 -0.0031472677 -0.0006014791
000150 94 43 a0 36 70 a1 4b b8 6d a4 7f 37 16 83 c1 39
       4.7762387e-06 -4.8549322e-05 1.5237468e-05 0.00036909495
000160 e1 2e dc ba 53 79 16 b9 25 db db b9 e9 75 12 ba
       -0.0016798639 -0.00014350312 -0.0004193421 -0.0005587028
000170 07 ab 92 b8 29 1a f1 b8 00 00 00 00 71 c0 9b 39
       -6.993679e-05 -0.00011496648 0.0 0.00029707284
000180 00 00 00 00 00 00 00 00 e0 22 9f bb 05 6f be b9
       0.0 0.0 -0.0048564523 -0.0003632234
000190 f4 dd d6 3b 28 d2 85 3a 00 00 00 00 00 00 00 00
       0.0065572206 0.0010209726 0.0 0.0
0001a0 00 00 00 00 00 00 00 00 95 6c a2 3b 5e 02 89 3a
       0.0 0.0 0.0049567916 0.0010452976
0001b0 45 8a 15 b9 54 16 10 b9 5f 32 59 3a 2a 8e 86 b8
       -0.00014261257 -0.00013741228 0.0008285399 -6.416098e-05
0001c0 6d 4c b2 3a 14 b1 a7 b8 00 00 00 00 00 00 00 00
       0.0013603099 -7.996164e-05 0.0 0.0
0001d0 00 00 00 00 0d b8 f0 39 a3 05 cc 38 bc 64 28 3a
       0.0 0.00045913496 9.728528e-05 0.0006423702
0001e0 20 18 62 bb a5 1e 89 b9 03 3e c1 ba 8b b4 21 ba
       -0.0034499243 -0.00026153508 -0.0014743212 -0.00061685656
0001f0 e9 13 b5 ba f5 f0 18 ba 17 2a 8f 3b 61 80 66 3a
       -0.0013815138 -0.0005834245 0.004369031 0.00087929337

exp_avg_sq f4 [64, 2]
000000 49 22 70 32 1c 64 04 34 44 a6 55 35 61 11 9e 34
       1.3977634e-08 1.2329878e-07 7.959063e-07 2.9442438e-07
000010 15 bd 07 33 7d e8 25 34 dd 87 70 34 f6 20 ed 33
       3.1604106e-08 1.5451401e-07 2.2401169e-07 1.1042168e-07
000020 d0 fd 35 35 18 84 0c 31 00 00 00 00 00 00 00 00
       6.77971e-07 2.0447768e-09 0.0 0.0
000030 6e fa f8 35 3f 8e 1a 35 29 c2 13 34 86 a6 a1 33
       1.8550325e-06 5.7576466e-07 1.3761077e-07 7.527437e-08
000040 c3 2b 04 32 41 12 22 34 00 00 00 00 00 00 00 00
       7.6933615e-09 1.5094066e-07 0.0 0.0
000050 06 69 5e 32 dd bb e7 33 a9 ce fc 32 ee c6 ce 34
       1.294598e-08 1.0790948e-07 2.943064e-08 3.851523e-07
000060 00 00 00 00 00 00 00 00 4a c2 d6 34 82 02 9e 32
       0.0 0.0 4.000197e-07 1.8394761e-08
000070 04 0d b7 30 17 48 dc 32 5d 44 65 34 74 de cc 33
       1.3318702e-09 2.5644153e-08 2.1352157e-07 9.539954e-08
000080 00 00 00 00 00 00 00 00 df 52 17 30 94 45 65 34
       0.0 0.0 5.5051247e-10 2.13526e-07
000090 75 13 76 32 8d 59 72 34 38 c5 64 33 a4 d7 4b 34
       1.4323509e-08 2.2570585e-07 5.3264756e-08 1.8984298e-07
0000a0 80 f8 9d 30 f8 4b bb 32 86 96 f9 34 1b 89 75 34
       1.1493881e-09 2.1804212e-08 4.6489384e-07 2.2867282e-07
0000b0 00 00 00 00 00 00 00 00 35 21 91 34 86 98 fa 33
       0.0 0.0 2.7032516e-07 1.1669276e-07
0000c0 26 e5 85 36 22 32 32 35 66 df c6 35 9f d3 21 35
       3.9903853e-06 6.638312e-07 1.4817167e-06 6.0285123e-07
0000d0 00 00 00 00 00 00 00 00 00 00 00 00 00 00 00 00
       0.0 0.0 0.0 0.0
0000e0 0d 89 a1 36 0f 0b 4c 35 ae 94 c8 35 3d af 89 34
       4.8141287e-06 7.6012014e-07 1.4944433e-06 2.564574e-07
0000f0 8b b7 b4 30 8d 90 3c 33 00 00 00 00 00 00 00 00
       1.314889e-09 4.390363e-08 0.0 0.0
000100 00 00 00 00 00 00 00 00 94 ee a3 32 15 c0 31 34
       0.0 0.0 1.908419e-08 1.6554289e-07
000110 9d d2 a4 35 21 bd 05 35 2a fc 6d 34 4d 04 86 32
       1.2280249e-06 4.982158e-07 2.2164082e-07 1.5601609e-08
000120 e0 16 d3 32 48 d5 80 32 04 92 28 34 28 c1 71 34
       2.4574035e-08 1.499815e-08 1.569934e-07 2.2515144e-07
000130 9a 4e 9f 35 ef c2 3c 35 e2 2c 0c 36 4b 3b 15 34
       1.1869299e-06 7.0319123e-07 2.088775e-06 1.3898277e-07
000140 c7 b9 ca 33 40 73 0f 34 5c 89 2f 35 a0 ce 36 34
       9.440151e-08 1.335984e-07 6.5392464e-07 1.702524e-07
000150 4a 8e 11 2d 56 96 8c 31 31 6e 89 30 e7 af 26 33
       8.27389e-12 4.0916275e-09 9.99938e-10 3.880987e-08
000160 04 d4 a6 33 31 83 f9 31 ac c5 08 32 fc f9 f3 33
       7.768543e-08 7.2617685e-09 7.961187e-09 1.1361041e-07
000170 96 d3 1c 34 62 ca 72 34 00 00 00 00 dd 92 bf 31
       1.4605607e-07 2.2611633e-07 0.0 5.575528e-09
000180 00 00 00 00 00 00 00 00 74 8d 20 35 4f aa 10 32
       0.0 0.0 5.9810486e-07 8.420627e-09
000190 60 70 bc 35 17 33 54 34 00 00 00 00 00 00 00 00
       1.4039797e-06 1.9762625e-07 0.0 0.0
0001a0 00 00 00 00 00 00 00 00 cc 49 9f 35 18 4f 19 35
       0.0 0.0 1.1867901e-06 5.711204e-07
0001b0 3f 76 81 33 31 75 b1 33 90 cc b2 34 b7 3c 6b 34
       6.0285394e-08 8.263522e-08 3.3303922e-07 2.1908168e-07
0001c0 6c d1 92 34 fa bc 84 33 00 00 00 00 00 00 00 00
       2.7346994e-07 6.1811036e-08 0.0 0.0
0001d0 00 00 00 00 7a f5 db 33 f5 b6 fe 31 66 2d c1 34
       0.0 1.0242634e-07 7.4131727e-09 3.5982083e-07
0001e0 f7 8d d5 34 ff 0f 57 33 19 0d 14 34 7f e7 1d 34
       3.9777635e-07 5.0073137e-08 1.3788339e-07 1.4705982e-07
0001f0 87 f6 97 33 57 b5 4c 33 16 31 2b 35 9b 12 3c 34
       7.0763285e-08 4.766238e-08 6.3773894e-07 1.7515633e-07

exp_avg f4 [64]
000000 e8 f4 e3 b8 03 e8 f3 ba 47 43 36 ba 8d 4d c5 b9
       -0.00010869821 -0.0018608574 -0.0006952774 -0.00037632548
000010 5d 21 5d 3a 00 00 00 00 24 7e 93 3a a5 ab ae 39
       0.00084354525 0.0 0.0011252803 0.0003331575
000020 a6 b6 c3 b8 00 00 00 00 71 71 a9 b9 1f 16 bf b9
       -9.3323455e-05 0.0 -0.00032318712 -0.0003644684
000030 00 00 00 00 8a 55 64 ba 92 80 5d 38 5e 90 bb 3a
       0.0 -0.0008710256 5.2810246e-05 0.0014309993
000040 00 00 00 00 5b 4d 1a ba 6c 69 82 39 fa c3 2a ba
       0.0 -0.00058861607 0.00024874078 -0.0006514188
000050 80 0b 0d 39 6e a5 b1 3a 00 00 00 00 0d 8f 9c 3a
       0.00013451092 0.001355333 0.0 0.0011944488
000060 ec af 78 3b 05 54 8e ba 00 00 00 00 00 00 00 00
       0.0037946654 -0.001085878 0.0 0.0
000070 5f 57 66 3b f1 9f b6 3a 16 21 d2 b9 00 00 00 00
       0.0035147292 0.0013933164 -0.00040078972 0.0
000080 00 00 00 00 e3 45 8c 39 a0 16 21 bb 8a 95 57 ba
       0.0 0.0002675495 -0.0024580136 -0.0008223882
000090 7f 51 4d b8 00 e1 33 b8 78 63 e5 3a ec 40 01 bb
       -4.8951708e-05 -4.2886473e-05 0.0017500957 -0.0019722534
0000a0 5f ea 8c 39 e7 33 e5 ba fb f0 1f b7 f1 3d 8a 38
       0.000268775 -0.0017486782 -9.533246e-06 6.59189e-05
0000b0 35 b1 60 ba 85 80 32 ba 9d 43 80 b8 a0 6b 72 38
       -0.0008571328 -0.0006809312 -6.1161096e-05 5.779753e-05
0000c0 00 00 00 00 99 a3 d4 ba 64 7a 38 3b 00 00 00 00
       0.0 -0.0016223072 0.0028149122 0.0
0000d0 00 00 00 00 75 e7 3b 3b 9c a1 4e b9 e7 36 e8 38
       0.0 0.0028671895 -0.00019705895 0.000110728484
0000e0 a6 b7 28 3a 00 00 00 00 52 d7 b1 39 5a a0 3d 39
       0.0006436057 0.0 0.00033920497 0.0001808418
0000f0 df e2 80 ba 3c 01 b1 ba 50 96 01 ba 99 d8 04 3b
       -0.0009833238 -0.0013504396 -0.0004943358 0.0020270704
