models/starcraft/Aftershock/episodes_5000/Aftershock_line_100/PPOAgent/model.pt (torch, 173031 bytes, 33 tensors)

feature_extractor.0.weight f4 [64, 4]
0	0xbe59ddbc	-0.21275991
1	0x3df4cd18	0.11953181
2	0xbd8f41c8	-0.06994969
3	0xbe73229c	-0.23743671
4	0x3e3ea820	0.18618822
5	0x3ed572f2	0.4168926
6	0x3d02ea00	0.03196144
7	0xbe0df638	-0.13863456
8	0xbef974b3	-0.48721847
9	0xbf7a5886	-0.97791326
10	0x3e43095f	0.19046544
11	0x3e6fdc6b	0.23423927
12	0xbe509cf8	-0.20372379
13	0x3d282ad0	0.041056454
14	0x3eec075c	0.46099365
15	0x3b8d4a80	0.0043118596
16	0xbee422fe	-0.44557947
17	0xbefec23c	-0.49757564
18	0x3ed93180	0.42420578
19	0xbd99e988	-0.07515246
20	0xbed3dd20	-0.41379642
21	0x3e5a56f0	0.21322227
22	0xbee34306	-0.44387072
23	0x3bb11f00	0.005405307
24	0xbebedfa9	-0.37280014
25	0xbf59946e	-0.8499211
26	0x3ea50773	0.32232246
27	0x3ea11619	0.31462172
28	0xbe54d0b0	-0.20782733
29	0x3ec2d91e	0.38056272
30	0xbe130df4	-0.14360791
31	0x3ec0656e	0.37577385
32	0x3e6b24d8	0.22963274
33	0x3cdd49af	0.027012674
34	0xbc363265	-0.011120413
35	0xbeb2e363	-0.34939107
36	0xbf2a398c	-0.6649406
37	0x3fa0dbc1	1.2567064
38	0xbf026f83	-0.50951403
39	0xbedb5d6c	-0.42844713
40	0xbed3eed8	-0.4139316
41	0xbecee19a	-0.40406495
42	0xbea4cee4	-0.32189095
43	0xbdbd16e8	-0.09232885
44	0x3f0a375f	0.5399074
45	0x3f18cc0b	0.59686345
46	0xbe67268b	-0.22573297
47	0xbf1d2a30	-0.613925
48	0x3c865008	0.016395584
49	0xbe11f0c9	-0.14252008
50	0x3e150a03	0.145546
51	0xbf3b94f8	-0.73274183
52	0xbd82f620	-0.06394601
53	0x3ee620e8	0.4494698
54	0xbe70ca44	-0.23514658
55	0x3e9f1396	0.3106963
56	0xbbf2fb00	-0.0074151754
57	0x3ef1d93c	0.4723605
58	0x3d9abbe8	0.075553715
59	0xbd8e5180	-0.06949139
60	0xbf2bd713	-0.6712505
61	0xbef5608c	-0.47925222
62	0x3e15bfc1	0.1462393
63	0x3e4e6167	0.20154344
64	0xbea61202	-0.32435614
65	0x3e9e7cf8	0.3095472
66	0x3ef75d8e	0.48313564
67	0x3e612640	0.21987247
68	0xbe8bb360	-0.2728529
69	0xbec774b6	-0.3895623
70	0xbda20308	-0.079107344
71	0xbd582c00	-0.052776337
72	0x3d82972d	0.06376491
73	0xbe3907a9	-0.18069328
74	0xbf00cdd2	-0.50314057
75	0xbf329c33	-0.6976959
76	0xbef09637	-0.46989605
77	0xbfa084bf	-1.2540511
78	0x3e642704	0.22280508
79	0xbe722a77	-0.23649012
80	0x3f04b05b	0.518316
81	0xbea9bc64	-0.33151543
82	0xbe9b44b8	-0.30325866
83	0x3da3bcff	0.079950325
84	0x3e9fc35e	0.3120374
85	0xbf09c582	-0.53817
86	0xbe2b837c	-0.16749376
87	0xbec54106	-0.3852617
88	0xbe94263a	-0.28935415
89	0xbcedf0b4	-0.02904544
90	0xbdf81d03	-0.121149085
91	0xbf1e7fba	-0.61913645
92	0x3ef93d48	0.48679566
93	0xbed703d2	-0.41995102
94	0x3ed9a348	0.42507386
95	0xbeabf6e0	-0.33586788
96	0xbc9f8520	-0.019472659
97	0xbe57a4d0	-0.21058965
98	0xbeb8f1e6	-0.36122054
99	0x3e6e6cd4	0.23283702
100	0xbe02d4e8	-0.1277653
101	0xbf846ca9	-1.034566
102	0xbefb196a	-0.49042827
103	0xbd045557	-0.03230795
104	0xbedfd63a	-0.4371813
105	0xbea39694	-0.3195082
106	0xbcc12200	-0.023575783
107	0x3c573b80	0.0131367445
108	0x3ea91c36	0.33029336
109	0xbea44ce6	-0.3208992
110	0xbee22428	-0.4416821
111	0xbd7ff220	-0.062486768
112	0xbefb7bd5	-0.49117914
113	0xbf50e14e	-0.8159379
114	0x39bf877b	0.000365313
115	0xbd4c6659	-0.049902294
116	0x3b85a480	0.004078448
117	0xbee9f0e6	-0.45691603
118	0x3e7569ec	0.23966187
119	0xbd5e3c70	-0.054256856
120	0xbf3d1634	-0.73862004
121	0xbd9aa07e	-0.07550143
122	0x3d049cd8	0.03237614
123	0x3ef85b22	0.4850703
124	0x3ebc24d7	0.36746857
125	0x3e790495	0.24318154
126	0x3e846934	0.25861514
127	0xbe720f36	-0.23638615
128	0xbe57a81c	-0.21060222
129	0xbe345304	-0.17609793
130	0x3d3c02f0	0.04590124
131	0xbe94a2a4	-0.29030335
132	0xbe0c0708	-0.13674557
133	0xbe288b0c	-0.16459292
134	0xbe7182bc	-0.23585027
135	0x3d86b648	0.06577736
136	0xbe1f597c	-0.1556148
137	0xbe16a240	-0.14710331
138	0x3d976928	0.07393104
139	0x3de71fa8	0.11285335
140	0xbe73c734	-0.23806459
141	0x3cda5280	0.026650667
142	0x3e0ebd0c	0.13939303
143	0x3ea373e4	0.31924355
144	0xbeeac54e	-0.45853657
145	0xbea37e8f	-0.31932494
146	0xbe95953b	-0.29215416
147	0xbe44246d	-0.1915452
148	0xbeb144c8	-0.34622788
149	0x3eb8be44	0.3608266
150	0xbed5b156	-0.4173686
151	0xbd177490	-0.036976397
152	0xbe7e95e8	-0.24861872
153	0x3ec2ac24	0.38021958
154	0x3e8a7404	0.27041638
155	0xbe033e10	-0.12816644
156	0xbeea244e	-0.45730823
157	0xbed089b9	-0.40730074
158	0x3ef8ddd9	0.48606756
159	0xbeb5f723	-0.35540113
160	0xbeee693e	-0.46564668
161	0xbde42d68	-0.11141473
162	0x3e952f0e	0.29137462
163	0x3e550f20	0.20806551
164	0xbd5b8180	-0.053590298
165	0x3e537494	0.2064994
166	0x3e928f2a	0.2862485
167	0x3eae1d5a	0.34006768
168	0x3e46bae8	0.19407237
169	0x3be36280	0.0069392323
170	0xbe9c2072	-0.30493504
171	0x3ea429a2	0.32063013
172	0x3de461b8	0.11151451
173	0x3e01c700	0.12673569
174	0xbe5140c4	-0.20434862
175	0xbdf44710	-0.119276166
176	0xbe25857e	-0.16164204
177	0xbeadf577	-0.33976337
178	0x3ed7b6c0	0.42131615
179	0xbefe8f5c	-0.4971875
180	0x3ebe9a12	0.3722692
181	0x3e7bdaa8	0.2459513
182	0xbe832050	-0.2561059
183	0xbea4cc5e	-0.3218717
184	0x3f203bb6	0.6259111
185	0x3edb91ad	0.4288458
186	0x3e966efe	0.29381555
187	0xbe7bea25	-0.24601038
188	0xbee6e2c6	-0.4509489
189	0xbff34657	-1.9005841
190	0x3ef5b04d	0.4798607
191	0xbecd2c61	-0.4007292
192	0x3eb03487	0.34415075
193	0x3f1d29f2	0.6139213
194	0x3e91a0c8	0.2844298
195	0xbe214f7f	-0.15752982
196	0x3e638c48	0.22221482
197	0xbca8b840	-0.02059567
198	0x3da90070	0.082520366
199	0xbd416100	-0.047211647
200	0xbf59f079	-0.8513256
201	0xbf66d007	-0.90161175
202	0xbd2551d6	-0.040361248
203	0x3e07d79b	0.1326584
204	0xbf3c7269	-0.73612076
205	0xbf43e96e	-0.7652806
206	0x3eb2519f	0.34827897
207	0xbd7d01d8	-0.061769336
208	0x3e8d7120	0.2762537
209	0xbf1b5b45	-0.6068614
210	0xbe4aa3b8	-0.19789016
211	0x3d143f14	0.03619297
212	0xbf1d594a	-0.6146437
213	0x3ed51829	0.41619995
214	0xbe8f5cf8	-0.28000617
215	0x3e9f58b1	0.31122354
216	0xbe0deb5e	-0.13859317
217	0xbdaa5f6e	-0.08318983
218	0xbe48292a	-0.19546953
219	0xbf01eea7	-0.5075478
220	0xbf395fcd	-0.72411805
221	0xbf7948d4	-0.9737675
222	0x3ebffc4e	0.3749718
223	0xbe9f3410	-0.31094408
224	0xbe89f8e2	-0.26947695
225	0xbceef140	-0.029167771
226	0x3e228460	0.1587081
227	0x3ec0c6d2	0.37651688
228	0x3ed49036	0.41516274
229	0x3e25ba68	0.1618439
230	0xbecb6b48	-0.39730287
231	0x3e16740c	0.14692706
232	0xbf0f89de	-0.56069744
233	0xbf6bc4ea	-0.9209734
234	0x3dd1ee34	0.10250512
235	0x3d8014ed	0.06253991
236	0xbf6593bf	-0.8967857
237	0x3f91f95d	1.1404225
238	0xbdb5f64d	-0.08884869
239	0xbea9066c	-0.33012712
240	0xbd9b5758	-0.07585019
241	0xbe75527c	-0.23957247
242	0xbe7f2318	-0.24915731
243	0x3dd2cea0	0.10293317
244	0x3e4e05bc	0.20119375
245	0x3ebb053e	0.36527437
246	0xbe91828a	-0.28419906
247	0x3e34ac5c	0.17643875
248	0xbdc14948	-0.094378054
249	0x3ee5f744	0.4491521
250	0xbe2afde4	-0.16698414
251	0xbefe1122	-0.49622446
252	0xbee0e956	-0.4392802
253	0xbd83dd10	-0.06438649
254	0x3e52f908	0.2060281
255	0x3e7aa238	0.24475944

feature_extractor.0.bias f4 [64]
0	0xbe6c743c	-0.23091215
1	0xbe7353ec	-0.23762482
2	0x3e20b608	0.1569444
3	0xbed99f74	-0.42504466
4	0xbe8b2d38	-0.27182937
5	0xbe26f358	-0.16303766
6	0x3d4cd73b	0.050009947
7	0x3d622b20	0.05521691
8	0xbd8f2d4f	-0.06991064
9	0x3ed73dcc	0.42039335
10	0xbedab2a8	-0.4271443
11	0x3dea8a75	0.1145219
12	0xbcf99174	-0.030464865
13	0x3c89bc60	0.016813457
14	0xbe3a96f4	-0.18221647
15	0x3e6a2542	0.22865775
16	0xbead6664	-0.3386718
17	0xbe63a734	-0.22231752
18	0x3e489fea	0.19592252
19	0x3e68e170	0.22742248
20	0xbc806626	-0.015673708
21	0x3c6b3d28	0.0143578425
22	0x3e298992	0.16556385
23	0xbef37064	-0.47546685
24	0xbedaba68	-0.42720342
25	0x3e7866ea	0.24258009
26	0x3dc3dd70	0.0956372
27	0xbe098530	-0.13429713
28	0x3e8dbfec	0.27685487
29	0xbe15c7f0	-0.14627051
30	0x3e89844d	0.2685875
31	0xbda5aeb2	-0.08089961
32	0x3d064ba0	0.032786965
33	0x3de4d580	0.111735344
34	0xbd9fdab8	-0.07805389
35	0xbec30864	-0.3809234
36	0x3ea2a172	0.31763798
37	0xbee1525e	-0.44008154
38	0xbeb951ca	-0.36195213
39	0xbcddde3a	-0.027083505
40	0xbdf145e8	-0.11780912
41	0xbe843414	-0.25820982
42	0xbe6574ec	-0.22407883
43	0xbe96395c	-0.29340637
44	0xbda84e46	-0.082180545
45	0xbee7958c	-0.45231283
46	0xbe3e325a	-0.18573895
47	0x3dd22400	0.10260773
48	0x3e851dbe	0.25999254
49	0xbed3417a	-0.41260892
50	0x3ed58482	0.41702658
51	0x3e83a759	0.25713614
52	0x3e81d25f	0.25355813
53	0x3eb0d8c5	0.34540382
54	0x3e1282ef	0.1430776
55	0x3e59fbc9	0.21287455
56	0xbe831f0a	-0.25609618
57	0xbe4b6480	-0.19862556
58	0x3e8e7151	0.2782083
59	0x3eb283b6	0.34866112
60	0xbe9e7e7a	-0.3095587
61	0xbedd026e	-0.43165916
62	0xbe402598	-0.18764341
63	0xbdede4c0	-0.11615896

feature_extractor.2.weight f4 [64, 64]
0	0xbd2806a0	-0.041021943
1	0xbdef0d5e	-0.116724715
2	0x3dccad96	0.099940464
3	0x3dd0d656	0.10197131
4	0x3d5a331c	0.053271398
5	0x3d8b0fe0	0.06790137
6	0x3d3946a4	0.045233384
7	0xbdfd01bc	-0.123538464
8	0x3d93af4a	0.07211168
9	0x3d5067ac	0.05088012
10	0xbdd88758	-0.1057269
11	0xbdc8dba2	-0.09807517
12	0xbd940e46	-0.07229285
13	0xbdbea496	-0.09308736
14	0xbdd56718	-0.10420054
15	0x3d6300cc	0.05542068
16	0x3b1f6880	0.0024323761
17	0xbdcf9afc	-0.10136983
18	0x3b4f99c0	0.0031677336
19	0xbd6c7ff8	-0.057739228
20	0xbdeda562	-0.1160381
21	0xbc2466c0	-0.010034263
22	0xbc90eff0	-0.017692536
23	0x3d2e9940	0.04262662
24	0x3c392180	0.011299491
25	0x3df364f8	0.11884493
26	0xbd2c3914	-0.04204662
27	0x3d8caa7c	0.06868455
28	0xbdd07c00	-0.10179901
29	0x3d86f660	0.06589961
30	0xbcbca5a8	-0.02302821
31	0xbd526f88	-0.051375896
32	0xbcf11468	-0.029428676
33	0xbdd01152	-0.101595536
34	0xbcd238a0	-0.025661767
35	0x3db3b670	0.087750316
36	0x3df5f522	0.12009646
37	0x3de7b4dc	0.11313793
38	0x3d49e6b4	0.04929228
39	0x3d038364	0.032107726
40	0x3d835324	0.06412342
41	0x3aa28900	0.0012400448
42	0xbd7f71bc	-0.062364325
43	0x3dc9172a	0.09818871
44	0x3dd7b49a	0.10532494
45	0x3de90cd2	0.113793984
46	0x3da44b66	0.080221936
47	0x3b827fe0	0.003982529
48	0xbcbc1428	-0.02295883
49	0x3dc6d594	0.097087055
50	0x3db7c8e2	0.08973862
51	0x3ce33ba0	0.027738392
52	0xbd662900	-0.056191444
53	0xbdba3bf0	-0.090934634
54	0xbd14296c	-0.036172315
55	0xbdbe463e	-0.092907414
56	0x3dc4aa30	0.09602773
57	0x3dcb7284	0.099339515
58	0xbd09679c	-0.033546075
59	0x3ddea060	0.10870433
60	0xbdbad328	-0.09122306
61	0xbd6e89bc	-0.058236822
62	0x3de46552	0.11152138
63	0x3de73df4	0.112911135
64	0xbd162f54	-0.03666623
65	0xbde9a6d2	-0.114087716
66	0xbf44508d	-0.7668541
67	0x3c001430	0.007817313
68	0xbd0e2854	-0.03470643
69	0x3dae5844	0.08512929
70	0xbf21550a	-0.63020384
71	0x3d0af754	0.033927277
72	0xbad23ca7	-0.0016039804
73	0x3f84d877	1.037856
74	0x3d554864	0.05207099
75	0x3e422196	0.18958125
76	0x3de5064c	0.11182842
77	0x3cbfee50	0.023429066
78	0x3dc8cef4	0.09805098
79	0xbfab1bea	-1.3367894
80	0xbd761610	-0.060079634
81	0xbd1c69fc	-0.038187012
82	0x3d5f4217	0.054506388
83	0xbd49390d	-0.049126673
84	0x3ea03159	0.3128765
85	0x3e267c3f	0.16258334
86	0xbd69412a	-0.05694691
87	0xbdc4694c	-0.09590396
88	0xbdcbe82c	-0.09956393
89	0x3e9a63d4	0.30154288
90	0xbca2c3e8	-0.019868806
91	0x3d937a34	0.07201043
92	0xbc83349f	-0.016016303
93	0x3dfca442	0.12336017
94	0xbf9549fe	-1.1663206
95	0xbd0e66cd	-0.034766007
96	0x3cd7b8c8	0.026333228
97	0x3db4a43a	0.08820386
98	0xbd37df44	-0.044890657
99	0xbdd93f58	-0.10607785
100	0xbecf4ac8	-0.4048674
101	0xbd534e6c	-0.05158846
102	0xbdeacee2	-0.11465241
103	0xbe94212c	-0.28931558
104	0xbd82521e	-0.06363319
105	0x3d85fd24	0.06542423
106	0xbde92442	-0.11383869
107	0x3d6cc76c	0.05780737
108	0x3dc93534	0.09824601
109	0x3c819778	0.015819296
110	0x3e8fb0b7	0.2806451
111	0x3f04ca8d	0.5187157
112	0xbd53cf69	-0.051711474
113	0x3dd9f058	0.10641545
114	0xbf2e15f7	-0.68002266
115	0xbe8dd2c0	-0.27699852
116	0x3d6c0ce8	0.057629496
117	0xbea54791	-0.32281163
118	0xbd16771e	-0.036734693
119	0xbf7344c5	-0.9502681
120	0x3dda09c8	0.10646397
121	0x3d6d0610	0.05786711
122	0xbe5983ce	-0.21241686
123	0x3e8a057f	0.26957318
124	0xbcba8330	-0.022767633
125	0x3bc4e760	0.0060090274
126	0xbcb97ce0	-0.022642553
127	0xbd6c6bc0	-0.057719946
128	0xbde973fa	-0.11399074
129	0x3dc53036	0.09628336
130	0xbdbdbcca	-0.09264524
131	0x3c844408	0.016145721
132	0xbd75003c	-0.059814677
133	0x3ddde568	0.108347714
134	0x3dc4609a	0.09588738
135	0x3d812fe2	0.06307961
136	0xbdff2a2e	-0.12459217
137	0x3ceb4a70	0.028722018
138	0xbda74794	-0.08167949
139	0x3d15067c	0.036383137
140	0x3c433cf0	0.011916384
141	0xbd3aea40	-0.045633554
142	0xbc04cf50	-0.008106068
143	0x3cb5ec98	0.022207543
144	0x3dcbe724	0.09956196
145	0xbceaa730	-0.028644174
146	0x3caf1810	0.021373779
147	0x3db29c9a	0.08721276
148	0x3df37f1a	0.11889477
149	0x3dc36f3a	0.09542699
150	0x3b815400	0.003946781
151	0x3d89558c	0.0670577
152	0x3cb79478	0.022409663
153	0x3de9fb70	0.11424911
154	0x3c3b0de0	0.011416882
155	0xbd31ea90	-0.043436587
156	0xbd8a7070	-0.06759727
157	0x3c81d948	0.015850678
158	0xbbdae480	-0.0066800714
159	0xbcb3d970	-0.021954268
160	0x3d930d9a	0.07180329
161	0xbd987690	-0.07444489
162	0x3df30dbc	0.11867854
163	0xbd822760	-0.063551664
164	0xbd70e5dc	-0.05881296
165	0xbd4ab8ec	-0.04949276
166	0x3dbb585c	0.091477126
167	0x3d50bb14	0.05095966
168	0x3de3e57e	0.111277565
169	0xbdbff7a2	-0.09373404
170	0x3dd7d404	0.10538486
171	0xbd4c0b5c	-0.04981552
172	0x3d47e930	0.04880637
173	0xbd83465e	-0.06409906
174	0x3daeaff4	0.08529654
175	0x3d600c1c	0.05469905
176	0xbd7fb6ac	-0.06243007
177	0x3bb0fa80	0.0054009557
178	0x3d96e81c	0.0736849
179	0xbcfc2970	-0.030781478
180	0x3b975d20	0.0046192557
181	0xbc633e70	-0.013869867
182	0x3d4fb1cc	0.05070667
183	0xbd9ddc04	-0.0770798
184	0xbd13d7c8	-0.036094457
185	0x3dd56294	0.10419193
186	0x3bd68680	0.0065467954
187	0x3c8a9358	0.016915962
188	0xbd87b6f4	-0.066266924
189	0xbd486cd4	-0.04893191
190	0xbdc51686	-0.09623437
191	0xbd94c81c	-0.0726473
192	0x3d740410	0.059574187
193	0x3cd56e38	0.026053533
194	0xbdf674b6	-0.120339796
195	0xbd14bce0	-0.036312938
196	0xbda60e26	-0.08108167
197	0x3cecec50	0.028921276
198	0xbdbaf2e8	-0.09128362
199	0xbd813d54	-0.063105255
200	0x3c4a4ee0	0.012347907
201	0x3c92b680	0.017909288
202	0x3ddcdbf8	0.10784143
203	0x3daf9280	0.085728645
204	0x3dd32170	0.10309112
205	0xbb31ea40	-0.002714768
206	0x3d4bab58	0.049723953
207	0x3cd84a28	0.026402548
208	0xbd12f5e4	-0.03587903
209	0x3db85ffe	0.09002684
210	0xbdbca67a	-0.092114404
211	0xbdee4b84	-0.11635497
212	0xbd93eab8	-0.072225034
213	0xbc4ce890	-0.012506619
214	0xbd840ac8	-0.06447369
215	0xbd66d2ec	-0.056353495
216	0xbc9973b8	-0.018731937
217	0xbdc6bdbe	-0.09704159
218	0x3deaa468	0.11457139
219	0x3cf4f988	0.029904142
220	0x3d9efebe	0.07763432
221	0x3db75d38	0.08953327
222	0x3dfa5da8	0.12224895
223	0xbddd486a	-0.108048275
224	0x3db3baf6	0.08775894
225	0x3db04848	0.086075366
226	0x3d939014	0.07205215
227	0xbc477870	-0.012174711
228	0xbd4aa6f8	-0.04947564
229	0x3cd0e000	0.025497437
230	0x3d31c2b4	0.043398574
231	0xbdd68d12	-0.10476126
232	0xbdccba88	-0.099965155
233	0x3d6fb510	0.058522284
234	0xbde12ef6	-0.10995285
235	0xbdc44998	-0.095843494
236	0x3d3298fc	0.04360293
237	0x3d13143c	0.03590797
238	0x3d4eca6c	0.050486013
239	0xbdd1f3c2	-0.10251571
240	0xbd892f0a	-0.06698425
241	0x3c418880	0.011812329
242	0x3cce1d90	0.02516058
243	0xbdb5b288	-0.08871943
244	0xbc1eac50	-0.009684637
245	0xbdadff6c	-0.084959835
246	0x3c821688	0.015879884
247	0xbd126bec	-0.035747454
248	0xb93e0000	-0.00018119812
249	0xbd840470	-0.06446159
250	0xbd89716a	-0.06711085
251	0xbde6de5e	-0.11272882
252	0xbb3e5fc0	-0.002904877
253	0xbdced524	-0.10099247
254	0xbd321984	-0.043481365
255	0xbcff6918	-0.031178042

feature_extractor.2.bias f4 [64]
0	0x3cd02848	0.025409833
1	0x3cf6fceb	0.030149898
2	0xbdfbe4b4	-0.12299481
3	0xbd0e8a10	-0.034799635
4	0x3d76c1c4	0.060243383
5	0x3e2e4ece	0.17022249
6	0xbc0a7863	-0.008451554
7	0x3c9f4490	0.019441873
8	0xbdc8c226	-0.09802656
9	0x3d174395	0.036929686
10	0x3d38ef3d	0.04515003
11	0xbd8ff396	-0.07028882
12	0x3ddded21	0.108362444
13	0x3d5bc26c	0.053652212
14	0x3dfa196f	0.12211882
15	0xbd5c0048	-0.053711206
16	0xbda0cf96	-0.07852094
17	0xbd69dda0	-0.057096124
18	0xbc4fa0b0	-0.012672588
19	0x3df1481a	0.117813304
20	0x3dd16c87	0.10225778
21	0xbc722ddd	-0.0147814425
22	0x3c4f794b	0.012663196
23	0x3e0cad35	0.13737948
24	0xbbd9623f	-0.0066340263
25	0x3bfbbacc	0.00768218
26	0x3d505892	0.050865717
27	0xbd0430d4	-0.03227313
28	0x3ccfc22d	0.025361145
29	0x3dc111e2	0.09427239
30	0xbdaa8b88	-0.08327395
31	0x3e09ee67	0.1346985
32	0x3dab78f1	0.08372677
33	0xbce600e0	-0.02807659
34	0xbc2bb050	-0.010479048
35	0xbdb26fd8	-0.08712739
36	0xbde021c5	-0.10943941
37	0xbdf0dbc7	-0.11760669
38	0xbd4143ab	-0.047183674
39	0xbdf5ed64	-0.12008169
40	0x3e202257	0.156381
41	0x3e059c19	0.13047828
42	0x3b5e37a5	0.0033907678
43	0x3c64b27d	0.013958571
44	0xbdd9f43a	-0.10642286
45	0x3db04da6	0.0860856
46	0x3d5ce609	0.053930316
47	0x3dfea977	0.124346666
48	0xbd699dfc	-0.05703543
49	0x3cadf018	0.02123265
50	0xbde9dfd6	-0.114196464
51	0x3dc0851b	0.09400388
52	0xbb541540	-0.0032361299
53	0x3d17c528	0.037053257
54	0xbde43f40	-0.111448765
55	0x3db29334	0.08719483
56	0x3dcb5c24	0.09929684
57	0x3e0d4177	0.13794504
58	0xbcb787f8	-0.022403702
59	0xbd02961b	-0.031881433
60	0xbd9b6296	-0.07587163
61	0xbdaee906	-0.085405394
62	0xbded9adb	-0.11601802
63	0xbd76163c	-0.060079798

actor.0.weight f4 [64, 64]
0	0x3d1497cc	0.036277577
1	0x3e8df920	0.2772913
2	0x3d7cad24	0.061688557
3	0x3dc21642	0.094769016
4	0x3c2b04b0	0.010438129
5	0xbc808594	-0.015688695
6	0x3e2e4e99	0.1702217
7	0xbdec6f56	-0.11544673
8	0x3ddcae12	0.10775389
9	0x3d0e154c	0.03468828
10	0xbe2cbc04	-0.16868597
11	0xbd8bb590	-0.0682174
12	0x3d59decf	0.053191002
13	0x3d97a936	0.07405321
14	0x3e754fdb	0.23956244
15	0xbb221dc0	-0.002473697
16	0xbac7e700	-0.0015251338
17	0x3dd3f108	0.103487074
18	0xbbfe4860	-0.0077600926
19	0x3dfcc9af	0.123431556
20	0x3e002fe1	0.12518264
21	0xbd81d5ae	-0.06339584
22	0x3d1bdda8	0.038053185
23	0x3e6043c2	0.21900848
24	0x3dcc5cc6	0.09978633
25	0x3e6ba41c	0.23011822
26	0x3e4a599c	0.19760746
27	0x3db7cfea	0.08975203
28	0x3e603aa6	0.21897373
29	0x3e7e1fd0	0.24816823
30	0x3d8faa86	0.07014947
31	0x3e6af703	0.2294579
32	0x3e5ee98c	0.21768779
33	0xbcc377f0	-0.023860902
34	0x3dbb52a8	0.09146625
35	0xbd9a3768	-0.07530099
36	0xbd48c2b4	-0.04901381
37	0xbdb102ac	-0.08643088
38	0xbe096480	-0.13417244
39	0x3dd71116	0.10501306
40	0x3d0e3a10	0.03472334
41	0x3dcbdb2b	0.09953912
42	0x3df946cd	0.12171707
43	0x3eaf2940	0.3421116
44	0x39021800	0.00012406707
45	0xbd94fd60	-0.0727489
46	0x3d5c13d4	0.053729847
47	0x3e192d14	0.14958602
48	0xbd958a70	-0.073017955
49	0x3dd5abea	0.10433181
50	0xbcd44f78	-0.0259168
51	0x3e9326f4	0.28740656
52	0x3dc19568	0.09452325
53	0xbd123778	-0.03569743
54	0xbbaedd80	-0.0053364635
55	0x3e4c51b0	0.19953036
56	0x3d977cea	0.07396872
57	0x3dd9ae3c	0.10628936
58	0x3df22d76	0.11825077
59	0xbded8722	-0.1159804
60	0x3d0b78ec	0.034050867
61	0x3d5f1de0	0.05447185
62	0x3b6e9880	0.0036406815
63	0xbdc37caa	-0.09545262
64	0x3c4da040	0.012550414
65	0xbdeb2814	-0.11482254
66	0x3dedf828	0.11619598
67	0x3c6b2230	0.014351413
68	0x3dcd118a	0.10013111
69	0x3de6a882	0.11262609
70	0xbd4ec160	-0.050477386
71	0x3d16fa30	0.03685969
72	0xbc944978	-0.018101439
73	0xbd0cde30	-0.034391582
74	0x3dc3653e	0.09540795
75	0x3dede362	0.116156355
76	0x3db79186	0.08963303
77	0xbbdb8720	-0.0066994578
78	0xbd90242a	-0.07038148
79	0xbd413f48	-0.04717949
80	0xbdb20626	-0.08692579
81	0xbca2b998	-0.019863889
82	0xbdc8cfae	-0.09805237
83	0xbd34e000	-0.044158936
84	0x3d4e2190	0.050324976
85	0xbd8cd868	-0.06877214
86	0xbdc271d0	-0.09494364
87	0xbd5b0b84	-0.05347778
88	0xbd8c4aaa	-0.068501785
89	0xbd160694	-0.036627367
90	0x3d5fe470	0.054661214
91	0x3d6479cc	0.055780217
92	0xbd81b308	-0.063329756
93	0xbdc76904	-0.09736827
94	0xbbb62740	-0.005558878
95	0xbd8cec3e	-0.06880997
96	0xbdfc64b8	-0.12323898
97	0xbddf0114	-0.108888775
98	0xbd67eddc	-0.056623325
99	0xbdd40f5e	-0.103544936
100	0x3c7741f0	0.015091404
101	0x3b3f8700	0.0029224753
102	0xbcd23b88	-0.025663152
103	0xbd8a0d6e	-0.06740843
104	0x3d9783f4	0.07398215
105	0x3ddcc35a	0.10779448
106	0xbdbc3538	-0.09189838
107	0x3da53e7a	0.08068557
108	0xbbcb8c40	-0.0062117875
109	0xbdee20fe	-0.116273865
110	0x3bdf4180	0.006813228
111	0x3d544c40	0.05183053
112	0x3dc4a09a	0.09600945
113	0x3c166770	0.009179935
114	0xbda8973a	-0.08231969
115	0x3c932b70	0.017965049
116	0x3ddd5e5a	0.10809012
117	0xbd6de0e0	-0.058075786
118	0xbad5aa80	-0.0016301423
119	0x3c9b12f0	0.018929929
120	0x3d51fc2c	0.05126588
121	0xbdd38ac0	-0.10329199
122	0x3d419704	0.04726316
123	0xbda8835e	-0.08228181
124	0xbce0a1b8	-0.027420864
125	0x3c4d3850	0.012525633
126	0x3dba24fa	0.09089084
127	0x3d7f68dc	0.06235586
128	0xbdaf4ff0	-0.08560169
129	0xbf3860d0	-0.72022724
130	0x3de9cb62	0.11415745
131	0xbdef463a	-0.116833165
132	0x3dc000fb	0.09375187
133	0x3e6ffc7b	0.23436157
134	0x3e77f12f	0.24213098
135	0xbd93d728	-0.07218772
136	0x3db26268	0.08710176
137	0x3eec73e2	0.46182162
138	0x3f259497	0.64679855
139	0xbdc4da94	-0.09612003
140	0x3eadb04b	0.33923563
141	0xbdb09878	-0.08622831
142	0x38f0236b	0.00011450689
143	0x3cd6d288	0.026223436
144	0xbc4dc7b0	-0.012559816
145	0xbd78f1ac	-0.06077735
146	0xbc8e8348	-0.017396584
147	0xbd854460	-0.06507182
148	0xbe0c233f	-0.1368532
149	0x3a3537eb	0.00069129345
150	0xbdcd509e	-0.10025142
151	0xbd26848a	-0.040653743
152	0xbe351fc5	-0.176879
153	0xbea5b4fb	-0.3236464
154	0x3d408950	0.04700595
155	0x3d908586	0.070567176
156	0xbeca5275	-0.39516035
157	0xbe87880c	-0.26470983
158	0x3dad12e0	0.08450866
159	0x3ea816b7	0.3282983
160	0xbd12dbc3	-0.035854112
161	0x3c84d318	0.016213939
162	0xbde847ce	-0.11341821
163	0x3d64ae8f	0.055830535
164	0xbdcb81af	-0.099368446
165	0xbaaeafaf	-0.0013327504
166	0x3f5c61ff	0.8608703
167	0xbcd7e640	-0.026354909
168	0x3ec6f7b7	0.38860866
169	0x3d6d27f9	0.05789945
170	0xbc687429	-0.014187851
171	0xbee94591	-0.45560887
172	0xbd9a8912	-0.07545675
173	0xbdea6054	-0.114441544
174	0x3db95c84	0.09050849
175	0x3dbc0a2e	0.09181629
176	0x3c900888	0.017582193
177	0x3d3ed738	0.046591967
178	0xbda2e6a6	-0.07954149
179	0xbe4ceacc	-0.20011443
180	0x3ddafef8	0.10693163
181	0x3d3ce0b8	0.046112746
182	0xbdac8728	-0.084242165
183	0xbee758b9	-0.45184878
184	0x3e48d9fe	0.19614407
185	0x3f09dc2d	0.53851587
186	0xbd8d0954	-0.06886545
187	0x3f3fda68	0.74942636
188	0x3d9c4968	0.07631189
189	0xbda5afe6	-0.080901906
190	0x3cc3b8dc	0.023891859
191	0x3d6e731c	0.058215246
192	0xbd984f42	-0.07436992
193	0x3da085ec	0.078380436
194	0x3dd63722	0.104597345
195	0x3d7c0080	0.061523914
196	0x3c10dc10	0.0088415295
197	0xbe00c6a1	-0.12575771
198	0xbe0e1876	-0.13876519
199	0xbaa82f80	-0.0012831539
200	0x3c9530d0	0.018211752
201	0xbda576c5	-0.08079294
202	0x3cd07d67	0.025450421
203	0x3c8e58b8	0.017376289
204	0x3ddc1a63	0.1074722
205	0x3c6d3c00	0.014479637
206	0x3d7bfac6	0.061518453
207	0x3cd02f40	0.025413156
208	0xbdaba99c	-0.0838196
209	0x3d056cac	0.03257434
210	0x3c845ae0	0.016156614
211	0x3c9afd04	0.018919475
212	0x3b5763b8	0.0032865833
213	0x3d5e3704	0.054251686
214	0xbdd23278	-0.102635324
215	0xbd2206fd	-0.039557446
216	0xbde6a0ca	-0.11261137
217	0x3ddcdacf	0.10783922
218	0xbdca4ceb	-0.09877952
219	0x3d58395c	0.052789077
220	0x3d1fec8e	0.039043956
221	0x3dc4a15a	0.09601088
222	0x3dd5e6f2	0.1044444
223	0x3d51a018	0.051178068
224	0xbdfac4a5	-0.12244538
225	0x3c90f140	0.017693162
226	0xbcd840a0	-0.026398003
227	0xbdb56136	-0.08856432
228	0xbd5b56ec	-0.053549692
229	0x3dad152c	0.08451304
230	0xbdad1c71	-0.084526904
231	0xbd9bcca8	-0.076073945
232	0xbd821ea9	-0.06353504
233	0xbcf5e310	-0.030015498
234	0xbd968e5e	-0.07351373
235	0xbdc0cbf4	-0.09413901
236	0xbdb28318	-0.087164104
237	0xbc907cc0	-0.01763761
238	0x3ddc279a	0.10749741
239	0x3d48638f	0.04892307
240	0x3d8faf46	0.07015853
241	0xbd730ff4	-0.059341386
242	0xbdeb627c	-0.11493394
243	0x3d5dddf0	0.054166734
244	0xbd49cae0	-0.049265742
245	0x3d222ca0	0.03959334
246	0xba317f00	-0.00067709386
247	0x3c88db2c	0.016706072
248	0xbd23e25d	-0.0400108
249	0xbc51d310	-0.012806669
250	0x3dc22422	0.09479548
251	0x3b3bb30e	0.002864066
252	0xbdec0fce	-0.11526452
253	0x3cd21d20	0.025648654
254	0xbd1e8848	-0.038704187
255	0xbdcc31a8	-0.09970409

actor.0.bias f4 [64]
0	0x3d2d5ad4	0.04232295
1	0xbdcd4504	-0.10022929
2	0x3e5c7334	0.21528322
3	0x3c9632dd	0.0183348
4	0xbdbeef7a	-0.0932302
5	0x3e632260	0.22181082
6	0xbdb69fd7	-0.08917206
7	0xbde03f9c	-0.109496325
8	0x3dc3d601	0.095623024
9	0x3e23af6b	0.15984885
10	0x3e2dd9f1	0.1697767
11	0x3e55f36f	0.20893644
12	0xbdd68a93	-0.1047565
13	0x3dff0c90	0.12453568
14	0x3e5104ff	0.20412062
15	0x3d39c453	0.045353245
16	0xbdf0fc8a	-0.11766918
17	0x3d301e9e	0.04299795
18	0x3da4376d	0.08018384
19	0x3e8270b8	0.25476623
20	0x3e8e07c5	0.27740303
21	0x3dfd7306	0.123754546
22	0xbd9e3686	-0.07725243
23	0xbdcef5e4	-0.10105494
24	0x3d763005	0.06010439
25	0x3d7a24bf	0.0610702
26	0x3dca63f2	0.09882344
27	0x3ded9b99	0.116019435
28	0x3ddf6eff	0.10909843
29	0x3d67cf95	0.05659445
30	0xbce5a46d	-0.028032506
31	0x3a896a00	0.0010483861
32	0x3e61aa48	0.22037613
33	0x3df3c7ab	0.11903318
34	0x3e2be295	0.16785653
35	0x3e22334b	0.15839879
36	0xbd6414dc	-0.055683956
37	0x3e46906d	0.19391032
38	0x3d8bb114	0.06820884
39	0x3dd53ede	0.104123816
40	0xbca8daa3	-0.020612067
41	0xbddfc540	-0.10926294
42	0x3d691a8f	0.056910094
43	0xbc4b30d6	-0.01240178
44	0xbde0676c	-0.10957226
45	0xbdc8b8e2	-0.098008886
46	0x3e9c36ee	0.30510658
47	0x3e1a906e	0.15094158
48	0x3dc5e383	0.09662535
49	0xbda64390	-0.08118355
50	0x3dc40147	0.09570556
51	0xbdf1c9fa	-0.11806102
52	0x3e5358e0	0.20639372
53	0x3e2e3e2f	0.17015909
54	0x3d410198	0.04712066
55	0x3dfb27d5	0.12263457
56	0x3dfeb2dd	0.12436459
57	0x3d00475f	0.031318065
58	0x3dce71b0	0.10080278
59	0x3e39ffd7	0.18164001
60	0x3da38a13	0.0798532
61	0x3dd553c8	0.10416371
62	0xbde3043f	-0.11084794
63	0x3dcbed10	0.099573255

actor.2.weight f4 [8, 64]
0	0xbd196b50	-0.037455857
1	0xbdae3fdc	-0.08508274
2	0xbf1a91b1	-0.6037856
3	0xbdb3dca0	-0.08782315
4	0xbdff4ffc	-0.12466428
5	0x3dec006a	0.115235165
6	0xbd40153d	-0.046895254
7	0x3d215cb0	0.039395034
8	0xbeedcea1	-0.46446708
9	0xbee237a8	-0.44183087
10	0xbf0a0ad3	-0.53922766
11	0xbf224f4c	-0.6340225
12	0x3b0ce9cd	0.002150166
13	0x3e57184f	0.21005367
14	0x3dae522d	0.085117675
15	0xbe064769	-0.13113178
16	0x3d824732	0.06361236
17	0xbe33209a	-0.17492905
18	0xbed2acb5	-0.4114739
19	0xbf18dffb	-0.5971677
20	0x3d1507b5	0.036384303
21	0xbf007015	-0.50171024
22	0xbab04700	-0.0013448894
23	0xbd82e046	-0.06390433
24	0xbf233052	-0.63745606
25	0x3e2e28d0	0.17007756
26	0xbf4d9bd8	-0.80315924
27	0xbee738b0	-0.45160437
28	0xbf06cc5e	-0.5265559
29	0xbf20a5cf	-0.62753004
30	0x3a11772f	0.0005549071
31	0x3dade40c	0.08490762
32	0x3e7cb48f	0.24678253
33	0xbd88be75	-0.06676952
34	0xbe149497	-0.14509808
35	0xbf54dc7a	-0.8314892
36	0x3da4c5d2	0.08045544
37	0x3ebae20c	0.36500585
38	0x3e084e0f	0.13311027
39	0x3d0874bb	0.033314448
40	0x3ea05323	0.31313428
41	0x3ce92fc0	0.028465152
42	0xbcca8f44	-0.024726517
43	0x3e07c722	0.13259557
44	0x3ddf3f2c	0.10900721
45	0xbdace912	-0.08442892
46	0xbd3ac534	-0.045598224
47	0x3e2a2bb7	0.16618238
48	0xbf1b7ab7	-0.60734123
49	0x3ba42ac0	0.005009979
50	0xbf43beda	-0.7646309
51	0x3c483380	0.01221931
52	0xbcab3d3b	-0.02090322
53	0xbf1dd98e	-0.6166009
54	0x3e98361d	0.29728785
55	0xbed5fb3a	-0.41793233
56	0xbe9e4a32	-0.30915982
57	0xbf263605	-0.6492618
58	0xbe83d061	-0.25744918
59	0x3df8980a	0.12138374
60	0x3e5dc9be	0.2165899
61	0xbf0f7c30	-0.5604887
62	0xbdff11e4	-0.12454584
63	0xbdf504fd	-0.11963842
64	0x3e168cd6	0.14702162
65	0xbcf0bb58	-0.029386207
66	0xbd979a6e	-0.07402502
67	0x3c8ff850	0.01757446
68	0x3c01cd90	0.007922545
69	0xbe36e27c	-0.17859834
70	0xbcf28196	-0.029602807
71	0x3db1c204	0.08679584
72	0xbd888572	-0.06666078
73	0xbd67b9bc	-0.056573614
74	0x3d58f5d0	0.0529688
75	0xbf991ec4	-1.1962514
76	0xbb401198	-0.0029307362
77	0x3f0ccb88	0.54998064
78	0xbdd27ac9	-0.10277326
79	0x3e02fc8f	0.12791656
80	0xbd00c994	-0.03144224
81	0x3e9b6bb3	0.30355605
82	0xbcdbf6e9	-0.026851134
83	0x3e39dcc1	0.18150617
84	0xbe23f100	-0.16009903
85	0x3e3253c4	0.17414767
86	0xbd40ea94	-0.04709871
87	0xbdbd161e	-0.09232734
88	0x3d03e5eb	0.03220169
89	0x3f000f92	0.5002376
90	0xbfbde224	-1.4834638
91	0x3c787703	0.015165093
92	0x3e6d5da9	0.2318026
93	0x3c750549	0.014954873
94	0xba7bb95e	-0.0009602512
95	0xbdd63faa	-0.10461362
96	0x3f4ea2dd	0.8071726
97	0x3e90aa26	0.28254813
98	0xbec552d0	-0.38539743
99	0xbf089eeb	-0.5336749
100	0x3c8c52c8	0.017129317
101	0x3f38ca16	0.7218336
102	0xbd81d1b0	-0.06338823
103	0x3f18dd93	0.59713095
104	0x3f835813	1.0261253
105	0xbdd7a120	-0.10528779
106	0xbddb6e3c	-0.10714385
107	0x3d681933	0.056664657
108	0x3c202570	0.009774551
109	0x3d38869c	0.04505025
110	0xbeee6d05	-0.4656755
111	0x3eeb011e	0.4589929
112	0x3d456ef0	0.0482015
113	0x3ce4bfa8	0.02792342
114	0xbef08079	-0.46973017
115	0xbd891f8c	-0.0669547
116	0xbea712b4	-0.32631457
117	0xbdc0844d	-0.09400234
118	0x3f1397d4	0.57653546
119	0xbfa49550	-1.2858067
120	0x3e6d6d51	0.23186232
121	0xbfc7b4be	-1.5602033
122	0x3e520a74	0.205118
123	0x3f14426e	0.57913864
124	0x3f14df8c	0.58153605
125	0xbf7fcd49	-0.99922615
126	0x3df2e90e	0.11860858
127	0x3e05acd2	0.13054207
128	0xbdf53cef	-0.11974513
129	0x3d84e856	0.06489627
130	0x3dfcd1a4	0.12344673
131	0xbcf1b5b6	-0.029505592
132	0xbd559090	-0.05213982
133	0xbf05cd2d	-0.522662
134	0xbb130d64	-0.0022438401
135	0xbc9b2cf0	-0.018942326
136	0x3e5582f3	0.20850734
137	0x3ea072d4	0.31337607
138	0x3ea63021	0.32458594
139	0x3cab334a	0.02089848
140	0xbd13004a	-0.035888948
141	0x3cd3a73a	0.025836576
142	0xbec81f10	-0.390862
143	0xbc4cb67e	-0.012494681
144	0x3d92ea7e	0.07173632
145	0x3e47c0d9	0.1950716
146	0x3df51177	0.11966222
147	0x3de6ac21	0.112633
148	0xbf0a2252	-0.5395862
149	0x3e7e0f26	0.24810466
150	0xbd4bcb54	-0.049754456
151	0x3cca8038	0.024719343
152	0x3e1b4733	0.15163879
153	0x3e04367e	0.12911412
154	0xbda5acc8	-0.08089596
155	0x3ea1b4ec	0.31583345
156	0x3e7350ff	0.23761366
157	0x3e987886	0.29779452
158	0x3e1d8bae	0.15385315
159	0x3d975044	0.07388356
160	0xbe71f4e2	-0.23628572
161	0x3e952909	0.2913287
162	0xbf385ae4	-0.7201369
163	0xbe0b549a	-0.13606492
164	0x3c54e760	0.012994617
165	0xbd759230	-0.05995387
166	0xbb79b793	-0.0038103804
167	0x3e833206	0.25624102
168	0x3cf20be7	0.029546691
169	0xbdeeae6c	-0.11654362
170	0x3d65b230	0.056078136
171	0xbc898db4	-0.016791202
172	0xbcecc140	-0.028900743
173	0xbd5ae140	-0.05343747
174	0xbf040d24	-0.5158255
175	0x3d88d2af	0.0668081
176	0x3e28345a	0.1642622
177	0xbdcfe8e2	-0.10151841
178	0x3e4be0e2	0.19910005
179	0xbd63e8a0	-0.05564177
180	0xbf16dd0c	-0.5893104
181	0x3df6c083	0.120484374
182	0x3e0c8e27	0.13726102
183	0xbd3f098e	-0.04663997
184	0x3e8586a2	0.2607928
185	0xbdeaf81e	-0.11473106
186	0x3e19ce38	0.15020072
187	0x3e648580	0.22316551
188	0x3d883015	0.06649796
189	0xbe86b3d4	-0.26309073
190	0x3d9d066d	0.07667241
191	0x3e3206ca	0.17385402
192	0x3c0fc9fe	0.008776186
193	0x3d4d0b88	0.050059825
194	0x3eaec404	0.34133923
195	0x3d960326	0.07324819
196	0xbccbda48	-0.024884358
197	0xbee60306	-0.44924182
198	0x3d9a36b5	0.07529966
199	0xbdb96af6	-0.09053604
200	0x3ed7e6d9	0.4216831
201	0x3eba13f9	0.36343363
202	0x3dea800c	0.11450204
203	0x3f59f2fd	0.85136396
204	0xbd983389	-0.074317046
205	0xbf002a30	-0.50064373
206	0xbefc3791	-0.49261144
207	0x3d71e13e	0.0590527
208	0x3dcbc36d	0.09949384
209	0x3e53cd48	0.20683777
210	0x3ecb7893	0.39740428
211	0x3eb16a18	0.34651256
212	0xbebe1a76	-0.37129563
213	0x3e96ebd7	0.29476807
214	0x3da1fb18	0.079092205
215	0x3ddc0e3a	0.10744901
216	0x3e9054b5	0.28189626
217	0xbdf34563	-0.11878469
218	0x3f8a9e0c	1.0829482
219	0x3ed1e2d0	0.40993357
220	0x3ec08271	0.3759952
221	0x3ebc6e79	0.36803034
222	0xbddeb198	-0.10873717
223	0x3d2bddac	0.04195945
224	0xbf3ce494	-0.7378628
225	0x3de6046c	0.11231312
226	0xbe9fab9c	-0.31185615
227	0x3f1d20cc	0.6137817
228	0xbcf53f70	-0.029937476
229	0xbdabfddf	-0.083980314
230	0xbc9b5c08	-0.018964782
231	0xbe47de3e	-0.19518372
232	0xbf6285e9	-0.8848558
233	0x3d12c158	0.03582892
234	0xbdd5bb92	-0.10436167
235	0x3d4ed246	0.0504935
236	0xbd9e61d2	-0.077335015
237	0x3d1cdd20	0.03829682
238	0xbe03d2b7	-0.1287335
239	0x3d76ac92	0.06022317
240	0x3ef5b374	0.47988474
241	0x3df81a0e	0.121143445
242	0x3ec08eb8	0.37608886
243	0xbde13c10	-0.10997784
244	0xbe81beff	-0.2534103
245	0x3e6e3cc1	0.23265363
246	0x3d348607	0.04407313
247	0x3f18ab07	0.59635967
248	0x3e76fc14	0.24119598
249	0x3f8ecd31	1.115637
250	0x3e36011d	0.17773862
251	0x3e04b36f	0.12959073
252	0xbddd208d	-0.10797224
253	0x3f6db210	0.92849827
254	0x3b4a1edf	0.0030841155
255	0x3bebdb0d	0.0071977437

actor.2.bias f4 [8]
0	0xbb3a91b2	-0.0028468189
1	0xbb706316	-0.0036680154
2	0xbe063adf	-0.13108395
3	0xbe158bae	-0.14604065
4	0x3e1d975d	0.15389772
5	0xbe5d7fca	-0.21630779
6	0x3ea99eb4	0.33128893
7	0xbe7692ee	-0.24079487

critic.0.weight f4 [64, 64]
0	0xbd9c0ec8	-0.07620007
1	0x3e1c19cb	0.15244214
2	0xbde9b15e	-0.11410783
3	0xbce9a0e0	-0.028519094
4	0x3d7a856d	0.0611624
5	0xbe7c9763	-0.24667124
6	0xbdb0c612	-0.08631529
7	0x3d1f4e60	0.038893104
8	0xbb29b440	-0.002589479
9	0x3eab5856	0.33465832
10	0x3da9106f	0.082550876
11	0xbddf46b6	-0.10902159
12	0x3d105de4	0.03524579
13	0x3dbf7eee	0.09350382
14	0x3e7c18fc	0.24618906
15	0x3d9e11f8	0.07718271
16	0x3cb8d360	0.022561729
17	0xbd930700	-0.071790695
18	0x3dfa7ffc	0.12231442
19	0x3e8325b1	0.25614694
20	0x3df6410e	0.12024127
21	0x3decd36f	0.11563765
22	0xbd96b6cf	-0.07359087
23	0x3ea49cf1	0.32150987
24	0x3e42851f	0.18996094
25	0x3d7e177e	0.062034123
26	0x3e8a83a4	0.2705356
27	0x3d8f09c6	0.06984286
28	0x3e83f72c	0.25774515
29	0x3ec17ee4	0.37792122
30	0x3c943a40	0.018094182
31	0x3eca1505	0.39469162
32	0xbe77449a	-0.24147263
33	0x3be77860	0.0070639104
34	0x3b8ca2e0	0.004291877
35	0xbd5fe33c	-0.054660067
36	0xbd993f6c	-0.074828
37	0xbdcb82b1	-0.09937037
38	0x3efa02a3	0.48830137
39	0x3d118364	0.035525694
40	0x3e98c188	0.29835153
41	0xbeb60883	-0.3555337
42	0x3daf7915	0.085680164
43	0x3e473d02	0.19456866
44	0x3d38e940	0.04514432
45	0xbdb1e5a7	-0.08686381
46	0xbd249da2	-0.040189393
47	0x3ec85e06	0.39134234
48	0xbd066d64	-0.032819167
49	0x3da91608	0.08256155
50	0xbdf21a6c	-0.11821446
51	0x3e53e596	0.20693049
52	0xbdc2c9ba	-0.095111325
53	0x3dc68cc4	0.09694818
54	0xbdd1d1fc	-0.102451295
55	0x3e5d65b0	0.21620822
56	0x3e17700a	0.14788833
57	0x3e98889e	0.2979173
58	0x3c281e60	0.010261148
59	0x3edb7ede	0.4287023
60	0xbdbf5e52	-0.09344162
61	0x3c6c2d00	0.014415026
62	0x3dc40ff1	0.09573353
63	0xbd850a10	-0.0649606
64	0x3d21c650	0.039495766
65	0xbee788ab	-0.45221457
66	0xbd52b704	-0.05144407
67	0x3ce88d60	0.028387725
68	0xbddaf4a2	-0.10691191
69	0xbf0a7d93	-0.5409786
70	0xbed4847e	-0.41507334
71	0x3d6d3654	0.05791314
72	0xbdcf497a	-0.101214364
73	0x3f5a3357	0.8523459
74	0xbdedcb99	-0.11611099
75	0x3d4a2bbc	0.049358115
76	0x3d30596c	0.04305403
77	0x3d4bc444	0.04974772
78	0x3ee025e1	0.437789
79	0xbc78b650	-0.015180185
80	0xbd4dfb14	-0.050288275
81	0x3c33b290	0.010967866
82	0xbb02bc40	-0.0019948632
83	0x3df5510b	0.11978348
84	0x3e83017c	0.2558707
85	0xbc9ee560	-0.019396484
86	0xbd9d63cc	-0.0768505
87	0x3f17324b	0.59061116
88	0x3dc751e8	0.09732419
89	0x3cdf8fff	0.027290342
90	0x3f53af31	0.82689196
91	0xbda8287e	-0.08210848
92	0x3d8bd3c0	0.068274975
93	0xbe8fa27d	-0.28053656
94	0x3da6e1ae	0.08148514
95	0x3f5112df	0.8166942
96	0xbf0d424f	-0.55179304
97	0xbc602c40	-0.013682425
98	0xbd6b56f0	-0.057455957
99	0xbd0991f0	-0.033586442
100	0xbdbd7020	-0.09249902
101	0xbd997627	-0.07493239
102	0x3f912f6b	1.1342596
103	0xbcf78858	-0.030216381
104	0xbe1dbe8a	-0.15404716
105	0xbf2ef927	-0.68348926
106	0xbc0a805c	-0.008453455
107	0x3d782900	0.060585976
108	0xbc9acf40	-0.018897653
109	0xbd8cf9c2	-0.06883575
110	0xbdb48202	-0.088138595
111	0x3e8fd923	0.2809535
112	0x3d6f4164	0.05841197
113	0xbdd593f8	-0.104286134
114	0xbc9199f8	-0.017773613
115	0x3dbef0a5	0.09323243
116	0xbd54b1a8	-0.05192724
117	0xbd8b8e3c	-0.068142384
118	0x3d2aeed4	0.04173167
119	0x3d92c8b1	0.07167185
120	0x3f45c7a4	0.7725775
121	0x3f557282	0.8337785
122	0x3d0c68f8	0.034279794
123	0x3f5d870e	0.865342
124	0x3d8fda12	0.070240155
125	0xbb953560	-0.004553482
126	0xbd06f9bd	-0.032953013
127	0x3de9fbda	0.1142499
128	0x3dcd4ce6	0.10024433
129	0xbdcf520e	-0.101230726
130	0x3d9b251c	0.075754374
131	0xbc78cf00	-0.015186071
132	0x3cada840	0.021198392
133	0xbc954a55	-0.01822392
134	0x3db451e7	0.08804684
135	0xbda52db2	-0.08065356
136	0x3d8f6b00	0.070028305
137	0xbc26107f	-0.010135769
138	0x3d024a4c	0.031809136
139	0xbde1c100	-0.1102314
140	0xbc028fa0	-0.007968813
141	0x3b853640	0.004065305
142	0x3dd14ac2	0.10219337
143	0xbad53f00	-0.0016269386
144	0xbdd83b3a	-0.105581716
145	0x3cafb328	0.021447733
146	0x3dece260	0.11566615
147	0x3a5cdf33	0.0008425593
148	0xbce08d44	-0.02741111
149	0x3dffb268	0.124852
150	0x3db73784	0.08946136
151	0xbd90ee05	-0.070766486
152	0xbdfcc5b0	-0.123423934
153	0x3c58dff0	0.013236985
154	0x3ca391e2	0.019967023
155	0xbc2d6130	-0.010582253
156	0x3dbbb1b9	0.09164757
157	0x3ce349e8	0.027745202
158	0xbdc177fa	-0.09446712
159	0xba804841	-0.0009787158
160	0xbde2589e	-0.11052059
161	0x3de973d2	0.11399044
162	0x3d81a690	0.063305974
163	0x3d62a7b9	0.055335734
164	0xbdac7781	-0.08421231
165	0xbd2b4a81	-0.0418191
166	0x3dc9cbfc	0.0985336
167	0x3df19af0	0.1179713
168	0xbdac841a	-0.08423634
169	0xbcf17dd2	-0.029478941
170	0x3cd94da0	0.026526272
171	0x3dcecf70	0.10098159
172	0xbc5e9890	-0.013586178
173	0x3d86e142	0.06585933
174	0xbcb70a40	-0.022343755
175	0xbd2bd5a4	-0.04195179
176	0xbd4506c0	-0.04810214
177	0xbdf42ad6	-0.11922233
178	0x3dfcc574	0.12342349
179	0x3d64d214	0.05586441
180	0x3be24c20	0.0069060475
181	0xbdbb0606	-0.09132008
182	0x3dfcb818	0.123398006
183	0xbdb398b0	-0.08769357
184	0xbd2f0bee	-0.042735986
185	0xbde38cf1	-0.11110867
186	0xbd52dd10	-0.051480353
187	0x3dcf83ed	0.10132585
188	0x3d0c0cd4	0.03419192
189	0xbdf5cc0a	-0.12001808
190	0x3d8cb21d	0.0686991
191	0x3d00855c	0.03137718
192	0x3c37da50	0.011221483
193	0x3dc6f260	0.09714198
194	0xbc856ac0	-0.016286254
195	0xbdf9e20e	-0.1220132
196	0x3b698cc0	0.0035636872
197	0xbc4d89f6	-0.0125450995
198	0x3dddbf56	0.1082751
199	0xbd40763c	-0.046987757
200	0xbd29c294	-0.04144533
201	0xbd2ea1cd	-0.042634774
202	0x3d731c98	0.05935344
203	0xbdf6ff9a	-0.12060471
204	0x3debf870	0.11521995
205	0xbc710a90	-0.014711991
206	0xbdf772a2	-0.12082411
207	0xbdcc1c60	-0.099663496
208	0xbd907554	-0.070536286
209	0x3d9ccdf4	0.0765647
210	0xba4a6500	-0.00077207386
211	0x3d4e8e87	0.050428893
212	0xbde71bcd	-0.112845995
213	0x3db9d8c2	0.090745464
214	0x3bfe4960	0.007760212
215	0x3d8e38bf	0.06944417
216	0xbdaa89f0	-0.08327091
217	0xbdf5a341	-0.11994029
218	0xbd219602	-0.0394497
219	0xbda8ced8	-0.08242577
220	0xbc942224	-0.018082686
221	0xbd18df80	-0.03732252
222	0xbdcb0d1e	-0.09914611
223	0x3d458a56	0.04822763
224	0x3c98ae03	0.018637663
225	0xbc7184c0	-0.014741123
226	0xbd93aca8	-0.07210666
227	0xbd99b286	-0.07504754
228	0x3d1da8a4	0.038490906
229	0x3c8a69e8	0.016896203
230	0xbd32086a	-0.043465056
231	0x3c5a0e00	0.013309002
232	0xbdc0e586	-0.09418778
233	0x3db06a45	0.08614019
234	0xbd8f4aa6	-0.0699666
235	0xbdfbd82d	-0.12297092
236	0x3d7f3a48	0.06231144
237	0x3df8e400	0.121528625
238	0xbd84118a	-0.06448658
239	0x3c568783	0.013093832
240	0xbdec1356	-0.115271255
241	0x3c0fa1e0	0.008766621
242	0xbd457c28	-0.048214108
243	0x3d781409	0.060565982
244	0x3db0959a	0.08622284
245	0x3da4f156	0.08053844
246	0xbd800952	-0.06251778
247	0xba3c6c15	-0.00071877363
248	0xbd16db1a	-0.036830045
249	0x3df74703	0.12074091
250	0x3d6ce3ec	0.05783455
251	0x3de1c57d	0.11023996
252	0x3dd764d8	0.10517281
253	0xbbfd88e0	-0.007737264
254	0xbded9840	-0.11601305
255	0xbdc6e46e	-0.09711538

critic.0.bias f4 [64]
0	0x3d197894	0.037468508
1	0x3c323f76	0.010879388
2	0xbd787cbc	-0.06066583
3	0xbd494633	-0.049139213
4	0x3e80a17c	0.25123203
5	0x3e5c5888	0.21518147
6	0xbd11f636	-0.035635196
7	0xbb2afc26	-0.0026090234
8	0xbd7cdcf1	-0.061734144
9	0xbdec84b4	-0.115487486
10	0x39f02dcd	0.0004581049
11	0x3caaed63	0.020865148
12	0xbd6e7894	-0.05822046
13	0x3db80cd4	0.08986822
14	0xbdef5e00	-0.11687851
15	0x3d04efde	0.032455318
16	0x3bab5174	0.005228216
17	0x3e1a2829	0.15054382
18	0xbd8b72e4	-0.06809023
19	0xbc521e54	-0.012824614
20	0xbd8677b8	-0.06565803
21	0xbdf97cd3	-0.121820115
22	0x3ddf2dc8	0.10897404
23	0x3e531d02	0.20616534
24	0x3e57ca2e	0.21073219
25	0xbc2024af	-0.009774371
26	0x3e86beb0	0.26317358
27	0x3ddb0cf2	0.106958285
28	0x3e03e338	0.12879646
29	0xbd40c1d8	-0.047059864
30	0xbdd7e766	-0.105421826
31	0x3d6b2dea	0.057416834
32	0x3e2c4955	0.16824849
33	0x3d2b1359	0.0417665
34	0x3dd99bb4	0.10625401
35	0xbce38bed	-0.027776683
36	0x3dd19d6d	0.10235105
37	0x3d260dee	0.040540628
38	0x3e7140ec	0.23559922
39	0x3dfa3559	0.122172065
40	0xbd79c3e8	-0.060977846
41	0x3e2e4cd7	0.170215
42	0xbc859162	-0.016304675
43	0x3e2cecdd	0.16887231
44	0x3deea50a	0.116525725
45	0x3d6bf424	0.057605878
46	0x3e0e8492	0.13917759
47	0x3d1462da	0.036227085
48	0x3df5927c	0.1199083
49	0x3d98352e	0.07432018
50	0xbd6de486	-0.058079265
51	0xbcad43a5	-0.02115042
52	0xbdb82897	-0.08992117
53	0x3d33acff	0.043866154
54	0x3d3383a1	0.043826703
55	0x3d8dc5c7	0.06922489
56	0x3e1e6506	0.15468225
57	0xbd9be19b	-0.0761139
58	0x3e6ecf94	0.23321372
59	0xbde7032e	-0.11279903
60	0x3d4c4728	0.049872547
61	0x3c5e6720	0.013574392
62	0x3da24d7f	0.079249375
63	0x3ded1a6d	0.11577306

critic.2.weight f4 [1, 64]
0	0x3e7a2b0c	0.24430484
1	0x3f7bed32	0.98408806
2	0x39093ecf	0.00013088736
3	0x3bce21b7	0.00629064
4	0xbf086f47	-0.53294796
5	0x3ea80918	0.32819438
6	0x3fa56048	1.2920008
7	0x3d907055	0.07052676
8	0xbd6d7bba	-0.057979323
9	0x3cac52f0	0.021035641
10	0x3dad1fe8	0.08453351
11	0x3d7d6a1b	0.06186877
12	0x3bd20ec0	0.0064104497
13	0x3e7725d9	0.24135531
14	0xbd67a350	-0.05655223
15	0x3f57c5ad	0.84286004
16	0x3ec17db9	0.3779123
17	0x3eb2f3b6	0.34951562
18	0xbc2c22ed	-0.010506374
19	0x3e07420c	0.13208789
20	0x3dc76c6e	0.09737478
21	0xbddadc28	-0.10686523
22	0x3e9d247e	0.30691904
23	0xbec9a27e	-0.39381784
24	0xbf07322b	-0.52810925
25	0x3ebb29da	0.36555368
26	0xbf2a8ef1	-0.6662436
27	0x3eaade86	0.33372897
28	0xbed2655b	-0.41092953
29	0xbd8cd3f4	-0.06876364
30	0x3cbdc798	0.023166463
31	0x3cab21ac	0.02089008
32	0x3ebe0701	0.3711472
33	0x3ebbfe4c	0.3671745
34	0x3ff7a7b5	1.9348055
35	0xbdcdb86f	-0.100449435
36	0x3cba5fb2	0.02275071
37	0x3f80dc6b	1.0067266
38	0xbf122340	-0.5708504
39	0xbe882a47	-0.26594755
40	0x3ca43c70	0.02004835
41	0x3ec9c9ed	0.3941187
42	0xbc8a6f6c	-0.016898833
43	0xbf00b9bb	-0.502834
44	0x3e97ff82	0.29687124
45	0x3e22e276	0.159067
46	0xbeda9382	-0.42690665
47	0xbdfa5924	-0.122240335
48	0x3ed942a2	0.4243365
49	0x3fd81e2a	1.6884205
50	0xbd4fad88	-0.0507026
51	0x3e93d8c2	0.2887631
52	0xbcc04186	-0.023468744
53	0x3eecbc00	0.46237183
54	0x3c737f2b	0.014861862
55	0x4024eb5c	2.5768652
56	0xbf258268	-0.6465211
57	0x3d1b1e21	0.03787053
58	0xbf01cf13	-0.50706595
59	0x3c321ea0	0.010871559
60	0x3ec237f0	0.37933302
61	0x3d23e2f0	0.040011346
62	0x3e957488	0.2919047
63	0xbedbf3d0	-0.42959452

exp_avg f4 [64, 4]
0	0x00000000	0.0
1	0x00000000	0.0
2	0x00000000	0.0
3	0x00000000	0.0
4	0x00000000	0.0
5	0x00000000	0.0
6	0x00000000	0.0
7	0x00000000	0.0
8	0xba07b5a4	-0.0005176908
9	0x37f97694	2.973833e-05
10	0x39881214	0.0002595341
11	0x380a24e0	3.2936106e-05
12	0x00000000	0.0
13	0x00000000	0.0
14	0x00000000	0.0
15	0x00000000	0.0
16	0x00000000	0.0
17	0x00000000	0.0
18	0x00000000	0.0
19	0x00000000	0.0
20	0x00000000	0.0
21	0x00000000	0.0
22	0x00000000	0.0
23	0x00000000	0.0
24	0xb819e6df	-3.6693058e-05
25	0x38c01883	9.159839e-05
26	0x3a4856c3	0.0007642323
27	0x38cb63cb	9.698382e-05
28	0x00000000	0.0
29	0x00000000	0.0
30	0x00000000	0.0
31	0x00000000	0.0
32	0x320108ee	7.510819e-09
33	0x307d6dd6	9.219695e-10
34	0x320202e7	7.567656e-09
35	0x3083fdc4	9.603629e-10
36	0x3acb0521	0.00154892
37	0x3959a2f1	0.00020755433
38	0x3b381595	0.0028089036
39	0x39bae322	0.00035645912
40	0x00000000	0.0
41	0x00000000	0.0
42	0x00000000	0.0
43	0x00000000	0.0
44	0x39982415	0.00029018582
45	0x37c214ea	2.3136341e-05
46	0x39050d15	0.00012688742
47	0x378713b6	1.6102433e-05
48	0x00000004	6e-45
49	0x00000004	6e-45
50	0x00000004	6e-45
51	0x00000004	6e-45
52	0x00000000	0.0
53	0x00000000	0.0
54	0x00000000	0.0
55	0x00000000	0.0
56	0x00000000	0.0
57	0x00000000	0.0
58	0x00000000	0.0
59	0x00000000	0.0
60	0xbab84a16	-0.0014060165
61	0xb848c568	-4.7867565e-05
62	0x39e94494	0.00044492318
63	0x386cd207	5.6462388e-05
64	0x00000000	0.0
65	0x00000000	0.0
66	0x00000000	0.0
67	0x00000000	0.0
68	0x00000000	0.0
69	0x00000000	0.0
70	0x00000000	0.0
71	0x00000000	0.0
72	0x00000004	6e-45
73	0x80000004	-6e-45
74	0x00000004	6e-45
75	0x00000004	6e-45
76	0x39655bea	0.00021873383
77	0x3884b8dc	6.328683e-05
78	0x3a09b1c4	0.00052526244
79	0x388bca94	6.6657696e-05
80	0x3a986538	0.0011626845
81	0x392c105d	0.00016409294
82	0x3aa8d1fa	0.0012879961
83	0x392b641b	0.00016345123
84	0x3a86d915	0.0010288084
85	0x39261448	0.00015838549
86	0x3a9d0382	0.0011979195
87	0x391f67a2	0.00015202028
88	0x00000004	6e-45
89	0x00000004	6e-45
90	0x00000004	6e-45
91	0x00000004	6e-45
92	0x00000000	0.0
93	0x00000000	0.0
94	0x00000000	0.0
95	0x00000000	0.0
96	0x00000000	0.0
97	0x00000000	0.0
98	0x00000000	0.0
99	0x00000000	0.0
100	0x00000004	6e-45
101	0x00000004	6e-45
102	0x00000004	6e-45
103	0x00000004	6e-45
104	0x00000000	0.0
105	0x00000000	0.0
106	0x00000000	0.0
107	0x00000000	0.0
108	0x00000000	0.0
109	0x00000000	0.0
110	0x00000000	0.0
111	0x00000000	0.0
112	0xb90eb6a0	-0.00013610208
113	0x36c0614f	5.733374e-06
114	0x389e64ce	7.5528034e-05
115	0x3720ce67	9.5848e-06
116	0x00000000	0.0
117	0x00000000	0.0
118	0x00000000	0.0
119	0x00000000	0.0
120	0xbb0b9411	-0.0021297971
121	0xb935118a	-0.00017268039
122	0xb9e80dd5	-0.00044260794
123	0xb86b963a	-5.6168275e-05
124	0x3a3afa8c	0.00071326713
125	0x38be1a87	9.064847e-05
126	0x3a368030	0.00069618504
127	0x38b947ac	8.834837e-05
128	0x00000000	0.0
129	0x00000000	0.0
130	0x00000000	0.0
131	0x00000000	0.0
132	0x00000000	0.0
133	0x00000000	0.0
134	0x00000000	0.0
135	0x00000000	0.0
136	0x00000000	0.0
137	0x00000000	0.0
138	0x00000000	0.0
139	0x00000000	0.0
140	0x00000000	0.0
141	0x00000000	0.0
142	0x00000000	0.0
143	0x00000000	0.0
144	0xba6e634c	-0.0009093776
145	0xb8bf9ab2	-9.136404e-05
146	0xba329ba2	-0.0006813352
147	0xb8b553f2	-8.6463886e-05
148	0x00000000	0.0
149	0x00000000	0.0
150	0x00000000	0.0
151	0x00000000	0.0
152	0x00000000	0.0
153	0x00000000	0.0
154	0x00000000	0.0
155	0x00000000	0.0
156	0x00000004	6e-45
157	0x00000004	6e-45
158	0x00000004	6e-45
159	0x00000004	6e-45
160	0x00000000	0.0
161	0x00000000	0.0
162	0x00000000	0.0
163	0x00000000	0.0
164	0x00000000	0.0
165	0x00000000	0.0
166	0x00000000	0.0
167	0x00000000	0.0
168	0x00000000	0.0
169	0x00000000	0.0
170	0x00000000	0.0
171	0x00000000	0.0
172	0x00000000	0.0
173	0x00000000	0.0
174	0x00000000	0.0
175	0x00000000	0.0
176	0x00000004	6e-45
177	0x00000004	6e-45
178	0x00000004	6e-45
179	0x00000004	6e-45
180	0x00000000	0.0
181	0x00000000	0.0
182	0x00000000	0.0
183	0x00000000	0.0
184	0x3a54ec57	0.00081223756
185	0x38b4a069	8.6129476e-05
186	0x3a176570	0.0005775308
187	0x3899b3a7	7.3290714e-05
188	0x3bd8d951	0.006617703
189	0x3a987751	0.0011632239
190	0x3c2951ad	0.010334414
191	0x3aabe5c4	0.001311474
192	0x3983ba91	0.0002512527
193	0x37c6c66d	2.3695839e-05
194	0x39213ac8	0.00015376054
195	0x37a3af4a	1.951274e-05
196	0x00000000	0.0
197	0x00000000	0.0
198	0x00000000	0.0
199	0x00000000	0.0
200	0xba992c0b	-0.00116861
201	0xb8c4d85a	-9.386307e-05
202	0xba33e8ed	-0.0006863017
203	0xb8b6a651	-8.709415e-05
204	0xba2ea52e	-0.0006662187
205	0xb85ed3be	-5.3126125e-05
206	0xb9ba534d	-0.00035538748
207	0xb83d29a5	-4.5099896e-05
208	0x39dab1e8	0.0004171275
209	0x38771dbe	5.891709e-05
210	0x39e78eb9	0.0004416609
211	0x386b1570	5.604833e-05
212	0xbaea4d90	-0.0017875899
213	0xb98186f7	-0.00024705354
214	0xbb00105c	-0.0019541
215	0xb982039e	-0.00024798227
216	0x00000004	6e-45
217	0x80000004	-6e-45
218	0x00000004	6e-45
219	0x00000004	6e-45
220	0xbaedb659	-0.0018136009
221	0xb91ac9a9	-0.00014761709
222	0xba9516eb	-0.0011374628
223	0xb9175c2f	-0.00014434823
224	0x00000000	0.0
225	0x00000000	0.0
226	0x00000000	0.0
227	0x00000000	0.0
228	0x00000000	0.0
229	0x00000000	0.0
230	0x00000000	0.0
231	0x00000000	0.0
232	0xb801d4ac	-3.0954063e-05
233	0x37d92282	2.5884485e-05
234	0x396e76d2	0.00022741713
235	0x37f21855	2.8859979e-05
236	0x39bcd951	0.00036020068
237	0x38c8d439	9.576273e-05
238	0x3b08636f	0.002081122
239	0x398a7717	0.0002641014
240	0x00000000	0.0
241	0x00000000	0.0
242	0x00000000	0.0
243	0x00000000	0.0
244	0x00000000	0.0
245	0x00000000	0.0
246	0x00000000	0.0
247	0x00000000	0.0
248	0x00000000	0.0
249	0x00000000	0.0
250	0x00000000	0.0
251	0x00000000	0.0
252	0x00000000	0.0
253	0x00000000	0.0
254	0x00000000	0.0
255	0x00000000	0.0
