models/episodes_3000/team_goal_bottom_left/PPOAgent/model.pt (torch, 168423 bytes, 33 tensors)

feature_extractor.0.weight f4 [64, 2]
-0.6256387 0.5208356 0.67649925 0.2203674 -0.46607804 -0.044913255 0.054593977 -0.88693666
-0.14166458 -0.4306576 -0.33242524 0.4395408 -0.29169977 0.3004147 -0.40028346 -0.58670413
0.62151843 -0.30587593 -0.17006658 -0.07342352 -0.04774359 0.24343029 -0.3460561 -0.3568211
0.5408748 -0.3872335 -0.6846003 -0.2551421 -0.7008118 -0.59686905 -0.6363712 0.2930409
0.115035266 0.616582 -0.0801576 0.61157066 -0.35340562 0.13013585 0.42255557 0.4079603
0.57214814 0.09625244 0.52481925 -0.42259285 -0.6781536 -0.3494706 0.31090918 0.33644113
-0.592854 -0.5888951 0.25759706 -0.049583327 0.6334158 0.19811606 -0.5593337 0.45207044
-0.24585089 0.21534418 0.16872007 0.33879003 -0.41011804 -0.46162066 -0.07097437 0.5104398
0.060981292 -0.49012837 0.28201777 -0.17302112 -0.03973529 0.5272121 0.5468662 -0.06021683
-0.24393012 0.26806566 0.5620376 0.2973504 0.33249232 0.19591072 0.69947547 0.57782936
0.63066155 0.16407754 0.41150513 -0.073131815 0.37452438 -0.12962402 0.07662568 0.62191796
0.11270427 0.60706055 0.41860175 0.07862737 -0.5664823 0.09478302 -0.42779815 0.16750944
-0.039927892 -0.03647898 0.4555235 0.31967992 -0.75957775 0.59695977 0.25505224 -0.34296113
0.44489837 -0.39234763 0.1947066 0.6002631 0.4100701 -0.5913028 0.0044397125 0.59499717
0.15140392 0.24817531 -0.38868204 0.6439079 0.35270014 0.3509837 0.48427334 0.43380412
0.5168972 -0.26680633 0.23128615 0.2851018 -0.6039062 0.5076425 -0.12704225 0.11645033
00000000: dc29 20bf 7b55 053f 0e2f 2d3f fea7 613e
00000010: c8a1 eebe f6f6 37bd ef9d 5f3d 480e 63bf
00000020: 8510 11be 277f dcbe a433 aabe 7e0b e13e
00000030: ac59 95be f5cf 993e f4f1 ccbe 3e32 16bf
00000040: d51b 1f3f c59b 9cbe ef25 2ebe 125f 96bd
00000050: c88e 43bd ca45 793e 442e b1be 41b1 b6be
00000060: c576 0a3f 7843 c6be f741 2fbf fca1 82be
00000070: 6768 33bf 69cc 18bf 39e9 22bf 7509 963e
00000080: 9c97 eb3d 51d8 1d3f ab29 a4bd e58f 1c3f
00000090: 95f1 b4be 5542 053e 3459 d83e 2ce0 d03e
000000a0: 4d78 123f 0020 c53d 8e5a 063f 175e d8be
000000b0: 799b 2dbf cfed b2be 7d2f 9f3e 0342 ac3e
000000c0: 48c5 17bf d4c1 16bf c3e3 833e e317 4bbd
000000d0: 8a27 223f f0de 4a3e 7e30 0fbf c775 e73e
000000e0: 56c0 7bbe 2f83 5c3e f4c4 2c3e e375 ad3e
000000f0: fefa d1be 8b59 ecbe 035b 91bd 2fac 023f
00000100: 85c7 793d 1bf2 fabe a264 903e 732c 31be
00000110: 79c1 22bd 5ff7 063f 6cff 0b3f eca5 76bd
00000120: d1c8 79be e73f 893e b2e1 0f3f 503e 983e
00000130: 6f3c aa3e d29c 483e d310 333f a0ec 133f
00000140: 0973 213f f103 283e cdb0 d23e 22c6 95bd
00000150: a9c1 bf3e 29bc 04be eded 9c3d 0436 1f3f
00000160: 7fd1 e63d 5268 1b3f f852 d63e 6307 a13d
00000170: fc04 11bf 9a1d c23d 5c08 dbbe 9887 2b3e
00000180: 6e8b 23bd fc6a 15bd 603a e93e 16ad a33e
00000190: b073 42bf 5bd2 183f 3596 823e 9a98 afbe
000001a0: b8c9 e33e cae1 c8be 2b61 473e d8aa 193f
000001b0: b5f4 d13e 9f5f 17bf 027b 913b bc51 183f
000001c0: a109 1b3e ab21 7e3e 5501 c7be 26d7 243f
000001d0: 1d95 b43e 23b4 b33e adf2 f73e 931b de3e
000001e0: 6053 043f d79a 88be 47d6 6c3e ddf8 913e
000001f0: 9999 1abf dcf4 013f 5d17 02be 837d ee3d

feature_extractor.0.bias f4 [64]
-0.24753383 -0.5715969 0.67564315 0.51608443 -0.26594964 0.21109381 0.7388224 0.7472431
-0.42388067 -0.3865557 0.62008375 0.68431044 0.18182017 -0.29325768 -0.0814519 0.49842182
-0.30954453 0.66999847 0.5869746 -0.74837464 0.8475947 0.4105133 0.6077174 0.77952844
-0.4471789 -0.53678465 -0.498014 -0.4395617 -0.30468103 0.34754643 0.77880454 0.55834067
0.4679587 -0.06720849 -0.42714256 0.60339016 -0.4827163 -0.248345 0.16818649 -0.35233518
-0.6446537 0.72352254 0.27384502 -0.3218649 0.4448564 0.41579908 0.66744983 0.44915944
0.5530971 0.7903272 -0.21329394 0.84725904 0.4904131 -0.37906998 -0.57206035 0.51235414
0.027711023 0.02185567 -0.71403444 0.43793902 -0.35891595 -0.64929837 -0.62066096 0.81008095
00000000: 8279 7dbe 2d54 12bf f3f6 2c3f 1c1e 043f
00000010: 8d2a 88be fa28 583e 7723 3d3f 534b 3f3f
00000020: e306 d9be a1ea c5be cfbd 1e3f f82e 2f3f
00000030: 112f 3a3e df25 96be 41d0 a6bd 2531 ff3e
00000040: 9f7c 9ebe 0585 2b3f f843 163f 7b95 3fbf
00000050: f7fb 583f cd2e d23e 5e93 1b3f 2d8f 473f
00000060: a2f4 e4be b86a 09bf b1fb febe 3b0e e1be
00000070: 27ff 9bbe 9bf1 b13e bc5f 473f 6aef 0e3f
00000080: 4898 ef3e 9ba4 89bd 6eb2 dabe c777 1a3f
00000090: 9726 f7be 274e 7ebe 1439 2c3e 4765 b4be
000000a0: 0608 25bf c638 393f 6a35 8c3e 7acb a4be
000000b0: 38c4 e33e 9ee3 d43e fedd 2a3f 3af8 e53e
000000c0: c697 0d3f e252 4a3f ba69 5abe f8e5 583f
000000d0: 6d17 fb3e 7615 c2be 8c72 12bf a429 033f
000000e0: 3a02 e33c a90a b33c f6ca 36bf 8b39 e03e
000000f0: d5c3 b7be 6b38 26bf a3e3 1ebf 7761 4f3f

feature_extractor.2.weight f4 [64, 64]
0.02626572 -0.17080994 0.56983227 -0.07482917 0.052427083 0.0073434412 0.20074688 0.07240983
-0.5120375 0.029782504 0.0019484881 0.086429164 -0.2106153 0.11981021 -0.02903445 0.09967949
-0.056751065 0.15965731 0.21912764 -0.06219549 0.032354902 -0.05448695 -0.036093626 0.167871
-0.005883828 -0.24220188 -0.025469067 -0.07174435 -0.10351269 0.14623892 0.05923832 0.03417269
-0.017487228 -0.38998684 0.045943063 -0.061512608 -0.104377076 -0.13649152 0.030956663 -0.011466697
-0.0608143 -0.019327855 0.16412504 -0.025972703 0.08413988 -0.018964054 0.30259565 0.212452
0.2537879 0.07424462 -0.1493907 -0.20776108 -0.25739196 -0.052817937 -0.05821617 0.004508638
-0.064120136 0.043343235 -0.06456886 -0.09214937 -0.40928793 -0.15755579 -0.021542832 0.22817226
-0.16567588 0.12327936 -0.057531234 0.053056784 0.09094393 -0.0008041596 -0.0053308257 -0.0917962
-0.23709626 -0.0137961805 0.098685406 0.03787594 0.08382785 0.04323852 0.044133693 -0.17652069
-0.053514265 -0.03463241 -0.16091433 0.060701165 0.138617 -0.0044391993 -0.007798573 -0.029097855
0.10365425 -0.19500825 0.07790147 -0.51255786 -0.41812477 -0.09303097 -0.10637809 -0.13501187
0.22649719 -0.06891709 -0.004144705 0.03139735 -0.2555116 0.07010489 0.022140417 -0.0024441718
0.13308476 0.2791797 0.08030798 -0.033697817 0.064305924 0.013342012 0.0063292347 -0.23391058
0.21918029 0.1251724 -0.16846326 -0.013323313 0.096165456 0.008551371 -0.061446574 0.07844617
-0.054019492 0.047263242 -0.06799901 0.05603983 -0.1797061 -0.019160766 -0.34843192 0.08807336
0.11136164 0.020635795 0.017942414 -0.07295838 -0.021668747 -0.057259213 0.058605645 -0.107836545
0.061150342 -0.007935375 -0.039189827 0.09360455 0.065591455 -0.019141927 0.11894663 0.055262
-0.02123234 0.06646402 -0.068424806 0.10793919 -0.07672738 -0.050719887 -0.077384844 -0.11472734
-0.07137354 -0.04183103 0.119861126 0.11763194 0.05120342 0.01737491 -0.047552124 -0.09399429
0.028432995 -0.11392675 0.038579162 -0.05244119 0.0058044316 0.114586025 0.07396154 -0.11941075
-0.032271802 -0.09634778 -0.087572776 -0.11629696 0.093095444 -0.0070423037 0.0885995 -0.049038403
-0.11621841 -0.12592721 0.07435691 -0.0019361973 0.038909674 0.11061698 -0.08205326 -0.08806008
-0.11701074 -0.07789185 -0.11200922 0.099949665 -0.070030555 0.058091402 -0.039323594 0.05495072
-0.055431087 0.04835578 0.3879319 -0.058859978 -0.055861756 -0.029770434 0.037431706 -0.0014272152
-0.049909364 0.12247735 -0.009760334 0.028717156 0.07106903 -0.10591352 -0.07578072 -0.020452434
0.040173095 0.1329768 0.12487284 -0.026523992 0.21957588 0.0112649575 -0.056999903 0.09933425
-0.12370433 -0.07327243 -0.1276637 -0.18480818 -0.016755302 0.10049419 0.05234738 0.09185256
0.20537709 0.072249934 0.031340864 0.009196842 -0.1816239 -0.15684552 -0.104773365 -0.077904195
-0.085870385 0.23513363 0.13655758 -0.0024373252 0.00010443689 -0.01780761 0.0067534572 0.053418137
0.34089127 0.101332694 -0.096479855 0.042838115 0.14521794 -0.06330842 -0.063999824 0.078549474
-0.044199925 -0.15230706 -0.20948787 0.0024434568 -0.03926919 -0.25668886 -0.061425973 0.1707403
00000000: 352b d73c cde8 2ebe 87e0 113f 0940 99bd
00000010: c8bd 563d 40a1 f03b 9790 4d3e 9b4b 943d
00000020: e414 03bf 70fa f33c 6964 ff3a c601 b13d
00000030: 8aab 57be 0e5f f53d a8d9 edbc c324 cc3d
00000040: ce73 68bd 357d 233e ff62 603e b3c0 7ebd
00000050: 9386 043d b52d 5fbd e9d6 13bd 60e6 2b3e
00000060: 20cd c0bb c503 78be 81a4 d0bc b4ee 92bd
00000070: 76fe d3bd a8bf 153e e1a3 723d aaf8 0b3d
00000080: 6041 8fbc 5bac c7be cb2e 3c3d a5f4 7bbd
00000090: a6c3 d5bd 6fc4 0bbe d498 fd3c d0de 3bbc
000000a0: 6a18 79bd 7355 9ebc 6510 283e b5c4 d4bc
000000b0: 8851 ac3d 815a 9bbc d1ed 9a3e 048d 593e
000000c0: 7df0 813e 900d 983d e0f9 18be 52bf 54be
000000d0: e1c8 83be 9f57 58bd 1474 6ebd 32bd 933b
000000e0: 6b51 83bd ad88 313d ae3c 84bd cfb8 bcbd
000000f0: 308e d1be 4e56 21be 987a b0bc fda5 693e
00000100: f0a6 29be e479 fc3d dfa5 6bbd 1252 593d
00000110: d040 ba3d 3dce 52ba 35ae aebb a5ff bbbd
00000120: 5dc9 72be 6009 62bc 931b ca3d cd23 1b3d
00000130: f0ad ab3d e01a 313d 88c5 343d d7c1 34be
00000140: c631 5bbd b7da 0dbd bac6 24be c9a1 783d
00000150: 9df1 0d3e b476 91bb 2c8b ffbb a05e eebc
00000160: ae48 d43d 3eb0 47be ce8a 9f3d fe36 03bf
00000170: 7314 d6be 0587 bebd c2dc d9bd 8d40 0abe
00000180: e1ee 673e 6724 8dbd 4ed0 87bb 829a 003d
00000190: 6bd2 82be 2793 8f3d d25f b53c 662e 20bb
000001a0: 5f47 083e a4f0 8e3e 8378 a43d b906 0abd
000001b0: d3b2 833d 7498 5a3c 7865 cf3b 4186 6fbe
000001c0: cc70 603e 322d 003e a281 2cbe 064a 5abc
000001d0: 65f2 c43d 0d1b 0c3c 67af 7bbd 63a8 a03d
000001e0: 8b43 5dbd 1a97 413d 1143 8bbd 058a 653d
000001f0: e004 38be 0af7 9cbc ab65 b2be ce5f b43d
00000200: 9211 e43d 660c a93c f8fb 923c 346b 95bd
00000210: a882 b1bc a388 6abd 790c 703d 68d9 dcbd
00000220: c878 7a3d 6003 02bc 8385 20bd beb3 bf3d
00000230: d054 863d 88cf 9cbc 4a9a f33d 685a 623d
00000240: 72ef adbc 4a1e 883d 4e22 8cbd 390f dd3d
00000250: 3f23 9dbd a8bf 4fbd f27b 9ebd 2bf6 eabd
00000260: 4a2c 92bd 0457 2bbd c079 f53d 04e9 f03d
00000270: adba 513d d455 8e3c 04c6 42bd 1480 c0bd
00000280: 50ec e83c 6e52 e9bd 2f05 1e3d 93cc 56bd
00000290: 1a33 be3b 14ac ea3d 2679 973d a08d f4bd
000002a0: 702f 04bd fc51 c5bd 5b59 b3bd 1a2d eebd
000002b0: d3a8 be3d 20c3 e6bb a873 b53d 7edc 48bd
000002c0: eb03 eebd 10f3 00be 7048 983d 00c8 fdba
000002d0: c05f 1f3d 288b e23d 8a0b a8bd d858 b4bd
000002e0: 54a3 efbd c385 9fbd 1765 e5bd 69b2 cc3d
000002f0: 2e6c 8fbd 40f1 6d3d c711 21bd 0214 613d
00000300: b50b 63bd b610 463d 039f c63e 2917 71bd
00000310: 4ccf 64bd 20e1 f3bc fd51 193d 6511 bbba
00000320: c36d 4cbd 68d5 fa3d cfe9 1fbc 3e40 eb3c
00000330: a48c 913d 30e9 d8bd ec32 9bbd dd8b a7bc
00000340: 8b8c 243d 122b 083e 55bd ff3d d848 d9bc
00000350: 80d8 603e a890 383c bb78 69bd c16f cb3d
00000360: b258 fdbd db0f 96bd 46ba 02be 5b3e 3dbe
00000370: 6a42 89bc e6cf cd3d 356a 563d 321d bc3d
00000380: 5f4e 523e c6f7 933d 475f 003d 5aae 163c
00000390: 9efb 39be 1d9c 20be 6b93 d6bd 3c8c 9fbd
000003a0: d0dc afbd dfc6 703e c0d5 0b3e 88bb 1fbb
000003b0: 2105 db38 44e1 91bc 1b4c dd3b facc 5a3d
000003c0: 4d89 ae3e 8487 cf3d 3b97 c5bd 0577 2f3d
000003d0: 03b4 143e d8a7 81bd 5712 83bd 8cde a03d
000003e0: fb0a 35bd 62f6 1bbe fd83 56be 6722 203b
000003f0: bbd8 20bd b96c 83be cd99 7bbd 8cd6 2e3e

feature_extractor.2.bias f4 [64]
0.3419987 0.22037572 -0.010846803 0.21254916 0.16475514 0.20090276 0.065929934 0.30537853
0.043456715 0.16814618 0.059866734 0.055408075 -0.054557752 -0.026095264 -0.15281706 0.30825132
0.002019897 0.0801183 0.17747359 0.0830137 0.2428027 -0.03411807 0.0916182 0.21578854
0.12499215 -0.1475272 -0.0025627355 0.19494162 0.02221313 -0.022999402 0.07080637 -0.0010518879
0.11436792 -0.09518945 0.029611716 -0.012618884 -0.051166013 0.28263378 0.29150486 -0.019094499
-0.07934613 0.040424526 0.16557151 0.006875685 -0.050186034 0.11697046 -0.09321881 -0.015232007
0.21517123 0.11880956 -0.0725609 0.22424406 -0.1059186 0.07782233 -0.047762483 0.17774068
-0.066885784 0.07898073 -0.083922915 0.12324003 0.24286146 0.07243417 -0.0668617 0.06835549
00000000: 741a af3e 2caa 613e cab6 31bc 7da6 593e
00000010: 92b5 283e 74b9 4d3e 4606 873d 935a 9c3e
00000020: abff 313d 832e 2c3e d236 753d 94f3 623d
00000030: f377 5fbd bcc5 d5bc 137c 1cbe 1ed3 9d3e
00000040: 4060 043b 1015 a43d a3bb 353e 1603 aa3d
00000050: 45a1 783e 64bf 0bbd 53a2 bb3d acf7 5c3e
00000060: e2fb ff3d 5f11 17be 91f3 27bb c79e 473e
00000070: 4ff8 b53c 3e69 bcbc ee02 913d 80df 89ba
00000080: ba39 ea3d b0f2 c2bd 4594 f23c 70bf 4ebc
00000090: 7493 51bd 60b5 903e 2040 953e 116c 9cbc
000000a0: 3980 a2bd 3094 253d 948b 293e 6d4d e13b
000000b0: df8f 4dbd 358e ef3d 81e9 bebd ab8f 79bc
000000c0: d955 5c3e 6d52 f33d cf9a 94bd 3ca0 653e
000000d0: daeb d8bd 5061 9f3d 98a2 43bd a701 363e
000000e0: 6afb 88bd a6c0 a13d c7df abbd 4565 fc3d
000000f0: adb0 783e 5e58 943d c9ee 88bd f7fd 8b3d

actor.0.weight f4 [64, 64]
0.41543496 0.12589382 0.091472454 0.27030197 0.072416134 0.19740541 -0.061794605 0.12303929
0.018350363 0.06819196 0.14132735 0.14406192 -0.03424351 0.03357901 -0.13576436 0.2569077
-0.08016315 -0.05052719 0.19664052 -0.029374216 0.09345186 -0.036970705 0.0911392 0.2954012
-0.036525242 -0.008759906 0.11697402 0.26251382 -0.04571923 0.093587436 0.1501441 0.021866158
0.27916935 0.07867433 -0.014890812 -0.01639849 0.09226608 0.5390272 0.22397582 0.21120061
-0.018338757 -0.090788975 0.074929826 -0.028993214 -0.11993892 -0.06552483 -0.10365338 0.08603238
0.18343683 0.0058424454 0.05580996 0.21670085 -0.12049496 0.07769063 0.065060586 0.22104561
-0.032730713 -0.059804615 -0.08198672 0.0149267055 0.21463259 -0.12184352 -0.028066 -0.061310437
-0.15591863 -0.08502727 0.052083142 -0.0704456 0.007517175 -0.1709463 0.10844304 -0.1126333
-0.006683902 -0.0907059 0.10643923 -0.13263573 -0.12117301 -0.037846845 0.16646089 -0.0805778
0.0193135 0.1127279 -0.09809213 0.022138735 0.19167775 -0.111711085 -0.040067807 -0.26919022
0.0069103437 0.1462739 0.13012543 -0.13375439 -0.042812854 0.025811115 -0.07499177 -0.04130754
-0.29633167 -0.09773302 0.04681562 0.032578453 -0.053344265 -0.37173536 -0.052944567 -0.070299506
0.0580868 0.013722867 -0.023367947 -0.07785668 0.015108872 0.1928194 0.121189274 0.0625963
0.09399764 -0.11948452 0.017753627 -0.19742523 0.12298614 -0.034278855 -0.05886531 -0.23322004
0.09237076 0.012836238 0.0886459 0.0021707325 0.013747308 -0.01441659 -0.06719738 0.026550546
-0.095696375 0.01746695 0.09083213 -0.018472074 0.084500015 0.11167747 -0.074647 -0.1221597
0.043605454 -0.018653676 -0.13397887 0.1057419 -0.114721864 -0.067214906 -0.116608284 -0.05443181
0.063427106 -0.075009935 0.0981955 0.06061651 0.09860176 0.0647316 -0.017977139 0.0026605027
-0.084547475 -0.09731333 0.07584612 0.046881333 -0.007193285 -0.13260879 -0.0118813375 -0.0532033
0.085869625 0.07231961 0.08057612 0.0114852935 0.040238187 -0.07036763 0.023425255 -0.09508151
0.035115972 0.046180934 0.08633552 0.09388041 -0.1286294 0.011669702 0.09353909 0.053369157
-0.054098543 0.019751374 -0.09176639 0.06434949 -0.0046890825 0.010535583 -0.010776058 0.02929379
-0.0131497085 -0.045219146 0.11623702 -0.048972543 0.039532106 0.0007889271 0.113660395 -0.0447492
-0.27054146 -0.16423085 -0.042246867 -0.067960426 -0.15920869 -0.08949154 -0.029924907 -0.104176626
0.04130705 -0.18503946 0.1203688 -0.036098354 -0.034343973 -0.07424422 0.22625859 -0.13675533
0.06420869 0.15373664 -0.06823547 -0.0062338137 -0.028713278 0.06460562 -0.2612145 -0.08681852
0.110991284 0.011955144 -0.020803696 -0.2253087 0.01235658 0.00943601 -0.032558534 -0.016905338
-0.20920993 0.076342165 0.044301324 0.07935719 0.045670584 -0.34957352 -0.2061682 -0.14371455
0.1226511 0.077402756 -0.20390585 -0.0929267 -0.03387779 0.19336873 0.11680083 0.02531124
-0.09606869 0.01936655 -0.11371248 -0.07233966 0.007865459 0.0469954 -0.028926745 -0.04871047
-0.122983724 0.08264375 0.059545096 0.095216 -0.035604693 0.075680286 0.07714145 -0.11477238
00000000: e4b3 d43e 4fea 003e e955 bb3d 0565 8a3e
00000010: e94e 943d a524 4a3e 571c 7dbd 06fc fb3d
00000020: 8053 963c 3aa8 8b3d 1eb8 103e f884 133e
00000030: ec42 0cbd 258a 093d d005 0bbe 6889 833e
00000040: 942c a4bd 99f5 4ebd 225c 493e 32a2 f0bc
00000050: b063 bf3d 986e 17bd 30a7 ba3d d33e 973e
00000060: 7e9b 15bd b585 0fbc 1390 ef3d 3668 863e
00000070: 1644 3bbd c5aa bf3d 60bf 193e a820 b33c
00000080: 49ef 8e3e 0220 a13d 98f8 73bc 2056 86bc
00000090: 00f6 bc3d b0fd 093f eb59 653e f944 583e
000000a0: 293b 96bc 92ef b9bd cf74 993d 2d83 edbc
000000b0: 89a2 f5bd e231 86bd 3948 d4bd bf31 b03d
000000c0: ddd6 3b3e fc71 bf3b fc98 643d d4e6 5d3e
000000d0: 10c6 f6bd 441c 9f3d 7c3e 853d c859 623e
000000e0: a410 06bd aff5 74bd a7e8 a7bd 248f 743c
000000f0: a5c8 5b3e 1889 f9bd abea e5bc a720 7bbd
00000100: 22a9 1fbe c722 aebd 2255 553d c845 90bd
00000110: a252 f63b 8c0c 2fbe 6217 de3d 4aac e6bd
00000120: a204 dbbb 04c4 b9bd d0fc d93d a9d1 07be
00000130: 8e29 f8bd 4b05 1bbd b974 2a3e f905 a5bd
00000140: 5837 9e3c e3dd e63d 87e4 c8bd 4b5c b53c
00000150: 2c47 443e c8c8 e4bd 241e 24bd 4dd3 89be
00000160: 2a70 e23b d3c8 153e 9a3f 053e e9f6 08be
00000170: 885c 2fbd d571 d33c 4995 99bd 1832 29bd
00000180: c9b8 97be 4028 c8bd bcc1 3f3d fc70 053d
00000190: 847f 5abd 1954 bebe 67dc 58bd 30f9 8fbd
000001a0: 6dec 6d3d e0d5 603c 236e bfbc 5373 9fbd
000001b0: 348b 773c 7372 453e 1532 f83d 7d32 803d
000001c0: d681 c03d 4db4 f4bd 0e70 913c d729 4abe
000001d0: 28e0 fb3d fc67 0cbd c01c 71bd 3cd1 6ebe
000001e0: e22c bd3d 164f 523c fb8b b53d d942 0e3b
000001f0: 643c 613c 9033 6cbc c89e 89bd 8880 d93c
00000200: 76fc c3bd d916 8f3c 3206 ba3d bf52 97bc
00000210: 580e ad3d 28b7 e43d 87e0 98bd dd2e fabd
00000220: a29b 323d 98cf 98bc c231 09be 368f d83d
00000230: 4cf3 eabd f8a7 89bd 53d0 eebd e4f3 5ebd
00000240: 12e6 813d cf9e 99bd b91a c93d 0549 783d
00000250: b8ef c93d 0092 843d cb44 93bc d45b 2e3b
00000260: 3a27 adbd 364c c7bd 3655 9b3d a406 403d
00000270: a6b5 ebbb 99ca 07be f1a9 42bc b4eb 59bd
00000280: 6adc af3d 4e1c 943d 1805 a53d d02c 3c3c
00000290: ccd0 243d e71c 90bd 52e6 bf3c 18ba c2bd
000002a0: c4d5 0f3d 3828 3d3d add0 b03d 5f44 c03d
000002b0: 6db7 03be 4732 3f3c 6c91 bf3d 9e99 5a3d
000002c0: 6f96 5dbd a2cd a13c 04f0 bbbd aac9 833d
000002d0: e0a6 99bb 709d 2c3c 108e 30bc 88f9 ef3c
000002e0: e071 57bc b637 39bd ad0d ee3d 6f97 48bd
000002f0: 6bec 213d 00d0 4e3a c8c6 e83d f04a 37bd
00000300: 6984 8abe 222c 28be 0d0b 2dbd d62e 8bbd
00000310: 9a07 23be 5747 b7bd 1425 f5bc 8e5a d5bd
00000320: 9531 293d fc7a 3dbe eb83 f63d dedb 13bd
00000330: 44ac 0cbd 5b0d 98bd 55b0 673e 9709 0cbe
00000340: d87f 833d 236d 1d3e 0abf 8bbd 0545 ccbb
00000350: 1c38 ebbc f44f 843d e8bd 85be e9cd b1bd
00000360: 664f e33d 82df 433c 836c aabc 53b7 66be
00000370: 4173 4a3c 7f99 1a3c 195c 05bd 107d 8abc
00000380: 213b 56be 4859 9c3d 4e75 353d 0686 a23d
00000390: 1411 3b3d 4dfb b2be c21d 53be e829 13be
000003a0: 8030 fb3d 5685 9e3d b2cc 50be 5b50 bebd
000003b0: 70c3 0abd 7402 463e 4635 ef3d 8559 cf3c
000003c0: a9bf c4bd 99a6 9e3c 17e2 e8bd d126 94bd
000003d0: 20de 003c 407e 403d c8f7 ecbc a184 47bd
000003e0: e4de fbbd 2041 a93d 8fe5 733d 9b00 c33d
000003f0: 3ad6 11bd 44fe 9a3d 56fc 9d3d c80d ebbd

actor.0.bias f4 [64]
0.107733764 0.05284959 -0.12381912 -0.07654946 0.0133469915 -0.09434047 0.08954915 0.18894115
0.10959879 -0.054952767 0.037810747 0.08204567 0.09225454 0.029976238 0.008779431 0.022717306
-0.029132532 0.05434181 -0.06849668 -0.109084286 0.023908919 -0.060955293 -0.02373863 -0.068042666
0.08102117 0.06457537 -0.124006785 0.06799553 0.06368132 -0.17946333 0.052244157 -0.116889514
-0.13440113 -0.12189278 0.0894404 -0.06512116 0.017528053 0.1540308 -0.031691853 -0.09789044
-0.010040128 -0.07672548 0.04424172 0.13703693 0.06708803 0.11226467 -0.077867314 -0.0032873838
0.042370137 -0.059815727 -0.03285652 -0.04666393 0.020018525 0.03645039 0.06560779 -0.07308124
0.10912934 0.0035770934 -0.008209565 0.22704223 0.08884036 0.026052825 0.09696626 0.035565197
00000000: 85a3 dc3d d078 583d e194 fdbd f7c5 9cbd
00000010: 57ad 5a3c 9435 c1bd 8b65 b73d ca79 413e
00000020: 5575 e03d 2716 61bd 71df 1a3d 8f07 a83d
00000030: f3ef bc3d ba90 f53c 9ad7 0f3c a519 ba3c
00000040: 59a7 eebc 8595 5e3d fd47 8cbd 9567 dfbd
00000050: a3dc c33c 42ac 79bd 8477 c2bc f459 8bbd
00000060: 6dee a53d 1740 843d 45f7 fdbd 3e41 8b3d
00000070: 5a6b 823d 3cc5 37be f8fd 553d c563 efbd
00000080: 73a0 09be eca2 f9bd 872c b73d 3e5e 85bd
00000090: fe96 8f3c 40ba 1d3e 51cf 01bd c87a c8bd
000000a0: 597f 24bc 4022 9dbd ce36 353d 6953 0c3e
000000b0: 7365 893d 05eb e53d e678 9fbd 2671 57bb
000000c0: 4f8c 2d3d 5601 75bd 8f94 06bd ad22 3fbd
000000d0: e4fd a33c 014d 153d 615d 863d 9eab 95bd
000000e0: 347f df3d ab6d 6a3b 6981 06bc c27d 683e
000000f0: eff1 b53d bc6c d53c 3f96 c63d d0ac 113d

actor.2.weight f4 [4, 64]
-0.03388087 -0.10682331 0.022512872 -0.028277094 -0.08068977 -0.1211146 0.06364912 -0.03822025
0.08175564 0.1331172 0.09583427 0.11860786 -0.08251885 -0.09786175 -0.09946918 0.5247354
0.35324916 -0.0031739722 0.39652205 -0.03705713 -0.040350486 -0.10597011 -0.07346775 -0.10045497
0.0473776 -0.08340675 -0.05436897 -0.03295815 -0.031156264 0.09966551 -0.0057376823 0.25584316
0.12441391 -0.0499786 0.07318834 -0.010422005 -0.02196286 0.12130703 0.097445376 -0.1065691
-0.062289186 -0.013174747 0.09160385 0.038038176 -0.06938913 0.062487442 0.036852226 0.011013127
0.06890457 0.15613905 0.3841935 0.091350384 0.19384117 -0.07493744 -0.012444421 -0.12563084
-0.057206776 0.007452877 0.26859826 -0.06747915 0.08509856 0.04330433 -0.07870837 0.0915931
0.2701656 -0.118982315 -0.06412016 -0.21253681 -0.25468954 -0.19897696 -0.038458843 0.18135352
-0.016627345 -0.12240065 0.0047646365 0.085051775 -0.070079796 0.15211004 0.051050648 0.035428386
0.08656416 -0.08837598 0.08950443 0.082256086 -0.09258078 -0.5236284 0.09737844 0.072865814
0.30183145 0.16882002 -0.008990049 -0.08741652 0.189008 -0.42975333 0.14336477 0.102558315
-0.08034931 -0.0033325702 0.002013571 -0.07998369 -0.07736974 0.3330609 0.14924529 0.0808343
0.066464506 -0.21803448 -0.023898412 0.22375168 0.13328356 -0.06416339 0.010279313 -0.19506755
0.18651508 -0.04494087 0.35284021 -0.026394729 0.08824346 -0.07093204 -0.10470679 0.042052943
-0.038004223 -0.012815186 0.12905905 0.12723428 -0.0053187013 0.058373976 0.065872945 -0.14061783
-0.07611816 0.23259294 -0.032431103 0.16243716 0.14870325 0.18072435 0.120344654 -0.035701014
-0.04167868 0.28697434 -0.061924372 0.084418766 0.08004475 0.085367605 0.05801487 -0.04882355
-0.1754647 -0.05519944 0.007023147 -0.041449677 0.13615522 0.6172376 0.16836306 0.07664463
-0.2636034 0.09348909 0.073391065 0.07922659 -0.056137037 0.2901656 0.07596987 -0.090744
0.08379132 0.009697661 0.08392504 0.22681047 -0.0017659687 -0.26066867 -0.16003074 0.11216332
-0.0064109704 0.3113824 0.2219517 0.11621538 0.063713714 0.07096028 0.09568873 0.18067756
-0.061425846 -0.12589714 -0.25940192 -0.06620604 -0.16172412 -0.084984735 -0.101040445 0.0836685
-0.08917939 -0.10547403 -0.25017902 0.04188281 -0.08258241 0.19108729 -0.056919504 0.30923092
-0.09864394 -0.052207366 0.10633702 0.066986725 0.017399345 0.033165593 0.0098847905 -0.06737589
0.06951693 -0.066761926 0.16050805 -0.072974086 -0.107506104 -0.026511854 -0.1189044 0.14468615
0.21554527 -0.0051895827 0.097820505 0.3292112 -0.016917963 -0.46742615 -0.026575556 -0.0982887
0.07643299 0.13465284 -0.01409334 0.053873274 -0.012072305 0.15701701 -0.002304627 0.18198046
0.20823975 0.1113203 0.11256936 -0.016533589 -0.02707971 -0.09890253 0.24286455 -0.008988455
-0.01474222 -0.05510428 -0.06332775 -0.07624577 0.0452701 -0.072508834 0.031971887 0.057570614
0.094118915 0.0038015808 -0.010368479 -0.09901111 0.0065084663 0.020075811 -0.09483973 0.07355455
-0.02622054 0.058592845 0.06962919 0.037483923 0.27831677 0.0078017763 0.033041466 0.010570923
00000000: abc6 0abd 2ec6 dabd ea6c b83c 5da5 e7bc
00000010: ae40 a5bd ee0a f8bd 785a 823d d68c 1cbd
00000020: 806f a73d e04f 083e c244 c43d ade8 f23d
00000030: a5ff a8bd be6b c8bd 7fb6 cbbd 0f55 063f
00000040: 13dd b43e 6b02 50bb f004 cb3e 38c9 17bd
00000050: 8d46 25bd db06 d9bd 4276 96bd 56bb cdbd
00000060: 040f 423d 28d1 aabd ffb1 5ebd 20ff 06bd
00000070: 6c3b ffbc 6e1d cc3d 2b03 bcbb e0fd 823e
00000080: b8cc fe3d 5cb6 4cbd c5e3 953d 0fc1 2abc
00000090: 75eb b3bc d26f f83d 7191 c73d e640 dabd
000000a0: f222 7fbd e5da 57bc cd9a bb3d ebcd 1b3d
000000b0: e31b 8ebd d5f2 7f3d 5cf2 163d 6770 343c
000000c0: d71d 8d3d eae2 1f3e 03b5 c43e e915 bb3d
000000d0: 4d7e 463e cd78 99bd afe3 4bbc 5fa5 00be
000000e0: a751 6abd 4337 f43b b685 893e 8232 8abd
000000f0: 2748 ae3d e25f 313d db31 a1bd 2a95 bb3d
00000100: 2553 8a3e 00ad f3bd 6e51 83bd 40a3 59be
00000110: ab66 82be 9ec0 4bbe 0587 1dbd bdb4 393e
00000120: 1236 88bc 31ad fabd ab20 9c3b a02f ae3d
00000130: ff85 8fbd bcc2 1b3e 7c1a 513d 5b1d 113d
00000140: 8d48 b13d 77fe b4bd 194e b73d e175 a83d
00000150: fe9a bdbd 830c 06bf 596e c73d ac3a 953d
00000160: a789 9a3e 28df 2c3e 004b 13bc 6f07 b3bd
00000170: 508b 413e a108 dcbe 37ce 123e 180a d23d
00000180: 2e8e a4bd 4067 5abb 1ef6 033b 7dce a3bd
00000190: 0774 9ebd f586 aa3e c2d3 183e 748c a53d
000001a0: 8b1e 883d 6e44 5fbe 9ac6 c3bc 291f 653e
000001b0: 7c7b 083e 1868 83bd 906a 283c cabf 47be
000001c0: cffd 3e3e eb13 38bd 79a7 b43e c239 d8bc
000001d0: fdb8 b43d d144 91bd 8370 d6bd b53f 2c3d
000001e0: 51aa 1bbd c9f6 51bc 0e28 043e b449 023e
000001f0: 8048 aebb 8d19 6f3d 65e8 863d 1ffe 0fbe
00000200: d6e3 9bbd d82c 6e3e 7ad6 04bd ed55 263e
00000210: aa45 183e ce0f 393e 4277 f63d 3a3b 12bd
00000220: 43b7 2abd 4dee 923e 69a4 7dbd bfe3 ac3d
00000230: 80ee a33d 36d5 ae3d 00a1 6d3d 34fb 47bd
00000240: 05ad 33be cf18 62bd 6d22 e63b 23c7 29bd
00000250: 466c 0b3e 4903 1e3f 5e67 2c3e dcf7 9c3d
00000260: 06f7 86be 3577 bf3d 0e4e 963d 8d41 a23d
00000270: f3ef 65bd 9690 943e 1796 9b3d fed7 b9bd
00000280: c99a ab3d f0e2 1e3c e4e0 ab3d 0141 683e
00000290: 1478 e7ba 5d76 85be 19df 23be e2b5 e53d
000002a0: 1e13 d2bb 846d 9f3e 4e47 633e 5402 ee3d
000002b0: 567c 823d a053 913d 74f8 c33d 8a03 393e
000002c0: ab99 7bbd 2eeb 00be 54d0 84be 0897 87bd
000002d0: 029b 25be 7a0c aebd 4bee cebd 645a ab3d
000002e0: afa3 b6bd c502 d8bd 7717 80be 4f8d 2b3d
000002f0: f720 a9bd 63ac 433e 6d24 69bd 8453 9e3e
00000300: d605 cabd 64d7 55bd 39c7 d93d 5630 893d
00000310: 1289 8e3c a5d8 073d d1f3 213c 5ffc 89bd
00000320: e45e 8e3d 7aba 88bd 395c 243e 7073 95bd
00000330: 292c dcbd 632f d9bc 2684 f3bd 9b28 143e
00000340: e6b7 5c3e 600d aabb 1e56 c83d 5f8e a83e
00000350: 8a97 8abc 7b52 efbe fbb4 d9bc 964b c9bd
00000360: e688 9c3d 6fe2 093e c1e7 66bc 39aa 5c3d
00000370: ebca 45bc 11c9 203e 3a09 17bb 1659 3a3e
00000380: cd3c 553e e6fb e33d c48a e63d 7371 87bc
00000390: 45d6 ddbc 698d cabd 7cb1 783e 5044 13bc
000003a0: 5a89 71bc 07b5 61bd fbb1 81bd be26 9cbd
000003b0: 246d 393d 837f 94bd f4f4 023d 2acf 6b3d
000003c0: 6bc1 c03d f123 793b 8ee0 29bc 56c6 cabd
000003d0: f944 d53b 0776 a43c 553b c2bd c5a3 963d
000003e0: 75cc d6bc 0dff 6f3d c099 8e3d be88 193d
000003f0: 897f 8e3e 0ba6 ff3b 7d56 073d aa31 2d3c

actor.2.bias f4 [4]
0.12671201 0.0050494247 -0.07945782 -0.016247286
00000000: cbc0 013e a575 a53b c8ba a2bd 0719 85bc

critic.0.weight f4 [64, 64]
-0.08227835 0.005932557 -0.09583846 0.0713235 -0.06061157 0.0011060542 -0.0031184496 -0.001623492
0.0109117795 -0.004532173 0.00019640337 0.030136317 -0.100884035 -0.051471476 -0.007483224 0.116167955
0.06837779 -0.08411459 0.15402955 0.03769493 -0.0760345 0.10690217 -0.071938865 0.13533753
0.0853941 -0.16219397 0.0870851 0.041978564 -0.045328077 0.1285732 -0.06665281 -0.1082342
0.11136316 -0.03108871 0.07114008 -0.015691325 0.012202024 0.06509986 0.10543736 -0.039526895
0.124066636 0.10706751 0.013967409 0.039823357 -0.051553637 0.15544528 0.10315655 0.056752067
0.031780247 0.06149227 -0.11915411 0.05045728 0.07861534 0.022140801 0.06076108 0.044969864
0.10856016 -0.026672537 -0.029853247 -0.0017301425 0.17221029 0.039839745 0.0022779868 -0.0883246
-0.041052915 -0.10248878 -0.09910336 0.1000205 0.061264824 0.019906756 -0.13195643 0.05159132
0.08871479 0.12156706 0.07625163 -0.10899599 0.09850451 0.10082875 -0.058492642 -0.035377987
-0.031582132 -0.11035267 0.1599271 -0.045841902 -0.051355615 0.070438996 0.05573207 -0.014495674
-0.09304582 0.00051986845 0.05437252 0.05146958 0.09714557 -0.034544144 0.006974299 0.06578912
0.008098914 -0.09657748 -0.120582215 0.095826834 -0.046171814 -0.15458794 0.008700889 -0.103979796
0.032276157 0.0010428727 -0.03458217 -0.06273112 -0.08949566 0.1758697 -0.014785378 0.095187
-0.007939652 0.019628676 -0.12222127 -0.05687784 -0.0607927 -0.092664674 0.04971738 0.06646532
0.048354164 -0.07866911 -0.017383726 -0.07423422 -0.07711883 0.043730482 0.1159762 -0.04946954
0.06530675 0.025329562 -0.105173364 -0.014263833 -0.028028222 0.076197304 -0.0838517 -0.059060298
0.0684162 0.028402578 -0.12288316 -0.07856779 0.06855904 -0.072945595 -0.1635467 0.10831964
0.038278237 -0.075280465 -0.01929894 0.058777537 0.020978127 0.049550176 0.12843494 0.03202869
-0.06193821 -0.19408588 0.07767401 -0.028600829 -0.08500865 -0.1454683 0.12990959 0.015901938
0.17526829 -0.028240383 0.050506923 0.115073964 0.058276206 0.05554842 -0.01967965 0.06847302
0.1123101 -0.08340418 -0.029564988 0.020345563 -0.0518256 0.111180894 -0.04256346 0.004864243
0.13126329 0.110036954 0.044219684 0.011116951 0.040101036 0.08744179 -0.095631406 0.08460411
-0.09285228 0.01455995 0.08901522 0.011742923 -0.09643403 -0.041093975 -0.0265989 -0.021449892
-0.1898044 0.12289897 -0.051548973 -0.053259443 -0.0954261 -0.07828698 -0.07556465 -0.13637301
0.08229789 -0.1813948 0.03558845 -0.0011216683 0.0632719 0.07294915 -0.07760793 -0.09984452
-0.096720144 0.0063110036 -0.15808125 0.0274195 -0.042522848 -0.08541396 -0.019992817 -0.13099259
0.047585905 0.03742518 -0.093962446 -0.037195455 -0.033150602 0.013546115 0.095112085 0.02811782
0.08289591 0.07538089 -0.09212623 -0.029894114 0.043439522 0.08711903 0.067285754 0.06750229
-0.037446603 -0.07332769 -0.10502801 0.0032234713 -0.15501726 0.11104546 -0.09292469 0.08724193
0.15955596 0.013962725 -0.0878131 -0.12330342 0.056184143 0.024255246 0.08325726 0.031720106
0.08734241 0.06048319 0.03702132 -0.047239613 -0.26961538 -0.11396274 -0.09502496 -0.107320964
00000000: 8d81 a8bd e565 c23b f446 c4bd 0e12 923d
00000010: d643 78bd 05f9 903a e75e 4cbb 5acb d4ba
00000020: 52c7 323c 9f82 94bb a1f1 4d39 70e0 f63c
00000030: 4a9c cebd c1d3 52bd d535 f5bb 77e9 ed3d
00000040: a809 8c3d 4544 acbd ecb9 1d3e 0066 1a3d
00000050: fab7 9bbd 86ef da3d af54 93bd ec95 0a3e
00000060: 1ae3 ae3d 2d16 26be ac59 b23d b7f1 2b3d
00000070: efa9 39bd b1a8 033e 4581 88bd e4a9 ddbd
00000080: 5e12 e43d c0ad febc e4b1 913d 188b 80bc
00000090: 00eb 473c 1353 853d 8bef d73d f4e6 21bd
000000a0: a616 fe3d 3646 db3d 8fd7 643c d11d 233d
000000b0: e829 53bd 0c2d 1f3e be43 d33d db74 683d
000000c0: 012c 023d 52df 7b3d 1207 f4bd 4bac 4e3d
000000d0: 1401 a13d a060 b53c 9ce0 783d 5232 383d
000000e0: ca54 de3d 5d80 dabc cc8e f4bc f3c5 e2ba
000000f0: e557 303e 002f 233d 474a 153b 87e3 b4bd
00000100: 1a27 28bd a3e5 d1bd b4f6 cabd 8cd7 cc3d
00000110: d3f0 7a3d 7e13 a33c 961f 07be 6c51 533d
00000120: 1ab0 b53d 27f8 f83d d129 9c3d 4a39 dfbd
00000130: bcbc c93d 4e7f ce3d fb95 6fbd 82e8 10bd
00000140: 445c 01bd 9500 e2bd eec3 233e b8c4 3bbd
00000150: 445a 52bd 5242 903d 5047 643d 437f 6dbc
00000160: cf8e bebd c847 083a b8b5 5e3d c4d1 523d
00000170: 42f4 c63d 297e 0dbd a988 e43b 72bc 863d
00000180: 4fb1 043c 6aca c5bd cff3 f6bd dc40 c43d
00000190: a81e 3dbd 4d4c 1ebe 2c8e 0e3c 5cf3 d4bd
000001a0: 0134 043d 00b1 883a 09a6 0dbd 2c79 80bd
000001b0: 8049 b7bd 3017 343e 5f3e 72bc 67f1 c23d
000001c0: 5015 02bc 51cc a03c 254f fabd bdf8 68bd
000001d0: c401 79bd fac6 bdbd 74a4 4b3d f81e 883d
000001e0: 040f 463d 451d a1bd 5168 8ebc 1c08 98bd
000001f0: 7af0 9dbd bc1e 333d ee84 ed3d 93a0 4abd
00000200: 8cbf 853d f17f cf3c 2265 d7bd dab2 69bc
00000210: 719b e5bc 550d 9c3d 71ba abbd 36e9 71bd
00000220: cb1d 8c3d 86ac e83c 2baa fbbd 26e8 a0bd
00000230: af68 8c3d 8064 95bd c978 27be b0d6 dd3d
00000240: a4c9 1c3d a52c 9abd d018 9ebc b7c0 703d
00000250: 52da ab3c 20f5 4a3d 7384 033e 8430 033d
00000260: ecb2 7dbd 73be 46be 8d13 9f3d 494c eabc
00000270: 0419 aebd a4f5 14be 0507 053e c844 823c
00000280: 8879 333e 6058 e7bc 59e0 4e3d e6ab eb3d
00000290: 08b3 6e3d bd86 633d 3837 a1bc 953b 8c3d
000002a0: d602 e63d d0cf aabd 4632 f2bc bdab a63c
000002b0: 1547 54bd cfb2 e33d 0657 2ebd 3a64 9f3b
000002c0: e269 063e 0e5b e13d b31f 353d df23 363c
000002d0: fc40 243d ae14 b33d 66da c3bd eb44 ad3d
000002e0: 5629 bebd db8c 6e3c 9d4d b63d 6465 403c
000002f0: 347f c5bd 2852 28bd f0e5 d9bc afb7 afbc
00000300: 165c 42be 75b2 fb3d 0425 53bd 9326 5abd
00000310: c26e c3bd ed54 a0bd a4c1 9abd 5ea5 0bbe
00000320: cc8b a83d 8fbf 39be 32c5 113d f104 93ba
00000330: b394 813d 5d66 953d e8f0 9ebd 497b ccbd
00000340: 3615 c6bd 89cc ce3b 0de0 21be dc9e e03c
00000350: 702c 2ebd 84ed aebd fac7 a3bc ec22 06be
00000360: 70e9 423d 254b 193d 626f c0bd 435a 18bd
00000370: edc8 07bd 86f0 5d3c 20ca c23d 5857 e63c
00000380: 55c5 a93d 4c61 9a3d adac bcbd 80e4 f4bc
00000390: a4ed 313d 766b b23d 1dcd 893d a43e 8a3d
000003a0: 9c61 19bd d42c 96bd ed18 d7bd e040 533b
000003b0: d8bc 1ebe cd6b e33d 4d4f bebd e6ab b23d
000003c0: a362 233e eac3 643c 5bd7 b3bd 8186 fcbd
000003d0: 5821 663d f0b2 c63c c882 aa3d f1ec 013d
000003e0: 94e0 b23d 39bd 773d aba3 173d 537e 41bd
000003f0: 070b 8abe 4c65 e9bd 729c c2bd 18cb dbbd

critic.0.bias f4 [64]
0.092369065 0.14689136 0.1308844 -0.015737874 -0.104188584 -0.008941478 0.0662006 0.2304485
0.10783417 -0.08016178 -0.026574789 0.2560754 -0.044198696 -0.048714485 0.024486303 0.265909
0.07869827 0.068836294 0.0702969 0.2590803 0.15793785 -0.004143684 0.1347714 -0.08202119
-0.118845426 0.044236813 0.15544096 -0.09409399 0.059292376 0.23634365 0.07675583 -0.04245536
0.1200911 -0.11493576 0.16402881 0.07381121 -0.117064476 -0.06846654 -0.1336657 0.06638508
0.152942 0.273074 -0.16672961 0.06869096 0.047564298 -0.09748322 0.063357785 0.0047854534
0.07307676 -0.07916259 0.05390278 0.025938123 -0.06703702 -0.19205634 0.11047839 0.0116928425
0.029438416 -0.035782065 -0.07978803 0.07412965 0.06916317 0.04820431 0.12569475 0.043558463
00000000: fe2b bd3d b06a 163e 8f06 063e b7ec 80bc
00000010: d360 d5bd 477f 12bc 2e94 873d b1fa 6b3e
00000020: 29d8 dc3d dc2b a4bd 5fb3 d9bc 511c 833e
00000030: b109 35bd d788 47bd 8097 c83c 3925 883e
00000040: 8f2c a13d 0bfa 8c3d d2f7 8f3d 2ca6 843e
00000050: 76ba 213e bec7 87bb 8401 0a3e bafa a7bd
00000060: 3b65 f3bd a931 353d ea2b 1f3e 5ab4 c0bd
00000070: 90dc 723d 1204 723e 2932 9d3d ace5 2dbd
00000080: 53f2 f53d 7163 ebbd 2bf7 273e 552a 973d
00000090: 80bf efbd 2f38 8cbd a9df 08be e7f4 873d
000000a0: d49c 1c3e 5bd0 8b3e 2bbb 2abe d9ad 8c3d
000000b0: c8d2 423d 48a5 c7bd bac1 813d 4bcf 9c3b
000000c0: 45a9 953d ff1f a2bd 29c9 5c3d 307c d43c
000000d0: b54a 89bd 6baa 44be 7e42 e23d 5693 3f3c
000000e0: d528 f13c 3790 12bd e867 a3bd 49d1 973d
000000f0: 6ca5 8d3d e271 453d 20b6 003e 5c6a 323d

critic.2.weight f4 [1, 64]
0.0760383 0.06705181 0.0628521 -0.1409298 -0.058644842 -0.059135083 0.10603145 0.14449021
0.1568486 -0.05926405 -0.08292798 0.14244616 0.0040701595 -0.19297796 -0.17326128 0.08369752
0.13446468 -0.06220518 0.0006580121 0.112691306 0.15330657 -0.10772763 0.10756548 -0.08716515
-0.034795895 0.062740676 0.092387006 0.067047596 0.18054873 0.08824205 -0.10717749 -0.05185571
-0.08440476 -0.22788095 0.12610224 0.14653565 0.10946223 -0.009996191 -0.07313467 0.029751558
0.05137888 0.25781077 -0.19398428 -0.08951327 -0.09496327 -0.095554814 0.17274284 -0.08611442
0.101662196 0.0766063 0.044252273 -0.06055771 -0.06690597 -0.109717704 0.09274059 -0.1707321
-0.1784536 -0.05300471 -0.015418658 0.18438204 -0.017395448 0.074847355 0.11821033 0.026255444
00000000: f8b9 9b3d 7652 893d 9ab8 803d e74f 10be
00000010: 9335 70bd a137 72bd 0427 d93d 3ef5 133e
00000020: eb9c 203e dcbe 72bd 25d6 a9bd 68dd 113e
00000030: f95e 853b 049c 45be 686b 31be 9b69 ab3d
00000040: 1cb1 093e dcca 7ebd 727e 2c3a b3ca e63d
00000050: 66fc 1c3e 4ea0 dcbd 4a4b dc3d a483 b2bd
00000060: 2486 0ebd 2f7e 803d 6635 bd3d 4050 893d
00000070: c4e1 383e 3fb8 b43d df7f dbbd a766 54bd
00000080: 67dc acbd a059 69be f220 013e 710d 163e
00000090: bc2d e03d 10c7 23bc a1c7 95bd 8ab9 f33c
000000a0: a972 523d c6ff 833e d1a3 46be bc52 b7bd
000000b0: 1a7c c2bd 3eb2 c3bd 80e3 303e c25c b0bd
000000c0: 4534 d03d c4e3 9c3d df41 353d 5c0b 78bd
000000d0: ff05 89bd adb3 e0bd c7ee bd3d 65d4 2ebe
000000e0: 8abc 36be 771b 59bd 8a9e 7cbc a5ce 3c3e
000000f0: e680 8ebc 9249 993d 4218 f23d a815 d73c

exp_avg f4 [64, 2]
0.0006186933 0.0023342615 0.00051616353 0.003942965 -0.006847793 -0.02747414 -3.7162486e-06 3.1333897e-14
0.0 0.0 -0.00036066264 0.0002830044 -0.00079457706 -0.0015415387 -1.6679227e-05 3.4738405e-06
-0.0066416706 -0.0081734685 0.0 0.0 -0.0010199515 -0.0005954475 -4.3344706e-05 9.480906e-06
-0.0024736158 -0.0031866573 0.0 0.0 0.0 0.0 3.1364085e-05 -0.00021689411
-0.00094071176 0.0020832596 -0.00033422682 0.0007578489 0.002941158 0.003170201 0.00020742975 0.002945449
-0.0005682133 0.00031604306 -0.0026608284 -0.003537608 0.0 5.4881807e-06 -0.001023326 -9.898247e-05
0.0 0.0 -0.0027709147 -0.0035434538 0.0010052726 0.0044104895 0.0015441683 0.0049292417
0.0018330672 0.0059096757 -0.0010014593 -0.0005467665 -3.284238e-05 7.4484005e-06 -0.00010537868 0.0006640712
-0.00051249634 -4.9074544e-05 -0.005550099 -0.0065971203 -0.00035725487 -0.00019631865 -0.00015668785 0.00065846415
0.00087085046 0.0024140633 -0.00063143665 0.0003897701 -0.0008776797 -0.00016425413 -0.00038346276 0.0027496293
0.0008750197 0.0053128167 -0.00077033683 -0.0002387649 0.0014742989 -0.0027306632 -0.00097150303 0.0015575784
-0.00020502774 0.002315954 -0.0007787774 0.0014652875 -0.002454748 -0.00787536 -9.538751e-05 -0.0003006577
-0.0002688817 -0.0021864392 3.4357425e-05 0.0007047457 0.0005261153 0.0015595503 -0.0035258858 -0.0042648907
-0.0039267773 -0.0049583097 -0.0004612611 0.0026234286 -5.3430056e-05 -0.00014805266 -0.0013355934 0.0016162135
-0.0015588636 0.0006308635 0.0009513722 0.001157655 -6.1003716e-06 0.002117885 -0.00084674655 -0.00014345541
-0.0036903713 -0.005028549 -0.0013543686 0.003520223 0.0014875971 0.0045723547 -0.000803775 -0.0016544682
00000000: ce2f 223a 69fa 183b 264f 073a fd33 813b
00000010: 7363 e0bb 7311 e1bc aa64 79b6 861d 0d29
00000020: 0000 0000 0000 0000 5217 bdb9 3560 9439
00000030: 2a4b 50ba 750d caba 5eea 8bb7 2020 6936
00000040: 5fa2 d9bb 03ea 05bc 0000 0000 0000 0000
00000050: e5af 85ba ce17 1cba 06cd 35b8 2e10 1f37
00000060: 631c 22bb 3dd7 50bb 0000 0000 0000 0000
00000070: 0000 0000 0000 0000 ee8c 0338 126e 63b9
00000080: 199a 76ba 4c87 083b 2a3b afb9 61aa 463a
00000090: 71c0 403b 26c3 4f3b 8081 5939 6f08 413b
000000a0: 26f4 14ba 95b2 a539 4b61 2ebb 37d7 67bb
000000b0: 0000 0000 1d27 b836 1f21 86ba cf94 cfb8
000000c0: 0000 0000 0000 0000 3c98 35bb 4a39 68bb
000000d0: 5ac3 833a de85 903b b165 ca3a 7a85 a13b
000000e0: 8743 f03a f4a5 c13b 6643 83ba e154 0fba
000000f0: 3dc0 09b8 46ed f936 bffe dcb8 1015 2e3a
00000100: 0c59 06ba 64d5 4db8 9bdd b5bb a82c d8bb
00000110: f04d bbb9 e3da 4db9 934c 24b9 c89c 2c3a
00000120: c949 643a 4335 1e3b ff86 25ba 0f5a cc39
00000130: 1614 66ba a23b 2cb9 800b c9b9 2033 343b
00000140: 9461 653a 2317 ae3b 6ef0 49ba f75c 7ab9
00000150: 433d c13a edf4 32bb 77ac 7eba a927 cc3a
00000160: b7fc 56b9 43c7 173b de26 4cba e40e c03a
00000170: d6df 20bb a707 01bc c80a c8b8 98a1 9db9
00000180: b1f8 8cb9 5d4a 0fbb 011b 1038 afbe 383a
00000190: 00eb 093a d369 cc3a 8c12 67bb 7fc0 8bbb
000001a0: 32ac 80bb 5179 a2bb 6bd5 f1b9 d4ed 2b3b
000001b0: 161a 60b8 953e 1bb9 140f afba 20d7 d33a
000001c0: c852 ccba 8860 253a 8265 793a 75bc 973a
000001d0: cbb1 ccb6 37cc 0a3b 33f8 5dba 856c 16b9
000001e0: 28da 71bb 87c6 a4bb 1285 b1ba 8bb3 663b
000001f0: 7afb c23a b1d3 953b 6db4 52ba beda d8ba

exp_avg_sq f4 [64, 2]
4.2871732e-05 0.0002055005 0.00021355206 0.00045417686 0.0002895153 0.007179342 7.718482e-06 1.2124792e-07
0.0 0.0 6.3705584e-06 2.049759e-05 0.0004933692 0.0011527346 1.4038111e-09 1.982605e-09
0.00077181007 0.000912066 0.0 0.0 0.00030806227 0.00045414252 1.0223235e-08 1.6115013e-08
5.34771e-05 6.524805e-05 0.0 0.0 0.0 0.0 6.6912253e-06 5.1716255e-05
0.00041739648 0.0005526704 4.288744e-05 0.00011790602 0.00011844725 0.00063389767 0.0005328546 0.0008318905
0.0005479242 0.00076999987 8.001493e-05 6.4783264e-05 0.0 6.218302e-09 0.00032823885 0.00066802226
0.0 0.0 0.0017990245 0.0011923041 0.00049691956 0.00083182927 0.00022233075 0.0011407285
0.00023425565 0.0015629458 3.265609e-05 0.00011086568 5.8740235e-09 9.593243e-09 9.454016e-05 0.00019336221
0.00023033438 5.7203783e-06 0.0005787107 0.0006282858 0.000159412 0.00021242505 0.00032927483 0.00040511304
9.231075e-05 0.00050649495 8.253593e-05 0.0001940217 1.5482377e-05 4.517024e-05 0.00039876756 0.0005035934
0.0007694803 0.0012676036 0.00082147616 0.0010851738 0.00071999803 0.000996973 0.00024536796 0.00019150751
7.507595e-05 0.00017318293 4.9075792e-05 9.865557e-05 9.283121e-05 0.0019941935 5.010021e-06 9.171544e-05
0.0039420873 0.006252608 0.00036354546 0.0005477599 3.7412246e-05 0.00015712905 9.142249e-05 9.3520066e-05
0.00012672313 0.00018155148 0.00052846 0.0006941906 1.6293932e-05 1.3925239e-06 0.0001495876 0.00032405515
3.8481634e-05 7.3968e-05 7.1413444e-05 0.00011206886 0.0010151075 0.0014608861 8.8268804e-05 9.6026895e-05
0.0001407583 0.00022331644 0.002313181 0.0032183868 0.00022033312 0.0012559398 0.0017834259 0.0031652485
00000000: 2cd1 3338 9f7b 5739 f2ec 5f39 961e ee39
00000010: 16ca 9739 b040 eb3b a17e 0137 6030 0234
00000020: 0000 0000 0000 0000 aec2 d536 3df2 ab37
00000030: 7255 013a 5b17 973a 36f0 c030 5b3e 0831
00000040: 4c53 4a3a b717 6f3a 0000 0000 0000 0000
00000050: 6b83 a139 fa19 ee39 43a2 2f32 4a6d 8a32
00000060: 994c 6038 c8d5 8838 0000 0000 0000 0000
00000070: 0000 0000 0000 0000 3085 e036 e8e9 5838
00000080: 02d6 da39 15e1 103a 0ae2 3338 5044 f738
00000090: e266 f838 272c 263a 44af 0b3a 3a13 5a3a
000000a0: 92a2 0f3a d1d9 493a b0cd a738 40dc 8738
000000b0: 0000 0000 c3a8 d531 7917 ac39 371e 2f3a
000000c0: 0000 0000 0000 0000 3fcd eb3a 1647 9c3a
000000d0: b543 023a 1e0f 5a3a 7521 6939 7f84 953a
000000e0: 86a2 7539 c2db cc3a 36f8 0838 8f80 e838
000000f0: 75d4 c931 87cf 2432 dd43 c638 46c1 4a39
00000100: ea85 7139 adf1 bf36 9eb4 173a 8cb3 243a
00000110: d527 2739 6abe 5e39 85a2 ac39 5a65 d439
00000120: f596 c138 4dc6 043a 2417 ad38 4e72 4b39
00000130: 27e0 8137 2d75 3d38 ad11 d139 9503 043a
00000140: f3b6 493a b825 a63a 5558 573a 643c 8e3a
00000150: 40be 3c3a ddac 823a bba4 8039 68cf 4839
00000160: 1872 9d38 7098 3539 bbd6 4d38 4ee5 ce38
00000170: 60ae c238 04b1 023b c11b a836 5a57 c038
00000180: a02c 813b ade2 cc3b 3f9a be39 8b97 0f3a
00000190: 18eb 1c38 02c3 2439 13ba bf38 3420 c438
000001a0: fbe0 0439 db5e 3e39 5a88 0a3a 58fa 353a
000001b0: f4ae 8837 c2e6 ba35 9eda 1c39 f2e5 a939
000001c0: 5767 2138 451f 9b38 cdc3 9538 8306 eb38
000001d0: 5b0d 853a 347b bf3a f41c b938 0c62 c938
000001e0: 8598 1339 0d2a 6a39 bd98 173b 92eb 523b
000001f0: 3909 6739 599e a43a d8c1 e93a 0f70 4f3b

exp_avg f4 [64]
0.0005881083 0.001021751 -0.0068548284 -3.459038e-06 0.0 6.385495e-05 -0.0005679514 -1.3425516e-05
-0.002014554 0.0 -0.0003795796 -3.4497418e-05 -0.0008136483 0.0 0.0 -6.207278e-05
0.000528598 2.1936912e-05 0.0006665061 0.00085813936 -0.00022444187 -0.0009034623 5.1210973e-06 -0.0003321885
0.0 -0.0007319743 0.0012424638 0.0012702713 0.0015514118 -0.00025186536 -2.5883646e-05 -1.9961062e-05
-0.00012904397 -0.0016525447 2.4146197e-05 -6.117411e-05 0.0006702025 0.0001551851 -0.00014413433 0.0007038801
0.0014562152 -0.00039819832 -0.00072148116 0.00031104832 0.00033294162 0.00016481608 -0.0021393339 -0.00012412881
-0.0011855831 -6.4114756e-05 0.0003994455 -0.0010874349 -0.0012542128 0.00070496433 6.102616e-06 6.885081e-05
5.696838e-06 0.00052741135 0.00076986104 -0.0001602366 -0.0012265798 0.0010864631 0.0012260237 -0.00091142015
00000000: 482b 1a3a 46ec 853a 789e e0bb d221 68b6
00000010: 0000 0000 dee9 8538 93e2 14ba 273e 61b7
00000020: 9c06 04bb 0000 0000 5002 c7b9 52b1 10b8
00000030: 034b 55ba 0000 0000 0000 0000 122d 82b8
00000040: 9c91 0a3a 2905 b837 78b8 2e3a c2f4 603a
00000050: 2858 6bb9 54d6 6cba e4d5 ab36 9629 aeb9
00000060: 0000 0000 f7e1 3fba 2bda a23a 3b7f a63a
00000070: be58 cb3a cc0c 84b9 b520 d9b7 0e72 a7b7
00000080: fa4f 07b9 339a d8ba 908d ca37 9a4a 80b8
00000090: 87b0 2f3a 2fb9 2239 c422 17b9 9884 383a
000000a0: 79de be3a 46c5 d0b9 c821 3dba 3314 a339
000000b0: ab8e ae39 7bd2 2c39 1134 0cbb 9328 02b9
000000c0: 9165 9bba 5975 86b8 ab6c d139 4388 8eba
000000d0: 6664 a4ba 5bcd 383a 13c5 cc36 ff63 9038
000000e0: 7727 bf36 fa41 0a3a 80d0 493a 2f05 28b9
000000f0: 30c5 a0ba a767 8e3a 87b2 a03a 5fec 6eba

exp_avg_sq f4 [64]
1.0213837e-05 2.8246566e-05 0.0003457963 2.953909e-07 0.0 1.0212125e-06 6.9157075e-05 5.7271845e-09
7.373634e-05 0.0 3.245292e-05 4.4239314e-08 5.0885574e-06 0.0 0.0 2.3996001e-06
4.128477e-05 6.5286263e-06 3.0514802e-05 5.758728e-05 5.556073e-05 6.4202054e-06 1.1289494e-08 4.109907e-05
0.0 0.00013821606 5.656447e-05 5.6124063e-05 7.496256e-05 6.038596e-06 2.6195092e-08 1.1898426e-05
8.097317e-06 5.3748496e-05 1.6230899e-05 3.156731e-05 2.4523775e-05 1.1220984e-05 2.5638096e-06 3.870764e-05
8.652767e-05 8.1761216e-05 7.447181e-05 1.8933702e-05 9.982558e-06 6.247649e-06 8.586496e-05 3.913677e-06
0.00042818004 3.8277463e-05 8.072611e-06 8.2227925e-06 1.3391384e-05 5.2032912e-05 1.1001276e-06 1.9231242e-05
4.6944124e-06 8.370838e-06 0.00010491247 8.150036e-06 1.5409392e-05 0.00023489719 6.0829792e-05 0.00020629466
00000000: 195c 2b37 0af3 ec37 fe4b b539 3796 9e34
00000010: 0000 0000 9810 8935 6c08 9138 d9c8 c431
00000020: e5a2 9a38 0000 0000 0f1e 0838 a401 3e33
00000030: 60be aa36 0000 0000 0000 0000 d108 2136
00000040: 2f29 2d38 7910 db36 0afa ff37 df89 7138
00000050: e109 6938 256d d736 b8f3 4132 ca61 2c38
00000060: 0000 0000 17ee 1039 a33f 6d38 c166 6b38
00000070: 3835 9d38 259f ca36 9e03 e132 5a9f 4737
00000080: b6d9 0737 0270 6138 9727 8837 2467 0438
00000090: 68b8 cd37 c241 3c37 ea0d 2c36 035a 2238
000000a0: 3076 b538 3877 ab38 c02d 9c38 d1d3 9e37
000000b0: c37a 2737 e5a2 d136 6612 b438 3b52 8336
000000c0: 5a7d e039 1d8c 2038 9a6f 0737 a0f4 0937
000000d0: 8eab 6037 ea3d 5a38 19a8 9335 c752 a137
000000e0: b284 9d36 7a70 0c37 7404 dc38 23bc 0837
000000f0: 6b43 8137 bc4e 7639 7e23 7f38 cd50 5839
